assignment-5/models/best_model_45.4.pth (torch, 110560 bytes, 8 tensors)

conv1.weight f4 [4, 4, 8, 8]
-0.029634498 0.06884492 -0.1791048 0.025717719 -0.25267774 0.17619133 0.016579717 0.035230603
-0.10097679 -0.12546033 -0.083360456 0.07839167 -0.045073316 0.10154502 -0.24176398 -0.090202965
-0.13077882 -0.007747962 -0.2514232 -0.005688315 -0.090077855 0.26594135 -0.1907679 0.1485961
0.20431252 0.060284715 -0.068368904 -0.18653397 -0.14315791 0.034896534 -0.28127804 -0.21707761
-0.06274838 -0.1165745 -0.09934773 -0.017494498 0.035353694 0.04492788 -0.13402244 -0.3658068
-0.029514378 0.010800418 -0.10588197 -0.12421382 -0.23730528 -0.08602607 -0.35117936 -0.13304001
0.16361332 -0.12683882 0.027897649 0.17435353 -0.1793495 0.047425658 -0.03103162 -0.22998148
0.1274651 0.10649726 -0.014281666 0.18104558 -0.0925172 -0.014128345 -0.11681956 -0.17975079
0.010161591 0.025205923 0.11930815 0.35061777 0.08019985 0.010197059 0.048340607 0.0481716
-0.019219555 0.32888925 -0.093160786 0.20826611 0.45319983 -0.20593104 -0.05193528 -0.02542812
0.022054452 0.099414736 -0.35084447 0.47764924 0.030543458 -0.0615688 0.28513864 0.03933226
0.18150783 0.115645245 -0.007815092 0.060658623 -0.00040592032 -0.14329961 0.4023994 0.100961305
0.07516639 0.054981682 0.045279905 0.05353776 0.35012805 0.048935775 -0.13782236 -0.5117796
0.15135978 -0.0009168036 0.013507911 -0.12508158 -0.04326884 0.16306926 -0.10144544 -0.3167324
0.099077545 0.100660086 0.12475349 0.33432963 0.12244719 0.3082317 -0.16396426 -0.36592707
0.012822832 0.00035690615 0.14917156 -0.0048318417 0.10265526 -0.0012947173 -0.08139368 -0.55054146
-0.38330805 -0.3962997 0.20681767 -0.28909567 -0.3055384 -0.0431641 0.22111666 -0.2911059
0.10817358 0.2703233 -0.03916958 0.36094338 0.009292769 0.17672358 0.3023493 -0.16074188
0.27515444 0.606202 0.10664306 0.5767238 0.30882263 0.37579656 0.45756802 0.26656732
0.4467452 0.25192615 0.26255524 0.13575897 0.24076802 0.68650204 0.40009975 0.14237224
0.479141 0.20850751 0.24857128 0.3295426 0.6713891 0.26904827 0.1085636 0.16674502
-0.10695994 0.057332832 0.24404827 0.25728658 0.34079835 0.48785663 0.024016526 0.21398678
0.033737466 -0.12519352 0.20221876 0.12286979 0.059055824 0.07668669 -0.120933376 -0.08948947
-0.14286844 -0.35996062 0.14318793 0.022969304 0.09647836 -0.21703178 0.0029661765 -0.13342343
-0.16519581 -0.5528197 -0.3304363 -0.22842477 -0.50683945 -0.17012882 0.22741686 -0.16068102
-0.19953354 -0.37108928 -1.2840791 -0.4074798 -0.5580207 -0.83493614 0.1037983 0.16184542
-0.27056208 -0.35900706 -0.7068483 -0.19704646 -0.44327468 -0.62757033 -0.05084294 0.6604754
-0.20019808 -0.42412698 -0.7627741 -0.17666729 -0.49311882 -0.30233485 -0.30764547 0.3338609
0.23069082 0.15314533 -0.00083224627 0.047970317 -0.13200836 0.4177614 -0.015469408 0.4575898
-0.24331771 0.20109357 0.024304697 0.0933037 0.27504098 0.61701834 0.10774459 0.36009565
0.08308358 -0.04594704 -0.018667912 0.37774068 0.6060495 0.5948686 0.23642382 0.21542187
0.09169508 -0.12701736 -0.28999382 -0.057688344 0.17683017 0.62455946 0.28121448 0.5708407
00000000: 0cc4 f2bc 91fe 8c3d 4067 37be f7ad d23c
00000010: fa5e 81be 806b 343e 30d2 873c f74d 103d
00000020: ebcc cebd ac78 00be e3b8 aabd d08b a03d
00000030: cc9e 38bd d6f6 cf3d fa90 77be 55bc b8bd
00000040: e2ea 05be 9ee2 fdbb 8bba 80be 0b65 babb
00000050: bd7a b8bd 7729 883e a958 43be 9329 183e
00000060: 4d37 513e 1bed 763d ff04 8cbd c302 3fbe
00000070: fd97 12be abef 0e3d ad03 90be 9849 5ebe
00000080: 3982 80bd 9dbe eebd d376 cbbd 9f50 8fbc
00000090: 09cf 103d 4c06 383d 2e3d 09be 074b bbbe
000000a0: 23c8 f1bc 3df4 303c a5d8 d8bd d163 febd
000000b0: 2800 73be 702e b0bd c8cd b3be a43b 08be
000000c0: 408a 273e 09e2 01be 9c89 e43c bb89 323e
000000d0: 65a7 37be 6841 423d 0636 febc 4480 6bbe
000000e0: 3686 023e 3c1b da3d a6fd 69bc 0364 393e
000000f0: a879 bdbd 937a 67bc 183f efbd 9710 38be
00000100: cd7c 263c a77c ce3c d557 f43d 2c84 b33e
00000110: d23f a43d 9111 273c cd00 463d 954f 453d
00000120: 5472 9dbc 2c64 a83e 15cb bebd b643 553e
00000130: cf09 e83e 96df 52be 17ba 54bd a24e d0bc
00000140: 8aab b43c f499 cb3d e3a1 b3be 718e f43e
00000150: 4636 fa3c 912f 7cbd b1fd 913e dd1a 213d
00000160: 30dd 393e 6ad7 ec3d df0a 00bc 2d75 783d
00000170: b4d1 d4b9 22bd 12be 4b07 ce3e cdc4 ce3d
00000180: d6f0 993d 7934 613d 6c77 393d 694a 5b3d
00000190: fc43 b33e e170 483d 4e21 0dbe fd03 03bf
000001a0: 0ffe 1a3e a655 70ba 4950 5d3c 6315 00be
000001b0: ab3a 31bd a1fb 263e a0c2 cfbd c02a a2be
000001c0: 2be9 ca3d e026 ce3d c27e ff3d 412d ab3e
000001d0: 98c5 fa3d 8cd0 9d3e 3fe6 27be cb5a bbbe
000001e0: db16 523c 221f bb39 6ec0 183e 6d54 9ebb
000001f0: ec3c d23d 81b3 a9ba bbb1 a6bd 49f0 0cbf
00000200: f440 c4be cbe7 cabe 03c8 533e 5904 94be
00000210: 876f 9cbe d7cc 30bd 686c 623e d50b 95be
00000220: 1c8a dd3d d167 8a3e 4870 20bd 92cd b83e
00000230: b340 183c 07f7 343e 87cd 9a3e 8599 24be
00000240: 0be1 8c3e 0e30 1b3f ad67 da3d 2ca4 133f
00000250: 001e 9e3e 6868 c03e 5b46 ea3e 837b 883e
00000260: c9bb e43e 77fc 803e a46d 863e 6604 0b3e
00000270: e48b 763e 99be 2f3f e0d9 cc3e 07ca 113e
00000280: f851 f53e fe82 553e 7889 7e3e cfb9 a83e
00000290: 28e0 2b3f b2c0 893e 9856 de3d 35bf 2a3e
000002a0: d00d dbbd d5d5 6a3d cae7 793e 11bb 833e
000002b0: 1f7d ae3e 58c8 f93e 4ebe c43c 5a1f 5b3e
000002c0: 4c30 0a3d bb32 00be 6f12 4f3e 28a3 fb3d
000002d0: 85e4 713d e90d 9d3d ebab f7bd 4146 b7bd
000002e0: 1b4c 12be c24c b8be db9f 123e 1f2a bc3c
000002f0: 7296 c53d 943d 5ebe 2f64 423b 27a0 08be
00000300: 1729 29be 9885 0dbf f22e a9be 2fe8 69be
00000310: 3bc0 01bf 4036 2ebe f7df 683e 9189 24be
00000320: 8552 4cbe 6aff bdbe b45c a4bf 31a1 d0be
00000330: 72da 0ebf 60be 55bf 3494 d43d ceba 253e
00000340: 1d87 8abe c6cf b7be 03f4 34bf 8cc6 49be
00000350: e6f4 e2be 73a8 20bf b040 50bd ea14 293f
00000360: ba00 4dbe 2c27 d9be 2a45 43bf 45e8 34be
00000370: 127a fcbe a2cb 9abe b583 9dbe d1ef aa3e
00000380: 373a 6c3e 21d2 1c3e 1a2b 5aba 867c 443d
00000390: 332d 07be d2e4 d53e 6673 7dbc 3649 ea3e
000003a0: 4728 79be 79eb 4d3e a51a c73c 0316 bf3d
000003b0: 2cd2 8c3e eaf4 1d3f 32a9 dc3d 755e b83e
000003c0: b927 aa3d f732 3cbd 73ed 98bc 3a67 c13e
000003d0: 0f26 1b3f 4f49 183f 1619 723e 8d97 5c3e
000003e0: a1ca bb3d d710 02be 127a 94be 9d4a 6cbd
000003f0: f812 353e 21e3 1f3f 58fb 8f3e 9e22 123f

conv1.bias f4 [4]
-0.06182996 -0.086373955 -0.22327779 -0.15171473
00000000: 6a41 7dbd d4e4 b0bd efa2 64be 1b5b 1bbe

conv2.weight f4 [8, 4, 4, 4]
0.28653005 0.20273471 -0.4572579 -0.5500658 0.13273717 0.12820274 -0.4124552 -1.5373917
-0.114950866 -0.10404166 -0.18728545 -0.8777767 -0.14771523 -0.106173754 0.08304871 -0.12921628
0.30353752 0.4009369 -0.5929593 -0.15444863 -0.10657403 0.5374719 -0.81297064 0.21672918
-0.54588985 0.2929102 -0.31532192 0.5084166 -0.5153556 -0.012880146 0.059614003 0.20843129
-0.28994146 -0.18330131 0.36416975 0.24216206 -0.1185127 -0.27782816 0.42486 0.9985167
0.46961454 -0.29573452 0.24564038 1.0541221 0.35571545 0.113993734 0.23057577 0.34554484
0.40036222 0.0436523 -0.05890617 -0.037511718 0.5286863 0.020669578 -0.2087818 -0.42067313
-0.027426813 -0.059147555 0.07917155 -0.30760556 0.10573025 0.0059052026 0.21628498 0.012433223
-0.30686757 -0.5721827 0.0326138 -0.1982641 0.3080418 0.062323734 -0.24212705 -1.1383939
0.15615192 0.13604198 -0.62120354 -0.45026731 -0.011626967 -0.32362616 -0.23280935 -0.042598497
0.03970555 0.07779437 -0.46373522 0.027976053 0.2222175 0.2714699 0.20258975 0.12014703
-0.6011901 0.12229887 0.07220313 0.001136516 -0.8036753 -1.0838642 0.061810523 0.052447077
0.020828364 0.09864844 -0.1241736 0.24620473 -0.29961997 -1.045126 -0.08525926 0.29243284
-0.19851 -0.73357654 0.00013490536 -0.721348 0.42257348 -0.5199717 -0.045431618 -0.0034790651
0.15969299 0.27879986 -0.09084975 -0.22914298 0.31622446 0.33305153 -0.25676063 -0.11056027
0.16510512 -0.043155555 0.4026392 0.04029466 -0.1386816 -0.057356972 0.32116553 -0.48273802
-0.20740412 -0.11467947 -0.11112525 -0.17405087 -0.36364773 -0.055084035 -0.63426447 -0.04436237
0.10453243 0.044206325 -0.27850077 0.11541556 -0.2910783 -0.26500434 -0.31360784 0.101325795
-0.60739404 0.08636742 0.061451565 -0.040874656 -1.2487276 0.37494522 0.042018645 0.11152277
0.26023543 0.18526195 -0.033786427 0.33375946 0.44438338 0.056931123 0.18663172 0.502999
-0.11653401 -0.05884594 -0.27781016 0.58304924 -0.25523058 -0.04239847 0.35590756 -0.0006044265
-0.716061 -0.302044 0.45245376 -0.092777275 -0.44344807 -0.05454702 -0.068518214 -0.7696357
-0.08917656 0.25130987 0.03766893 0.041575883 -0.3620172 -1.3976412 0.12087154 -0.3031161
0.04950512 -0.5680506 0.16775508 -0.021589315 -0.10603281 0.16553006 0.44639492 0.06933488
-0.07993105 -0.453689 -0.45299637 -0.22405092 -0.11048239 -0.24342722 -0.049981873 -0.12429508
0.11543009 -0.03157167 0.050408017 -0.18827087 0.2714876 0.0018208395 -0.04017831 0.015884532
-0.6554147 -0.15757497 0.6526262 0.107159324 -0.03351351 0.18882301 0.27659076 0.2450678
0.32332182 0.2853448 0.02578831 0.49879172 0.40451062 0.06341094 -0.22624193 -0.09852372
-0.75276285 0.36579242 -0.096619606 0.08766178 -1.0458745 0.5832998 0.11689927 0.30716842
-0.023605056 0.4279371 -0.44187468 -1.0246757 0.0036145821 0.28593785 -0.41107506 0.117475614
0.06792898 -0.2030242 -0.23132452 -0.18545634 0.07023375 -0.17805077 0.15264453 -0.28258193
0.053899996 -0.1980859 0.033877816 0.46144626 0.09293252 0.21904707 0.43759462 0.44298068
00000000: 11b4 923e b099 4f3e b51d eabe 1dd1 0cbf
00000010: 41ec 073e 9447 033e 542d d3be 40c9 c4bf
00000020: 5c6b ebbd cb13 d5bd c2c7 3fbe f9b5 60bf
00000030: a942 17be a071 d9bd 7115 aa3d 4651 04be
00000040: 4569 9b3e 9a47 cd3e 2ecc 17bf c827 1ebe
00000050: 7c43 dabd c297 093f d81e 50bf 41ee 5d3e
00000060: 70bf 0bbf 53f8 953e e071 a1be 9727 023f
00000070: 58ee 03bf 3f07 53bc d02d 743d 036f 553e
00000080: 3573 94be 57b3 3bbe 7574 ba3e 55f9 773e
00000090: c9b6 f2bd 7e3f 8ebe 4087 d93e ca9e 7f3f
000000a0: 5171 f03e 846a 97be 2789 7b3e 79ed 863f
000000b0: 5620 b63e 8c75 e93d 0e1c 6c3e 41eb b03e
000000c0: 47fc cc3e c1cc 323d 9947 71bd e3a5 19bd
000000d0: fc57 073f 3f53 a93c e5ca 55be 7862 d7be
000000e0: 32ae e0bc b544 72bd b224 a23d 7a7e 9dbe
000000f0: 1a89 d83d 6e80 c13b cf79 5d3e b8b4 4b3c
00000100: bf1d 9dbe 917a 12bf 0c96 053d bf05 4bbe
00000110: a8b7 9d3e 2c47 7f3d 27f0 77be e4b6 91bf
00000120: 4ae6 1f3e 974e 0b3e 3207 1fbf 7089 e6be
00000130: 097f 3ebc 54b2 a5be 9365 6ebe c37b 2ebd
00000140: 49a2 223d a852 9f3d b46e edbe 092e e53c
00000150: fc8c 633e 1afe 8a3e b073 4f3e a50f f63d
00000160: 98e7 19bf d477 fa3d 3cdf 933d 26f7 943a
00000170: aabd 4dbf 10bc 8abf 082d 7d3d bfd2 563d
00000180: 3fa0 aa3c 3108 ca3d ba4e febd 181d 7c3e
00000190: ca67 99be b0c6 85bf 689c aebd c2b9 953e
000001a0: 3546 4bbe accb 3bbf 6275 0d39 43aa 38bf
000001b0: 8d5b d83e de1c 05bf 8116 3abd 0701 64bb
000001c0: 8f86 233e dbbe 8e3e 6f0f babd 75a4 6abe
000001d0: 2ce8 a13e bb85 aa3e 2176 83be 6c6d e2bd
000001e0: 5111 293e e1c3 30bd ba26 ce3e 030c 253d
000001f0: 8d02 0ebe 25ef 6abd cf6f a43e 7029 f7be
00000200: bf61 54be 12dd eabd a395 e3bd 643a 32be
00000210: 0930 babe cc9f 61bd 285f 22bf 51b5 35bd
00000220: 1915 d63d b111 353d a797 8ebe fe5e ec3d
00000230: 3708 95be a6ae 87be 3591 a0be e683 cf3d
00000240: 2d7e 1bbf 67e1 b03d a3b4 7b3d 2f6c 27bd
00000250: 4ed6 9fbf d2f8 bf3e be1b 2c3d 0d66 e43d
00000260: 943d 853e 4fb5 3d3e a363 0abd 85e2 aa3e
00000270: 3886 e33e 9c30 693d 631c 3f3e 8bc4 003f
00000280: 62a9 eebd 7108 71bd 223d 8ebe b742 153f
00000290: 95ad 82be 05aa 2dbd 8439 b63e 6072 1eba
000002a0: c64f 37bf 83a5 9abe 05a8 e73e 0302 bebd
000002b0: a00b e3be b26c 5fbd 4753 8cbd d806 45bf
000002c0: 33a2 b6bd b0ab 803e bc4a 1a3d 794b 2a3d
000002d0: 525a b9be e8e5 b2bf 7f8b f73d 0932 9bbe
000002e0: e1c5 4a3d c46b 11bf fdc7 2b3e 13dc b0bc
000002f0: bb27 d9bd b680 293e e08d e43e 72ff 8d3d
00000300: e4b2 a3bd ed49 e8be 24ef e7be 9b6d 65be
00000310: 9744 e2bd fc44 79be cbb9 4cbd 6b8e febd
00000320: 9c66 ec3d 4c51 01bd a378 4e3d 14ca 40be
00000330: 6c00 8b3e 3ca9 ee3a 0392 24bd 4720 823c
00000340: 42c9 27bf 555b 21be 8312 273f 5976 db3d
00000350: 7645 09bd d25a 413e 4e9d 8d3e 0ef3 7a3e
00000360: 708a a53e b718 923e 0242 d33c a161 ff3e
00000370: 041c cf3e 98dd 813d f7ab 67be cec6 c9bd
00000380: 11b5 40bf 2549 bb3e 80e0 c5bd 0588 b33d
00000390: 37df 85bf 2353 153f e268 ef3d 2e45 9d3e
000003a0: 645f c1bc 921a db3e 663d e2be 9328 83bf
000003b0: a0e2 6c3b 7266 923e 6e78 d2be 0e97 f03d
000003c0: 591e 8b3d 93e5 4fbe 56e0 6cbe 44e8 3dbe
000003d0: b6d6 8f3d f152 36be d94e 1c3e 94ae 90be
000003e0: 3ec6 5c3d 08d7 4abe 77c3 0a3d af42 ec3e
000003f0: 6853 be3d e04d 603e 670c e03e 5dce e23e

conv2.bias f4 [8]
-0.15440316 0.14898483 -0.027299795 0.0022956452 -0.3150795 0.079174675 -0.01960605 0.19933304
00000000: dd1b 1ebe 7b8f 183e d2a3 dfbc 8972 163b
00000010: 1a52 a1be 5526 a23d de9c a0bc f61d 4c3e

fc1.weight f4 [64, 392]
0.23546849 -0.68905723 -0.48606306 -0.26206005 -0.11736326 -0.21079516 -0.42999032 0.20223795
-0.27529725 -0.25401527 0.01871942 -0.12273164 -0.19439238 -0.05682644 -0.23843358 0.05460554
0.33690274 0.18779133 -0.056367695 -0.3350172 0.2825327 -0.41848308 -0.7829082 0.21101597
-0.001475856 0.1481432 -0.081454776 0.20540965 0.1814687 -0.68163705 0.16282398 -1.5832497
-1.5140518 -0.45452073 -0.2867782 -0.15078828 -0.031952918 -0.33736017 0.47576952 0.56778264
-0.08735285 -0.03670023 -0.06568573 0.18038388 0.544977 -0.49999338 0.11291853 -1.0009221
0.16000459 0.47549933 0.10402608 0.035311267 -0.19999598 -0.0657895 -0.12001685 -0.07393118
0.08174326 0.08841722 0.018743306 0.24329972 -0.47498128 0.09069269 0.51712185 0.0457749
0.24275254 0.6470706 -0.26834163 -0.06691713 -0.2568157 -0.3661941 -0.36903456 -0.3450886
0.59299886 0.26370323 0.119145855 -0.092985146 -0.28217304 0.019391121 -0.20311092 0.06348519
0.32393846 0.33520994 -0.32261127 -0.37037393 -0.27935043 -0.13341388 0.18122764 0.021623604
-0.17369075 -0.06293879 0.01723302 -0.12021687 -0.054552123 0.0425534 0.05720392 0.23055302
0.29943272 -0.10528859 0.01253973 0.15535131 -0.11923257 -0.06875607 0.6002307 0.10820736
-0.4089315 -0.7561209 -0.22824447 0.0029937422 0.71362764 0.004449965 -0.060008995 -0.20590758
-0.02863088 -0.38912567 0.6629043 0.4438768 0.11100047 -0.11627077 0.5561148 0.2038688
-0.4582502 1.7869815 -0.0061090156 -0.07792171 -0.28081998 -0.025670493 0.24043827 -0.1706761
-0.81243306 -0.23198532 0.2634638 -0.16853422 0.4484862 0.33919063 0.023907373 -0.060242914
-0.47369543 -0.11087081 -0.13486369 -0.3370099 0.17570238 -0.31520453 -0.22079508 -0.023522938
0.38130042 0.03822115 -0.45532218 0.19140431 -0.22057952 0.11764002 -0.46035337 0.34792134
-0.15537933 -0.015367374 -0.3308172 -0.09172018 -0.31000602 0.049961094 0.18155795 0.23386818
0.121415816 -0.33909082 -0.8011655 -1.1825547 -0.4151157 0.039820258 0.6616498 -0.49293435
0.14637192 -2.3857758 -0.58241016 -0.2678581 -0.011359841 -0.364674 -0.14597277 0.36441275
-0.24096802 0.37795472 0.20581625 0.39949667 0.0346704 -0.06648425 0.27412605 0.32169852
0.20896755 -0.012170531 -0.13898715 0.1682089 0.12403591 -0.11435305 -0.47530293 0.27304766
0.2419001 0.018965714 0.42515644 -0.52342266 0.08165912 -0.10979908 -0.2225325 -0.45027962
0.05148607 -0.3988223 -0.6300053 -0.19566815 -0.28253183 0.2875233 0.3844668 -0.005951205
-0.5137558 -0.19736868 -0.128681 -0.022165727 -0.08480803 0.24951632 0.30422848 -0.06371502
-0.34489977 -0.67329174 -0.49211317 -0.24640644 -0.5884855 -0.035860654 0.11349403 0.07589377
-0.14346845 0.032643713 0.20340745 0.25786987 -0.07445115 -0.10857503 -0.008920902 -0.10617718
-0.82263374 0.4292751 0.21247351 0.040305827 -0.08981117 0.24064383 0.17897625 -0.88344306
-0.6009383 -0.38226545 -0.10193419 0.098896645 0.044739645 -0.040275965 -0.3628477 -0.23033385
-0.06174488 -0.2009129 0.084692426 0.3055636 -0.29640546 -0.21228355 -0.6131918 -0.35393697
00000000: a71e 713e 0e66 30bf 42dd f8be bc2c 86be
00000010: 265c f0bd b0da 57be b127 dcbe 7717 4f3e
00000020: c3f3 8cbe 4a0e 82be 7859 993c ba5a fbbd
00000030: cc0e 47be d7c2 68bd ef27 74be 0faa 5f3d
00000040: 847e ac3e 5f4c 403e d0e1 66bd 6087 abbe
00000050: 20a8 903e 6a43 d6be ac6c 48bf 9214 583e
00000060: 8371 c1ba dab2 173e c3d1 a6bd e856 523e
00000070: eed2 393e c47f 2ebf 54bb 263e eda7 cabf
00000080: 73cc c1bf f1b6 e8be 98d4 92be 3e68 1abe
00000090: 10e1 02bd 79ba acbe 1098 f33e 345a 113f
000000a0: 0de6 b2bd fb52 16bd 3d86 86bd 8db6 383e
000000b0: 9d83 0b3f 22ff ffbe d541 e73d 371e 80bf
000000c0: 3ed8 233e a674 f33e a00b d53d 8ca2 103d
000000d0: bfcb 4cbe a5bc 86bd 65cb f5bd 3b69 97bd
000000e0: 0369 a73d 1614 b53d 908b 993c 9023 793e
000000f0: bf30 f3be 17bd b93d 1962 043f 767e 3b3d
00000100: 1f94 783e 6ba6 253f 1364 89be d90b 89bd
00000110: 597d 83be cb7d bbbe 19f2 bcbe 74af b0be
00000120: c6ce 173f 1c04 873e be02 f43d ff6e bebd
00000130: fc78 90be 21da 9e3c 4ffc 4fbe 8604 823d
00000140: 43db a53e a3a0 ab3e 4e2d a5be a7a1 bdbe
00000150: 0507 8fbe a69d 08be bd93 393e fc23 b13c
00000160: fddb 31be 0de6 80bd 432c 8d3c 4334 f6bd
00000170: 0c72 5fbd 794c 2e3d a84e 6a3d 1716 6c3e
00000180: 3f4f 993e 8ba1 d7bd 7173 4d3c 6a14 1f3e
00000190: 3530 f4bd fccf 8cbd b8a8 193f d29b dd3d
000001a0: 785f d1be 2491 41bf ebb8 69be a932 443b
000001b0: 4db0 363f 03d1 913b fecb 75bd 70d9 52be
000001c0: 4f8b eabc 7b3b c7be 19b4 293f d243 e33e
000001d0: 3754 e33d 5f1f eebd 8a5d 0e3f fcc2 503e
000001e0: c59f eabe cfbb e43f 232e c8bb 6b95 9fbd
000001f0: a3c7 8fbe ed4a d2bc 7335 763e b7c5 2ebe
00000200: 9dfb 4fbf 8f8d 6dbe bae4 863e 3c94 2cbe
00000210: fc9f e53e 65aa ad3e 65d9 c33c 46c1 76bd
00000220: 3588 f2be 3c10 e3bd b519 0abe 908c acbe
00000230: 53eb 333e 7d62 a1be 1b18 62be 2db3 c0bc
00000240: cf39 c33e c88d 1c3d fd1f e9be 7eff 433e
00000250: 99df 61be 40ed f03d 70b3 ebbe bf22 b23e
00000260: c21b 1fbe 70c7 7bbc df60 a9be cad7 bbbd
00000270: 1cb9 9ebe 01a4 4c3d 54ea 393e 247b 6f3e
00000280: dba8 f83d 509d adbe 2f19 4dbf f45d 97bf
00000290: 0c8a d4be 911a 233d e261 293f e461 fcbe
000002a0: 85e2 153e 8db0 18c0 d518 15bf b224 89be
000002b0: a01e 3abc 8db6 babe e379 15be 4f94 ba3e
000002c0: 52c0 76be 4883 c13e 7fc1 523e d48a cc3e
000002d0: 8d02 0e3d e528 88bd 405a 8c3e abb5 a43e
000002e0: 97fb 553e e866 47bc a652 0ebe f43e 2c3e
000002f0: 8a06 fe3d ef31 eabd e85a f3be e7cc 8b3e
00000300: a9b4 773e fc5d 9b3c 1bae d93e 07ff 05bf
00000310: e63c a73d 57de e0bd 8fdf 63be 0d8b e6be
00000320: 0fe3 523d 7032 ccbe 0748 21bf 3b5d 48be
00000330: 03a8 90be 4136 933e d5d8 c43e 5302 c3bb
00000340: 8085 03bf 041b 4abe f4c4 03be e694 b5bc
00000350: d5af adbd 3581 7f3e d6c3 9b3e 057d 82bd
00000360: b496 b0be d95c 2cbf 42f6 fbbe f851 7cbe
00000370: fca6 16bf 9fe2 12bd 8f6f e83d 316e 9b3d
00000380: 65e9 12be 6ab5 053d 0b4a 503e 8507 843e
00000390: d879 98bd 965c debd fa28 12bc 6c73 d9bd
000003a0: 2098 52bf f2c9 db3e a892 593e b917 253d
000003b0: ebee b7bd 566b 763e 8d45 373e 5329 62bf
000003c0: 18d7 19bf 4cb8 c3be dfc2 d0bd 538a ca3d
000003d0: eb40 373d 69f8 24bd 2cc7 b9be a3dc 6bbe
000003e0: 33e8 7cbd 1cbc 4dbe 3973 ad3d d572 9c3e
000003f0: 75c2 97be dc60 59be 23fa 1cbf 3a37 b5be

fc1.bias f4 [64]
0.10442394 0.37235722 0.13303472 -0.017077822 0.41368303 0.2649816 0.06362912 0.21061818
0.33000687 0.17275046 0.48532724 0.44794038 -0.09054243 0.33732316 0.32406613 0.04028545
0.18879437 0.61179507 0.014892551 0.5114888 0.43335515 0.19439448 0.30644485 -0.047257066
-0.08050701 0.12682723 -0.030330205 -0.10040677 -0.061390255 0.15022682 -0.18315887 0.17136832
0.25062817 0.2135526 -0.06526509 0.04383128 0.55250984 0.36969462 0.19926094 0.17247194
-0.074384786 0.4952544 0.19540696 0.6783046 0.19279866 0.3802239 0.12671116 0.2244777
0.4309708 0.1603919 0.45827463 0.19393802 0.61532974 0.14912517 0.27051193 0.33554447
-0.21165483 0.32912883 0.41151303 -0.08814432 0.036719624 0.13928035 0.20006022 0.5420107
00000000: 38dc d53d 9ba5 be3e 413a 083e cae6 8bbc
00000010: 43ce d33e abab 873e fc4f 823d 4bac 573e
00000020: a9f6 a83e 7fe5 303e d07c f83e 7158 e53e
00000030: 4f6e b9bd 9fb5 ac3e ffeb a53e 5b02 253d
00000040: 5053 413e 9a9e 1c3f e3ff 733c eef0 023f
00000050: bae0 dd3e 590f 473e 57e6 9c3e a090 41bd
00000060: dce0 a4bd ffde 013e 0d77 f8bc 11a2 cdbd
00000070: 5974 7bbd 0fd5 193e 008e 3bbe 2d7b 2f3e
00000080: 5652 803e 88ad 5a3e b4a9 85bd 6e88 333d
00000090: 4971 0d3f 9d48 bd3e 0f0b 4c3e 7c9c 303e
000000a0: 0d57 98bd fc91 fd3e c318 483e 5fa5 2d3f
000000b0: 036d 453e b5ac c23e 92c0 013e 7bdd 653e
000000c0: 34a8 dc3e c63d 243e f9a2 ea3e b097 463e
000000d0: 4086 1d3f 45b4 183e 8a80 8a3e 7ccc ab3e
000000e0: 0bbc 58be 9383 a83e d6b1 d23e 0285 b4bd
000000f0: 5167 163d 829f 0e3e 96dc 4c3e 37c1 0a3f

fc2.weight f4 [2, 64]
0.08588556 -0.102879874 -0.07657177 -0.18163612 -0.11003915 -0.08879166 0.042687833 -0.17667592
-0.06989882 0.033481065 -0.09830928 -0.062245864 0.026148085 -0.1071348 -0.12236471 -0.33690745
0.052646063 -0.04565382 -0.09919771 -0.01712057 -0.12799607 0.04557327 0.029215131 -0.14541225
-0.033314165 0.031177985 0.032120004 -0.061797272 -0.12031656 0.05945342 0.026985215 0.02913967
0.004995814 0.029560585 -0.014968366 -0.032939445 -0.07903314 -0.12705827 -0.16292606 -0.44224307
0.21470505 -0.047854945 0.021987878 -0.09087184 0.041039363 -0.09382273 0.05746162 0.0135098575
-0.09781181 0.029785777 -0.07948682 -0.13395308 -0.13220625 -0.01132487 -0.092721544 0.019820506
0.044672173 -0.0014891363 -0.10564614 0.031343456 0.024305392 0.045575798 0.026969507 -0.09075386
0.053386346 -0.048317995 -0.046309114 -0.10881417 -0.13280489 -0.04125209 0.04338622 -0.056413643
-0.07281934 0.06039022 -0.04826543 -0.031911325 0.07584272 -0.06325556 0.001415085 -0.05749148
-0.20655838 -0.09720258 0.023316488 -0.19813164 -0.091237746 0.09177328 0.04664871 -0.17764802
0.12080744 0.049567197 0.044315837 0.039114676 0.09489703 0.041373547 0.066315845 0.031908736
0.070636906 0.033042796 -0.07001467 -0.15748943 -0.04850388 -0.072784774 0.060675383 -0.014684758
-0.032077834 -0.062321402 0.04017709 -0.08512904 -0.177517 -0.040892705 0.053030584 0.04721401
-0.07065691 0.04700111 -0.09702513 -0.12062248 -0.12440183 -0.24751507 -0.048312172 -0.23323469
0.07568438 -0.22671932 -0.05980759 -0.22614577 0.038785003 0.04352204 0.03562061 -0.055436883
00000000: c5e4 af3d afb2 d2bd a9d1 9cbd d2fe 39be
00000010: 355c e1bd 67d8 b5bd 70d9 2e3d 88ea 34be
00000020: 1d27 8fbd 7123 093d 6056 c9bd 85f5 7ebd
00000030: 8234 d63c 7d69 dbbd 599a fabd 227f acbe
00000040: 66a3 573d 80ff 3abd 2b28 cbbd 7040 8cbc
00000050: 6711 03be 0aab 3a3d 9254 ef3c f3e6 14be
00000060: 6f74 08bd f968 ff3c 4490 033d 231f 7dbd
00000070: 8768 f6bd 6e85 733d 1910 dd3c 51b6 ee3c
00000080: edb3 a33b 0a29 f23c e13d 75bc 83eb 06bd
00000090: 20dc a1bd 901b 02be 17d6 26be af6d e2be
000000a0: a4db 5b3e 8c03 44bd ec1f b43c 041b babd
000000b0: e418 283d 2226 c0bd e05c 6b3d 7358 5d3c
000000c0: 8f51 c8bd 4d01 f43c fcc9 a2bd ff2a 09be
000000d0: 1361 07be f38b 39bc cbe4 bdbd 9d5e a23c
000000e0: 2bfa 363d 1f2f c3ba 015d d8bd ff61 003d
000000f0: 1a1c c73c b0ad 3a3d 28ef dc3c 29dd b9bd
00000100: a4ab 5a3d 17e9 45bd a0ae 3dbd f7d9 debd
00000110: 01fe 07be f4f7 28bd c0b5 313d fe11 67bd
00000120: 4e22 95bd bc5b 773d f9b1 45bd 73b5 02bd
00000130: 6e53 9b3d 228c 81bd 607a b93a 307c 6bbd
00000140: 0a84 53be 2512 c7bd 3802 bf3c 05e3 4abe
00000150: dbda babd a1f3 bb3d b812 3f3d 5de9 35be
00000160: e469 f73d f906 4b3d 8684 353d b636 203d
00000170: 6059 c23d 4f77 293d 9ad0 873d bcb2 023d
00000180: 15aa 903d e257 073d da63 8fbd e944 21be
00000190: 01ac 46bd 2f10 95bd c086 783d 5798 70bc
000001a0: 0c64 03bd ba44 7fbd bb90 243d 2258 aebd
000001b0: 04c7 35be 1c7f 27bd 9936 593d 7a63 413d
000001c0: 92b4 90bd 3c84 403d 1db5 c6bd eb08 f7bd
000001d0: 63c6 febd 9774 7dbe fce2 45bd 13d5 6ebe
000001e0: 6a00 9b3d 1c29 68be cef8 74bd c292 67be
000001f0: 06dd 1e3d 2b44 323d ebe6 113d c911 63bd

fc2.bias f4 [2]
0.95415336 0.47121027
00000000: 6543 743f 7942 f13e
