assignment-5/models/best_model_20.4.pth (torch, 110560 bytes, 8 tensors)

conv1.weight f4 [4, 4, 8, 8]
00000000: be5e b0bc dca1 6dbb f473 9bbc a584 7dbc
00000010: 19f7 23bd b209 463c e71d 713d 79a0 d1bd
00000020: 5022 d53c 1f17 693c ca25 9b3d 41dc dfbd
00000030: c833 8dbe fbd6 2b3e 9997 2f3d 6bae 903d
00000040: be23 b1bd 0e7b 113e 6bf0 863c e584 01bd
00000050: 7cda 04bd 3802 a03d 2a31 3f3e 366c 92bc
00000060: c1cb 2cbd 1d7d 9ebd a7f3 7dbe 00fb 63bd
00000070: cdcc 513e 5b29 3c3e 548d 083d 899e 95bc
00000080: 1d10 8ebd ede5 513d 933e 2bbe 1cf4 5d3e
00000090: a977 f83d d1c9 2c3e aa7d d93d 6fd8 3b3d
000000a0: ae83 14be 5263 11be 1a4d 1ebe 58e1 413c
000000b0: 1179 693b bc1a 463d f7e1 1c3c 3d78 0ebe
000000c0: 4f08 3a3d ccf7 23bd 7bba 55be 14ec c5bd
000000d0: 808a 47bd 0c86 383e 765d b73d 6a28 703e
000000e0: fc08 223e cff3 fc3d fc5e b73d e627 153e
000000f0: 2db3 a03e b427 7b3e b4fe 653e ade3 653e
00000100: a350 9dbd d2cb 44bd 0e5f 853b 926a dfbd
00000110: 25d9 bebd 9187 79bd 4c41 8fbd 1255 a7bd
00000120: 8aca aa3c 1953 88bd 8a5f 49be 54af 34bb
00000130: 662a 85be c2f5 dbbd 44ff 46be 6aea a9bd
00000140: fd07 9e3c 58fd 6dbc 8bfe 08be d039 5c3e
00000150: 1664 a8bd 0de2 3e3b 0dd0 d4bb 2bee 03bd
00000160: 753c b7be b8b7 acbe 0d77 07be e9ed 403e
00000170: a401 48bd e33e c83d edc4 0e3e f09e f0bc
00000180: 96d4 843d 6269 24be 1d5e 22be 1ebe eebd
00000190: 9551 f13d 367b 583c 330b 90bd db38 403d
000001a0: 1218 233e ec0c df3d 5019 0cbd fdd0 a8bb
000001b0: 41d5 6c3e ba99 ba3d 580a 523e 7974 f3bb
000001c0: e64d d93b 5b56 803d 8b42 3bbc 1e1f 09be
000001d0: 699e 38bd 6738 243e 3e73 0d3e 98ff f9bb
000001e0: 88af 233d 6d25 823d 057e 923b 0913 2abd
000001f0: c4b5 d13d 4b43 293e 48c5 5d3d 1f87 0dbe
00000200: ba5a c93d b7b9 383d 0063 b4bd 6f06 b3bd
00000210: 9d6e c73d c432 6e3d 950e cd3d 668a 83bc
00000220: f040 04be ef30 bebd 0b40 cfbd 7cf7 59be
00000230: 1228 2bbe 9a32 19bd 79d8 e5bd a785 aebd
00000240: b2cb 233d 305c 38be 59d8 14bf b1cb bdbd
00000250: 6330 5fbd 46ae efbc ad11 4dbc bb20 dc3c
00000260: f428 b23e d500 da3c 293d e1be 9507 6abd
00000270: 768e 7b3e 2a05 39be c237 0f3d fb17 2b3e
00000280: c052 a53e d1e4 cabb 168c 91be bbba 13be
00000290: 4b13 c7bc d75b c039 2d82 603d 67f8 37be
000002a0: ced6 d53d 982e 883e b06a 283e b5d3 253e
000002b0: ca42 c93d 560b 083e ceec c53d bb37 7bbe
000002c0: 6f46 92bd 838f 8cbe 6ddf 94bc 9570 03be
000002d0: 9200 7a3d e8e4 173d e888 113e b528 8cbd
000002e0: 6370 033e dbf5 dfbd a2e0 02bd 117d 6ebe
000002f0: bb0e 333c a77b 883d 1b6c c9bd 10b2 8ebd
00000300: bc2a 9a3e c069 1f3f f4ff 963e decd cc3d
00000310: 88cc 833e 7874 a13e ac16 2e3d b83d 523e
00000320: 5c21 cabe 7946 84be ab8d 86be e68f 9fbd
00000330: 6d6b 6e3d e6fb 2a3e 4adb 89bc 6042 98ba
00000340: c466 6abe 487d 50be f6db a7be 16ed 80bd
00000350: d744 ad3d 46b5 333d 1e88 bfbe c34e a33d
00000360: 8823 d4be 6b31 a6bd 7485 3ebf 1796 0fbe
00000370: 998e 293e 3ce0 10bd 1623 a1be c9b6 dabd
00000380: d8b0 4dbc a05d 88bd dd39 1dbf e9db 8ebe
00000390: 934d 173e 3915 92bd 96b1 d1be 57d8 51be
000003a0: cc83 7b3e 0547 3d3e 0630 56be 8821 42be
000003b0: 0c29 08bd 6027 96be feff 413e 703b a2be
000003c0: 1781 693d 3879 a33c 8f27 dbbd d6e8 37be
000003d0: 356d b5bd 911e 13be 5781 acbe 34f9 9dbc
000003e0: 68a3 713e 6009 b33d 571c 5bbd 3796 43be
000003f0: 1e1f febd 25af 2f3e f7aa 413e a735 c53d
-0.021529552 -0.0036259806 -0.01897619 -0.015473519 -0.040030573 0.0120872725 0.058866408 -0.10235686
0.026017338 0.014226704 0.07575567 -0.10930682 -0.27578568 0.16781227 0.042869184 0.070645176
-0.086493954 0.14207098 0.016472062 -0.03162088 -0.032434925 0.07812923 0.18671098 -0.017873865
-0.042186502 -0.07738707 -0.24799977 -0.055659294 0.20488282 0.18375151 0.033337906 -0.018264072
-0.06936667 0.051244665 -0.16723089 0.21675152 0.12132198 0.16873862 0.10619672 0.045860704
-0.14503357 -0.14198044 -0.154591 0.011833511 0.003562514 0.04836534 0.009575359 -0.13913055
0.04541808 -0.04003124 -0.20871918 -0.09664169 -0.04871607 0.18019885 0.08953373 0.23452917
0.1582374 0.1235119 0.08953664 0.14566001 0.313867 0.24526864 0.22460443 0.22450133
-0.07681396 -0.04804594 0.0040701693 -0.109089985 -0.09318761 -0.0609203 -0.06994876 -0.08170523
0.020848531 -0.066564746 -0.19665352 -0.0027570324 -0.2600891 -0.10740234 -0.19433314 -0.08296664
0.019290918 -0.014525734 -0.1337835 0.21506429 -0.08222215 0.0029126436 -0.006494528 -0.032209557
-0.35788313 -0.33733916 -0.13229008 0.18840756 -0.04882969 0.0977762 0.13942309 -0.029372662
0.0648586 -0.16055825 -0.15856214 -0.11657356 0.11783139 0.0132129695 -0.07033386 0.04692922
0.15927151 0.108911365 -0.034203827 -0.0051518665 0.23128225 0.09111352 0.20511758 -0.007429656
0.0066316007 0.06266471 -0.011429439 -0.13390777 -0.045072947 0.16037141 0.13813493 -0.007629346
0.03996232 0.06354795 0.004470589 -0.04152206 0.10239747 0.16529576 0.05414322 -0.13821076
0.09831758 0.045098986 -0.08807945 -0.087414615 0.09737895 0.058153883 0.10012547 -0.016057204
-0.12915397 -0.09286677 -0.10119637 -0.21285814 -0.16714504 -0.037401773 -0.112229295 -0.08521586
0.03998918 -0.18003917 -0.5814262 -0.09267367 -0.054489505 -0.029257905 -0.012516421 0.026871076
0.3479687 0.026611725 -0.43991974 -0.057136137 0.24566063 -0.18068376 0.034965284 0.16708367
0.32289696 -0.006191828 -0.2842719 -0.14426701 -0.024301192 0.0003668952 0.054811645 -0.17965852
0.10441361 0.26598048 0.16446948 0.16194041 0.09827192 0.13285574 0.096643075 -0.24532978
-0.071423404 -0.2745324 -0.018172944 -0.12835915 0.0610357 0.037083536 0.14212382 -0.06843702
0.12835841 -0.10935565 -0.031952508 -0.23289897 0.010928805 0.0666421 -0.098350726 -0.069675565
0.3011073 0.62270737 0.29492152 0.100002035 0.25741982 0.3153417 0.04250209 0.20531356
-0.39478576 -0.25835016 -0.2627996 -0.07791118 0.058207918 0.16697654 -0.016828198 -0.0011616461
-0.22890764 -0.20360291 -0.32785004 -0.062952206 0.08460396 0.043874048 -0.37408537 0.07974007
-0.41433358 -0.081148945 -0.74422383 -0.14022098 0.16558303 -0.035370097 -0.3147208 -0.10679395
-0.01255437 -0.066584826 -0.6141642 -0.27902153 0.14775686 -0.07132954 -0.409558 -0.20492683
0.24561995 0.18484123 -0.20916757 -0.18958104 -0.03324227 -0.29326916 0.1894531 -0.31685972
0.057007875 0.019955263 -0.107009046 -0.17959914 -0.0885872 -0.14367129 -0.33692428 -0.019283868
0.23597491 0.087420225 -0.053493824 -0.19100271 -0.12408279 0.17156656 0.18912874 0.09629374

conv1.bias f4 [4]
00000000: 726a 5abc af01 4f3d 8bb0 61bd c061 bbbb
-0.013331043 0.050538715 -0.055100005 -0.00571844

conv2.weight f4 [8, 4, 4, 4]
00000000: fc66 2c3d 7e07 1e3e cac3 14be bed4 253d
00000010: 8e58 52be 54f1 06bd 298c cc3d b450 843d
00000020: 7ba6 8bbe 57bb 8a3e 06d7 343d f9d4 5fbd
00000030: 6e6a a8bd f29d 003d 10a3 1fbe d3b0 f8bd
00000040: 5aac 65bd d083 a8be 01d9 e73d f9db 0cbe
00000050: 53ed edbd 530d c3bd 5cef ccbd f8a2 96be
00000060: 42b0 efbd 89e9 173e 9eac 4a3c 1c30 a3be
00000070: 1ca8 f23d 5260 9f3e 28be cebd 5195 13bf
00000080: 9a65 05bf ff7f 983d 3c23 c43d d5a5 e53d
00000090: e9cd 03be 92c6 4ebe bab2 663d 323c ba3d
000000a0: afcf 89be 0f46 80bc ccd4 86be cc59 17be
000000b0: 8ca2 0cbe 7bdf 413d 6f3a 46be 2cea 0fbd
000000c0: 3ea8 263e 26d7 46be 99be c9be fff6 a83e
000000d0: 1607 14be 4741 f03b 9d2c 0bbe 6765 4e3e
000000e0: 4f3d 9ebc 8c72 9bbe 556a f4be 93b9 c83d
000000f0: 1d8a 83be 8338 5cbe 5c1e 11bd e2be 063d
00000100: d4d9 b3bd 082d aebc b537 543e 7d77 103e
00000110: ac23 fbbb d49a dbbc eb48 f23e 7aa2 9ebc
00000120: dc2f 00bf 2881 8fbd 64b4 a23d 6233 da3d
00000130: 6ae5 ccbe 8e70 f6be 1c53 eb3d fe92 71bd
00000140: 1079 c73c 42f6 25be 0717 ccbd 96b7 7d3e
00000150: 6025 4cbe bf8d 28be 0549 2ebd a0d8 33be
00000160: b634 8b3c 901f 80be bba8 38be 5510 c83e
00000170: 2530 bd3c 10ef 22be de1a 09be 3367 0c3e
00000180: a0ad 84bd 66d6 543d 23fa f0ba b2f6 e83c
00000190: 4e68 eebd e61e 0fbd 0e49 4e3d 2a3c edbc
000001a0: 1804 923d 2102 18bf 50f0 c5be e422 fabd
000001b0: 178c e4be abd3 5c3c 0be3 d9be f4db 82be
000001c0: 1d5d 48bf 6fb4 663d face 5c3e b2e8 ef3e
000001d0: 2c19 ff3d 4916 6c3e dbdc 4a3e c9cc 8a3e
000001e0: fd1e 3cbe 46b8 eebd 971c c4bd f82b 8c3d
000001f0: 17d1 40be 41db 99be 1518 3cbe 34f3 133d
00000200: 8c27 4abe 1112 ad3d 8f1c 3ebe a86d 7b3b
00000210: 2fe5 e2bd 5986 02be 6aad 693c f667 19be
00000220: d604 5e3d 5f12 22be 952c ec3c c593 62be
00000230: 04df 433d 5966 5bbd da16 ce3d 61ae e3be
00000240: 7d41 e63c db9a b43c 15aa ed3d 52c4 fc3d
00000250: 0ca5 78bc 829a 23bd e7c7 743d 701d 063d
00000260: 61ae e53d c451 4e3d 61f1 da3d 0fc1 e2bd
00000270: 5c86 283d 5917 803c afa6 e83d c2db ecbd
00000280: 621a c5bd 36d5 25bd ee8e 48be 6f79 14be
00000290: c091 bbbd 16a9 61bd bac4 ed3c 3b94 81be
000002a0: edee 143d 5c5b c4bd 1607 3cbe ce4c 15be
000002b0: edba bdbc da8b 98be 2c1d 5ebe 5870 a4bd
000002c0: f888 c53d bafe 04be 759e 6fbe f6d3 15bd
000002d0: 5328 193e f620 25be c95f 60be 6993 a2be
000002e0: cbaa 0ebd e36e 213e 98eb 01be a486 633d
000002f0: 95c6 63bd 3713 1fbe 61a6 46be d5a5 83be
00000300: 8820 acbd 09ef d03a a278 70be 66bf 6a3e
00000310: e961 b9be 9287 a2bb d499 4ebc 7716 893e
00000320: bc4e 96be d3c7 fd3d 27da 9eba 3c7e 6b3d
00000330: 73d2 aabd 49a6 703e eaab 053e ffd6 e6bd
00000340: 4b99 72bd be19 033e 3101 21bd 2172 593e
00000350: 5233 e63d bc3e 63bd aead 02be d464 783d
00000360: d5c7 863d 50db 20bd 4367 243d 923e 8f3d
00000370: a889 2fbd c491 65bc b032 a73d 1e9f 12be
00000380: 9d21 aa3c 8c69 35be ec1c e3bc 7242 a8be
00000390: bf9c fcbe cbeb 063d 29db 783e a0ca a1bc
000003a0: 17c3 1ebe 50b1 86bd 80e8 413e 4041 173d
000003b0: d868 28be f875 6fbe a48e 84be e21c cc3c
000003c0: 0a8c b03c cccf c63e 766b d33d 20cd 8d3e
000003d0: 9cec febd a948 c13c 1a77 dd3e da99 133f
000003e0: 676f 1fbd 0f8b 2b3d d591 a93e cb76 ef3e
000003f0: d56d 5b3d 1791 633c e140 08be e804 8d3c
0.0420904 0.15432546 -0.14527813 0.04048609 -0.20541593 -0.032944992 0.09987671 0.064607054
-0.27275452 0.27096054 0.044150375 -0.054646466 -0.08223425 0.03140063 -0.15589547 -0.121431015
-0.05607257 -0.32913065 0.11320687 -0.13755788 -0.116175316 -0.09524026 -0.10006592 -0.2942121
-0.117035404 0.1483518 0.012370257 -0.31872642 0.118484706 0.31128174 -0.10094863 -0.57649714
-0.52108157 0.07446288 0.09577033 0.112132706 -0.12871517 -0.20192936 0.05632279 0.090935126
-0.26916263 -0.015658407 -0.26334226 -0.14780349 -0.13733882 0.04733227 -0.19358228 -0.035135433
0.16275117 -0.1941801 -0.39403227 0.33000943 -0.14455828 0.0073320004 -0.13591237 0.2015587
-0.019316344 -0.3036083 -0.47737375 0.098010205 -0.2569131 -0.21505933 -0.035429344 0.032896884
-0.08781782 -0.021261707 0.20724376 0.14108081 -0.0076641645 -0.026807226 0.47321257 -0.019364584
-0.5007303 -0.070070565 0.07944563 0.10654332 -0.4001878 -0.48132747 0.11490461 -0.058978073
0.02434972 -0.16207221 -0.099653296 0.24777064 -0.19936132 -0.16460322 -0.042550106 -0.17563105
0.016992908 -0.2502408 -0.18033116 0.3907496 0.023094246 -0.15911508 -0.13389155 0.13711242
-0.06478429 0.05196228 -0.0018385093 0.028437946 -0.11640988 -0.034941576 0.05036264 -0.028959353
0.07129687 -0.5937825 -0.38659906 -0.12213686 -0.4463813 0.0134782 -0.42556033 -0.25558436
-0.7826708 0.05632442 0.2156333 0.4685722 0.12455973 0.23055376 0.19810812 0.27109364
-0.18371196 -0.11656241 -0.095757656 0.06844324 -0.18829761 -0.3005009 -0.18368562 0.03612061
-0.19741648 0.084507115 -0.18565582 0.003836492 -0.110788696 -0.12746562 0.014262537 -0.14981064
0.05420383 -0.1582732 0.028829852 -0.22126682 0.047820106 -0.053564403 0.10062952 -0.44468978
0.0281074 0.022046497 0.11604706 0.12342133 -0.015176069 -0.039942272 0.059760954 0.032742918
0.11214901 0.050370947 0.106905706 -0.11071979 0.04114376 0.015636133 0.11359917 -0.11565353
-0.09624173 -0.040486537 -0.19585773 -0.14499448 -0.09158659 -0.055092894 0.02902447 -0.25308403
0.03636067 -0.09587738 -0.18362078 -0.1458008 -0.023160422 -0.29794198 -0.21690816 -0.0802924
0.09645265 -0.12987795 -0.2340029 -0.036579095 0.14956789 -0.16125855 -0.21911539 -0.3175309
-0.03483085 0.15764956 -0.12687528 0.055548325 -0.055609304 -0.15534674 -0.19399406 -0.25712457
-0.08404642 0.0015940379 -0.23483518 0.22924575 -0.36207512 -0.004960009 -0.012609918 0.26774952
-0.29356945 0.12391629 -0.0012119458 0.057493433 -0.08340921 0.23500933 0.13053861 -0.11271476
-0.059228223 0.12802789 -0.039307777 0.21234943 0.11240257 -0.05547975 -0.12761566 0.060643032
0.06581084 -0.039271653 0.04013754 0.06994356 -0.04285589 -0.014011804 0.08163965 -0.14318511
0.020767981 -0.17716044 -0.027723752 -0.32863194 -0.49338338 0.032939713 0.24302353 -0.01974994
-0.15504108 -0.065767884 0.18936348 0.03692746 -0.16446245 -0.23384845 -0.25890076 0.024916116
0.02155115 0.3883041 0.10323231 0.2769556 -0.124474734 0.023594217 0.4325493 0.57656634
-0.0389246 0.041880663 0.33119074 0.4677032 0.05357154 0.013889573 -0.13306 0.017214254

conv2.bias f4 [8]
00000000: 75d0 393d 168d da3c e3f1 393e 47dd a3bd
00000010: 7570 463c 29e6 51bb f449 043d 9863 063d
0.045364816 0.026678603 0.18158679 -0.0800119 0.012111773 -0.0032028055 0.03229709 0.032809824

fc1.weight f4 [64, 392]
00000000: 1371 01bf d12e a0be 48fd 6ebe fc33 ba3d
00000010: a484 ae3d 5782 62bd d292 453e 127b 4abd
00000020: 5463 aabe 081a 5f3e 7a38 0ebe c2be 663d
00000030: dab2 103c 79e4 2a3c aabf 733e a6f5 14bd
00000040: f8c8 e2bd 21eb d7bc 88df eeb8 7291 633d
00000050: e07e 373e 591b 743c c1c6 2abe a17e 12be
00000060: 5056 83be 3339 4b3e 2ad2 c03d 9e3e 373d
00000070: daf9 32be 879c 15be f2e3 f6bd 788e a5be
00000080: 49ed c73d 44f7 2b3d 52ec 313e 7826 0cbe
00000090: fb4b d23d 6b87 723d 27da d5be 5bda 7e3e
000000a0: 2ca4 293d eaf7 4e3e 2ac6 0dbf b901 33bd
000000b0: df36 5cbe 0eb8 77be 94d4 103e 1076 ccbc
000000c0: a27b 9b3e 6686 b4be b6a6 30bf 0bb5 893e
000000d0: abae 85be 5a2b 93bc b11e 64bc 6daa 16be
000000e0: dd8f e2bb e2d2 b5be 0fc9 5cb8 ecca acbe
000000f0: 0f2e 6dbd 1bc1 f53d 07af 443c 64e2 73be
00000100: f38f c0bd 2756 323e 17a7 31bd 7d1a c5be
00000110: af88 433e 573e 343d 8fa5 10be 8fcb d3bc
00000120: 2bc5 c93d 0c08 28be 3439 e0be 094f f93d
00000130: 29e4 873d 4e11 0ebe 6b8b 59bd f977 42be
00000140: 3c8d 2bbc f5e9 863c 8eff 6cbc 559e a2be
00000150: e758 58bd b5c1 9d3d d643 f6bd a26e debe
00000160: 9d9b dfbd c89e d9bd 3d0c cb3d cabd 583c
00000170: 4c1f cbbd bdef 443f 41d3 edbe 98c7 83ba
00000180: 7605 943d cf37 78bd b9c2 0d3e d7b2 ce3d
00000190: 6814 b83d 45ea 903e 97b3 243e 297d 1e3d
000001a0: 8873 85bb 3106 973d ad36 32bd f888 093e
000001b0: 237a 623e d3cc f43d 8247 e23d e598 593b
000001c0: f3f5 b4bd 9556 ffbb 82ee 5e3e de75 e63d
000001d0: df48 ef3d aec4 ce3d 87a2 06bd b5bf 09bd
000001e0: a9a4 43bd b007 8ebd 6732 2c3e 0de6 623e
000001f0: 4330 063e afff b63d e13e 1e3e f3ca 9abd
00000200: 8bf6 f13d c144 983e 4b69 273e cb2d 303d
00000210: a2d0 433d 0177 2a3e a4d1 ecbc 51aa bcbc
00000220: f061 1a3e 39ae 9d3d 6f99 ae3d 6545 cdbd
00000230: 8c77 043e bd55 f43d 28db e53d dcf8 843e
00000240: bcc9 7b3d c847 ba3d c252 efbc 82b6 ddbe
00000250: faad a6be b9ce d23d 072e 94be b627 7bba
00000260: d2b9 0dbe 3ac1 a93c 0e7d e83d ecab 6e3d
00000270: f75d 393e 0617 d33d 0915 eabd a735 523e
00000280: c65d 89bd e91c f03e 0f8d 0a3b 384b e83c
00000290: 6402 82be dcdf 1fbe 7eaa 7e3e aff3 f7bd
000002a0: 9d9d f83d adb7 b83d 49b0 db3c bcc3 173e
000002b0: 95ed 303d 89e5 94be 838b ca3d 5d61 c4bd
000002c0: c85a a5bd eae4 a8bc 8429 f0bc 02b9 91be
000002d0: 679b 733c 44ed 8ebd b3cd 003e 6632 31be
000002e0: 8bb8 0a3e 25b5 fbbd f794 30bf 5d15 b7ba
000002f0: af87 bebc 9bd4 36bd 492a a7be 7efc 823e
00000300: 14ad 1fba 12bf 09be f89a 3f3d 13c3 95bd
00000310: aaae bcbe 3da3 aebe 5227 f5be 7568 093e
00000320: 1f8e a9bd a52d 8d3d b835 ac3b 0036 7ebe
00000330: 0948 f7bd 256a 683d caec 60be dc67 e9bc
00000340: 06f6 863e 0d04 473d d360 10bd 70b6 dbbd
00000350: 3b4b 8cbd 178f 583d 7ce6 a2ba 64a9 a63c
00000360: 8c01 a63d a46d 7cbc 5ef5 753d 62ae dbbe
00000370: 172c 80be 3cf0 8dbd 3d3c 83bd 5897 0c3e
00000380: 1cbb f7bd 1290 a8bc a606 87be 6e8f ba3d
00000390: 3c8c ccbe 1992 06bd 143c 473d 7cc2 4cbd
000003a0: b213 68bb 05c2 2bbe 2e0e 17be 7be0 23be
000003b0: bc54 143e 5e43 f8bd 2094 b1bd d481 00bf
000003c0: a3f5 94be ac55 2fbe 36fa fabb be28 e7bd
000003d0: 248f 1c3e 2f1f b83d 0b03 82be 1968 95be
000003e0: 78f1 2ebd 4d3e 723d de11 e43d a339 1abd
000003f0: 06e1 183e 3197 3dbe 5536 d13d 6372 773e
-0.5056316 -0.31285718 -0.23338807 0.090919465 0.08521393 -0.055300083 0.19294289 -0.049433775
-0.33278906 0.21787274 -0.13888732 0.056334265 0.008831704 0.010430449 0.23803583 -0.03636708
-0.11073488 -0.026357235 -0.0001139036 0.05555863 0.17919493 0.014899098 -0.16677381 -0.14306118
-0.2565179 0.19846039 0.094150856 0.04473745 -0.17478123 -0.14610492 -0.12055196 -0.32335258
0.097620554 0.041983858 0.17375305 -0.1368655 0.102683984 0.059211176 -0.41768 0.24887984
0.041416332 0.20211759 -0.553805 -0.043702815 -0.21505307 -0.24191305 0.14143592 -0.02495864
0.30367762 -0.35258788 -0.6900438 0.26895937 -0.26109824 -0.017965008 -0.013923333 -0.1471345
-0.0069141225 -0.35512453 -5.2639338e-05 -0.33748567 -0.057905253 0.119997226 0.01200462 -0.2381683
-0.09402456 0.17415677 -0.04337224 -0.3849677 0.1909511 0.044004764 -0.14125656 -0.0258539
0.0985206 -0.1640932 -0.43793643 0.12173278 0.06635315 -0.13873789 -0.053111475 -0.18991078
-0.010470685 0.016468981 -0.014465226 -0.31761423 -0.05281916 0.07702962 -0.120246574 -0.4344378
-0.10918353 -0.10625988 0.09914444 0.013228843 -0.09918079 0.7692831 -0.46450236 -0.001005399
0.07227604 -0.0606001 0.13843812 0.10092705 0.08988267 0.28303733 0.16084133 0.03869358
-0.0040726103 0.07374228 -0.043509174 0.13431156 0.22116904 0.119531296 0.11048795 0.0033202705
-0.088359736 -0.007792304 0.21770671 0.1125295 0.11683821 0.100961074 -0.032869842 -0.03363009
-0.047764454 -0.0693506 0.16816102 0.2215807 0.13104348 0.089354865 0.15453674 -0.07558241
0.118146025 0.29739955 0.1634876 0.04301242 0.04780639 0.16646959 -0.028908558 -0.023030432
0.15076423 0.07699246 0.08525359 -0.100230016 0.12936229 0.11930416 0.11223441 0.25971115
0.061471686 0.090957224 -0.029214267 -0.43303305 -0.3255461 0.102933355 -0.28941366 -0.00095808075
-0.13840416 0.02072202 0.11351977 0.058269426 0.18102251 0.10307126 -0.114297934 0.20528279
-0.06707339 0.46897057 0.0021141206 0.02835618 -0.2539245 -0.1561274 0.24869725 -0.12107026
0.12139437 0.090194084 0.026817458 0.1482076 0.043195326 -0.2908137 0.09889891 -0.09588883
-0.08073956 -0.020616967 -0.029316671 -0.28461462 0.014868594 -0.069788486 0.12578468 -0.17304382
0.1354696 -0.1229041 -0.689773 -0.0013968159 -0.023258058 -0.04463635 -0.3264945 0.2558326
-0.00060911593 -0.13451794 0.04677865 -0.07312598 -0.36852008 -0.34108916 -0.47881562 0.13418753
-0.082790606 0.06893472 0.005255427 -0.24825287 -0.120742865 0.056741852 -0.21965328 -0.028491907
0.26359576 0.048587848 -0.03524859 -0.107281566 -0.068502866 0.052870836 -0.0012428309 0.020344444
0.08105764 -0.015407 0.060048454 -0.4290648 -0.25033638 -0.06930587 -0.06407974 0.13729608
-0.12096235 -0.02057651 -0.2637226 0.09109388 -0.3995074 -0.032854173 0.04864128 -0.049990162
-0.003541213 -0.16773231 -0.14751503 -0.16003601 0.14485449 -0.12122224 -0.08670831 -0.501981
-0.29093656 -0.17122525 -0.007659222 -0.11287068 0.15288979 0.08990323 -0.25392947 -0.29180983
-0.04271075 0.059141446 0.111362204 -0.037652623 0.1492959 -0.18514706 0.10215441 0.24164729

fc1.bias f4 [64]
00000000: 88d8 073e 9030 a2bb 7e4d e13d d09f 5f3e
00000010: 86f8 f13d 9b15 243d e533 513e df96 803e
00000020: bdfc 8d3e b7fb 7bbd 0a34 9a3e 7b81 9e3e
00000030: 6320 513e 5023 823d 0f76 893e 8988 903e
00000040: efd6 873e b3e3 023d bf2a 8a3d ea45 90bd
00000050: 6ad4 1f3d eebc 08bd 9503 5f3e 83d9 713e
00000060: ecc5 583c a192 563d fe1b b23b d915 b03e
00000070: da60 783d 6b02 673e 4671 6f3d a203 7c3e
00000080: 5e7a 803e 5750 6a3e 4344 b03d 224a ff39
00000090: ee0f 653c fa95 a13e 1402 5a3d 010a 2f3d
000000a0: a9c6 6a3e 73e7 cd3d 741e 2d3e 9d86 613e
000000b0: 3b46 7c3e cd50 23bd 43e5 b9bc 725a a43e
000000c0: 8a70 633e e62b cc3d f1f6 253d ecc6 5b3e
000000d0: c83d 643e 3a6a b43b d888 653e 9094 723e
000000e0: 7f44 613e d846 63bd f7b8 833e 8e3c 13bd
000000f0: d8d1 693e 27c0 5e3e 56ae 0cbd 661d e43d
0.13266194 -0.0049496368 0.110011086 0.21838307 0.1181498 0.040059667 0.20429952 0.25115106
0.27731887 -0.06151935 0.30117828 0.3095816 0.20422511 0.063543916 0.26847884 0.28229168
0.2653117 0.031955432 0.067464344 -0.07044585 0.039020933 -0.033383302 0.2177871 0.2361813
0.013230782 0.05238593 0.005435466 0.34391668 0.06063924 0.22559516 0.058457635 0.24610761
0.2509336 0.2288221 0.0860677 0.00048692623 0.013980849 0.31559736 0.053224638 0.04273415
0.22927345 0.10053911 0.16906148 0.22024007 0.24636166 -0.03987198 -0.022692328 0.32100254
0.22210899 0.099693105 0.040518705 0.21462601 0.22289193 0.0055058273 0.22415483 0.23689485
0.21998785 -0.055487484 0.25727054 -0.03594642 0.22833955 0.21752988 -0.034345947 0.1113842

fc2.weight f4 [2, 64]
00000000: 1959 aa3d db34 2f3d 1fa6 e63d 4359 45be
00000010: 9ef2 be3d 6db4 9d3d e38a 57be 4896 12be
00000020: 89a5 2cbe a03d 3fbe ae51 67be c326 1cbe
00000030: 121c 47be f4e3 773d 2aaa 19be ba74 56be
00000040: ab1e 05be 581e 4c3d aae3 373e 84f3 30be
00000050: bec4 a03d e371 433c 22a6 75be 51a9 33be
00000060: 1d45 be3c 3df7 113d 38f9 3a3d 9add 18be
00000070: b4bf 263d 3115 59be 5299 343d a682 fdbd
00000080: ed9d 32be 6018 45be 85e8 813d dcf0 913d
00000090: e9a1 083d 0f57 13be df93 533d 4a2c 503d
000000a0: add4 2bbe 0948 853d 6436 8cbe 60a3 88be
000000b0: 5373 49be 51ea 853e 1104 d23d cc97 36be
000000c0: f863 3cbe 95a5 7d3d 83c9 3b3d 8cf0 80be
000000d0: e5fb 72be 1b69 1a3d 2082 8dbc 6069 58be
000000e0: ef19 43be 51d7 91bd 2c87 18be 3e93 a4bd
000000f0: 65a5 6dbe 200a 42be adda 913c 28fa bbbe
00000100: ad78 ea3d d856 9f3d 68bf 233e aa81 51be
00000110: f2a2 f03d a44b c83d bcfb 09be 5672 10be
00000120: 80fe ffbd 4fac f3bd c85d 3ebe 3e73 17be
00000130: 22c5 31be bb53 6a3d c392 38be 8249 25be
00000140: 94ac 38be ce72 a83d 87a6 243e 2829 623e
00000150: fe7e 7a3d bdc4 ce3d fb3a 22be d7bd 35be
00000160: 0d0d 1b3e ff64 8e3d 52ce 733d fb7d 04be
00000170: 73a4 723d f71e eabd f4b9 893d e6c4 5bbe
00000180: cd6d 07be 1a09 5cbe 321a d83d da08 20bf
00000190: ce8c a83d 7707 f3bd 3f25 863d d1b8 853d
000001a0: eb02 2dbe 2a8d 0c3e 148d 2fbe 07a9 66be
000001b0: 8cbd 17be e36a 083e d0a6 f43d 2713 16be
000001c0: b0a4 0abe 6f77 ab3d 0750 8a3d bcee 3fbe
000001d0: 16d6 5abe 7d77 a73d 8ea1 8dbe 314b 25be
000001e0: b6f6 3bbe dc3b 5f3e 6b64 06be 290f 3dbc
000001f0: 54fe 3ebe 4a33 15be d80a 753c d4ae e5bc
0.08317775 0.042775016 0.11262154 -0.19272332 0.09323619 0.07700429 -0.21049075 -0.1431514
-0.16860022 -0.18675852 -0.22589752 -0.15249161 -0.19444302 0.060520127 -0.15006319 -0.20942965
-0.1299998 0.049833626 0.1795794 -0.17280394 0.078500256 0.011929008 -0.23989156 -0.17545058
0.023226315 0.035636175 0.04564783 -0.14928284 0.040710166 -0.2119949 0.04409153 -0.12378435
-0.17443056 -0.1924758 0.06343178 0.071260184 0.033357535 -0.14388679 0.051654693 0.050823487
-0.16780348 0.0650788 -0.27385247 -0.26687145 -0.19672899 0.26155332 0.10254682 -0.17831343
-0.1839751 0.06192549 0.045846473 -0.25183523 -0.23728903 0.037697893 -0.017273962 -0.21133947
-0.19052862 -0.071211465 -0.14895314 -0.08035897 -0.23207624 -0.18949175 0.017804468 -0.36714292
0.11448798 0.07780236 0.15990984 -0.20459619 0.11749829 0.09780052 -0.13474935 -0.14106116
-0.12499714 -0.118981 -0.18590462 -0.14790055 -0.17360356 0.057208758 -0.18024735 -0.16141322
-0.18034583 0.08225022 0.1607915 0.22086012 0.061156265 0.100961186 -0.15842812 -0.177482
0.15141697 0.06952857 0.059522934 -0.12938683 0.059238862 -0.11431687 0.06724921 -0.2146183
-0.1322548 -0.21487847 0.10551871 -0.62513506 0.08229981 -0.11866658 0.06550073 0.065293916
-0.16895644 0.13725725 -0.17143661 -0.22525416 -0.148184 0.13322024 0.119458795 -0.14655744
-0.13539386 0.083723895 0.06753545 -0.18743414 -0.2137073 0.081770875 -0.2766232 -0.16141964
-0.18355832 0.21800178 -0.13124244 -0.011539259 -0.18651706 -0.14570346 0.014956199 -0.028037466

fc2.bias f4 [2]
00000000: 7196 2b3f c3ea 483e
0.6702643 0.19620804
