assignment-5/models/best_model_17.9.pth (torch, 110560 bytes, 8 tensors)

conv1.weight f4 [4, 4, 8, 8]
00000000: f5a7 453c 9cab b43c e65d a7bd b843 823c
00000010: c45b 3cbd 840d bc3c e3cc a13d 2d12 b5bd
00000020: c001 183d 23f7 023d 0638 c83d 2874 dabd
00000030: ab84 99be 8567 113e 931f f1bb edf8 2a3d
00000040: 41fb 8fbd 5e40 bf3d 66dd 67bd 89bf 75bd
00000050: 6532 75bd ac9e a63d d73f 0f3e e6bb 24bd
00000060: a0b3 4dbd ae0d 46be 21eb 96be 9cbf ed39
00000070: c591 373e e31f 1a3e 749f 0f3a 8479 fabc
00000080: 8290 c6bd b8d3 36bd c6fb 40be ee15 1e3e
00000090: 22ea 073e 6b4e f53d 2a21 023e 7055 c83d
000000a0: 5539 fdbd fe1c 17be aac7 1cbe 68e9 c5bb
000000b0: eb8b 743d d35e e53c 149c ab3c a2e6 b2bd
000000c0: 6673 b4bc 8b7b a839 93ef 1cbe 3eee 1abd
000000d0: ff1a 81bb 149d 203e 0fdd ba3d 185d 4b3e
000000e0: cee6 e23d 244a 0c3e e33c fe3d 4f62 063e
000000f0: 3da2 9a3e af89 6e3e e942 753e 8146 5f3e
00000100: 9953 78bd 27fb 61bc a700 59bd 9f1a 47be
00000110: 66fa 8abd e6eb 53bd d2b7 92bd 8234 c3bd
00000120: e431 423d 9784 d7bb 0b3e 4ebe 3f14 0bbd
00000130: 1520 1abe 29c1 56bd cea1 17be df60 9cbd
00000140: 08b6 8d3c de06 4abd 785b 02be 8d10 0f3e
00000150: 18c4 12bd 2a48 553c 96c2 783c b230 1bbd
00000160: f701 4fbe a494 97be 572f eabd d63b be3d
00000170: a2f9 773c 6711 623d 50bf a13d 24ce 8fbd
00000180: 5128 fd3c 335b 14be 8fc0 1abe 29c4 2bbe
00000190: 01c4 be3d 788b 173d 18a0 8ebd db0b 053d
000001a0: ac89 f33d 7366 ec3d badd 8f3b 7c16 30bd
000001b0: 46ff 193e 8393 3e3d 67c5 223e 1855 85bc
000001c0: 2aa5 883c c68b 933d c1eb 803d 5922 acbd
000001d0: 6b37 86bc 0e3e 183e c8e5 d03d 0460 03bd
000001e0: 4468 ef3b 4817 6c3d 2852 603b 867a 8bbd
000001f0: 230d 1b3e 1080 083e c22c 0bbd 9b3c d8bd
00000200: 4804 cf3d f52d df3d fe01 1bbe 57a5 8dbc
00000210: df0f ee3d 1a7c c63d 953e bf3d 193e afbc
00000220: c387 cbbd a106 9cbd 095e 04be 340a 0cbe
00000230: 2221 e7bd f89e 37bd bc99 dabd 33a2 3dbd
00000240: 3d7f de3c e81a f1bd b11e 5bbe fdf0 17bc
00000250: 0cd9 893c ce91 323b 14cc 8bbc a741 293d
00000260: 94db 613e 6071 d73d 286d a1be ca1c e9bd
00000270: a7a0 543e 7e95 58be d955 32bd fb10 fb3d
00000280: 5fa4 563e f86c bbbb 9e66 6fbe b4a1 37be
00000290: a33f 75bc d7ac f3bc 7356 4f3c aee1 3fbe
000002a0: 1166 de3d b69b 943e 5e03 1b3e ce7e 1c3e
000002b0: 06fd c93d cce3 2a3c dd76 ec3c 2909 69be
000002c0: c69f 36bd 8cce 1ebe a0ea 183b 6d46 e4bd
000002d0: 4f14 793d b709 10bc 95ba f73d c4da abbd
000002e0: 7de0 f63d 2bc8 ddbd 7322 bdbc e4f3 66be
000002f0: 1f31 bb3c 13cc d93b 06f9 59bd f0bb 0bbd
00000300: d85d 9c3e 4011 e53e 01d1 023e 68fe ad3d
00000310: 593c 803e 62d2 8c3e d52b 453d d180 7e3e
00000320: 1d6d 7abe e7ba 26be dbfc 3dbe 6455 0fbd
00000330: 4899 123d e8b1 b33d 4c04 72bd c431 2c3d
00000340: 6f89 3dbe 57ae 29be d588 dcbe 999b 26be
00000350: f1be d03c 0548 133d ca21 b8be 29bd da3d
00000360: fc24 b9be ae09 8bbd d4c5 f9be 38ec 66be
00000370: 1244 aa3d be51 cdbd 473f 83be 87e6 80bd
00000380: f425 61bd ea30 0abe d835 05bf 3084 50be
00000390: 05c5 3e3e bf93 f4bc 14a6 a1be fb5c 4bbe
000003a0: f3ca 113e 3a9f 0d3e 055e 89be a227 41be
000003b0: 057a 9dbc 355a 15be f095 5e3e eb9b 9bbe
000003c0: 44d5 3b3d e94c b13b 5c50 e0bd 12a1 30be
000003d0: 6444 c4bd a0f3 fbbd 3e67 89be cc78 9dbb
000003e0: ff5d 313e e918 633d f004 4dbd a18b 2cbe
000003f0: 19b6 f7bd b275 0b3e 090a 3c3e 0d0f a13d
0.01206397 0.022054486 -0.081722066 0.015901431 -0.045985952 0.022955664 0.07900407 -0.088413574
0.037111044 0.03197397 0.097763106 -0.10666686 -0.2998403 0.14199646 -0.0073585003 0.0417413
-0.07030345 0.09338449 -0.056607626 -0.059997115 -0.059862513 0.08135733 0.13989197 -0.040218256
-0.050220132 -0.19341156 -0.29476264 0.00045346923 0.179267 0.15051226 0.00054787775 -0.030575521
-0.096955314 -0.044635504 -0.18846044 0.15438053 0.13272908 0.11977848 0.12707964 0.09781921
-0.12364451 -0.14757153 -0.15310541 -0.006039787 0.05970375 0.027999317 0.020948447 -0.08735396
-0.022027683 0.00032135504 -0.15325765 -0.03782486 -0.0039399858 0.1568492 0.09124195 0.19859731
0.11079179 0.13700157 0.12413957 0.13123439 0.30201903 0.2329471 0.23951305 0.21804239
-0.0606266 -0.01379279 -0.052979138 -0.19443749 -0.06786041 -0.051738642 -0.07163967 -0.095314994
0.04741086 -0.0065770852 -0.20140855 -0.033954855 -0.15051301 -0.052430306 -0.14807817 -0.07635664
0.017298713 -0.049322955 -0.12730205 0.13971157 -0.03583154 0.013017694 0.015183112 -0.037888236
-0.20215593 -0.2960559 -0.114348106 0.092887565 0.015135201 0.055192377 0.07897818 -0.0702174
0.030903013 -0.14487915 -0.15112518 -0.16774048 0.093147285 0.036998242 -0.06964129 0.03248201
0.11891493 0.11542978 0.0043904455 -0.042990193 0.15038785 0.046527397 0.15895616 -0.016275927
0.016680319 0.07204394 0.062949665 -0.08404989 -0.016383847 0.14867422 0.10200077 -0.03207399
0.0073061306 0.05763939 0.0034228656 -0.06810479 0.1514173 0.13330102 -0.03397823 -0.105584346
0.101082385 0.108974375 -0.15137479 -0.017290754 0.11624121 0.09691639 0.093381085 -0.021391915
-0.09938004 -0.07618452 -0.12926497 -0.13675767 -0.112856165 -0.04482934 -0.10673854 -0.046297263
0.027160281 -0.1177271 -0.21398427 -0.009273765 0.016827129 0.002724755 -0.017065085 0.041322377
0.22056419 0.105196714 -0.31528592 -0.11382444 0.20764409 -0.21150777 -0.043538902 0.12259098
0.2096114 -0.005719777 -0.23378989 -0.17932779 -0.014968785 -0.029745502 0.012654888 -0.18738434
0.10859311 0.29025048 0.15138003 0.15282747 0.098627135 0.010430288 0.028865272 -0.227574
-0.044585966 -0.15508479 0.0023333207 -0.11146245 0.060810383 -0.008791379 0.120961346 -0.083913356
0.120545365 -0.10829195 -0.023087716 -0.22553974 0.022850571 0.006646642 -0.053216003 -0.034114778
0.30540347 0.44739723 0.12775041 0.0849579 0.25046042 0.2750426 0.048137505 0.24853827
-0.24455686 -0.16282235 -0.18553488 -0.034993544 0.03579071 0.08774167 -0.05908613 0.042039648
-0.18509458 -0.16570412 -0.43073145 -0.16270293 0.025481673 0.035957355 -0.3596328 0.10680611
-0.3616103 -0.06788956 -0.48783743 -0.22551048 0.08313765 -0.10025357 -0.25634214 -0.062939696
-0.054967836 -0.13495222 -0.52035284 -0.20362926 0.18629844 -0.029855607 -0.3157202 -0.19859688
0.14237575 0.13830271 -0.26829544 -0.18862775 -0.019223223 -0.14585193 0.21736884 -0.30392393
0.045857683 0.0054107797 -0.10952827 -0.17248943 -0.09583357 -0.12302327 -0.2683658 -0.00480566
0.17321013 0.055443678 -0.050053537 -0.16850139 -0.12095279 0.13619116 0.18363203 0.07864199

conv1.bias f4 [4]
00000000: f363 32bc 49b7 543d 3558 ffbc 5f33 c1bb
-0.010888088 0.051932607 -0.03116999 -0.0058960165

conv2.weight f4 [8, 4, 4, 4]
00000000: 4490 eebd e026 333e 880f 34be e605 883c
00000010: 5a47 90bd 3225 e1bc 354d 443e 7bf6 c23d
00000020: 7b4b 02be d288 a53e 9bb5 403d f2f6 40bd
00000030: f13d 1a3c 18d4 9d3d 3678 143d 2e48 c3bd
00000040: 23a3 efbc ee52 b9be cef0 613d 19bb fdbd
00000050: dac7 29be 9233 d3bd 12d9 4bbc a791 9fbe
00000060: 8293 fabd c8aa 5c3d 3482 873d ecd9 67be
00000070: 52a7 0e3e 193d 723e abc0 ddbd 6231 a1be
00000080: dee2 e4be c496 a53d 7a68 4a3d 26a6 be3d
00000090: 42a1 ffbc 5212 85bd c65b 1b3c 8a25 d23d
000000a0: f7cd 4fbe d9ca 04bd 81b6 9fbe c20e ddbd
000000b0: d879 72be 7e20 5fbd dc13 2ebe bf05 e9bb
000000c0: e823 0d3e ee51 6dbe 8e53 73be ec7d aa3e
000000d0: 1b74 9abd 882b debb ea6f 95bd 077c 913e
000000e0: b6a2 323d d589 6cbe ba3a dfbe fbc6 dc3d
000000f0: 3ab1 d3be 7e53 83be 2e3a 14be d774 603d
00000100: b103 85bd c94d aebc e01c 8c3e 5a4e 033e
00000110: 972b 783d dbee 96bc 3750 cf3e 9dbe 9cbd
00000120: 01d7 d4be e016 56bd 3721 0fbc bf10 e63d
00000130: e6af 56be df55 74be 28e8 1fbd 212f b6be
00000140: 7209 9abd f06e c1bd 75ed adbd faae 573e
00000150: 13c4 62be ec5c 01be e753 ccbd a44c 16be
00000160: e24e 903d b5c6 25be eaf8 21be 8437 4f3e
00000170: e745 84bd b102 debd 7938 cdbd f0f8 d43d
00000180: 947f d7bd d036 053e 740a b73c 57ed 7e3d
00000190: 2a3c a6bd 81bc cdbc 7b77 033d c137 efbc
000001a0: 16b6 02bc 80d0 10bf f46c a2be 6ecb 5d3c
000001b0: 81da ccbe e299 cb3d 5043 d9be 0d68 65be
000001c0: 1d6d 2abf 4a0b e03a b947 003e f885 d73e
000001d0: 9b74 623e 71df 403e 5744 253e 1d41 1c3e
000001e0: dee8 c8be 54a9 73be cfed 403d fd12 cd3d
000001f0: 3861 4fbd f152 49be d1b5 88be acbf cc3d
00000200: 661b 87be 2e8a 843d 8056 10be 5f25 2fbd
00000210: 5cb2 dcbd 245c 35be a182 eebc 7624 69bd
00000220: 2645 853d 4c8a 31be 9309 98bc 6f1d 31be
00000230: b36c 98bc b875 7bbd 04c1 ec3d 9a88 f5be
00000240: c4cd 213d 5d87 593d 7d12 1c3e 3383 153e
00000250: ba0f 413d f644 debc b5bd a63d a6f9 903d
00000260: 3788 143e 0a4b 783d bae0 0a3e 3340 b3bd
00000270: 9a1f a73d 80f2 d43c 4861 0d3e 4f69 b4bd
00000280: 04bc 8dbd 3c56 52bd 7e05 2cbe 04cd 4dbe
00000290: 5267 8bbd f458 c0bd f823 48bd de32 46be
000002a0: e52c 043d 185e a7bc b920 39be 4567 4cbd
000002b0: cc31 87bd aae7 87be 6115 9fbe d243 c4bd
000002c0: b4c8 aebc e0bb 36bd 2145 dcbd ee64 25be
000002d0: 405e 1c3d b0e9 1abe 1f11 0cbe 63bc 92be
000002e0: bf98 7bbd e6bb e93d e4e8 3abd 93e5 91bd
000002f0: 6951 24be 3abb eabd a087 28bb 94c2 39be
00000300: 5c1c a5be 6fbb 8cbd cf22 b0bd 6dbc 593e
00000310: 5415 a6be a2cb e93c 869b 50bd 9194 533e
00000320: e60f 1cbe 9c2c f33d 3109 b33d de35 e43d
00000330: 28ce 08be 2580 173e a629 90ba 533b babd
00000340: d776 09be 3647 743d 9d0d b2bd bb7b 243e
00000350: 1678 ea3d f241 9f3c 0eb1 febd 211c 273d
00000360: 3fb7 fe3c a275 ac3c 66e2 233d e93e 7bbc
00000370: ff5d 66be 459f 883b 7dbf d43d 0d59 1cbe
00000380: 0d69 84bd 6567 76be b4c2 f4bc 0a67 aebe
00000390: 8fff 5cbe d1fb 053e 53a6 7c3e 749b e5bb
000003a0: e816 bebd 485a 9dbd e6a6 513e 2b72 13bd
000003b0: 5180 6bbd 006b 87be e405 77be 1b80 c8bb
000003c0: 96be 45bd 16e7 523e 2885 dd3d 1a08 a73e
000003d0: dfee 97bb 4c3a 07be ee29 a53e 2e06 043f
000003e0: 7c71 753c e8b9 39bd 7ad3 b33e ed86 bb3e
000003f0: 93f4 eebc 6f05 b2bd a4b1 66be d215 283e
-0.1164861 0.17495298 -0.1758405 0.016604375 -0.07044859 -0.027483556 0.19170077 0.09519669
-0.12724106 0.32330948 0.047048192 -0.047110505 0.009414182 0.07706469 0.036247455 -0.095352516
-0.029252594 -0.36196083 0.05516129 -0.12389202 -0.16580144 -0.10312571 -0.01244189 -0.3116581
-0.12235166 0.053873807 0.06616631 -0.22641724 0.13931015 0.2365612 -0.10827764 -0.3148299
-0.44704336 0.08085397 0.049416043 0.09309034 -0.031204823 -0.06497635 0.00948233 0.10261066
-0.20293413 -0.032420013 -0.31193927 -0.107938305 -0.23679292 -0.054474346 -0.16999763 -0.0071112807
0.13783228 -0.23175785 -0.23762342 0.33299196 -0.075416766 -0.0067800917 -0.072967365 0.28414938
0.043612204 -0.23099454 -0.43599492 0.1078014 -0.4134615 -0.25649637 -0.14475319 0.054798927
-0.06494845 -0.021277325 0.2736578 0.12822857 0.060588446 -0.018424442 0.40490887 -0.07653544
-0.41570285 -0.05226791 -0.008735946 0.11233663 -0.20965537 -0.23860882 -0.03903976 -0.35582832
-0.07521333 -0.09444988 -0.08492557 0.21062842 -0.22145109 -0.12633103 -0.099769406 -0.14677674
0.07046296 -0.16189082 -0.1581761 0.20236021 -0.06458645 -0.10840357 -0.10020537 0.103990436
-0.105223805 0.1300919 0.022343852 0.062238064 -0.08116944 -0.0251143 0.032096367 -0.02920139
-0.007977983 -0.56568146 -0.3172375 0.013537271 -0.40010455 0.0994146 -0.42434168 -0.22402973
-0.66572744 0.0017093208 0.1252736 0.42094398 0.22114794 0.18835236 0.16139351 0.15259214
-0.39240164 -0.23795062 0.047101792 0.10013387 -0.050629824 -0.19660546 -0.26701215 0.09997496
-0.2638809 0.06471668 -0.14095497 -0.04276025 -0.10776207 -0.1771093 -0.029115023 -0.056919537
0.0650733 -0.17337912 -0.018559253 -0.17296384 -0.01860652 -0.061391562 0.11560252 -0.4795578
0.039502874 0.053107608 0.15241428 0.1460083 0.04713414 -0.027132493 0.081416525 0.07078867
0.14505087 0.060618438 0.13562289 -0.087524794 0.081603244 0.02599454 0.13806641 -0.088091485
-0.06920627 -0.05135177 -0.1679897 -0.20097739 -0.06806816 -0.093919665 -0.048862427 -0.19355342
0.032269377 -0.02043061 -0.18078889 -0.049903173 -0.06601295 -0.26543933 -0.31070998 -0.09583248
-0.021335937 -0.044612765 -0.10755373 -0.16151783 0.03817582 -0.15128207 -0.13678406 -0.28659353
-0.061424967 0.11412792 -0.045632258 -0.07123866 -0.1604668 -0.11461492 -0.0025715604 -0.18140632
-0.322482 -0.068716876 -0.08600389 0.21263285 -0.32438147 0.028539483 -0.05092957 0.20662142
-0.1524044 0.11873743 0.087419875 0.11143087 -0.13359892 0.14794977 -0.001099874 -0.090933464
-0.1342424 0.059638225 -0.08694003 0.16062824 0.11448686 0.019440625 -0.12436114 0.04079831
0.031093238 0.021052185 0.040010832 -0.015334823 -0.22496794 0.004169377 0.10388086 -0.15268345
-0.06465349 -0.2406288 -0.029877998 -0.34062988 -0.21581863 0.13084342 0.24672823 -0.007007057
-0.09281713 -0.076832354 0.20473823 -0.03599755 -0.05749542 -0.26448822 -0.24123341 -0.006118787
-0.04827746 0.20595965 0.10816413 0.32623369 -0.00463663 -0.13205832 0.32258552 0.5157193
0.01498067 -0.04534331 0.3512228 0.36626378 -0.029169356 -0.086924426 -0.22528702 0.16414574

conv2.bias f4 [8]
00000000: ae98 523d d522 e83c d62d 2b3e 5f1c 12bd
00000010: 1398 85ba 9ea4 29ba 4a3d 3a3d 86d3 f73c
0.051415138 0.028336922 0.16716704 -0.035671588 -0.0010192416 -0.0006471368 0.045468606 0.03025223

fc1.weight f4 [64, 392]
00000000: 4749 f5be 0b3e c0be a041 2dbe 30f8 9fbd
00000010: a4ca 703d 1ba6 c9bc c55c 5a3e 61da dabc
00000020: 177c eebe 9bd9 9ebd dbf6 943c 1b49 073d
00000030: 3881 d73c fadb 1b3d 9425 193e f67b 34bd
00000040: 68f3 b4be 35b7 12bc e1d6 253e 233c ecbc
00000050: 1d2d 0c3e e314 a13d 790a 58be 7e00 cfbd
00000060: 8420 24be 8e49 5c3d 6876 273e 1213 ebbd
00000070: 2812 50be f1ec cabd 22ef bf3c 7215 94bd
00000080: 89c3 113d efcb ce3d c040 8e3d 88ad 4bbe
00000090: 4fcc fe3d 73f8 173e ca7f c2be 52d8 213e
000000a0: 8674 b23d 629c 923d 4e8e 05bf bf50 4abe
000000b0: 5b3e d5bd eea7 2fbe 54af 183e 0de4 e4bd
000000c0: 7a3b 963e 46fd 9dbe f2fe 06bf 46dc c3bc
000000d0: 5a4a 5cbe 90b5 03bd bc12 1bbd d85f fcbd
000000e0: 5459 86bc a2ef 10bf 09e3 16be 8e8f e4bd
000000f0: 1bb5 213d 87df 893b d195 eb3d f3b2 45be
00000100: 109b f23c 34ea 1bbc f495 9dbe 7f6b a3be
00000110: 6656 013e ed1c d13d d0f5 12be 88dc 323d
00000120: 7cc9 90bd 7b28 cfbc 05af f0be 662b 513d
00000130: 8bea 473d f370 73bc 4498 4ebe e756 1cbe
00000140: 69b2 093e 4333 113e bcd2 433c c9fa 9bbe
00000150: 71a3 723d 34f7 bd3c 247f 21be 4ea4 62be
00000160: 4e97 57bd 4a19 06bd ecf7 90bc 1024 c83d
00000170: 6738 813c e578 043e aa6c 20be e6ef 0b3d
00000180: 559b 03bd afbc be3c 88d8 1a3e 2f2e 1d3e
00000190: aa35 9e3d fb0d 833e 3d8e 003e d2e2 6dbc
000001a0: 4ce5 c03c a6a5 5f3d 82f4 fdbc 083c 8c3c
000001b0: 593a 563e 1a2e bb3d 0a4d 843d a44e 033d
000001c0: d7f0 0cbe 8176 8abd aab4 4a3e 6938 d13d
000001d0: 51d7 a23d 0733 9e3d 984b 19bd 42c3 89bd
000001e0: 0646 3cbd f10b aabd bccf 043e 125f 463e
000001f0: 71f0 633d 2b11 083e 5a8f 233e e7a9 5fbd
00000200: 0fd0 f23d 4bfc 733e a9fb c33d be66 f73b
00000210: 0ade 433d 95cc 743e 59a5 183a b635 783d
00000220: c160 063e ef4f 033d 5917 503d 0464 d8bc
00000230: 68de 3e3e cd55 1f3e 6daf 073e 077f 793e
00000240: 9def a33c 0f5d 533d 629a 803c eecd c5be
00000250: a61c 90be c731 b33d d4cb d0bd 7246 6cbb
00000260: c8d8 81bc 06c7 d5bc d612 5f3e 2b56 443d
00000270: 6af5 0e3e 574b 273d a2dc 61bd b108 853e
00000280: 6b69 9cbd 52b4 b43e b820 0e3c b03c 09bd
00000290: 439a 1ebe f134 e0bd 17c6 a43e 6eae 9bbd
000002a0: a731 f53d e6c9 8d3d f8ed 6f3d 2100 443d
000002b0: 45a9 653d 4aee 59be c7a1 3e3e 5eaa 2cbd
000002c0: df98 73bd 0971 48bc c505 c1bd d578 12be
000002d0: c3b7 dabc ecc7 8fbd 908d 92bd 42de cfbd
000002e0: ebe8 973c 52a8 763b 8de4 afbe ce2d 313d
000002f0: aca5 543d 01f8 3dbe 7db5 88be 4d12 293a
00000300: 58dc 403d 9df3 4cbd a52f b93d 89a6 23bd
00000310: 9920 90be 35bd b4be 1d37 b3be d9c1 503d
00000320: 4c6d f2bd a520 433d e293 883d db96 72be
00000330: e56b 54bd a5ea 02be d585 2dbe ae43 1ab9
00000340: f962 773e dcea 4d3d 2513 3bbd 724f 7abd
00000350: d38c a53c ee8e aebe e86f 9e3b eeb2 1c3e
00000360: 3d36 8f3d dcd9 42bd 91dd dfbb 4351 a6be
00000370: c120 72bd cf3b f7bd 577f 9d3c 84ae 173e
00000380: f389 b7bd 9fa2 09bd aa9a a4be 6a47 14bc
00000390: 969e 97be c02c bbbd ae65 6c3c 03c5 53bc
000003a0: 88e0 373d 19cc 24be 78ee 5cbe 6567 e0bd
000003b0: b199 a13d 5379 e2bd e2fc 4abd 61d0 dfbe
000003c0: 825e a2be 1742 45be 993d e1bc 5465 2ebe
000003d0: 3542 383e 1c63 993d 934e 87be b785 c7bd
000003e0: 7a06 873d bef9 e4bd 84e0 363e 6ce0 fabd
000003f0: e006 853e f0b8 36be 8358 973c c608 7a3c
-0.4790747 -0.37547335 -0.16919565 -0.0781101 0.058787003 -0.024615338 0.21324451 -0.02671546
-0.46579048 -0.07756349 0.018184116 0.033028703 0.026306733 0.038051583 0.14955741 -0.04406353
-0.35341954 -0.008954813 0.16195251 -0.02883727 0.13689084 0.07865312 -0.21097745 -0.10107516
-0.16028029 0.053781085 0.16353762 -0.11478247 -0.20319426 -0.09908474 0.023429457 -0.07230653
0.035586867 0.10097491 0.06945944 -0.19890416 0.124413125 0.1484087 -0.3798812 0.15805176
0.08713631 0.07158734 -0.52170265 -0.19757365 -0.10412284 -0.17153904 0.14910632 -0.1117631
0.29342252 -0.30857295 -0.52732766 -0.023908745 -0.21512738 -0.032155573 -0.037859663 -0.12322968
-0.016400017 -0.5661565 -0.14735045 -0.111601934 0.039479356 0.0042075547 0.115031846 -0.19306545
0.029614955 -0.009516288 -0.30778468 -0.3191795 0.12630615 0.10210595 -0.14351583 0.043667346
-0.0706968 -0.025287857 -0.4700853 0.05106678 0.048807662 -0.014858472 -0.20175272 -0.15267526
0.13446964 0.14179711 0.011952098 -0.3046477 0.0592379 0.023189165 -0.15771157 -0.2213299
-0.05263453 -0.03273896 -0.017696343 0.097725034 0.015773965 0.12936743 -0.15666452 0.03416433
-0.032130558 0.02328333 0.15121663 0.15349649 0.07725079 0.25596604 0.1255426 -0.01451941
0.023546837 0.054601334 -0.03100038 0.017118469 0.20920695 0.091396526 0.064600065 0.03205742
-0.13763748 -0.06760884 0.1979548 0.102158375 0.079512246 0.077245764 -0.037425607 -0.067266956
-0.045965217 -0.08303059 0.1296987 0.19372204 0.055649225 0.13287799 0.15972653 -0.05460539
0.1185609 0.23826711 0.09569485 0.0075500896 0.047819175 0.23906167 0.00058229786 0.060598098
0.13122846 0.032058652 0.050803516 -0.026414879 0.18639529 0.15560074 0.13250513 0.24364863
0.020011717 0.05160242 0.015698615 -0.38633674 -0.28146857 0.08749729 -0.10195127 -0.003605273
-0.01585044 -0.026095878 0.21784529 0.04793374 0.13960806 0.040843334 -0.055142052 0.25983194
-0.076372944 0.35293823 0.008674793 -0.03350514 -0.15488534 -0.10947598 0.3218238 -0.07601629
0.11972361 0.06923275 0.058576554 0.047851685 0.05606963 -0.21282306 0.186164 -0.042154662
-0.05947196 -0.012233981 -0.094249286 -0.14303906 -0.026698953 -0.07020554 -0.07155907 -0.10149814
0.018543681 0.0037636948 -0.34354058 0.043256573 0.05191581 -0.18551637 -0.26700965 0.00064495654
0.047085136 -0.050037015 0.090422906 -0.039953742 -0.2814987 -0.35300604 -0.35002986 0.050966118
-0.11837253 0.047638554 0.066688314 -0.2369036 -0.05186071 -0.12784822 -0.16945584 -0.00014711797
0.24158849 0.050272807 -0.045672555 -0.06111092 0.020208752 -0.34093422 0.0048351176 0.15302631
0.06992767 -0.04757105 -0.0068318327 -0.32483873 -0.059113268 -0.120719545 0.01922576 0.14812666
-0.089618586 -0.033602353 -0.3214925 -0.00905023 -0.2961318 -0.09139395 0.014428539 -0.012925389
0.044891864 -0.16093482 -0.21575344 -0.10957221 0.078906424 -0.11058297 -0.049557574 -0.43713668
-0.3171273 -0.19263493 -0.027495192 -0.17030841 0.17994006 0.07489607 -0.26427135 -0.09742301
0.06593032 -0.11180447 0.17859083 -0.12249836 0.25981808 -0.17843986 0.018474823 0.015260881

fc1.bias f4 [64]
00000000: bfcf e13d e1a7 12bb a1f0 cb3d 2853 393e
00000010: 69d7 b43d 7886 2a3d 3562 243e dc92 5b3e
00000020: 90ad 623e c1da f4bc 4619 5c3e a1d0 613e
00000030: c2e4 413e 1d40 873d 1a99 583e e9f3 5e3e
00000040: 800a 4c3e 57b7 293d bcc9 8d3d ea45 90bd
00000050: d1d2 fd3c eebc 08bd 0986 323e e944 3f3e
00000060: 540b f13c 000b 563d dca8 843c e037 803e
00000070: 6bf0 593d 3339 3e3e aeda 5c3d d458 3f3e
00000080: d37a 4e3e 577c 2e3e 0fe6 a23d 7c7f dcbb
00000090: 9212 a63c c36f 723e c8e0 563d 95fe 3e3d
000000a0: 95f6 3f3e 3d5c be3d 7b2b b53d 5f7a 323e
000000b0: 7da2 4e3e cd50 23bd 43e5 b9bc b6d5 693e
000000c0: 4668 453e fcb5 a33d 0ad2 693d cdbb 3d3e
000000d0: 3c80 323e 7aa3 643c cf27 573e c719 3d3e
000000e0: 66ba 3e3e e4c5 e4bc c0f2 5d3e 8e3c 13bd
000000f0: 7c44 2f3e 9bf6 3a3e 56ae 0cbd aa9e 573d
0.110259525 -0.0022377896 0.09958006 0.18098128 0.08830149 0.041632146 0.16053088 0.21442741
0.22136521 -0.029889466 0.21494016 0.22052242 0.1893492 0.066040255 0.21152154 0.21772732
0.1992588 0.041434612 0.069232434 -0.07044585 0.030984314 -0.033383302 0.17433943 0.18678631
0.029424347 0.052256584 0.0161938 0.2504263 0.053207796 0.18576507 0.053919487 0.18686229
0.20164041 0.1703962 0.079540364 -0.0067290645 0.020272527 0.23675446 0.05246046 0.046629507
0.18746407 0.09294937 0.08846184 0.17429493 0.20179172 -0.03987198 -0.022692328 0.2283543
0.19278058 0.07993695 0.057085074 0.18528672 0.1743173 0.0139549915 0.2101128 0.18466865
0.18625793 -0.027926393 0.21674633 -0.03594642 0.17115968 0.18258135 -0.034345947 0.05264155

fc2.weight f4 [2, 64]
00000000: d096 b73d 7aec 623d 8075 e53d 0e7a 42be
00000010: 02d6 d63d f04d ae3d 87fd 68be bd0b 10be
00000020: f8a5 1ebe 5b7f 5fbe b3d7 3bbe ac71 17be
00000030: 2051 5bbe 9b49 893d b471 2fbe efd3 3ebe
00000040: 54fc 1abe caee 893d c6ec af3d 84f3 30be
00000050: 6ced a63d e371 433c 8e2b 71be ec95 4dbe
00000060: 5b5c 103d 0a85 2d3d 68f5 893d 9d2d 02be
00000070: ca5f ac3d a83a 4cbe 83fa 643d 3612 09be
00000080: 20a1 1abe f6c5 3abe 45a1 953d 54d0 fe3d
00000090: 2b49 0d3d edb3 1cbe cc59 8e3d 459d 5a3d
000000a0: 51fd 33be e63a b93d 9d2c 74be f147 8abe
000000b0: c248 52be 51ea 853e 1104 d23d adb7 21be
000000c0: 42bc 2bbe 929f d23d a717 483d 7c63 96be
000000d0: 8027 63be bc5a 333d a9ed 21bd 0a65 68be
000000e0: 0943 4dbe 6371 eebd d250 0dbe 3e93 a4bd
000000f0: d08d 79be 40ac 56be adda 913c 0ab7 8cbe
00000100: 63bc f83d 7916 e13d 53ae 1c3e ba5e 46be
00000110: 35d9 173e 9cb3 cd3d 63f3 23be 8074 2ebe
00000120: d533 10be 4fac f3bd 7171 1ebe c108 08be
00000130: 42c5 58be 34ca 993d 9253 10be 855b 0cbe
00000140: 799c fcbd c58f aa3d da95 093e 2829 623e
00000150: 82fc 963d bdc4 ce3d 390e 46be 3a6e 2bbe
00000160: 7b8f f03d 6aa4 9f3d 31e4 af3d 5109 d5bd
00000170: 5b40 983d c91d 08be 24dd 5e3d 0878 40be
00000180: b1e4 13be 5cc5 53be 8f20 e93d d023 a9be
00000190: 4303 e23d 9780 dabd cec7 883d 075c 8e3d
000001a0: 5c2b 20be 1722 fc3d f2de c9bd d8d0 5cbe
000001b0: d154 1ebe e36a 083e d0a6 f43d 5ce2 06be
000001c0: 18b8 28be dcb8 ad3d a495 b13d f33f 45be
000001d0: 0ce7 71be 6ed9 c83d 662d 5cbe 101c 34be
000001e0: ac37 66be 0698 6d3e 77d2 1fbe 290f 3dbc
000001f0: 0bae 43be bc0d 1cbe d80a 753c c4f6 76bc
0.08964312 0.055401303 0.11204052 -0.18991873 0.104900375 0.08510959 -0.22752963 -0.14066978
-0.15493 -0.21825926 -0.18344001 -0.14789456 -0.21417665 0.06703492 -0.17133218 -0.18635534
-0.15135318 0.067349985 0.08590083 -0.17280394 0.081507534 0.011929008 -0.23551771 -0.20076722
0.035244327 0.042363204 0.06736261 -0.12712713 0.08416708 -0.1994425 0.05590297 -0.13385853
-0.15100527 -0.18239579 0.0730615 0.12442079 0.034493607 -0.15303011 0.06950721 0.05337264
-0.17577101 0.09044437 -0.23845144 -0.27008012 -0.20535567 0.26155332 0.10254682 -0.15792723
-0.16771033 0.10284342 0.04885068 -0.29372776 -0.22183037 0.043787703 -0.03953329 -0.22694793
-0.20045103 -0.116427206 -0.13800362 -0.08035897 -0.24370503 -0.20964146 0.017804468 -0.27483398
0.12145307 0.109906144 0.15300874 -0.19372073 0.14828952 0.100440234 -0.16010813 -0.17036629
-0.14082272 -0.118981 -0.15472962 -0.1328459 -0.21168998 0.0750927 -0.1409438 -0.13706787
-0.12334532 0.08328203 0.1343607 0.22086012 0.07372381 0.100961186 -0.19341363 -0.16741267
0.11746117 0.07795031 0.08588446 -0.104021676 0.0743415 -0.13292612 0.054410115 -0.18795788
-0.14442708 -0.20680755 0.11383163 -0.33035135 0.110357784 -0.10669058 0.06678735 0.069511466
-0.1564154 0.123111896 -0.098569766 -0.21564043 -0.15462042 0.13322024 0.119458795 -0.13172287
-0.16476476 0.08482525 0.0867112 -0.19262676 -0.23623294 0.098070964 -0.21501693 -0.1758883
-0.22482175 0.23202524 -0.1560763 -0.011539259 -0.19109361 -0.15239614 0.014956199 -0.015073482

fc2.bias f4 [2]
00000000: 5141 a13e 3826 1bbe
0.31495145 -0.15151298
