assignment-5/models/best_model_81.5.pth (torch, 110560 bytes, 8 tensors)

conv1.weight f4 [4, 4, 8, 8]
0	0xbdb2d826	-0.08732633
1	0x3f1b6092	0.6069423
2	0xbe8d4dd6	-0.27598447
3	0xbd1d2331	-0.03836364
4	0xbce94952	-0.028477345
5	0x3e2cc600	0.16872406
6	0x3e86dbd6	0.26339597
7	0x3e8ab3f8	0.2709043
8	0x3d854958	0.0650813
9	0xbe5004b6	-0.20314297
10	0xbe004e17	-0.12529789
11	0xbe92844e	-0.28616565
12	0xbd813da0	-0.06310582
13	0xbd0844b0	-0.03326863
14	0xbea8d86e	-0.32977623
15	0x3c0c1b6a	0.008551458
16	0x3e6ade25	0.22936304
17	0x3b01c1e7	0.0019799413
18	0xbe1beca3	-0.15226988
19	0x3e1dfe1d	0.15428968
20	0xbe15ddd6	-0.14635405
21	0x3e08e71c	0.13369411
22	0xbec9a580	-0.3938408
23	0x3df2dceb	0.11858543
24	0x3ba6900d	0.00508309
25	0xbd816ef1	-0.063199885
26	0x3dd10bba	0.10207315
27	0xbf04b4b2	-0.5183822
28	0xbefdbed1	-0.49559644
29	0xbd4d9db9	-0.050199244
30	0x3e14d825	0.14535578
31	0x3d699081	0.057022575
32	0xbd622dfb	-0.05521963
33	0xbdc59de5	-0.096492566
34	0xbe2dac74	-0.16960317
35	0xbe52e42d	-0.20594855
36	0xbdaa498f	-0.083148114
37	0xbde3c434	-0.11121407
38	0x3eee07c0	0.46490288
39	0xbd9176e8	-0.07102758
40	0xbeb4c9ab	-0.3531011
41	0x3e8dda72	0.27705723
42	0xbd351d78	-0.044217557
43	0xbdee1b37	-0.116262846
44	0x3e859b63	0.26095113
45	0xbd315ef9	-0.043303464
46	0xbeb4ba9d	-0.35298625
47	0xbb93979f	-0.0045041586
48	0x3e017917	0.12643848
49	0xbd9f6bb3	-0.07784214
50	0x3d5d4e69	0.054029856
51	0xbc3803e9	-0.011231401
52	0x3e540f03	0.20708852
53	0x3ca86d55	0.020559946
54	0x3d383091	0.04496819
55	0xbd10cad8	-0.035349697
56	0xbd71e8ca	-0.059059896
57	0xbe0c4ad8	-0.13700426
58	0xbe3d964b	-0.18514363
59	0xbd7ba3d6	-0.061435543
60	0xbda10ac9	-0.07863385
61	0xbe8cdb14	-0.27510893
62	0xbaebc184	-0.0017986749
63	0x3cdd52bf	0.027016995
64	0x3e1b4ba2	0.1516557
65	0x3cde8835	0.027164558
66	0xbc2356b4	-0.009969402
67	0xbe1a59ee	-0.15073368
68	0xbc842700	-0.016131878
69	0xbdf61473	-0.12015619
70	0x3e5655d9	0.20931186
71	0xbebd1c79	-0.36935785
72	0xbf4e29fe	-0.80532825
73	0x3b6eee15	0.0036457826
74	0xbedcdb2e	-0.4313597
75	0x3e14b64a	0.14522663
76	0xbe09a164	-0.13440472
77	0xbdf8ee4c	-0.121548265
78	0x3e08ae68	0.1334778
79	0xbee08cdf	-0.43857476
80	0xbd74671a	-0.059668638
81	0x3e939173	0.28821906
82	0xbe0081d3	-0.12549524
83	0x3e9a560b	0.3014377
84	0xbe09b24e	-0.13446924
85	0x3cde1fbf	0.027114747
86	0x3e8e6fd9	0.27819708
87	0xbc07a616	-0.008279344
88	0xbe17b049	-0.14813341
89	0xbf0bd7d0	-0.5462618
90	0x3ee7fdcf	0.45310828
91	0x3de17ae0	0.11009765
92	0xbe162679	-0.14663114
93	0xbdf364a8	-0.11884433
94	0xbda67b51	-0.081289895
95	0xbe571ea4	-0.21007782
96	0xbf3f5df2	-0.74752724
97	0xbeaf7f09	-0.34276608
98	0xbe193b2b	-0.14963977
99	0x3905f6e0	0.00012775837
100	0xbd85ea2d	-0.06538806
101	0xbd92fdb2	-0.07177295
102	0x3eb0aed2	0.34508377
103	0xbe1dda93	-0.1541541
104	0xbe1ffec3	-0.15624528
105	0xbeeb2369	-0.45925453
106	0xbe36d7ec	-0.17855805
107	0xbbf008dc	-0.007325275
108	0xbe84a436	-0.25906533
109	0x3d0c1d3f	0.03420758
110	0xbd92bb89	-0.07164676
111	0xbe49ceab	-0.19707744
112	0x3e516efc	0.20452493
113	0x3e99414a	0.29932624
114	0x3e40bae9	0.188213
115	0x3ceeb0dc	0.029137067
116	0xbd85703d	-0.065155484
117	0xbd54a59b	-0.051915746
118	0xbe22ba25	-0.15891321
119	0xbe6be895	-0.23037942
120	0xbda9b5b2	-0.08286609
121	0xbdf5df63	-0.12005498
122	0xbe68fd2b	-0.22752826
123	0xbde53753	-0.11192193
124	0xbe20bf3a	-0.15697947
125	0xbdb86ff3	-0.090057276
126	0xbe1ea5b7	-0.15492903
127	0x3d7aeab3	0.061258983
128	0x3e9bab9e	0.3040437
129	0x3f256661	0.6460934
130	0x3e96e952	0.29474884
131	0xbde103dc	-0.10987064
132	0xbcc7d745	-0.02439464
133	0x3db79658	0.08964223
134	0x3dbfbfea	0.093627766
135	0x3e0ce004	0.1375733
136	0xbeb92f1a	-0.36168748
137	0x3e069d67	0.13145982
138	0xbf519304	-0.81864953
139	0x3e4b5fe2	0.19860795
140	0xbee535a4	-0.44767487
141	0xbf2793ee	-0.654601
142	0xbe67940e	-0.22615072
143	0xbee557a7	-0.44793436
144	0xbdfed690	-0.12443268
145	0x3e3035a1	0.17207958
146	0xbd9b1b70	-0.07573593
147	0xbc44515c	-0.011982288
148	0xbdbfe8cc	-0.09370574
149	0xbec02555	-0.37528482
150	0xbe947f41	-0.29003337
151	0xbf595e5a	-0.84909594
152	0xbf02fed7	-0.51170105
153	0xbe837542	-0.25675398
154	0x3dc0d8b6	0.09416334
155	0xbdb6b601	-0.08921433
156	0xbec52fc2	-0.38513
157	0xbe33b929	-0.17551102
158	0xbee7972f	-0.4523253
159	0x3ccf4e8d	0.02530601
160	0xbef2722f	-0.4735274
161	0x3ecb7296	0.3973586
162	0x3df17a72	0.11790933
163	0x3e148b5f	0.14506291
164	0xbe13b988	-0.14426243
165	0xbe22bc33	-0.15892105
166	0x3d7630e5	0.060105223
167	0xbdc4b08a	-0.09603985
168	0xbf137925	-0.57606727
169	0xbe1c84ee	-0.15285084
170	0xbe113adf	-0.14182614
171	0x3dc3fb05	0.095693626
172	0xbc5a3b62	-0.013319822
173	0xbc0fc668	-0.008775331
174	0x3dd16ab8	0.10225433
175	0xbe16cefb	-0.14727394
176	0x3e85c51f	0.26126954
177	0xbdf0077c	-0.117201775
178	0x3d2eb42a	0.042652287
179	0x3d917b43	0.071035884
180	0x3ec28c0b	0.3799747
181	0x3d2b8980	0.041879177
182	0x3e33810f	0.175297
183	0xbd7ae738	-0.061255664
184	0x3d520c1a	0.051281072
185	0x3e03e39e	0.12879798
186	0xbe8d70a2	-0.27624995
187	0x3e31b4ca	0.17354122
188	0xbd067a67	-0.032831576
189	0x3dbf5bbb	0.09343668
190	0x3e17ba81	0.1481724
191	0xbde79980	-0.11308575
192	0x3e6e6484	0.23280531
193	0x3f375532	0.7161437
194	0x3f3c8e30	0.7365446
195	0xbdaad45a	-0.08341284
196	0x3ed39ad5	0.41329065
197	0x3f4d904c	0.80298305
198	0x3e56ac1c	0.20964092
199	0x3f5f6352	0.87260926
200	0x3e6740b7	0.2258328
201	0x3f26fee2	0.6523267
202	0xbf0ce8f1	-0.5504294
203	0x3da1c8d5	0.07899634
204	0x3df4ad88	0.11947161
205	0x3f34f1fd	0.70681745
206	0x3f1a1abd	0.6019705
207	0x3f103168	0.5632539
208	0x3ea33fcc	0.3188461
209	0x3ed44b53	0.41463718
210	0x3e6cdc94	0.23131019
211	0x3e74b91a	0.23898736
212	0x3ecc91a4	0.39954865
213	0x3eed739f	0.46377274
214	0x3f72f23e	0.9490088
215	0x3e284814	0.16433746
216	0x3ec4498b	0.3833736
217	0xbd8e86cc	-0.06959304
218	0x3e96b3a0	0.29433918
219	0xb9cde195	-0.0003926872
220	0x3e3578d0	0.17721868
221	0x3eeeb487	0.46622106
222	0x3e696c44	0.22795206
223	0x3f3a3f9f	0.7275333
224	0xbd526f3a	-0.051375605
225	0x3e3ece07	0.1863328
226	0x3eff1e4e	0.49827808
227	0xbde584b9	-0.112069555
228	0x3edc32a3	0.43007383
229	0x3f15aa32	0.5846282
230	0xbd5c20b4	-0.053742126
231	0x3ecc9851	0.39959958
232	0xbdd43789	-0.10362155
233	0xbda0204c	-0.0781866
234	0x3e9c8a33	0.30574188
235	0xbd375fef	-0.044769224
236	0x3e0af52a	0.13570085
237	0x3e2e2ed2	0.17010048
238	0x3f29e193	0.66359824
239	0x3f0cca96	0.5499662
240	0x3eb1fae9	0.34761742
241	0x3e1adc02	0.15122989
242	0x3e4dfd2b	0.20116107
243	0xbeadb323	-0.33925733
244	0xbcd81946	-0.026379239
245	0xbe482fe8	-0.19549525
246	0x3e9d32a7	0.30702707
247	0x3d6165c8	0.055028707
248	0x3e264437	0.1623696
249	0x3e6e0e94	0.23247749
250	0xbe02b2fb	-0.12763588
251	0x3d70fb53	0.05883343
252	0x3e8f3c93	0.27975902
253	0x3e87b96f	0.26508662
254	0x3ea7cc48	0.32773042
255	0x3f25c0d4	0.6474736

conv1.bias f4 [4]
0	0xbf0a34f5	-0.53987056
1	0xbda0aedb	-0.07845851
2	0xbd62aac0	-0.05533862
3	0xbd995289	-0.074864455

conv2.weight f4 [8, 4, 4, 4]
0	0xbd8cc10c	-0.06872758
1	0x3e23ace2	0.15983918
2	0xbd78a519	-0.060704324
3	0x3da62f8f	0.0811454
4	0xbf3701e6	-0.7148727
5	0x3c6fc88b	0.0146352155
6	0xbf13094b	-0.57436055
7	0xbfbb87aa	-1.4650776
8	0xbf462e8e	-0.77414787
9	0x3e8d7a96	0.27632588
10	0x3d94c36a	0.07263835
11	0xbfa79eb7	-1.3095311
12	0xbf394b2c	-0.7238033
13	0xbec4e4c2	-0.38455778
14	0x3d72346b	0.05913202
15	0xbe5dce40	-0.2166071
16	0x3d117382	0.035510547
17	0x3d372c11	0.04471976
18	0xbeb13a75	-0.34614912
19	0x3dcc13f8	0.09964746
20	0xbe60a0d5	-0.21936353
21	0xbed7103a	-0.42004567
22	0xbf8888f3	-1.0666794
23	0xbefc31f8	-0.49256873
24	0xbd89ebe8	-0.06734449
25	0xbf4ff7b3	-0.81237334
26	0xbfd05a5a	-1.6277573
27	0xbf36e6e2	-0.7144605
28	0x3e09c0dd	0.13452478
29	0xbeb76bf1	-0.3582454
30	0xbee4170d	-0.44548836
31	0xbedbc621	-0.42924598
32	0x3d9f9120	0.07791352
33	0xbd9a36ba	-0.075299695
34	0x3d5d5be1	0.0540427
35	0x3ea58776	0.3232991
36	0x3de03e18	0.109493434
37	0xbe2457b4	-0.16049081
38	0xbec20043	-0.37890825
39	0x3f007a9f	0.50187105
40	0x3d2dcdfd	0.042432774
41	0xbe1acc8d	-0.15117092
42	0xbf06f757	-0.5272116
43	0x3e1b4c70	0.15165877
44	0x3dd11d2d	0.10210643
45	0xbf086062	-0.5327207
46	0x3f0d0ae4	0.5509474
47	0xbee89d67	-0.45432588
48	0x3defa1c9	0.1170078
49	0x3dce496e	0.10072599
50	0x3ddca70c	0.10774049
51	0x3ed9545b	0.4244717
52	0xbbed5b72	-0.007243567
53	0xbe01ee1b	-0.12688486
54	0x3e8c2ab6	0.27376336
55	0xbca820fb	-0.020523539
56	0x3c9a0e73	0.018805718
57	0x3e3a78f1	0.18210198
58	0x3eff3663	0.4984618
59	0x3f71e476	0.9448923
60	0x3d4d7e08	0.05016902
61	0xbd077ddb	-0.03307901
62	0x3e7bd089	0.24591269
63	0x3eac6985	0.33674255
64	0xbc894d85	-0.016760597
65	0x3cea1123	0.028572625
66	0xbd4d039f	-0.05005228
67	0x3d2ee5a7	0.042699482
68	0xbf6f21cd	-0.9341095
69	0x3e852daa	0.260114
70	0xbf582cab	-0.8444316
71	0xbed0cf0c	-0.40782964
72	0x3d7e3567	0.062062647
73	0xbe160111	-0.14648844
74	0xbdeea758	-0.11653012
75	0x3b8f1500	0.004366517
76	0xbe976ae4	-0.2957374
77	0x3d6c6a72	0.0577187
78	0x3e1d92d5	0.15388043
79	0x3e17732b	0.14790027
80	0xbf209b29	-0.62736756
81	0xc0a18dd3	-5.0485625
82	0xbf834dcc	-1.0258117
83	0xbde4280b	-0.1114045
84	0xbe1936ca	-0.14962307
85	0x3e82f401	0.25576785
86	0xbfdb8d33	-1.7152466
87	0xbf49dc77	-0.7885203
88	0xbe523435	-0.20527728
89	0x3d82bd72	0.0638379
90	0xbf7fefd7	-0.9997534
91	0xbce0e020	-0.027450621
92	0xbea5e30c	-0.32399786
93	0xbea99337	-0.3312013
94	0xbdba5d2a	-0.09099801
95	0xbe939716	-0.28826207
96	0x3e358468	0.1772629
97	0xbcbc4302	-0.02298117
98	0xbe2c7321	-0.16840793
99	0x3e3eba70	0.18625808
100	0x3ee5541b	0.4479073
101	0xbe4293ba	-0.19001666
102	0xbe32d193	-0.17462759
103	0x3e7884b1	0.24269368
104	0x3ed17745	0.40911308
105	0xbd4f31e7	-0.0505847
106	0x3f006812	0.501588
107	0x3e3664cc	0.17811888
108	0xbe12446d	-0.14283915
109	0x3f32a27e	0.69779193
110	0x3dc46a89	0.095906325
111	0x3ea74a0a	0.32673675
112	0x3d45a7e4	0.048255816
113	0xbd2212ab	-0.039568584
114	0x3d22e1a1	0.039765958
115	0x3dd4ce45	0.10390905
116	0xbe800dab	-0.25010428
117	0xbe21632a	-0.15760484
118	0x3d1087b0	0.03528565
119	0x3d6f8ecf	0.058485802
120	0xbea16013	-0.3151861
121	0xbe5cc699	-0.21560134
122	0x3f0ecd6d	0.55782205
123	0x3e035567	0.12825547
124	0x3e9cf35b	0.30654415
125	0xbca70273	-0.02038691
126	0x3e23f70f	0.16012214
127	0x3e25afd0	0.16180348
128	0xbce09ed4	-0.027419485
129	0xbf25dfa4	-0.64794374
130	0xbe6eade2	-0.23308519
131	0xbc7085c4	-0.01468033
132	0xc00f6b0c	-2.2409086
133	0xbe566530	-0.20937037
134	0xbf04c869	-0.518683
135	0xbeb93fe4	-0.36181557
136	0xbf0118da	-0.50428545
137	0xbe10f42a	-0.14155641
138	0x3eedf376	0.46474808
139	0xbc9a90e5	-0.01886792
140	0x3f0322ef	0.5122518
141	0x3f817e3f	1.0116652
142	0xbf8f4dbf	-1.1195601
143	0x3da7d789	0.08195407
144	0xbe40d21a	-0.18830147
145	0xbf0a2b51	-0.53972346
146	0x3e343264	0.17597347
147	0x3e73bbf5	0.23802169
148	0xbf2ea749	-0.68224007
149	0xbebfdd22	-0.37473398
150	0xbcc69b19	-0.024243878
151	0xbf52a6cd	-0.8228577
152	0xbf0533ab	-0.52031964
153	0xbcc8e687	-0.024523987
154	0xbf9f066a	-1.2423832
155	0xc05767b5	-3.3657048
156	0xbd17b74e	-0.037040047
157	0xbf7ac63e	-0.97958744
158	0xbf6838c3	-0.9071161
159	0xbfecac79	-1.8490134
160	0xbf5390f5	-0.8264306
161	0xbe9e5210	-0.30921984
162	0x3eb9dd62	0.36301714
163	0xbd8e45b4	-0.069468886
164	0xbf4b4f3d	-0.79417783
165	0x3edb11a6	0.42786902
166	0x3e084ab7	0.13309751
167	0x3d0881c5	0.033326883
168	0xbf696d45	-0.9118236
169	0x3f3a85ef	0.72860616
170	0xbf87eeec	-1.0619788
171	0x3da09ebf	0.078427784
172	0xbdb44ed1	-0.088040955
173	0xbf3f24fb	-0.746658
174	0xbf0960bc	-0.5366323
175	0xbe93129b	-0.28725132
176	0x3ddbcbeb	0.10732254
177	0xbe23da33	-0.16001205
178	0xbeaefbb0	-0.34176397
179	0x3b90e961	0.004422352
180	0x3e402621	0.18764545
181	0xbdbea910	-0.0930959
182	0xbe18faec	-0.14939469
183	0xbdbf5f75	-0.09344379
184	0x3d7bfb88	0.061519176
185	0xbba9e79e	-0.0051850816
186	0xbf48e32a	-0.78471625
187	0xbd1d4f6b	-0.038405817
188	0xbd71cdf0	-0.059034288
189	0xbe214ce1	-0.15751983
190	0xbf708ea2	-0.9396764
191	0xbda8025f	-0.08203577
192	0xbe84dda1	-0.2595034
193	0xbf2f8eec	-0.68577456
194	0xbe95db6c	-0.29268968
195	0xbe418457	-0.1889814
196	0x3db1645a	0.08661719
197	0xbf2398ff	-0.6390533
198	0x3e81cbad	0.25350705
199	0x3d258394	0.040408686
200	0xbe8952c4	-0.26820958
201	0x3e57c651	0.21071745
202	0xbf622c2a	-0.8834864
203	0xbf2e3c0f	-0.6806039
204	0xbdbc3058	-0.09188908
205	0xbbc3960c	-0.0059688147
206	0x3da5f5f5	0.08103553
207	0x3e6d88d9	0.23196734
208	0xbf8a1938	-1.0788946
209	0xbe430188	-0.19043553
210	0x3ec93cd1	0.39304212
211	0x3f271cad	0.6527813
212	0xbf909e09	-1.1298229
213	0xbe8f05e2	-0.27934176
214	0xbef126ef	-0.47100016
215	0x3e7d5629	0.24739899
216	0xbf49d3f0	-0.78839016
217	0xbbb0f1f1	-0.0053999354
218	0xbef1384b	-0.4711326
219	0xbdf1840c	-0.11792764
220	0x3e01bf02	0.1267052
221	0x3e795487	0.24348651
222	0x3e2f5030	0.17120433
223	0x3e697a2b	0.2280051
224	0xbeb19f07	-0.3469164
225	0x3eb060c3	0.34448823
226	0x3f071cc1	0.5277825
227	0xbe34768d	-0.17623349
228	0xbf7969a6	-0.9742683
229	0x3d96ed71	0.07369507
230	0x3e90d7b7	0.28289577
231	0x3ed85993	0.4225584
232	0x3e9c5fbd	0.30541793
233	0xbf118654	-0.56845593
234	0xbe26c27f	-0.16285132
235	0x3f1bebe9	0.60906845
236	0x3c8016e2	0.015635911
237	0x3d606149	0.05478028
238	0x3cf84c22	0.03030974
239	0x3ec2df5f	0.38061044
240	0x3d8dc93e	0.069231495
241	0x3d56608c	0.052338168
242	0xbf60f0dc	-0.8786752
243	0xc016657a	-2.3499436
244	0x3eb00c5b	0.34384426
245	0x3f0044c8	0.5010495
246	0xbec513d1	-0.3849168
247	0xbf78f735	-0.9725221
248	0x3e30fc2b	0.17283694
249	0x3dd6c038	0.104858816
250	0x3e935ac1	0.28780177
251	0x3d2bc625	0.041937012
252	0x3b622eec	0.003451283
253	0x3e7b1614	0.24520141
254	0x3e8b37c7	0.27190992
255	0x3de897d8	0.11357087

conv2.bias f4 [8]
0	0x3e36ab0a	0.17838684
1	0xbc9aea69	-0.018910604
2	0x3e9371ff	0.2879791
3	0x3c8d2f63	0.01723451
4	0xbc29a929	-0.010355272
5	0xbe7f723d	-0.24945922
6	0xbdfa3b70	-0.12218368
7	0xbea4466d	-0.3208498

fc1.weight f4 [64, 392]
0	0xbe4ebd83	-0.2018948
1	0xbe87af25	-0.26500812
2	0xbf229844	-0.6351359
3	0x3f023cb5	0.5087388
4	0xbed59574	-0.41715586
5	0x3e75e0ee	0.24011585
6	0x3d228305	0.03967573
7	0xbf3230d9	-0.69605786
8	0x3f07c17f	0.53029627
9	0xbe334d13	-0.1750987
10	0x3f13fd6a	0.57808554
11	0xbe9dda35	-0.3083054
12	0x3ea3eb75	0.32015577
13	0x3f68b766	0.90904844
14	0x3df048a8	0.11732608
15	0xbfa4810a	-1.285188
16	0xbe79506d	-0.24347086
17	0xbe849716	-0.2589652
18	0x3f31fa1a	0.6952225
19	0x3e2db04b	0.16961782
20	0xbdf45ea6	-0.11932115
21	0xbe0ad1a4	-0.13556534
22	0xbfc746c2	-1.5568469
23	0xbf0e0cfc	-0.5548856
24	0x3f466dfc	0.7751157
25	0x3ea81f4b	0.32836375
26	0x3de040d6	0.109498665
27	0xbe341886	-0.1758748
28	0xbeda9dc1	-0.42698482
29	0xbf482ecc	-0.78196406
30	0xc02023a4	-2.5021753
31	0x3e9716fd	0.29509726
32	0xbf48261a	-0.7818314
33	0xbf087bf0	-0.53314114
34	0x3f88ec86	1.0697181
35	0x3ebab641	0.36467174
36	0x3cea365f	0.02859038
37	0x3e8ca918	0.27472758
38	0xbf16efcf	-0.5895967
39	0x3dc6c0da	0.09704752
40	0x3e932648	0.28740144
41	0xbd8ce777	-0.06880086
42	0x3d766668	0.060156256
43	0x3f12c285	0.57328063
44	0xbf27058a	-0.65242827
45	0x3e479fbb	0.19494526
46	0xbe5940d1	-0.21216132
47	0xbe5ca45f	-0.21547078
48	0x3e715d46	0.23570737
49	0xbe940f47	-0.28917906
50	0xbfb982e2	-1.4493067
51	0xbf1a6c9a	-0.6032196
52	0xbe4e3e5a	-0.20140973
53	0xbe815d1d	-0.25266352
54	0x3f1d961f	0.6155719
55	0x3f4f3fdf	0.80956835
56	0x3ec2fec1	0.38084987
57	0xbd68590a	-0.05672554
58	0xbf2c4eaf	-0.6730756
59	0x3f1bcfee	0.6086415
60	0x3efd04d4	0.49417746
61	0xbf91f57d	-1.1403042
62	0x3e2f9c63	0.171495
63	0xbefe7bd1	-0.4970384
64	0x3ebdb276	0.37050217
65	0xbe99d248	-0.30043244
66	0x3e86dd13	0.2634054
67	0xbec13468	-0.37735295
68	0xbf2bde75	-0.6713632
69	0x3f2c32d6	0.6726507
70	0xbdd712d9	-0.10501642
71	0x3f0df1f6	0.5544733
72	0xbdc318c4	-0.09526208
73	0xbf2ec81f	-0.6827411
74	0x3ee7247d	0.45145026
75	0xbcaac295	-0.020844737
76	0x3dcd6c2c	0.10030398
77	0x3d8c6257	0.06854694
78	0x3f50dad1	0.8158389
79	0xbdc23201	-0.09482194
80	0x3f2a4c71	0.6652289
81	0x3dde3d42	0.10851528
82	0x3e98d8da	0.29852945
83	0x3e3de430	0.18544078
84	0x3e89dba9	0.269254
85	0xbf233491	-0.63752085
86	0xbdedfc74	-0.11620417
87	0x3f1f7e28	0.62301874
88	0x3fbdfbd5	1.4842478
89	0xbed0a5a3	-0.4075137
90	0x3edf3f3c	0.43602931
91	0x3e976833	0.29571685
92	0xbe961577	-0.2931325
93	0xbe8e3a6d	-0.2777895
94	0xbef73195	-0.48280016
95	0xbf1921c6	-0.5981716
96	0xbed057fc	-0.40692127
97	0x3ea2bec7	0.31786177
98	0xbecca1a7	-0.3996708
99	0x3f5dca35	0.8663667
100	0x3f29ba26	0.66299665
101	0xbf0cbf2a	-0.54979193
102	0x3dd2e34e	0.10297261
103	0x3e361df2	0.1778486
104	0x3d16ed31	0.036847297
105	0x3f4aeee6	0.7927078
106	0x3eb4c239	0.3530443
107	0x3fd27ffc	1.6445308
108	0xbf24b14c	-0.64333034
109	0x3ecafe2e	0.3964705
110	0x3e049be0	0.12950087
111	0xbe93e58e	-0.28886074
112	0xbda8fbcd	-0.08251152
113	0x3df987eb	0.121841274
114	0xbf65fb3d	-0.89836484
115	0xbece81b5	-0.40333334
116	0x3f6cbb3b	0.9247319
117	0x3e8c3c4e	0.2738976
118	0xbe6b84fe	-0.22999951
119	0x3dc911ef	0.09817874
120	0xbf58dc25	-0.84710914
121	0xbfc58729	-1.5431873
122	0xbe2ca2a9	-0.16858925
123	0x3fc39859	1.5280868
124	0xbd51a3bc	-0.05118154
125	0xbde500ab	-0.11181768
126	0xbca4bb48	-0.020108834
127	0x3eef2e4e	0.46715015
128	0xbfa181b8	-1.2617712
129	0xbf08b634	-0.5340302
130	0x3f9fffd0	1.2499943
131	0x3ee9453b	0.4556063
132	0x3e7831b7	0.24237715
133	0x3d5611c7	0.052263048
134	0xbee715c4	-0.45133793
135	0xbf417650	-0.75571156
136	0xbfced856	-1.615977
137	0x3f0a8d37	0.54121727
138	0x3bf67ddb	0.0075223274
139	0xbde6f1a7	-0.1127656
140	0xbf2a39a6	-0.66494215
141	0x3ec7a2fb	0.38991532
142	0x3e1af449	0.1513225
143	0xbf166592	-0.58748734
144	0x3bc4bc00	0.0060038567
145	0x3ea37c43	0.31930742
146	0xbf020de7	-0.50802463
147	0x3eac2ce2	0.33627993
148	0x3db4a7d9	0.08821077
149	0x3f997e63	1.1991695
150	0x3e07185f	0.1319289
151	0xbe1f33dc	-0.15547127
152	0xbec1cd95	-0.3785216
153	0x3ee9a23d	0.4563159
154	0xbc12fdaa	-0.008971611
155	0x3ea5de39	0.32396105
156	0xbf30b8ce	-0.6903199
157	0xbe7c4f1d	-0.24639554
158	0xbf3277b3	-0.69713897
159	0xbeb19b26	-0.3468868
160	0x3e8434f1	0.2582164
161	0x3deac13f	0.1146264
162	0x3dcb47ba	0.0992579
163	0x3e899b0a	0.26876098
164	0xbd4ba261	-0.049715403
165	0x3e4403e3	0.19142108
166	0xbeaf1fdc	-0.34203994
167	0x3f24c8c6	0.64368856
168	0xbd27aee9	-0.04093829
169	0x3d3dd44d	0.046345044
170	0xbf4ec529	-0.8076959
171	0xbf226714	-0.63438535
172	0xbde6a7c9	-0.11262471
173	0xbe1b55fc	-0.15169519
174	0x3e4bd871	0.19906785
175	0xbe3f7629	-0.18697418
176	0xbd828621	-0.06373239
177	0xbf64f257	-0.8943228
178	0xbe9b2e73	-0.30308875
179	0xbc89e5df	-0.016833244
180	0x3ec6a5ae	0.3879828
181	0xbd56316a	-0.05229322
182	0xbc5754c4	-0.013142768
183	0xbcb3e395	-0.021959106
184	0x3f4cabf6	0.7994989
185	0x3e8e4e0e	0.27793926
186	0x3ed5be32	0.4174667
187	0x3e8cdedc	0.27513778
188	0x3f4c41b9	0.79787785
189	0x3ec9e536	0.39432687
190	0x3daf6725	0.08564595
191	0x3edeb0c6	0.43494242
192	0x3f96868e	1.1759813
193	0xbeeb6c5b	-0.45981106
194	0x3eec620e	0.4616856
195	0x3dae0704	0.08497432
196	0xbf5db508	-0.86604357
197	0xbe96c359	-0.29445913
198	0x3e02526d	0.12726755
199	0x3f584ae1	0.84489256
200	0x3e213a2d	0.15744849
201	0x3d5355fc	0.051595673
202	0xbf9be671	-1.21797
203	0xbf22e6bf	-0.6363334
204	0x3c1631ad	0.009167117
205	0x3f61863b	0.88095444
206	0xbf46e6be	-0.77695835
207	0xbe8b94c4	-0.27261937
208	0x3ef7a6ff	0.48369595
209	0x3ebe0a13	0.3711706
210	0x3e99006b	0.2988313
211	0xbce2f37e	-0.027703997
212	0xbfd48c54	-1.6605325
213	0xbf26dc43	-0.6517984
214	0x3f25bda9	0.64742523
215	0xbf01956d	-0.5061863
216	0xbf23aca3	-0.639353
217	0x3eefd690	0.46843386
218	0xbd379a04	-0.044824615
219	0xbf8b3718	-1.0876188
220	0xbddf0aab	-0.10890707
221	0x3ec3b5e8	0.3822472
222	0xbfa32a7c	-1.274734
223	0x3f490b06	0.78532445
224	0x3e2cc64e	0.16872522
225	0x3c948d5e	0.018133815
226	0x3e1cce95	0.1531318
227	0xbef21885	-0.47284332
228	0x3f04065c	0.51572204
229	0xbe77dd24	-0.24205452
230	0x3f6770b0	0.9040632
231	0x3ed70a5d	0.42000094
232	0xbef21388	-0.47280526
233	0xbf37653f	-0.71638864
234	0x3ef497b4	0.4777199
235	0xbd31eaac	-0.04343669
236	0xbd8b05ba	-0.06788202
237	0xbf0ab617	-0.541841
238	0xbe233c4b	-0.15940969
239	0xbe056601	-0.13027193
240	0x3f3cf18d	0.7380608
241	0x3efbd05b	0.491824
242	0x3d3d61e4	0.046235934
243	0x3ef43ee6	0.47704238
244	0x3e27a824	0.16372734
245	0x3e9c6ae5	0.30550304
246	0xbf93f131	-1.1557981
247	0xbeaa1364	-0.3321792
248	0x3ece3210	0.4027257
249	0xbf702903	-0.9381258
250	0xbe5440bd	-0.2072782
251	0x3f0b5813	0.54431266
252	0xbead8947	-0.33893797
253	0xbf059cb3	-0.5219223
254	0x3ea27765	0.31731716
255	0x3d5d431e	0.054019086

fc1.bias f4 [64]
0	0x3e4af58e	0.19820234
1	0x3f21b6af	0.6316938
2	0x3eb287a6	0.34869117
3	0x3f218837	0.6309847
4	0x3f825ae8	1.0183992
5	0x3e06f9ef	0.1318128
6	0x3fb7d059	1.4360458
7	0x3e9b9707	0.30388662
8	0xbd9dc7aa	-0.077040985
9	0x3f3744d8	0.7158942
10	0x3eb3c1a2	0.35108668
11	0x3f53c38b	0.8272025
12	0x3f0c2479	0.5474315
13	0x3f9df525	1.2340437
14	0x3f548f60	0.8303127
15	0xbcb184c2	-0.02166975
16	0x3f4096d0	0.7523012
17	0x3f520f27	0.8205437
18	0x3f869ea4	1.0517163
19	0xbd68ea42	-0.05686403
20	0x3f28f744	0.660023
21	0xbe43b9b4	-0.19113809
22	0x3e4f386f	0.20236371
23	0x3f84c506	1.0372627
24	0xbdbcf148	-0.09225708
25	0x3f716099	0.9428802
26	0x3f898f19	1.0746795
27	0x3fa2fcc2	1.2733386
28	0x3ea5ed77	0.32407734
29	0x3eaa7130	0.3328948
30	0x3c364977	0.011125914
31	0x3e83f98e	0.25776333
32	0x3f4285d5	0.7598546
33	0x3f0d13a2	0.5510808
34	0x3f83f6ad	1.0309654
35	0x3e96ac37	0.29428264
36	0xbe513169	-0.20429005
37	0x3f43b251	0.76443964
38	0x3ef97596	0.48722523
39	0xbd8a2c98	-0.06746787
40	0x3e7ac31d	0.24488492
41	0xbe17f575	-0.14839728
42	0x3f6cffc3	0.9257776
43	0x3f271d60	0.652792
44	0xbe0732b4	-0.13202935
45	0x3f21cfb0	0.6320753
46	0xbddb3277	-0.10702985
47	0x3ddf8396	0.1091377
48	0x3e99e01f	0.30053803
49	0x3ebb1c9e	0.3654527
50	0xbecc999d	-0.39960948
51	0x3f9bddfc	1.2177119
52	0xbe40b749	-0.18819918
53	0x3e4f8c65	0.202684
54	0x3f7c5c3a	0.98578227
55	0xbdae10be	-0.08499287
56	0x3eab6a8f	0.33479735
57	0x3f6df92d	0.9295834
58	0xbedf651b	-0.43631825
59	0x3f548978	0.8302226
60	0x3f1c6d34	0.6110413
61	0x3f968696	1.1759822
62	0x3f92f900	1.1482239
63	0x3ed56eb7	0.4168603

fc2.weight f4 [2, 64]
0	0x3d2cfd95	0.042234022
1	0xbda39dd7	-0.0798909
2	0x3d33fb4d	0.04394083
3	0xbd80f781	-0.062972076
4	0xbd863d65	-0.06554679
5	0x3cb41ee0	0.021987379
6	0xbd81aa31	-0.063312896
7	0xbdd57e65	-0.104244985
8	0xbca54967	-0.020176603
9	0x3c5fce5d	0.013660041
10	0x3d06bd8b	0.032895606
11	0xbd933774	-0.07188311
12	0x3d3b8a71	0.045786325
13	0xbdaf7b31	-0.08568419
14	0x3d05de86	0.032682918
15	0xbda5f9d3	-0.08104291
16	0xbdb1e3d0	-0.0868603
17	0xbda3ee20	-0.08004403
18	0xbdb5dbba	-0.088798
19	0x3d8318da	0.064012244
20	0xbda920ae	-0.08258186
21	0x3d4a8552	0.04944355
22	0x3d093048	0.03349331
23	0x3a3849c5	0.00070300355
24	0x3e5ef5e8	0.21773493
25	0xbda80285	-0.082036056
26	0xbd73e204	-0.059541717
27	0xbd93a685	-0.072094955
28	0x3cac0cee	0.02100226
29	0x3c95d8dc	0.018291883
30	0x3d20d46f	0.039265092
31	0x3ccc3db2	0.024931762
32	0xbda42eec	-0.08016762
33	0x3cbf397b	0.023342839
34	0xbbbb695e	-0.005719348
35	0x3d0629e7	0.032754805
36	0x3cc7aec3	0.024375325
37	0xbd8b0417	-0.067878895
38	0x3c5b1534	0.013371754
39	0x3d60e8fc	0.05490969
40	0xbdbf8b21	-0.093527086
41	0xbc62a808	-0.013834007
42	0xbd8d9be3	-0.06914499
43	0xbb5f8e1c	-0.0034111803
44	0xbe762456	-0.24037299
45	0x3d233409	0.039844546
46	0x3ca777f0	0.020442933
47	0x3cf4d712	0.02988771
48	0x3ced7a01	0.02898884
49	0x3d00ab4d	0.031413365
50	0x3d0af1cf	0.033922013
51	0xbdc378f4	-0.09544554
52	0x3d0b2ab3	0.033976268
53	0x3d1669d6	0.036722027
54	0xbd930d4e	-0.07180272
55	0xbea12fa5	-0.31481662
56	0xbdaff597	-0.085917644
57	0xbda6ea26	-0.08150129
58	0x3d3117ed	0.043235708
59	0xbd702668	-0.058630377
60	0xbdc2d7b2	-0.09513797
61	0xbbd1c5ad	-0.0064017386
62	0xbdac2c93	-0.08406939
63	0xbe72b7e7	-0.23702966
64	0x3d067a3f	0.032831427
65	0x3bb117d7	0.0054044533
66	0xbe69ac09	-0.22819532
67	0xbdbcee5d	-0.09225152
68	0xbd81c0e1	-0.06335617
69	0x3d698129	0.057007942
70	0xbd49d831	-0.04927844
71	0xbca2ef4d	-0.019889498
72	0xbd56dafd	-0.052454937
73	0xbe6fe435	-0.23426898
74	0xbe2d3ded	-0.16918154
75	0xbd7f8739	-0.062384818
76	0xbe82543c	-0.2545489
77	0xbd8d4d72	-0.06899537
78	0x3d0f72da	0.03502164
79	0x3cc42086	0.02394129
80	0xbd7669e6	-0.060159586
81	0xbd7ceb4e	-0.06174784
82	0xbd8c1ec7	-0.06841808
83	0x3e41edd4	0.1893838
84	0xbd82f200	-0.06393814
85	0x3d9ac9ec	0.07558045
86	0x3d195ecb	0.037443917
87	0xbe31a6d0	-0.1734879
88	0x3cd70833	0.026249027
89	0xbda689ae	-0.08131729
90	0xbd1b460a	-0.03790859
91	0xbd3273de	-0.04356753
92	0x3d2fc46e	0.04291194
93	0x3d263daf	0.04058617
94	0x3d0a3b74	0.033748105
95	0x3d3250d4	0.043534115
96	0xbd6d4137	-0.05792352
97	0xbe225a80	-0.15854836
98	0xbe28d3f5	-0.16487105
99	0x3cef1c88	0.02918841
100	0x3d39e6bb	0.045386057
101	0xbd661218	-0.0561696
102	0x3d6ccf17	0.057814684
103	0x3d7702df	0.060305472
104	0xbdae96bd	-0.08524845
105	0x3e82c01c	0.25537193
106	0xbd1387d0	-0.036018193
107	0xbe69b2cb	-0.2282211
108	0x3e683c99	0.22679366
109	0xbe5cc257	-0.2155851
110	0x3cb85d89	0.022505539
111	0x3d1e4143	0.038636457
112	0x3d99c3b0	0.075080276
113	0x3d437844	0.047722116
114	0x3d6d753a	0.057973124
115	0xbd7570bf	-0.059921976
116	0x3d5a1891	0.053246085
117	0x3d02b317	0.031909075
118	0xbd36740a	-0.044544257
119	0x3d373912	0.04473216
120	0xba064201	-0.00051215297
121	0xbd1c24e5	-0.038121123
122	0x3d6c2519	0.057652567
123	0xbd699d0e	-0.057034545
124	0xbdb9300c	-0.09042367
125	0xbe27d6e7	-0.16390572
126	0xbdd3adbe	-0.10335873
127	0xbe5094fe	-0.20369336

fc2.bias f4 [2]
0	0x3fa8bb55	1.3182169
1	0x3f67f00a	0.90600646
