assignment-5/models/best_model_22.4.pth (torch, 110560 bytes, 8 tensors)

conv1.weight f4 [4, 4, 8, 8]
000000 4e ea 4b bd 64 e4 ed bc 1e 5b e3 bc 13 46 08 bb
       -0.049783997 -0.02903957 -0.027753409 -0.002079372
000010 64 55 b2 bd 13 78 8f bc 0f c3 df 3b 22 6f c0 bd
       -0.08707693 -0.01751331 0.0068286727 -0.09396197
000020 d8 03 80 3c a3 23 16 bd 22 d5 22 3d b3 e5 18 bd
       0.015626833 -0.03665508 0.03975404 -0.037328433
000030 85 c8 98 be e4 7f 1a 3e 4a 34 3d 3d ea 55 e0 3d
       -0.29840484 0.15087849 0.046192445 0.10953887
000040 8f 3c bc bd 50 4f 10 3e 0c 59 48 3c 03 33 83 3d
       -0.09191238 0.14092755 0.012228262 0.06406214
000050 c2 3b 08 3b 64 cc f5 3d ea 68 3c 3e e8 70 fa 3b
       0.0020787572 0.12001875 0.18399397 0.007642854
000060 d2 69 93 bd 17 31 88 bd 3d 78 ad be 41 e3 d5 bd
       -0.07197918 -0.06649988 -0.33880797 -0.10443736
000070 31 57 51 3e 3f 7d 4f 3e 4a a2 a7 3c 82 b7 b1 bc
       0.20443417 0.20262621 0.020463128 -0.021693949
000080 81 d6 d4 bd f1 e1 08 3d ee f2 4f be 37 3e 3f 3e
       -0.10392476 0.0334186 -0.20307514 0.18676077
000090 52 d1 90 3d d1 55 24 3e 4f bc bf 3d 5c 62 94 3c
       0.07071175 0.16048361 0.09362089 0.018113308
0000a0 db 66 27 be d6 50 0b be f7 9f 23 be d7 ff 81 bc
       -0.1634783 -0.13605055 -0.1597899 -0.015869064
0000b0 8f fe ca bb be 30 a5 3d 9b 76 0e 3c e6 c0 18 be
       -0.0061948965 0.080659375 0.00869527 -0.14917335
0000c0 a3 cf 63 3d 54 ea 65 bd b2 f7 6c be 68 a6 b9 bd
       0.05561794 -0.056131676 -0.23141363 -0.090649426
0000d0 2f e8 cc bd 92 ed 40 3e 21 20 c4 3d 61 2c 69 3e
       -0.10005223 0.18840626 0.095764406 0.22770835
0000e0 19 89 1c 3e f6 2e 03 3e 5b cb ad 3d cb a4 27 3e
       0.15286674 0.12810883 0.084860526 0.16371457
0000f0 1d f1 b2 3e 78 7f 83 3e d8 0e 64 3e 61 ce 52 3e
       0.3494958 0.25683188 0.22271287 0.2058654
000100 72 6c d1 bd 03 10 9d bd aa 72 f6 3c bb 6b ee bd
       -0.102257624 -0.076690696 0.030083973 -0.11641642
000110 be 3f 7f bd e8 79 90 bd 3d 22 9f bd 64 e7 91 bd
       -0.06231665 -0.07054502 -0.07770202 -0.071242124
000120 7e a2 8c 3c 57 02 58 bc 8d 89 20 be d0 51 6f bd
       0.017167326 -0.013184152 -0.15677471 -0.05842763
000130 98 d5 87 be 25 e1 08 be a7 c9 71 be c7 92 cd bd
       -0.26530147 -0.13367136 -0.2361208 -0.10037761
000140 33 07 63 3d 4e b5 57 bb 9e 4f e0 bd 44 89 86 3e
       0.055426788 -0.0032914462 -0.10952686 0.262766
000150 a8 80 e7 bd 67 d2 19 bc e3 cc d5 bb a8 c2 0a bd
       -0.11303836 -0.009388543 -0.0065246685 -0.033877045
000160 73 c6 b2 be c8 72 bc be c6 52 d3 bc 99 38 86 3e
       -0.3491703 -0.3680632 -0.025796305 0.26215056
000170 51 d8 80 bd ac a1 a9 3d 4f 80 14 3e 59 0f 8d bc
       -0.06291259 0.082827896 0.14502071 -0.017219232
000180 c9 49 f2 3c 22 11 3b be af e1 3f be e7 6c f4 bd
       0.0295762 -0.18268254 -0.18738435 -0.11934834
000190 77 b1 6e 3d 71 9c b6 bc 18 d9 ff bd 47 9d e5 bb
       0.058274712 -0.022291394 -0.12492579 -0.0070072743
0001a0 04 bd 24 3e d5 c8 8b 3d 34 76 af bd 39 55 50 bd
       0.16087729 0.06825415 -0.08567467 -0.050862525
0001b0 85 4c 7f 3e 19 92 9c 3d d2 1d 33 3e 3d ba 0e bd
       0.24931534 0.076450534 0.17491844 -0.03484558
0001c0 a2 4a 6b 3b 0d 52 9c 3d fa a2 b2 bc ce 3a 2c be
       0.003590264 0.076328374 -0.021806229 -0.16819307
0001d0 f2 d0 59 bd 0a 78 39 3e ea c1 1a 3e 73 2e b3 bc
       -0.05317778 0.18112198 0.15113035 -0.021872735
0001e0 95 f9 aa 3d 8d 91 be 3d 3a 25 4d 3c 50 58 40 bc
       0.08348385 0.09305105 0.012521083 -0.011739805
0001f0 87 8d ec 3d 7b 85 48 3e d9 31 c0 3d f1 07 f8 bd
       0.11550432 0.19582169 0.09384508 -0.1211089
000200 f6 67 9f 3d 7c 0a ca bc 2c 0d 08 be 99 9e 30 bc
       0.07783501 -0.024663202 -0.13286275 -0.01078
000210 45 b0 91 3d 3c 8f 68 3d 81 81 c0 3d 0a d0 11 bd
       0.07113699 0.056777224 0.09399701 -0.035598792
000220 53 e2 ed bd 73 32 79 bd 97 ac 0d be ff e3 4c be
       -0.116154335 -0.060839128 -0.13835369 -0.20008849
000230 31 20 43 be 88 6a 50 bd d6 e5 f6 bd b5 7c dc bd
       -0.19055249 -0.050882846 -0.120555565 -0.107659735
000240 93 d2 9c 3d b7 58 0c be c2 e1 32 bf fe 42 7b bd
       0.07657351 -0.13705717 -0.6987573 -0.061343186
000250 59 40 c0 bd ea dc 51 bd 54 f5 99 bc 07 da 67 3d
       -0.09387273 -0.05123607 -0.01879374 0.05660441
000260 81 33 d3 3e 10 3c b8 3d ee 2f 17 bf 3c c2 a0 bc
       0.41250232 0.08995831 -0.5905751 -0.019623868
000270 e6 8f 81 3e c7 67 3e be e3 f7 1f 3d 40 fe 2a 3e
       0.25305098 -0.18594275 0.039054763 0.16698551
000280 aa c2 b5 3e 56 dd 55 3a dd d3 a6 be 87 37 07 be
       0.3550008 0.0008158287 -0.32583514 -0.13204776
000290 65 ae 26 bd e1 c9 a9 3c 96 7d a3 3d a3 c7 25 be
       -0.04069366 0.020726146 0.07982938 -0.16189437
0002a0 cb d3 0d 3e 92 33 94 3e 48 e5 0f 3e bb 46 45 3e
       0.13850324 0.28945595 0.14052308 0.19265263
0002b0 65 4f 1d 3e c5 61 5f 3e d2 bc 92 3d 94 72 93 be
       0.15362318 0.2181464 0.07164921 -0.28798354
0002c0 ab 6f 59 bd c4 36 90 be e5 09 0b bd 7d 6b 03 be
       -0.05308501 -0.28166783 -0.033944983 -0.12833972
0002d0 ca 8a 80 3d 5b 01 82 3d be 2d 1a 3e 1f f1 6b bd
       0.06276472 0.06347915 0.15056512 -0.057602998
0002e0 b4 6b 1e 3e 60 15 9c bd 83 1b 7a bc d4 4b 62 be
       0.15470773 -0.076212645 -0.015265348 -0.22099239
0002f0 ad 62 aa 3c 65 71 ea 3d 0f 3a c4 bd a1 bf ac bd
       0.020799005 0.114474095 -0.09581386 -0.08434988
000300 5d c8 8d 3e f9 72 25 3f 95 7c cd 3e f5 d3 ae 3d
       0.27691928 0.6462856 0.4013411 0.08536521
000310 9b 03 80 3e fc 5f a7 3e 0c b0 35 3d 37 9f 54 3e
       0.2500275 0.32690418 0.044357345 0.2076386
000320 4d cd bc be f4 97 8b be 98 de a9 be 7f cd 1f be
       -0.36875382 -0.2726437 -0.33177638 -0.15605734
000330 77 86 55 3d 93 a3 50 3e 6e 5b ce bb 31 3a 9c 3c
       0.05213019 0.20374899 -0.0062975204 0.019070717
000340 ad 7e 7f be 89 51 53 be 14 1b 9b be b7 90 78 bd
       -0.24950667 -0.20636572 -0.30294096 -0.060684886
000350 ee 9d a2 3d 66 8b d8 3c 9f f5 b3 be e6 7c de 3d
       0.07940279 0.026433658 -0.35148332 0.10863666
000360 69 99 d3 be 03 62 6c bd 25 77 6b bf 7f 7c 2f be
       -0.4132798 -0.05771066 -0.91978675 -0.17137335
000370 51 df 42 3e 16 e9 bf bc cc 77 a4 be ef 17 b0 bd
       0.19030501 -0.023426574 -0.32122648 -0.08598315
000380 eb 26 ff 3b b3 24 2f bd 37 61 2b bf 99 90 a7 be
       0.007786622 -0.04275961 -0.66945213 -0.32727507
000390 67 c1 47 3e 03 65 11 bd e6 31 c6 be 2b 10 51 be
       0.19507371 -0.035496723 -0.38709944 -0.20416324
0003a0 70 a5 97 3e d1 5b 48 3e f0 eb 4b be f0 b3 31 be
       0.29618406 0.19566275 -0.19914222 -0.17353797
0003b0 e4 41 46 3b ea 87 ab be 49 de 2f 3e b9 b8 e4 be
       0.0030251676 -0.33502132 0.17174639 -0.44672182
0003c0 f9 72 8a 3d 26 a8 81 3c 7d a4 f9 bd 83 7d 3c be
       0.067602105 0.01582725 -0.12189577 -0.18407254
0003d0 ca 3d de bd 35 ab 25 be 23 70 b1 be 01 72 62 bd
       -0.10851629 -0.16178592 -0.34655866 -0.055284504
0003e0 a5 49 90 3e 21 97 ce 3d 96 54 e3 bc b5 ff 51 be
       0.28181186 0.10087419 -0.027750295 -0.205077
0003f0 c4 1a 0d be d9 96 25 3e 08 de 32 3e 96 5d b0 3d
       -0.13779742 0.16170825 0.1746751 0.086116

conv1.bias f4 [4]
000000 7a de 23 bc 76 70 59 3d c2 c3 95 bd 87 ef 30 bc
       -0.010001773 0.053085767 -0.073127285 -0.010799295

conv2.weight f4 [8, 4, 4, 4]
000000 7d 15 5a 3c a2 db 16 3e 4c 29 57 b9 c4 01 5e 3d
       0.013310787 0.14732221 -0.00020519382 0.054200903
000010 4a 55 28 be c6 63 28 bc da f0 b9 3d 4d 89 26 3d
       -0.16438785 -0.010277694 0.09079142 0.040658284
000020 a2 e1 9e be 64 7e 52 3e d0 d1 27 3d 47 ad 31 3c
       -0.3103152 0.20556027 0.040971577 0.010844535
000030 04 99 5c be 34 14 6d 3d 31 83 17 be 0f 4b 31 be
       -0.21542746 0.057880595 -0.1479614 -0.17313789
000040 26 5a b1 bc 7e fd 86 be aa ee 47 3e 2a 78 02 be
       -0.021649431 -0.26365274 0.19524637 -0.12741151
000050 a9 98 18 be 43 7f c3 bd fa 14 e2 bd 25 14 8b be
       -0.14901985 -0.095457576 -0.11039157 -0.27163807
000060 26 82 db bd dc a6 d1 3d b6 13 b5 3a 31 aa ce be
       -0.10718183 0.10236904 0.0013815078 -0.4036422
000070 df 9a 3a 3d ed 83 ae 3e 90 c6 b4 bd 70 ba 25 bf
       0.045557853 0.34085026 -0.08826935 -0.64737606
000080 f3 29 04 bf d5 d7 3d 3d b1 ac d1 3d 24 34 d0 3d
       -0.5162651 0.04634841 0.102380164 0.10166195
000090 01 92 0b be 4c 3b 4a be 03 5c c9 3d 62 aa cd 3d
       -0.13629915 -0.19749182 0.09832003 0.100422636
0000a0 39 e5 b8 be 4e f7 ad 3c b6 78 71 be 7f 7c 11 be
       -0.36112383 0.021236088 -0.23581204 -0.14207648
0000b0 1a 70 c7 bd 37 1f 36 3d 36 f3 82 be 76 7b dd bb
       -0.097381786 0.044463363 -0.2557618 -0.0067591025
0000c0 cc 9b 09 3e 8a 26 52 be 2c 74 87 be 39 31 a7 3e
       0.13438338 -0.20522514 -0.2645582 0.3265474
0000d0 76 c5 f2 bd e4 3d 33 3c ec aa 00 be ae cf 95 3e
       -0.11854069 0.010940049 -0.12565202 0.2926001
0000e0 49 27 ca bd e4 5d bd be b0 f1 ae be 0e a3 46 3e
       -0.09870774 -0.36985695 -0.34168768 0.19398138
0000f0 d8 7e a8 bd c8 dc 57 be 77 5f 99 bd f9 02 80 3d
       -0.082273185 -0.21080315 -0.074889116 0.06250567
000100 cd 9f 0f be e6 40 d5 bc a8 c7 46 3e 9c a1 29 3e
       -0.14025803 -0.026031923 0.194121 0.16565555
000110 97 4b a7 bd 85 f3 fe bb 05 80 e8 3e 32 65 13 bc
       -0.081687145 -0.0077804946 0.4541017 -0.008996295
000120 c9 66 28 bf 03 6c de 3c 2b 16 d7 3d 8a fc 87 3d
       -0.6578184 0.027151113 0.10502275 0.06639965
000130 98 e6 c7 be 2a 95 f5 be 68 be af 3d 1e ad 8b bd
       -0.39043117 -0.47965366 0.08581239 -0.06820129
000140 cb 92 a6 3c 15 58 38 be e8 e7 2b bd ae 3b 87 3e
       0.020333668 -0.1800235 -0.04196921 0.2641272
000150 81 6c 41 be b5 5d 0a be c5 6c bb 3c ac d0 3d be
       -0.18889047 -0.13512309 0.022879014 -0.18536633
000160 f3 7a a3 bc 64 c8 8b be d1 13 58 be 5c 29 e2 3e
       -0.019956088 -0.27301323 -0.2110131 0.4417218
000170 5c 68 13 3d 8a 00 22 be 4b 60 42 be 86 56 1b 3e
       0.035988197 -0.15820518 -0.18982045 0.15169725
000180 d2 a9 69 bd 40 57 72 3d 54 82 0c 3c 8a b8 2c 3d
       -0.05704672 0.05916524 0.0085759945 0.042168178
000190 7f c6 82 bd 41 91 45 bb e0 e7 13 3d 8e 0a c7 bc
       -0.063855164 -0.0030146393 0.036109805 -0.024297025
0001a0 9c 10 86 3d 59 fd 17 bf 6b b5 8b be aa 5f 30 be
       0.06546137 -0.5937095 -0.27286848 -0.17223993
0001b0 a7 80 0a bf 90 0b 1e bd 3a f4 dc be e0 5f 9e be
       -0.5410256 -0.038585246 -0.4315508 -0.30932522
0001c0 cf 55 3c bf 44 3f be 3d 98 f1 74 3e 9e 11 03 3f
       -0.73568434 0.09289411 0.23920286 0.51198757
0001d0 dd 8a b5 3d a0 28 84 3e e7 c7 3c 3e ed 6e 81 3e
       0.08864377 0.25812244 0.18435632 0.25279942
0001e0 20 64 3a be e5 3e 44 be ac 9f b3 bd 74 b7 0b 3d
       -0.18202257 -0.19164617 -0.08770689 0.0341105
0001f0 e4 e4 33 bd ee a8 f4 be 48 b1 8a be f0 5d 51 3c
       -0.04391946 -0.47785133 -0.2708838 0.012778744
000200 48 5c c7 bd 94 8f 92 3d 9e 74 55 be 70 4d a2 3c
       -0.09734398 0.071562916 -0.20845267 0.019812316
000210 f7 b1 29 be d0 8d ec bd d3 55 8c 3d 81 f3 00 be
       -0.16571794 -0.11550486 0.06852307 -0.1259289
000220 16 8d 28 3d 58 c7 07 be 6f e1 e6 3c d9 c0 65 be
       0.041150175 -0.13259637 0.028183667 -0.22436847
000230 16 2b d9 3d d1 08 fc bc 59 ce 24 3e e5 29 d9 be
       0.10603921 -0.030765923 0.1609434 -0.42414775
000240 2d c3 ef 3c 8e 3e 0e bb b8 4d c9 3d e4 40 ca 3d
       0.029267872 -0.0021704766 0.09829277 0.09875658
000250 93 2a ba bc 88 f3 8d bd f7 22 2c 3d 46 3f 87 3c
       -0.02272538 -0.069312155 0.042025533 0.016509663
000260 72 78 fc 3d 84 42 63 3d 2d 0d dc 3d ac 2a ee bd
       0.123276606 0.055483356 0.107447006 -0.11629233
000270 dc a1 a4 3c ce eb 11 bc 08 eb c9 3d ca 0f 01 be
       0.020096712 -0.008906318 0.09859282 -0.1260368
000280 df a3 13 bd 12 29 bc bd c4 6a 80 be e7 26 1c be
       -0.03604495 -0.09187521 -0.25081456 -0.15249215
000290 a2 d7 ea bd de 40 6a bd a2 b8 97 bb e3 d7 81 be
       -0.1146691 -0.05719077 -0.0046301642 -0.2536002
0002a0 9b f7 9a 3d 97 ff e8 bd 36 8b 2f be 6f 79 40 be
       0.07566758 -0.11376875 -0.17142949 -0.18796323
0002b0 08 0a 83 bd c4 98 c9 be bf 8c 52 be 39 77 7e bc
       -0.06398398 -0.39374363 -0.20561503 -0.015531355
0002c0 e6 9f 02 3e e8 c5 1b be ed 34 85 be 3b 59 e7 3c
       0.12756309 -0.15212214 -0.26016942 0.02824079
0002d0 a0 83 27 3e 2f 89 02 be 5a c1 83 be f8 50 d8 be
       0.16358805 -0.12747644 -0.25733453 -0.42249274
0002e0 9c 31 30 bd 3d 1c 75 3e f8 90 40 be c4 50 d2 3c
       -0.04301606 0.23936553 -0.18805301 0.025673278
0002f0 9a f8 b5 bd de ad e9 bd 72 bb 61 be 5e d7 8a be
       -0.088853076 -0.11410116 -0.22044161 -0.27117437
000300 a8 b3 c0 bd c4 24 b1 bb ab 0e 2e be b9 9f 33 3e
       -0.09409267 -0.005405994 -0.16997783 0.17541398
000310 a4 24 b8 be 30 75 7c bd b2 2e bf bc 06 3b 90 3e
       -0.35965455 -0.061635196 -0.023337696 0.2817003
000320 29 5c c5 be 2d cc dc 3d 0c 2c 7b bd 89 e9 de 3d
       -0.38546875 0.10781131 -0.061321303 0.10884387
000330 3e 54 c4 bd bd f7 32 3e c2 dd 13 3e fd ac 86 bd
       -0.095863804 0.17477317 0.14440063 -0.06575964
000340 b6 13 0e be 49 17 0c 3e 9b 6f 4c 3c 38 d5 81 3e
       -0.13874707 0.13680758 0.012477781 0.25357985
000350 0c 68 4d 3d 77 d2 e4 bd a3 15 0d be 3f eb 95 3c
       0.050148055 -0.111729555 -0.13777785 0.01830065
000360 d7 11 cf 3d 2e 72 bc bd ae 81 ab 3d 3b e1 00 3e
       0.101108246 -0.092014655 0.08374344 0.12585919
000370 25 1a d0 3d 46 8a 65 bc c8 20 3b 3e f0 92 a3 bd
       0.10161237 -0.014010018 0.18274224 -0.079870105
000380 cc 15 0f bd df bc 25 be f9 93 18 3c 56 81 8e be
       -0.034932896 -0.1618533 0.009312623 -0.2783305
000390 c5 7b 29 bf ed 2d 80 bd a2 27 7a 3e a9 08 c0 bb
       -0.6620448 -0.0625876 0.24429181 -0.0058604074
0003a0 cb 4f 4b be d9 65 89 bd 4f 04 3c 3e 94 87 24 3d
       -0.19854657 -0.06708879 0.18361019 0.04016836
0003b0 fa 74 63 be 25 d2 21 be ba ae 86 be 19 56 ee 3c
       -0.22212592 -0.1580282 -0.2630518 0.029093789
0003c0 09 9a 48 bb d7 cc e9 3e 81 5c f7 3d f7 ca 62 3e
       -0.003060939 0.45664093 0.120781906 0.22147737
0003d0 43 50 81 be bc b0 22 3d 75 bb e5 3e d1 a2 26 3f
       -0.25256547 0.03971933 0.4486958 0.6509219
0003e0 2d b5 b7 bc 0f 84 90 3d 15 6d b1 3e 70 1f eb 3e
       -0.022425259 0.07056438 0.34653535 0.45922422
0003f0 44 d5 8f bc d2 17 8b 3d a0 0c 2d be b6 20 6e bd
       -0.017557748 0.06791653 -0.16899347 -0.058136664

conv2.bias f4 [8]
000000 65 01 38 3d 66 d8 9f ba be 05 46 3e 8b d7 e2 bd
       0.044923205 -0.0012195229 0.19338128 -0.11076268
000010 f3 05 f9 bb f0 c9 3f 3c 30 4a a1 3c cb 17 82 3b
       -0.007599586 0.0117058605 0.019688696 0.0039701215

fc1.weight f4 [64, 392]
000000 63 2b de be 59 3e a0 be 1d f1 2a be b5 79 00 3e
       -0.43392476 -0.31297567 -0.1669354 0.12546428
000010 a6 bd ae 3d a9 81 0d be ac 66 3f 3e 0c 84 1c 3e
       0.08532266 -0.13818993 0.1869151 0.15284747
000020 3c 6f a0 be 31 c4 0e 3e 95 5e 18 be 50 7d 1e 3d
       -0.31334865 0.13942029 -0.1487983 0.038693726
000030 c8 43 fa bc e5 e5 83 bc 75 c9 31 3e 6a bf 5d 3d
       -0.030549899 -0.016100833 0.17362006 0.054137625
000040 33 f6 05 be a8 56 46 bd 24 a8 3c 3c d3 a0 cb 3c
       -0.13082199 -0.048422486 0.011514697 0.02485696
000050 7f 58 14 3e 75 fe 33 3d 26 53 0c be e9 45 ec bd
       0.14486884 0.04394384 -0.13703594 -0.11536772
000060 01 b9 1d be 03 a2 4d 3e 9a 1b a9 3d 56 61 87 bc
       -0.15402605 0.20081334 0.08257218 -0.016525906
000070 80 45 fe bd 7f 7e d0 bd 95 44 ec bc a3 23 cf be
       -0.124156 -0.10180377 -0.028841296 -0.40456876
000080 75 52 16 3e fb dc 32 3e 51 ab 42 3e 95 17 e6 bd
       0.14679892 0.1746711 0.19010665 -0.11234967
000090 de c5 d2 3d 1a 9e ee 3d 65 d1 e5 be 3d 46 9a 3e
       0.102916464 0.11651249 -0.44886318 0.30131713
0000a0 e7 9a 04 3e 70 be 6f 3e 82 35 fa be 34 3e 91 3d
       0.12949716 0.2341249 -0.48868948 0.070919424
0000b0 67 b4 2f be a4 a2 7b be 66 3a 21 3e 88 39 93 bc
       -0.17158662 -0.24573761 0.15744933 -0.017971769
0000c0 c1 ec 99 3e 68 73 ab be 52 9b 4a bf 03 0e 96 3e
       0.3006344 -0.33486485 -0.7914325 0.29307565
0000d0 1b 34 c1 be ca 4d 07 bd 71 16 d9 bb bd 5e 09 be
       -0.37735066 -0.03303317 -0.0066249897 -0.13415046
0000e0 96 53 31 3d cb 94 95 be ff ee 76 3d 3d 9e 02 bf
       0.043292604 -0.29215083 0.06028652 -0.510227
0000f0 8c fa 34 be 8b 81 29 3e 16 49 77 bd 71 ca a3 be
       -0.17673701 0.16553323 -0.060372435 -0.31990388
000100 ed 26 7d bc 60 71 90 3e 0e b5 22 3d e9 e1 d4 be
       -0.015451175 0.28211498 0.03972345 -0.41578606
000110 09 4a 54 3e 57 76 d2 3d c4 ed 3d be 96 9c 86 bc
       0.20731367 0.10276478 -0.18547732 -0.016432088
000120 ff 5d a3 3d 27 81 61 be 08 eb 0d bf fa e8 86 3d
       0.07976913 -0.22021924 -0.55436754 0.065874055
000130 67 69 16 bd ff 42 77 bd 96 5f 48 3c 40 d6 60 be
       -0.036721613 -0.060366627 0.012229821 -0.2195673
000140 41 f4 c7 bd 68 6c ee bd ae 2c fa 3c 1a 47 b2 be
       -0.097633846 -0.116417706 0.030538883 -0.3481987
000150 0e 4f e3 bd 6f 7b 92 3d 90 95 e1 bd e2 0a d4 be
       -0.11099063 0.07152449 -0.11014855 -0.41414553
000160 dd 5c 3a be e3 84 8c bd 60 9c be 3d e3 e7 8e bb
       -0.18199487 -0.06861284 0.0930717 -0.004361139
000170 de 65 13 be 07 06 5c 3f c7 69 04 bf 18 a3 46 bd
       -0.14394328 0.85946697 -0.51723903 -0.048495382
000180 91 74 1f 3e ee 9c b8 3b 7c 84 19 3e b0 1b 99 3d
       0.1557181 0.005633942 0.14991945 0.07475984
000190 28 42 6d 3d 04 18 82 3e 8f 57 1c 3e 40 ee 78 3d
       0.05792442 0.25408947 0.15267776 0.060774088
0001a0 ee 38 01 3d 65 df a4 3d 08 36 22 bb 2e 62 36 3e
       0.031548433 0.080504216 -0.0024751443 0.1781089
0001b0 ba c1 2f 3e 05 dc cf 3d 2e 84 f8 3d 13 76 ec 3c
       0.17163745 0.10149387 0.12134586 0.028864896
0001c0 bf 74 9c bd 85 92 7a bb 60 3a 94 3e 38 53 8d 3d
       -0.07639455 -0.0038234305 0.28950787 0.06900638
0001d0 8c e8 9a 3d b5 70 be 3d c2 0c 5e bd 5a 39 d3 bc
       0.07563886 0.09298841 -0.054211386 -0.025784183
0001e0 03 b2 b8 bd ab 99 8f bd d7 ae 27 3e 38 d4 64 3e
       -0.09018328 -0.07011732 0.1637529 0.2234658
0001f0 91 6c 20 3e 4e b5 97 3d 3f 79 0c 3e 81 7f 26 be
       0.15666415 0.07407628 0.13718127 -0.16259576
000200 45 79 ec 3d 2a fb 95 3e c7 e2 2c 3e 55 b1 6a 3b
       0.11546568 0.29293185 0.16883384 0.0035811265
000210 11 8f 01 3e 0c ee 04 3e 15 93 7e bd 76 cc 99 bd
       0.12652232 0.12981433 -0.062151987 -0.07509701
000220 7b 1a 05 3e ae 26 a1 3d 89 35 aa 3d 11 b0 85 bd
       0.12998383 0.07868706 0.08310992 -0.065277226
000230 7f 64 f0 3d e8 db b0 3d 86 95 9f 3d b2 dd 6d 3e
       0.11737918 0.08635694 0.07792191 0.23229101
000240 1a a7 74 3d cc aa cf 3d b3 53 b6 bc da ad 01 bf
       0.059729673 0.10139999 -0.022256708 -0.506559
000250 b8 37 e0 be 93 99 68 3d 7e d8 a4 be 1e de 58 3d
       -0.4379251 0.056787085 -0.3219642 0.052946202
000260 44 24 12 be c6 60 c0 3d 56 40 c7 3d 98 41 89 3d
       -0.14271647 0.09393458 0.09729068 0.06701964
000270 3c 39 86 3b cb da cc 3d e1 b9 05 be 41 30 6a 3e
       0.0040961783 0.10002669 -0.13059188 0.2286997
000280 1e 11 60 bd 31 ad ef 3e 96 8f 90 3d 4b aa d0 3c
       -0.054703824 0.46811822 0.07058637 0.025471827
000290 71 6c 84 be 72 30 10 be 6f 22 4f 3e 24 c2 e0 bd
       -0.25863984 -0.1408098 0.20227979 -0.109745294
0002a0 49 b2 ea 3d f0 1d b0 3d 0f 2d 97 3d 16 e8 f3 3d
       0.114597864 0.0859946 0.07381641 0.11909501
0002b0 e7 1b bc 3d 5a 4c bf be 70 22 52 3d 57 db 9f bd
       0.091850094 -0.3736294 0.051302373 -0.07805508
0002c0 84 98 ea bd 5e 63 25 bd 3a 35 aa 3c 5a 8c c4 be
       -0.11454871 -0.040377967 0.020777334 -0.3838833
0002d0 cf 2c a9 3d 6f d8 82 bd fc 94 01 3e 5c cf 3e be
       0.082605 -0.06388938 0.1265449 -0.18633789
0002e0 6a 7e 30 3e f5 7c 52 be 1d 12 53 bf 48 ee a2 bd
       0.17235723 -0.2055548 -0.82449514 -0.07955605
0002f0 d9 45 55 3b f5 d2 05 3c f3 c0 b0 be 12 ab 9e 3e
       0.0032542853 0.008167972 -0.3452221 0.3098989
000300 86 ef 35 bc e7 6b a1 bd f3 05 b6 3d f8 20 10 bd
       -0.01110447 -0.07881909 0.088878535 -0.03518769
000310 3b c7 e3 be fc 98 bc be 08 61 18 bf 7b 86 49 3e
       -0.44487938 -0.36835468 -0.5952306 0.19680206
000320 6a a4 4b bd 3d 38 e8 3c 30 a9 49 3d ac 6c 7e be
       -0.049717344 0.028347129 0.049233615 -0.24846143
000330 8b e5 06 be 43 04 d9 3d 4d 8c 4d be cf 40 5b bb
       -0.13173501 0.10596516 -0.20073052 -0.0033455377
000340 5d 15 7a 3e 77 35 f2 3c a0 e5 20 bd a2 77 dc bd
       0.24422212 0.02956651 -0.039281487 -0.10765006
000350 75 c3 a4 bd e0 a9 16 bd fa 15 43 3e 80 5e b1 bd
       -0.08045093 -0.0367831 0.19051352 -0.086606026
000360 67 77 cd 3d a4 e7 5c bd d0 67 96 3c 4c c0 06 bf
       0.1003254 -0.053931847 0.018360049 -0.5263717
000370 b6 4a a8 be b6 c3 21 be 54 76 8a bd 55 2f 11 3e
       -0.328695 -0.15797314 -0.067608505 0.14178212
000380 66 70 03 be b3 68 0c bd 8a af 66 be 23 11 1b 3e
       -0.12835845 -0.034279536 -0.225279 0.15143256
000390 83 a0 f6 be 96 39 2f 3c d0 8f 41 3b 58 f6 14 bd
       -0.48169336 0.010694882 0.0029535182 -0.036367744
0003a0 46 46 9b bc ef ba 0b be 88 07 b1 bd 9f 8b b2 bd
       -0.018954407 -0.13645528 -0.086440146 -0.08718037
0003b0 05 c1 ea 3d 52 35 ce bd a4 15 f5 bd e9 1b 17 bf
       0.11462597 -0.10068764 -0.11967018 -0.5902696
0003c0 50 a7 b8 be e2 0a da bd 44 1c 05 3c 1a 90 3d bd
       -0.3606515 -0.10646607 0.008124415 -0.046280004
0003d0 41 0e 8c 3e a5 25 f2 3d 58 f8 8a be 42 da 02 bf
       0.27354625 0.118235864 -0.27142596 -0.51114285
0003e0 03 1c 12 bd d1 4e 4d 3d 92 2d f5 3d 8e 90 11 3c
       -0.035671245 0.050123993 0.119715825 0.008884562
0003f0 85 f5 48 3e 74 bf 6a be d1 21 ee 3d 95 28 8a 3e
       0.19624908 -0.22924596 0.11627544 0.26984087

fc1.bias f4 [64]
000000 c8 ab f4 3d 54 a1 b4 bb 49 f3 b2 3d c4 b2 7d 3e
       0.11946827 -0.005512396 0.08737809 0.24775225
000010 ad d9 de 3d c4 7a b8 3c 85 1e 61 3e e1 47 90 3e
       0.10881362 0.022519477 0.21984299 0.2817984
000020 f7 c9 95 3e b7 fb 7b bd 99 1b aa 3e e8 82 af 3e
       0.2925565 -0.06151935 0.3322418 0.3427956
000030 1d c6 6a 3e c4 b5 4a 3d 29 cf 9b 3e 5c 0a 92 3e
       0.22927137 0.04948975 0.30431488 0.2852353
000040 31 6a 8e 3e 05 b2 02 3d 60 81 18 3d ea 45 90 bd
       0.27815393 0.031908054 0.037232757 -0.07044585
000050 f1 8c 1a 3d ee bc 08 bd f0 7a 5f 3e 42 36 8c 3e
       0.03773207 -0.033383302 0.2182424 0.27385145
000060 78 48 2f 3b dc 49 bc 3c 5b 2f a1 3b ea 13 c0 3e
       0.0026746076 0.022984438 0.0049189753 0.37515193
000070 d7 82 45 3d d5 ff 85 3e 96 40 2f 3d 72 0e 8f 3e
       0.04822048 0.26171747 0.042786203 0.27940708
000080 da 06 83 3e c6 cf 79 3e 41 12 9b 3d 72 2a 7c 3c
       0.25591165 0.24395666 0.07571841 0.015390979
000090 86 ab 4f bc 4b 47 bb 3e 22 b3 11 3d d5 cc f9 3c
       -0.012675172 0.3657783 0.035571225 0.03049318
0000a0 7f bd 85 3e 55 10 c4 3d f8 bb 59 3e 25 4d 68 3e
       0.26121137 0.095734276 0.2126311 0.22685678
0000b0 68 07 8a 3e cd 50 23 bd 43 e5 b9 bc 0b e5 b0 3e
       0.26958776 -0.03987198 -0.022692328 0.34549746
0000c0 19 fd 84 3e e4 63 a9 3d bb f1 b3 3c 70 dc 67 3e
       0.25974348 0.08271006 0.021965852 0.22642684
0000d0 85 1e 82 3e 8b 88 23 bc 15 13 61 3e 05 27 81 3e
       0.2541391 -0.009981285 0.21979935 0.25225082
0000e0 fc 8b 82 3e d8 46 63 bd da 57 92 3e 8e 3c 13 bd
       0.25497425 -0.055487484 0.2858265 -0.03594642
0000f0 50 d2 7a 3e ee 24 83 3e 56 ae 0c bd 96 b2 e4 3d
       0.2449429 0.25614113 -0.034345947 0.11166875

fc2.weight f4 [2, 64]
000000 1e 65 6c 3d 50 d7 c7 3c 42 ac a3 3d 9d 9a 57 be
       0.05771362 0.024394661 0.0799184 -0.21055074
000010 79 fc 03 3e f6 0b c2 3d 04 be 64 be dd 81 23 be
       0.1288928 0.094749376 -0.2233811 -0.15967508
000020 08 0a 29 be a0 3d 3f be 38 d5 75 be 02 45 43 be
       -0.16507733 -0.18675852 -0.24007118 -0.19069293
000030 fe f5 47 be 1e 54 41 3d c5 a9 1b be dc 67 48 be
       -0.19527432 0.04719936 -0.1520148 -0.19570869
000040 0e 0a 19 be d6 83 3e 3d 79 ec 65 3e 84 f3 30 be
       -0.14945242 0.046512447 0.22453488 -0.17280394
000050 b0 23 84 3d e3 71 43 3c 5c aa 71 be 6d 92 34 be
       0.06452119 0.011929008 -0.23600143 -0.17633982
000060 ec c7 5d 3c 50 b8 f9 3c c9 61 48 3d fb 71 2f be
       0.013536435 0.030483395 0.04892138 -0.17133324
000070 b2 fc 3d 3d 75 6c 5c be 7f da 32 3d 3b bc 07 be
       0.046383567 -0.21525748 0.043665405 -0.13255398
000080 fd 95 36 be 7b f2 3d be f6 17 2d 3d 32 b7 8d 3d
       -0.17830653 -0.1854953 0.04225918 0.06919707
000090 65 3d de 3c 02 16 16 be 15 15 05 3d d6 3c 65 3d
       0.027128885 -0.14656833 0.03249081 0.05596622
0000a0 31 40 2b be b8 4d 30 3d 35 f3 8d be 2e ab 7e be
       -0.16723706 0.04304287 -0.27724615 -0.24869987
0000b0 70 1d 4e be 51 ea 85 3e 11 04 d2 3d ae 4d 3d be
       -0.20128417 0.26155332 0.10254682 -0.18486664
0000c0 57 00 4d be 06 7c 9b 3d 2e ee db 3c c7 da 80 be
       -0.20019661 0.07592015 0.026846971 -0.25166914
0000d0 d2 bb 73 be e5 f8 ec 3c 39 2d 72 bb bd 7c 57 be
       -0.23802117 0.028927276 -0.0036953224 -0.21043678
0000e0 73 c3 54 be 51 d7 91 bd 63 d6 16 be 3e 93 a4 bd
       -0.20777683 -0.071211465 -0.1473022 -0.08035897
0000f0 9a 18 54 be 17 1e 36 be ad da 91 3c ef b5 d2 be
       -0.2071251 -0.17784916 0.017804468 -0.4115443
000100 61 b7 cc 3d a8 0b bc 3d d1 ca 25 3e 88 7b 3d be
       0.09995914 0.09181911 0.1619065 -0.18504155
000110 4f 94 05 3e 0e 6a 68 3d 66 e4 14 be 4a 14 06 be
       0.13044856 0.056741767 -0.14540252 -0.13093677
000120 65 79 15 be 4f ac f3 bd c6 31 52 be f6 b0 08 be
       -0.1459709 -0.118981 -0.205268 -0.13348755
000130 dd 70 4f be 7d 12 5d 3d 6c 1b 4f be a5 ec 12 be
       -0.20257898 0.05397271 -0.20225304 -0.14348085
000140 51 bd 17 be b7 1b 69 3d c2 88 3a 3e 28 29 62 3e
       -0.14818312 0.056911197 0.18216231 0.22086012
000150 37 b1 95 3d bd c4 ce 3d da 0f 31 be 33 da 36 be
       0.07309192 0.100961186 -0.17291203 -0.17856674
000160 68 43 13 3e fc eb 9c 3d 76 84 72 3d 89 d9 fd bd
       0.14381182 0.07662198 0.059208356 -0.12395007
000170 53 ae 75 3d e6 62 17 be 70 6c 97 3d 28 c7 57 be
       0.0599807 -0.1478382 0.0739373 -0.21072066
000180 08 49 0a be 7b 3a 60 be 58 39 d3 3d 56 12 1f bf
       -0.13504422 -0.21897309 0.10313672 -0.62137353
000190 aa ab 9c 3d 3e 99 13 be 8b 90 9c 3d 86 52 4b 3d
       0.0764993 -0.14413926 0.07644757 0.049639247
0001a0 63 2f 49 be f3 74 02 3e 27 47 18 be 5f 79 4e be
       -0.19646983 0.12739925 -0.14870892 -0.20163487
0001b0 c7 e9 2e be e3 6a 08 3e d0 a6 f4 3d 5a 31 0a be
       -0.17081366 0.13322024 0.119458795 -0.13495389
0001c0 bd dd 11 be 2a 71 8f 3d 06 9a a4 3d 27 e1 44 be
       -0.14244743 0.07004006 0.0803719 -0.19226514
0001d0 8a bb 5d be d0 3a 91 3d 2b ca 90 be 2a d3 3b be
       -0.21653572 0.07091296 -0.28279242 -0.18342271
0001e0 7f 14 41 be dc 3b 5f 3e 82 7d 23 be 29 0f 3d bc
       -0.18855475 0.21800178 -0.15965846 -0.011539259
0001f0 d0 22 24 be 37 70 46 be d8 0a 75 3c e1 3a 92 3d
       -0.16028905 -0.19378744 0.014956199 0.071401365

fc2.bias f4 [2]
000000 91 ce 64 3f 5e 30 b4 3e
       0.89377695 0.3519315
