assignment-5/models/best_model_50.4.pth (torch, 110560 bytes, 8 tensors)

conv1.weight f4 [4, 4, 8, 8]
0	0xbe8f5a21	-0.2799845
1	0xbd06c1c4	-0.032899633
2	0xbd6f0b9c	-0.05836068
3	0xbd7a11e6	-0.061052226
4	0xbe3da47c	-0.18519777
5	0xbd2bce17	-0.04194459
6	0x3ca37245	0.019951949
7	0x3cabf0f7	0.020988924
8	0x3e14e998	0.14542234
9	0x3da4f9a6	0.08055429
10	0x3ea09368	0.31362462
11	0x3db7c0db	0.08972331
12	0xbe733758	-0.2375158
13	0x3eb73f8e	0.35790676
14	0x3e52f9ad	0.20603056
15	0x3db1b813	0.086776875
16	0x3dc6927f	0.09695911
17	0x3eaa19b8	0.33222747
18	0xbe370535	-0.1787308
19	0x3e49115c	0.19635528
20	0xbd8845f8	-0.066539705
21	0x3e78f436	0.24311909
22	0x3e233d66	0.1594139
23	0x3dccb62a	0.099956825
24	0x3d5c4732	0.053778835
25	0xbdf652a3	-0.120274805
26	0xbef4e380	-0.4782982
27	0x3ca8c7d7	0.020603104
28	0x3e1e3a8b	0.1545202
29	0x3ea17f4f	0.3154244
30	0xbca8c001	-0.020599367
31	0xbdfc0261	-0.12305141
32	0xbea3510f	-0.3189778
33	0xbdf2820a	-0.11841209
34	0xbec7e628	-0.39042783
35	0x3e9131bb	0.28358254
36	0x3dd36ac9	0.10323102
37	0x3e994257	0.29933426
38	0x3e1390b4	0.14410669
39	0xbda4f96c	-0.08055386
40	0xbe8ef15d	-0.2791852
41	0xbe4d2128	-0.2003218
42	0xbed297d7	-0.4113147
43	0x3d883719	0.06651134
44	0xbd92b631	-0.071636565
45	0x3e7267f1	0.23672463
46	0x3e0f5306	0.13996515
47	0x3c579c60	0.013159841
48	0xbd75e483	-0.06003238
49	0xbd6a93d9	-0.057269905
50	0xbebe423f	-0.37159917
51	0x3dd4702c	0.103729576
52	0x3d85ac97	0.065270595
53	0x3e2d96ba	0.16952029
54	0x3da64f24	0.081205636
55	0x3e0febd8	0.14054811
56	0x3d890612	0.06690611
57	0x3c87546d	0.01651975
58	0xbd4c02f9	-0.049807522
59	0x3e3ed770	0.1863687
60	0x3ec15ad7	0.37764618
61	0x3ea4e457	0.3220546
62	0x3e66dea0	0.22545862
63	0x3e62231d	0.22083707
64	0xbddc6448	-0.10761315
65	0xbe2af939	-0.16696633
66	0x3e3d9412	0.18513516
67	0xbdbdbf04	-0.09264949
68	0xbdf9dfbe	-0.122008786
69	0xbe4971cd	-0.19672318
70	0xbbcf4d70	-0.00632637
71	0xbe8b522a	-0.27211124
72	0x3bf6228d	0.007511443
73	0x3da18ef3	0.078885935
74	0xbe4c4106	-0.1994668
75	0xbe218110	-0.1577189
76	0xbe620031	-0.22070386
77	0xbe18dd4f	-0.14928173
78	0xbe9a2d5a	-0.30112725
79	0xbe15ca92	-0.14628056
80	0x3e926494	0.2859236
81	0x3d4dfcda	0.050289966
82	0xbe8d9b01	-0.2765732
83	0x3e825a57	0.2545955
84	0xbe5b332a	-0.21406236
85	0x3d8ca6ba	0.06867738
86	0xbd99ab5a	-0.07503386
87	0xbe65129a	-0.22370377
88	0xbf24d092	-0.64380753
89	0xbeb74c17	-0.3580024
90	0x3e18c200	0.14917755
91	0x3eecae6f	0.46226832
92	0xbc655fa2	-0.013999851
93	0x3d68186d	0.05666392
94	0x3e29faac	0.1659953
95	0xbe3876f4	-0.18014127
96	0x3e08a33e	0.13343522
97	0xbe751080	-0.23932076
98	0xbe6cab53	-0.2311223
99	0xbca4c884	-0.020115145
100	0xbbb9229d	-0.005649878
101	0xbd63ce95	-0.055616934
102	0xbe29fc77	-0.16600214
103	0xbe47df0f	-0.19518684
104	0x3e4cf5b1	0.20015599
105	0xbd837b6e	-0.06420027
106	0xbe82a8a6	-0.25519294
107	0xbbc3c0c1	-0.005973906
108	0x3ee80751	0.45318082
109	0x3e60e8d6	0.2196382
110	0x3df4bcb2	0.11950053
111	0x3dbfa735	0.09358064
112	0xbdc52d70	-0.09627807
113	0x3e2e48a5	0.17019899
114	0xbd8762df	-0.06610655
115	0xbdb36d2e	-0.08761059
116	0xbe54adcf	-0.20769428
117	0x3e4e2c41	0.20134069
118	0x3e9a13f8	0.3009336
119	0xbc84a0e4	-0.01619
120	0x3c2357f7	0.009969703
121	0x3db9d7d1	0.09074367
122	0x3d86a5e1	0.06574608
123	0x3d7cfc32	0.06176395
124	0x3db31209	0.08743674
125	0x3eba0ac6	0.36336344
126	0x3ee2f0c5	0.44324318
127	0xbd71de2d	-0.059049774
128	0xbcc80b00	-0.024419308
129	0xbd15a36b	-0.0365328
130	0xbea063c5	-0.31326118
131	0xbdcdae2b	-0.100429855
132	0xbd669979	-0.056298707
133	0xbdb345b4	-0.08753529
134	0xbd5b4bdb	-0.05353914
135	0xbe4d6998	-0.20059812
136	0xbe5e0d46	-0.21684751
137	0xbdfbe076	-0.12298672
138	0xbe865b11	-0.26241353
139	0xbdbc08ff	-0.09181403
140	0xbe8783c0	-0.26467705
141	0xbd0213e7	-0.03175726
142	0xbe7241d4	-0.23657924
143	0xbe262155	-0.16223653
144	0xbded7973	-0.1159543
145	0xbeaf4bfc	-0.3423766
146	0xbf8345f2	-1.0255721
147	0xbdf164d1	-0.11786807
148	0xbe979d77	-0.29612324
149	0xbe1cb11c	-0.15301937
150	0xbb5c685d	-0.0033631541
151	0x3de2b36f	0.110693805
152	0x3f11f61b	0.5701615
153	0x3dfcb589	0.123393126
154	0xbfa17173	-1.2612747
155	0x3b23f76c	0.00250193
156	0x3e69d45a	0.22834912
157	0xbe971f5a	-0.29516107
158	0x3c8fa503	0.017534738
159	0x3d61e683	0.055151474
160	0x3f474ce3	0.77851695
161	0x3dff3bf0	0.12462604
162	0xbed5d16b	-0.41761336
163	0xbd2a966c	-0.04164736
164	0xbd8bc945	-0.068254985
165	0xbd0bb62c	-0.03410928
166	0xbcf20c58	-0.029546902
167	0xbe452204	-0.19251257
168	0x3e9befd7	0.3045642
169	0x3f21fdac	0.632777
170	0x3e621386	0.2207776
171	0x3eb40c2b	0.35165533
172	0x3d927248	0.07150704
173	0x3e7e0cc3	0.24809556
174	0xbdaf0c47	-0.085472636
175	0xbf09b8e5	-0.5379775
176	0xbd93ecf1	-0.07222927
177	0xbdb4ee64	-0.08834532
178	0x3b5c3bb2	0.0033604917
179	0xbe89f0cd	-0.2694153
180	0xba2669f6	-0.0006348187
181	0x3e29f6ec	0.165981
182	0x3deccb93	0.11562266
183	0xbd8a5b11	-0.06755651
184	0x3a5ee612	0.0008502911
185	0xbd880a20	-0.06642556
186	0xbe216daf	-0.15764497
187	0xbdce5292	-0.10074343
188	0x3da0afd7	0.07846039
189	0x3eafe5e6	0.34355086
190	0xbc01c7de	-0.007921187
191	0xbe567c73	-0.20945911
192	0x3ed033b1	0.40664437
193	0x3f2101a9	0.6289316
194	0x3f0ab8aa	0.54188025
195	0x3eaada30	0.3336959
196	0x3e8fbe26	0.2807476
197	0x3ea92fac	0.33044183
198	0x3d4e94cc	0.050434873
199	0x3d6c998b	0.057763617
200	0xbf18e586	-0.59725225
201	0xbecb7d2f	-0.39743945
202	0xbf16490d	-0.58705217
203	0xbbb61f9a	-0.0055579664
204	0x3e813577	0.25236103
205	0x3ecffb18	0.40621257
206	0x3da5b564	0.08091238
207	0x3d80be1b	0.0628626
208	0xbecdbff1	-0.40185502
209	0xbeed2af8	-0.46321845
210	0x3d5640c3	0.052307855
211	0xbe15e2df	-0.14637326
212	0x3e2a739e	0.16645667
213	0x3e306313	0.17225294
214	0xbe67b244	-0.22626597
215	0x3e858c63	0.2608367
216	0xbee2f588	-0.4432795
217	0xbeb0b7a8	-0.3451512
218	0xbfa13a44	-1.2595906
219	0xbdf87464	-0.12131575
220	0x3e7b0702	0.24514392
221	0xbca95a00	-0.020672798
222	0xbe8be12a	-0.27320224
223	0xbdda9629	-0.10673172
224	0x3e7f1a4e	0.24912378
225	0xbc8769a0	-0.016529858
226	0xbf756985	-0.95864135
227	0xbec1dc3e	-0.37863344
228	0x3da4eba7	0.080527596
229	0xbe2a714a	-0.16644779
230	0xbe690b36	-0.22758183
231	0xbe46f580	-0.19429588
232	0x3f040d94	0.5158322
233	0x3e8cbd81	0.2748833
234	0xbe37214a	-0.17883793
235	0x3bbbb3c2	0.005728216
236	0xbc0ca3a1	-0.008583934
237	0xbe9c7d05	-0.30564132
238	0x3dc823eb	0.09772476
239	0xbf459006	-0.7717289
240	0x3e058608	0.1303941
241	0xbd1b03ae	-0.037845306
242	0xbdc60346	-0.09668593
243	0xbeaa7430	-0.3329177
244	0xbe69dd14	-0.22838241
245	0xbe0a4b66	-0.13505325
246	0xbe152192	-0.14563587
247	0xbe9f0080	-0.3105507
248	0x3e255964	0.16147381
249	0x3d857445	0.06516317
250	0xbc943ec7	-0.01809634
251	0xbdfdf850	-0.124008775
252	0xbde868ef	-0.113481395
253	0x3cad5261	0.021157445
254	0x3d3da60e	0.04630094
255	0x3a52c516	0.00080402324

conv1.bias f4 [4]
0	0xbd5412dc	-0.0517758
1	0x3d7ee9d4	0.062234715
2	0xbe3bfb08	-0.1835748
3	0xbbef3bde	-0.007300838

conv2.weight f4 [8, 4, 4, 4]
0	0xbd9b4397	-0.07581251
1	0x3e93dcfb	0.28879532
2	0xbbd7ea73	-0.006589228
3	0x3daf1c53	0.08550324
4	0xbe246e7e	-0.16057774
5	0x3c49f58b	0.012326608
6	0xbe21ddf6	-0.15807328
7	0x3dfa3a39	0.12218136
8	0xbd6c7d05	-0.057736415
9	0x3e3ac58b	0.18239419
10	0xbeb46cc6	-0.35239238
11	0x3e06d2ef	0.13166402
12	0xbe7cbd60	-0.24681616
13	0x3e0d6ecb	0.13811795
14	0xbec04bea	-0.37557918
15	0x3b416f50	0.002951581
16	0x3d27f4e9	0.04100505
17	0xbe511955	-0.2041982
18	0xbc0896a5	-0.008336698
19	0xbf2905b2	-0.66024315
20	0xbf202c65	-0.6256774
21	0xbc40c2e0	-0.011765212
22	0xbe767085	-0.2406636
23	0xbecc0f3c	-0.39855373
24	0xbd419764	-0.047263518
25	0xbca389ce	-0.019963171
26	0xbe8800e8	-0.2656319
27	0xbf10e633	-0.56601256
28	0x3dc5c039	0.09655804
29	0x3ecef6b6	0.404226
30	0x3caf3a45	0.02139009
31	0xbf042f68	-0.51634836
32	0xbdffd49b	-0.12491723
33	0xbe791d6e	-0.24327633
34	0xbc145eb5	-0.009055783
35	0x3debf37a	0.11521049
36	0xbebd4d64	-0.36973107
37	0xbe6fe13b	-0.23425762
38	0x3e265e52	0.16246918
39	0x3d7ac7c8	0.061225682
40	0xbe804d44	-0.2505895
41	0x3d711b5d	0.058863986
42	0xbe784f58	-0.24249017
43	0xbe2b5bd1	-0.16734244
44	0xbd2aaa4c	-0.041666314
45	0x3e252672	0.16127947
46	0xbe3f1d8b	-0.18663613
47	0xbd0d3aab	-0.03447978
48	0x3e8609ec	0.26179445
49	0xbd1292ca	-0.03578452
50	0xbddba818	-0.10725421
51	0x3f089b73	0.53362197
52	0xbdeae774	-0.114699274
53	0x3e547cce	0.20750734
54	0xbe053572	-0.13008669
55	0x3ee98c03	0.45614633
56	0x3e3bbb5e	0.18333194
57	0xbe9df20e	-0.30848736
58	0xbeda7a3f	-0.4267139
59	0x3eadeca1	0.33969596
60	0x3d653b1d	0.055964578
61	0xbd8d4a52	-0.06898941
62	0xbe74e6d4	-0.23916179
63	0x3d48ee21	0.049055222
64	0xbe70eb88	-0.23527348
65	0x3d87dd46	0.066340014
66	0x3e34d5da	0.17659703
67	0x3e446e34	0.19182664
68	0x3d90f2f5	0.070775904
69	0x3d71096f	0.058846887
70	0xbca38406	-0.019960415
71	0x3e2feae5	0.17179449
72	0xbf9b3ee1	-1.2128564
73	0xbe300233	-0.17188339
74	0x3cfec71f	0.031100808
75	0x3e09bbbb	0.1345052
76	0xbcaf1df9	-0.021376597
77	0xbe6d84fa	-0.23195258
78	0xbcbcbb16	-0.023038428
79	0x3db7cd91	0.089747556
80	0xbdacbeaf	-0.084348075
81	0xbd8f23e0	-0.069892645
82	0x3e7e2dc7	0.2482215
83	0x3e8b5cd5	0.27219263
84	0xbe7c1525	-0.24617441
85	0xbe6b18a1	-0.22958614
86	0x3e974680	0.29545975
87	0x3e6ebce8	0.2331425
88	0x3e5c0e22	0.21489766
89	0xbe888a85	-0.26668182
90	0xbd8c1337	-0.068396024
91	0x3ee4410a	0.4458087
92	0xbd013aeb	-0.03155033
93	0xbe70155a	-0.23445645
94	0xbbb7bd72	-0.0056073004
95	0x3edb3103	0.4281083
96	0xbe21692e	-0.15762779
97	0x3dd0c635	0.10194055
98	0xbda637b2	-0.08116092
99	0x3e0f753e	0.14009568
100	0xb79eb740	-1.89204e-05
101	0x3d115ecb	0.035490792
102	0xbe628796	-0.22122034
103	0xbe51a864	-0.20474392
104	0x3d27923a	0.040910937
105	0xbeb025f1	-0.34403947
106	0x3d7448d8	0.05963978
107	0xbf1f6f4b	-0.62279195
108	0xbf8be1ae	-1.0928247
109	0xbe7f4257	-0.2492765
110	0xbe8edd05	-0.27903
111	0xbe3911b7	-0.18073164
112	0xbf16f56e	-0.58968246
113	0x3e3eb1f5	0.18622573
114	0x3e6d3359	0.23164119
115	0x3ee25354	0.442042
116	0xbd5153fa	-0.051105477
117	0x3efac1ae	0.4897589
118	0x3e8a823c	0.27052486
119	0x3e2098c4	0.15683275
120	0xbde29839	-0.110641904
121	0x3dcf8f36	0.10134737
122	0xbe62f337	-0.22163092
123	0xbd399ad3	-0.045313668
124	0xbdf5a34c	-0.11994037
125	0xbf843ec0	-1.033165
126	0xbea96269	-0.33082893
127	0xbe6bfb25	-0.23045023
128	0xbcb6acbb	-0.022299161
129	0x3e1a2bdf	0.15055798
130	0xbeb38195	-0.350598
131	0x3d22a4a1	0.039707784
132	0xbeb986e1	-0.36235717
133	0x3eb0c1a6	0.34522742
134	0xbe395fca	-0.18102947
135	0xbe8ada26	-0.2711956
136	0x3d86c05f	0.065796606
137	0x3dc419c1	0.09575225
138	0x3e165daa	0.14684168
139	0xbbacad14	-0.005269656
140	0x3e52f658	0.20601785
141	0xbd89231b	-0.06696149
142	0x3d4d3cc7	0.05010679
143	0xbdc4fd84	-0.09618667
144	0xbd4667ab	-0.04843871
145	0x3d188470	0.037235677
146	0xbd8af3cb	-0.06784781
147	0x3be377d6	0.006941776
148	0xbe129f2f	-0.14318536
149	0xbe258586	-0.16164216
150	0xbc566c37	-0.013087324
151	0xbdde19c8	-0.10844761
152	0x3ddd9ed7	0.10821312
153	0x3db7fceb	0.08983787
154	0x3e253c45	0.16136272
155	0xbdc60ba9	-0.09670193
156	0x3d9f02a3	0.07764175
157	0xbdf0038c	-0.117194265
158	0x3da2a18f	0.07940971
159	0xbe3eba9b	-0.18625872
160	0xbd80daf5	-0.06291763
161	0x3d9c1f62	0.07623173
162	0xbe62d151	-0.2215016
163	0xbe1be43e	-0.15223786
164	0xbe963848	-0.29339814
165	0x3e21ed02	0.15813068
166	0xbe087f63	-0.13329844
167	0xbe0ef949	-0.13962282
168	0xbdbb16df	-0.09135222
169	0xbd1e4af9	-0.03864572
170	0xbd424bcf	-0.047435578
171	0xbeee5c6b	-0.46554884
172	0xbd72a03b	-0.05923484
173	0xbf01dfba	-0.50732005
174	0xbdce0cd9	-0.10061044
175	0xbd79417d	-0.06085347
176	0x3e125379	0.14289655
177	0xbeb91488	-0.36148477
178	0xbeacedfb	-0.33775315
179	0xbc84e4ff	-0.016222475
180	0x3e40ad5b	0.1881613
181	0xbdd4f389	-0.10398013
182	0xbf1e5450	-0.618474
183	0xbea65373	-0.32485542
184	0x3dabb875	0.08384792
185	0x3f2817f6	0.6566156
186	0xbf00150d	-0.5003212
187	0xbdbdc731	-0.09266508
188	0xbe8c3f20	-0.2739191
189	0xbdec963e	-0.11552094
190	0xbeb75704	-0.35808575
191	0xbe2f2183	-0.17102627
192	0x3cafe5bc	0.02147185
193	0xbe21dbf2	-0.15806559
194	0x3ad83d17	0.0016497698
195	0x3e93e193	0.28883037
196	0xbe9b2cf9	-0.3030775
197	0x3d36c969	0.044625673
198	0xbe4a996d	-0.1978509
199	0x3ed45302	0.4146958
200	0xbe1ea65d	-0.1549315
201	0x3c9437da	0.018093038
202	0x3c661392	0.014042752
203	0x3e87e6dc	0.2654332
204	0xbe580f60	-0.21099615
205	0x3ded4c49	0.11586816
206	0x3ddcac81	0.1077509
207	0x3dd853e8	0.10562879
208	0xbcf4f572	-0.029902194
209	0x3e7983cb	0.24366681
210	0x3d9c1538	0.07621235
211	0x3e94ed0f	0.2908711
212	0xbe93150f	-0.28727004
213	0x3dfb6b30	0.12276304
214	0x3cf90e22	0.030402247
215	0x3ddbb4dd	0.10727856
216	0x3e693f8c	0.22778147
217	0xbde9e0b7	-0.11419814
218	0x3d05a47d	0.03262757
219	0x3bd0b19e	0.00636883
220	0x3ee8d2f4	0.45473444
221	0xbe4f1fff	-0.2022705
222	0x3dceb20c	0.100925535
223	0x3e2d137c	0.16901964
224	0x3c92e1b4	0.01792989
225	0xbdba2cc6	-0.09090571
226	0x3d2c81b6	0.04211589
227	0xbe804e1b	-0.2505959
228	0xbf237ce2	-0.6386243
229	0xbe4ab240	-0.1979456
230	0x3e9208b5	0.28522268
231	0x3b0d0f3d	0.0021523975
232	0xbd2384a5	-0.03992142
233	0xbe62ce4c	-0.22149009
234	0x3e9813d4	0.29702628
235	0x3c62d41f	0.013844519
236	0xbe90354b	-0.2816566
237	0xbdf5a9e3	-0.11995294
238	0xbea7360c	-0.32658422
239	0xbc80b949	-0.01571335
240	0xbb9fdf7d	-0.004878937
241	0x3f208dd1	0.62716395
242	0x3e47802f	0.19482492
243	0x3df87860	0.12132335
244	0xbe90f634	-0.28312838
245	0x3ed626b2	0.41826397
246	0x3ed2b8d1	0.4115663
247	0x3f3aa2e4	0.729048
248	0xbe2a9590	-0.16658616
249	0x3db7d995	0.08977047
250	0x3edce14a	0.43140632
251	0x3ef5197a	0.47871
252	0xbe9d7476	-0.30752915
253	0x3b9d46e4	0.0047997106
254	0x3cb3ba7f	0.021939514
255	0xbdfa79a2	-0.12230231

conv2.bias f4 [8]
0	0x3dcf3d63	0.101191305
1	0xbe0cbe64	-0.13744503
2	0x3e513b4b	0.20432775
3	0xbe86b31d	-0.26308528
4	0xbc85269d	-0.016253764
5	0xbdd43f5a	-0.10363646
6	0xbb49545f	-0.0030720455
7	0x3d9acaff	0.0755825

fc1.weight f4 [64, 392]
0	0xbf0850e0	-0.53248405
1	0xbf39d435	-0.7258943
2	0x3e30996d	0.17246027
3	0x3e8e64f2	0.2781139
4	0x3c57a436	0.0131617095
5	0xbe61aba9	-0.2203814
6	0xbbb361bc	-0.0054742973
7	0x3eed1cda	0.46311074
8	0x3b23340b	0.0024902846
9	0xbdb0d632	-0.086346045
10	0xbf252d8a	-0.6452261
11	0x3dd847ca	0.10560568
12	0xbd290cc2	-0.041271932
13	0x3d97435a	0.07385893
14	0x3d8c8b7e	0.068625435
15	0xbe3d55bd	-0.18489738
16	0xbf00961a	-0.50229037
17	0x3da95f3d	0.082701184
18	0x3d95419e	0.07287906
19	0xbe50f9cb	-0.20407788
20	0x3e08938f	0.13337539
21	0x3e406706	0.187893
22	0xbe27b860	-0.16378927
23	0xbdf651f8	-0.12027353
24	0xbf111fdb	-0.5668923
25	0x3f02318a	0.5085684
26	0x3c710a5d	0.014711943
27	0x3df891f8	0.12137216
28	0x3d5537a5	0.05205502
29	0x3e66868a	0.2251226
30	0xbe15890a	-0.14603058
31	0xbd85f644	-0.06541112
32	0xbdb7865d	-0.08961175
33	0x3f20a2db	0.627485
34	0x3ee9ad44	0.45640004
35	0x3e6fb3cd	0.23408432
36	0x3e7cfd1c	0.24705929
37	0x3da535d1	0.08066905
38	0xbf0e05f1	-0.55477816
39	0x3e17d36f	0.1482675
40	0xbd36a0b6	-0.04458686
41	0xbe5b6077	-0.21423517
42	0xbe8ef897	-0.27924034
43	0x3ed5d626	0.41764945
44	0xbed2911d	-0.41126338
45	0xbd73bbf2	-0.05950541
46	0x3eb94c07	0.36190817
47	0x3d0e29a6	0.034707688
48	0x3dc22d19	0.09481258
49	0xbf14e7ba	-0.58166087
50	0xbf52094e	-0.8204545
51	0x3e52b50c	0.20576876
52	0xbe61f489	-0.22065939
53	0x3dd8cc93	0.105858944
54	0xbecfdc95	-0.40597978
55	0xbece74d9	-0.40323523
56	0x3eae4d1d	0.34043208
57	0xbcd48c7c	-0.025945894
58	0xbea5a1c2	-0.32349974
59	0xbf424c78	-0.7589793
60	0x3dd35f1c	0.10320875
61	0xbe9391a6	-0.28822058
62	0xbdf4a5dd	-0.119456984
63	0xbe3a91ee	-0.1821973
64	0x3d102ddf	0.035199996
65	0x3f13b448	0.5769696
66	0xbd8c8ae7	-0.06862431
67	0x3d531c31	0.051540557
68	0x3e6660d1	0.2249787
69	0x3d38fcfa	0.045163132
70	0xbdfe14f1	-0.12406338
71	0xbd7d9256	-0.061907135
72	0x3d99659d	0.07490084
73	0xbdafacbd	-0.08577869
74	0xbf04aa5f	-0.51822466
75	0x3e72d327	0.2371336
76	0xbe6157df	-0.22006176
77	0xbde56392	-0.11200632
78	0x3e84fa07	0.25972006
79	0x3e2e13e3	0.16999774
80	0x3ce8a26f	0.028397767
81	0xbf3080ca	-0.68946517
82	0xbe32073f	-0.17385577
83	0xbea9283b	-0.33038506
84	0xbd719af5	-0.05898567
85	0x3c5668b4	0.013086487
86	0x3d4a9960	0.049462676
87	0xbe0a8f81	-0.13531305
88	0x3ec195b8	0.3780954
89	0xbe451bed	-0.19248934
90	0xbe62914b	-0.22125737
91	0x3d6de9f5	0.058084447
92	0x3d8212ff	0.063512795
93	0x3ea418dd	0.3205022
94	0xbd941792	-0.07231058
95	0x3e686b29	0.22697128
96	0x3dffb5ce	0.12485848
97	0xbeacc87e	-0.33746713
98	0xbd3a95b4	-0.045552924
99	0xbe91762d	-0.28410473
100	0xbdeb6d63	-0.11495473
101	0x3e066803	0.13125615
102	0x3e8f01f5	0.2793118
103	0x3c8e3a91	0.017361911
104	0x3c2cddc4	0.01055092
105	0x3cb2b476	0.021814566
106	0xbd8f3d3c	-0.069941014
107	0x3e6a2fce	0.22869799
108	0x3b08d1e7	0.0020877065
109	0x3dc35f0a	0.09539612
110	0x3e43b634	0.19112474
111	0x3cd56330	0.026048273
112	0x3e935998	0.28779292
113	0xbe7bda1c	-0.24594921
114	0x3e7795e2	0.2417827
115	0xbe237031	-0.15960766
116	0xbc4ff77a	-0.01269328
117	0x3e87f6d3	0.265555
118	0x3e96c682	0.29448324
119	0x3e45e927	0.19327222
120	0xbd55daa0	-0.05221045
121	0x3ce054d1	0.027384194
122	0x3dba921c	0.091098994
123	0x3e29d3ff	0.16584776
124	0xbd8c4362	-0.0684879
125	0x3ce1d38b	0.027566692
126	0xbe83078f	-0.25591704
127	0xbe65fc8a	-0.22459617
128	0xbd1d1766	-0.038352393
129	0x3e6b1b20	0.22959566
130	0x3e6b2ba1	0.22965862
131	0xbc3601fe	-0.011108873
132	0xba774366	-0.00094323454
133	0xbe8b91a8	-0.27259564
134	0xbef5ffc8	-0.48046708
135	0xbeaf0d84	-0.3419
136	0x3d2cb74a	0.042166986
137	0xbe1505d0	-0.14552999
138	0x3e28b375	0.16474707
139	0xbe1465eb	-0.14492004
140	0xbe05c658	-0.13063943
141	0xbee14045	-0.43994346
142	0xbcc8a542	-0.024492864
143	0x3e223acd	0.15842743
144	0x3e0583ab	0.13038509
145	0x3d06ef25	0.03294291
146	0xbe1498eb	-0.14511459
147	0xbd1d9324	-0.038470402
148	0xbf54c35d	-0.831106
149	0x3d4f4d24	0.050610676
150	0xbdb2cf7b	-0.0873098
151	0xbf1fb603	-0.623871
152	0xbeb3ec39	-0.3514116
153	0xbda22654	-0.07917467
154	0x3eec020f	0.4609532
155	0x3e103bf7	0.14085375
156	0x3e13b8ee	0.14426014
157	0xbe95955e	-0.2921552
158	0xbd846bf3	-0.06465902
159	0x3bb7f8b8	0.0056143664
160	0xbd837760	-0.06419253
161	0x3f1fbd8d	0.62398607
162	0x3d2a573a	0.041587092
163	0x3e039950	0.12851453
164	0xbe33d2a5	-0.17560823
165	0xbdc60700	-0.09669304
166	0x3e337ec0	0.1752882
167	0xbe582386	-0.21107301
168	0x3e6ce414	0.2313388
169	0x3ca0f63e	0.019648667
170	0xbe0847f7	-0.13308702
171	0x3f1af3fe	0.6052855
172	0x3f0f5472	0.5598823
173	0x3e694d8e	0.22783491
174	0x3d1bf0aa	0.038071312
175	0x3e90608e	0.28198665
176	0x3cbbfd4e	0.022947934
177	0xbe8f899e	-0.2803468
178	0xbe4ef4f7	-0.20210634
179	0xbfd512fa	-1.6646416
180	0xbcaa141a	-0.020761538
181	0xbd0a6911	-0.033791605
182	0x3ecabbc5	0.39596382
183	0xbe973952	-0.2953592
184	0x3e477411	0.1947787
185	0xbf20ab2f	-0.62761205
186	0xbfe67baa	-1.8006489
187	0xbe08d0b2	-0.13360861
188	0xbdd5cb4b	-0.10439166
189	0x3eaf8d78	0.3428762
190	0xbe77dcb6	-0.24205288
191	0x3ebbaf93	0.3665739
192	0xbd896773	-0.067091845
193	0x3dd8dfab	0.10589536
194	0x3d484a97	0.04889926
195	0xbe0c7647	-0.13716994
196	0xbf1c91e9	-0.6116014
197	0xbed070bd	-0.40711012
198	0xbf1d60ad	-0.6147564
199	0x3f05d272	0.5227424
200	0x3e13f23b	0.14447872
201	0xbdefe18a	-0.1171294
202	0xbf054120	-0.520525
203	0xbeb0b05b	-0.3450955
204	0xbe0006cc	-0.12502593
205	0xbcda972c	-0.026683412
206	0xbd657228	-0.05601707
207	0x3e8b8dfd	0.27256766
208	0xbf0923d8	-0.5357032
209	0x3d7b3438	0.061329097
210	0x3db83af3	0.08995619
211	0x3c90bb0a	0.017667312
212	0xbe7d958a	-0.24764076
213	0xbef10f85	-0.47082153
214	0x3e5a628f	0.2132666
215	0xbef9ab62	-0.48763567
216	0x3d290279	0.041262124
217	0x3df32c8c	0.11873731
218	0xbd643d3b	-0.055722456
219	0xbec0b6eb	-0.37639555
220	0xbec2a364	-0.38015282
221	0x3deb49ed	0.114887096
222	0x3e6a0b2a	0.22855821
223	0xbc069094	-0.008213181
224	0xbd608d34	-0.05482216
225	0xbd9e8b43	-0.07741406
226	0xbed9dece	-0.425528
227	0x3f190b80	0.5978317
228	0xbf35de44	-0.71042275
229	0x3e8010b8	0.25012755
230	0xbe29394c	-0.16525763
231	0xbe26f86e	-0.16305706
232	0xbc2a0c01	-0.0103788385
233	0xbe2c1b28	-0.16807234
234	0xbc70fd92	-0.014708893
235	0xbe6609f3	-0.22464733
236	0x3e990de1	0.298934
237	0xbe13c39d	-0.1443009
238	0xbdb32b42	-0.08748485
239	0xbf839fb3	-1.0283111
240	0xbf189a2c	-0.5961025
241	0x3e47fb03	0.19529347
242	0x3ed01d18	0.40647197
243	0xbeb3ac5c	-0.35092437
244	0xbe231726	-0.15926799
245	0x3db64d40	0.08901453
246	0xbe946c7d	-0.2898902
247	0xbf2ca1e2	-0.67434514
248	0xbe49e8e7	-0.19717751
249	0x3cdcd30b	0.026956102
250	0x3e6a289b	0.22867052
251	0x3d52c673	0.051458787
252	0x3e8b0149	0.27149418
253	0xbf150df7	-0.58224434
254	0xbe6cd252	-0.23127106
255	0x3e87c5a3	0.26517972

fc1.bias f4 [64]
0	0x3da7ec6d	0.081993915
1	0x3d06724f	0.032823857
2	0x3d76a5ff	0.0602169
3	0x3ebf0169	0.37305763
4	0x3982f5f8	0.00024978793
5	0x3bb019c6	0.005374166
6	0x3e998f11	0.29991964
7	0x3f0425ac	0.5161998
8	0x3eb2f3f5	0.3495175
9	0xbd7bfbb7	-0.06151935
10	0x3f19e327	0.6011223
11	0x3f1fdf3d	0.6245001
12	0x3e88e62f	0.26738116
13	0x3aa5ccf8	0.0012649586
14	0x3f0bde1a	0.54635775
15	0x3ed7d1e9	0.42152336
16	0x3ed642dc	0.41847885
17	0x3d530bbc	0.051524863
18	0x3db0dbd4	0.08635679
19	0xbdd13728	-0.10215598
20	0xbca5adaf	-0.02022442
21	0xbd856855	-0.065140404
22	0x3eff47d1	0.4985948
23	0x3ee06b7c	0.43832004
24	0xbbe31227	-0.006929654
25	0x3d5523d2	0.052036114
26	0x3c56bfd4	0.013107259
27	0x3f2d30f1	0.67652804
28	0x3d28d91e	0.041222684
29	0x3ead4fb7	0.3384988
30	0x3d5e3977	0.05425402
31	0x3efe12f6	0.4962384
32	0x3ebbb39d	0.36660472
33	0x3e8b833f	0.2724857
34	0x3d83ea18	0.06441134
35	0x3e79861c	0.24367565
36	0x3d5f0105	0.05444433
37	0x3f327489	0.6970907
38	0xbc495881	-0.012289167
39	0x3d1239b9	0.03569958
40	0x3ea2d1ca	0.3180068
41	0x3c59e0d4	0.013298232
42	0x3f093cb2	0.5360824
43	0x3f0f6282	0.56009686
44	0x3ef6ce20	0.48204136
45	0xbd92b39c	-0.07163164
46	0xbcb9e543	-0.022692328
47	0x3f2fbb1b	0.68644875
48	0x3ef87d38	0.48533034
49	0xbd6f6277	-0.058443513
50	0x3d8e145b	0.06937476
51	0x3f04abb2	0.51824486
52	0x3e771f9b	0.2413315
53	0x3c8ba53f	0.017046569
54	0x3e5f68cb	0.21817319
55	0x3ebfc53b	0.37455162
56	0x3ea46092	0.32104927
57	0xbd1b8a23	-0.037973534
58	0x3eb33af5	0.35005918
59	0x3ca5693c	0.020191781
60	0x3eaac86c	0.33356035
61	0x3efff944	0.49994862
62	0xbd869433	-0.065712355
63	0x3e813b9d	0.25240794

fc2.weight f4 [2, 64]
0	0x3d90246d	0.07038198
1	0x3cc1849a	0.0236228
2	0x3cd94d9f	0.02652627
3	0xbdccdcb3	-0.100030325
4	0x3df90778	0.12159628
5	0x3d3673ba	0.04454396
6	0xbe1614a5	-0.14656313
7	0xbdd29c68	-0.102837384
8	0xbe55f698	-0.2089485
9	0xbe3f3da0	-0.18675852
10	0xbe895d22	-0.26828867
11	0xbe583f23	-0.21117835
12	0xbe3b8e36	-0.18315968
13	0x3d2ea0de	0.042633884
14	0xbe02086b	-0.12698524
15	0xbe66cca3	-0.22539
16	0xbda614ac	-0.081094116
17	0x3c9f26e3	0.019427722
18	0x3cf5c6e3	0.030002063
19	0xbe10b1df	-0.14130352
20	0x3d0b27cf	0.03397351
21	0xbca27bd4	-0.019834436
22	0xbdf9ad1c	-0.12191221
23	0xbe6d4d05	-0.23173912
24	0xbeca8a8d	-0.3955883
25	0x3c63ff0f	0.013915791
26	0x3c5bba61	0.013411135
27	0xbe2f8dc8	-0.17143929
28	0x3cedb511	0.029017003
29	0xbe7b4009	-0.24536146
30	0x3cb6d02d	0.022316063
31	0xbd8d7f80	-0.06909084
32	0xbde153a5	-0.11002282
33	0xbe255f55	-0.16149648
34	0x3d18990c	0.037255332
35	0x3c34a78d	0.011026275
36	0xbae06152	-0.0017118847
37	0xbdfcd4a7	-0.12345248
38	0x3d54d997	0.051965322
39	0x3d094834	0.033516124
40	0xbe62e014	-0.22155792
41	0x3d1d43ae	0.038394623
42	0xbe2ff041	-0.17181493
43	0xbe4b1204	-0.19831091
44	0xbe10edec	-0.1415326
45	0x3e6b57fd	0.22982784
46	0x3dd20411	0.10254682
47	0xbe344e99	-0.17608108
48	0xbddd8e59	-0.10818166
49	0x3d76930e	0.060198836
50	0x3c628339	0.013825231
51	0xbe31c846	-0.17361555
52	0xbe328f91	-0.17437579
53	0x3c7d23ef	0.015450462
54	0xbd502715	-0.05081852
55	0xbdfa11a7	-0.12210398
56	0xbe3bdfa2	-0.18347028
57	0x3daa395d	0.083117224
58	0xbe395b5b	-0.18101256
59	0xbdf0330e	-0.11728488
60	0xbe41d42b	-0.18928592
61	0xbe40f6b6	-0.18844113
62	0xbc5a9786	-0.01334179
63	0xbf01ab2f	-0.5065183
64	0x3cc10878	0.023563609
65	0x3d408f52	0.04701168
66	0x3dbd35e9	0.09238798
67	0xbe44c878	-0.19217098
68	0x3dd0c0ac	0.10192999
69	0xbf06b4c0	-0.5261955
70	0xbe675a43	-0.22593026
71	0xbd76c398	-0.060245126
72	0xbe071f0d	-0.13195439
73	0xbdf3ac4f	-0.118981
74	0xbd678180	-0.056519985
75	0xbe1a986b	-0.15097205
76	0xbd9cd730	-0.07658231
77	0x3a86647b	0.0010253334
78	0xbe145e1f	-0.1448903
79	0xbdd2ac62	-0.10286786
80	0xbe2a0cc1	-0.16606428
81	0x3d269d88	0.040677577
82	0xbe8a21af	-0.26978824
83	0x3e622928	0.22086012
84	0x3d59ee04	0.053205505
85	0x3dcec4bd	0.100961186
86	0xbe17b590	-0.14815354
87	0xbe4ea1d0	-0.20178914
88	0x3d99f19a	0.07516785
89	0x3d3b937c	0.04579495
90	0x3cfb70f9	0.030693518
91	0xbe110bc3	-0.14164643
92	0x3d1114b6	0.035420142
93	0xbe02c367	-0.12769853
94	0x3d352a69	0.0442299
95	0xbd94d713	-0.07267585
96	0xbe1c6513	-0.15272932
97	0xbdea9e0e	-0.11455928
98	0x3daa03e1	0.08301521
99	0xbf007eb6	-0.50193346
100	0x3da632fb	0.081151925
101	0xbe1f6991	-0.15567614
102	0xbda84a78	-0.08217329
103	0x3c88c2b7	0.01669441
104	0xbde60676	-0.11231701
105	0x3d8655f2	0.065593615
106	0xbe2631dc	-0.16229957
107	0xbe36a35e	-0.17835757
108	0xbdeb11fc	-0.114780396
109	0x3e086ae3	0.13322024
110	0x3df4a6d0	0.119458795
111	0xbdcc8037	-0.099853925
112	0xbdb447b8	-0.08802742
113	0x3cef9804	0.029247291
114	0x3d06b32a	0.032885708
115	0xbe7f02c0	-0.24903393
116	0xbde16109	-0.11004836
117	0x3d0cbdf3	0.034360837
118	0xbeaa5324	-0.33266556
119	0xbe1eab21	-0.15494968
120	0xbe13cb81	-0.144331
121	0x3e3bdf8e	0.18346998
122	0xbd4f389b	-0.050591093
123	0xbe0c9819	-0.13729896
124	0xbe07ad28	-0.13249648
125	0xbe360888	-0.17776692
126	0x3c750ad8	0.014956199
127	0x3d6a2745	0.057166357

fc2.bias f4 [2]
0	0x3fdbacb6	1.7162082
1	0x3fc36ad0	1.5266972
