assignment-5/models/best_model_21.6.pth (torch, 110560 bytes, 8 tensors)

conv1.weight f4 [4, 4, 8, 8]
000000 49 97 0d be 59 c8 5d 3c 00 64 da bd d8 da 59 3d
       -0.13827242 0.013536536 -0.10663605 0.05318722
000010 8f 91 31 bb 39 07 a5 3d 14 88 96 bc ea 5a 32 bc
       -0.0027094816 0.08058018 -0.018375434 -0.010885933
000020 ef fe c8 bd f8 95 23 be b9 fa 71 be 56 db e1 3d
       -0.0981425 -0.15975177 -0.236308 0.11028163
000030 dd ab a5 3d 7c 91 14 3e fd 0a 28 be f5 c6 87 bd
       0.08089421 0.14508623 -0.16410442 -0.06629745
000040 4b bd 49 bd 79 ae 1f bd fb 18 86 be 87 60 af bc
       -0.04925279 -0.03898475 -0.26190934 -0.021408333
000050 17 d7 76 3d e5 90 67 3e dd 86 02 be 71 78 70 bd
       0.06026372 0.22613867 -0.12746759 -0.058708612
000060 3f 49 e5 3d 24 78 47 3d 6d 6d 2b be 78 c2 2d be
       0.11195611 0.04869856 -0.16740961 -0.16968715
000070 50 6d 24 be 73 5a 78 3d 07 31 14 be b4 47 ae bd
       -0.16057324 0.060633134 -0.14471827 -0.0850977
000080 ae f5 cb bd 42 cc 02 bd 41 c5 7e bc 15 44 e6 3b
       -0.09958969 -0.031933077 -0.015549959 0.007027159
000090 fe 91 fa 3b 09 81 2f 3d 56 59 99 bd 12 e4 9b be
       0.007646798 0.042847667 -0.074877426 -0.3044744
0000a0 76 e3 f7 bc 5f af 7e bd 7c 7f a2 bd b7 67 ea bd
       -0.030259829 -0.062178966 -0.07934472 -0.11445563
0000b0 de 96 0a be d6 db 28 bd 5a 55 85 be 1e d1 b4 bd
       -0.13534114 -0.041225277 -0.2604168 -0.088289484
0000c0 96 3b 01 3e 13 e2 6f bd c3 46 97 3d a8 2c 45 3e
       0.12620386 -0.05856521 0.073865436 0.19255316
0000d0 2c 26 0a be 95 f7 11 3e 04 4d 42 bd 9d 14 40 be
       -0.13491124 0.14254601 -0.04743673 -0.18757863
0000e0 bf 9a 8d 3d 19 6b 8d 3d d4 da 2f 3e 48 4f 9e 3d
       0.06914281 0.06905193 0.1717332 0.077299654
0000f0 21 c8 1f 3d 31 5a b1 3b 7d a2 59 be 4e e0 00 be
       0.039009217 0.005412363 -0.2125339 -0.12585565
000100 d6 4c 9a 3d e6 e9 a6 bc a8 bd 3a 3e e2 f6 e2 3d
       0.075341865 -0.020375203 0.1823641 0.110822454
000110 7f 6d a9 bc 5c be a9 bd b5 aa c2 3c 64 b1 fa bc
       -0.020682095 -0.08288261 0.02376304 -0.030602165
000120 e9 47 3a 3d 09 1a 12 3e ef 8e b8 bd 89 d3 46 3e
       0.045478735 0.14267744 -0.090116374 0.19416632
000130 b7 11 a5 3e d1 41 61 be 1a c1 f1 bd 44 f2 e2 bc
       0.32240078 -0.21997763 -0.11804409 -0.027703412
000140 cb 36 6c 3d ac fb 3b 3e 83 bd 0c be 08 7b 24 3e
       0.057669442 0.18357724 -0.13744168 0.16062558
000150 42 72 14 3e aa 2f 93 bc 4d c6 44 3c a8 82 ba 3c
       0.14496711 -0.017967064 0.012010169 0.02276738
000160 58 a9 9b 3d bf 7d c9 3d b9 7c 1d 3e a9 bb 48 bd
       0.07600659 0.09838437 0.15379609 -0.04900709
000170 ba 3e a7 3c 26 0c 08 3d f8 92 0e 3d a5 d8 c1 3d
       0.020415653 0.03321471 0.03480813 0.0946515
000180 de fa 38 3d 38 5d 4a 3e 14 fe ca 3c 61 41 c2 bc
       0.04516112 0.19762123 0.024779357 -0.023712816
000190 4f 10 40 3e 77 f4 05 bc 90 8b 7a bd b1 01 4b be
       0.18756221 -0.008175961 -0.061168253 -0.19824864
0001a0 55 30 8c 3d 98 64 0c 3d 7c ff 15 3d 52 0d 96 bd
       0.06845156 0.03427562 0.036620602 -0.073267594
0001b0 55 12 31 bc 20 87 87 3d 76 fd f4 3d 9c 94 51 be
       -0.010807593 0.0661757 0.11962406 -0.20466846
0001c0 65 9a 65 3e 0e 56 77 bd 04 6d f4 3d 37 c4 70 3e
       0.22422178 -0.060384803 0.119348556 0.2351235
0001d0 fc a3 1b 3e 4c 23 3f bc 9a fa 04 be 4e 34 4f be
       0.15199274 -0.01166613 -0.12986222 -0.20234796
0001e0 21 e7 f2 3c b4 c1 a6 3b e4 e2 3c 3e 51 ce 93 bd
       0.029651226 0.005089009 0.18445927 -0.07217086
0001f0 39 2c 0a 3e 96 c8 0e bd 69 26 0d be 7a b9 b6 be
       0.13493432 -0.034859262 -0.13784184 -0.35688382
000200 ef fb 80 be 51 b7 5e be 34 21 90 3e c6 69 6a be
       -0.2519221 -0.21749617 0.28150332 -0.22891912
000210 00 3e 17 be 21 79 c2 3c 00 52 31 3e 07 ad 1f be
       -0.14769745 0.0237394 0.17316437 -0.15593348
000220 f3 88 a0 3d 93 89 d9 3d cb 7b 41 bd 77 aa 29 3e
       0.07838621 0.10621943 -0.0472372 0.16568933
000230 da b6 23 3e bb de 5c 3d 94 c8 1e 3e a9 5b 8f bd
       0.15987721 0.05392335 0.15506202 -0.06999905
000240 2d cd a7 3e 8b 53 ea 3e bf ee 01 bd c6 0f b4 3e
       0.32773724 0.45766863 -0.031721827 0.35168284
000250 b6 a5 7c 3e c2 6d c0 3e ba 7f 57 3e 08 c5 24 3e
       0.24672589 0.3758374 0.21044818 0.16090786
000260 f8 ae 76 3e be ec 68 3e 84 08 6e 3e 8e 0c 45 3e
       0.24090183 0.2274656 0.23245436 0.1924307
000270 ba 88 55 3d 7b 40 cc 3e ab 1e 00 3e 16 33 23 3e
       0.052132346 0.39892945 0.12511699 0.15937456
000280 3e 30 8e 3e b6 4d 23 3e 4f be 3b 3e 6c e4 61 3e
       0.2777118 0.15947613 0.18334316 0.22059792
000290 a8 d8 6f 3e 8b 8c 9b 3d 1d f7 88 3d 94 59 aa 3d
       0.23422492 0.07595166 0.06687758 0.08317867
0002a0 db ab c1 3d 45 c1 13 3e 3a 1d 0a 3e 54 e5 fe 3d
       0.09456607 0.14429195 0.13487712 0.124460846
0002b0 78 6f 52 3e a3 f1 72 3e 49 b8 45 3e 9e 74 b3 3e
       0.20550334 0.2372499 0.1930858 0.3504991
0002c0 1b 19 b9 3c b5 6c e6 bd 75 66 3f 3e f6 08 bb 3d
       0.022594979 -0.11251203 0.18691428 0.091325685
0002d0 27 39 5f bd cb 5e b7 bd 93 96 45 be 38 e9 a9 3d
       -0.054497864 -0.08953627 -0.19295721 0.08296436
0002e0 3a a5 5f be 55 d6 94 be c3 4e 03 3e 98 00 9c bd
       -0.21840373 -0.29069772 0.12823014 -0.07617301
0002f0 fb 8f 12 3e 65 4d a2 bd f0 55 44 3c f8 30 18 be
       0.14312737 -0.07924918 0.01198338 -0.1486243
000300 be 3a 5a be d7 53 f9 be ce a2 e9 be 06 01 7a be
       -0.21311471 -0.48696777 -0.45632023 -0.24414453
000310 53 5e 7d be bc ef 0a be 1a d9 69 3e 8e 03 ae bd
       -0.24743013 -0.13568014 0.22836724 -0.08496772
000320 c2 e5 97 be ad 66 8b be 65 bb 80 bf 39 26 8d be
       -0.2966748 -0.27226773 -1.0057188 -0.27568224
000330 2f 30 8e be 1c 88 c6 be 11 9d a5 3d 7c e6 e3 3d
       -0.27771136 -0.38775718 0.08086599 0.11127946
000340 70 ce 8a be 63 c3 94 be 3e 7c fa be 24 18 83 be
       -0.27110624 -0.29055318 -0.48922914 -0.25604355
000350 26 41 23 be ca 49 1b be 70 c6 e7 3d 7b 2f e8 3e
       -0.15942821 -0.15164867 0.11317146 0.45348725
000360 6f 7f 86 be c3 b2 85 be 9e 15 03 bf 53 ff 09 be
       -0.262691 -0.26112947 -0.5120486 -0.13476305
000370 91 e0 3d be 93 31 0f be 50 a7 93 be 1e 89 a1 3e
       -0.18542697 -0.13983755 -0.28838587 0.31549925
000380 73 6d 1a 3e 61 a8 35 3e c9 55 50 bd 63 f8 37 3d
       0.15080814 0.17740013 -0.05086306 0.044914614
000390 98 fd e0 bd a1 d6 85 3e ed df cc bc 60 75 b1 3e
       -0.10985869 0.2614031 -0.02500912 0.34659863
0003a0 a9 ef 36 be 7b 50 5d 3e 02 72 98 bd 5a 94 43 3e
       -0.1786486 0.21612732 -0.0744362 0.1909956
0003b0 ec 98 5d 3e 57 eb ba 3e 0c 95 49 3e d6 b9 99 3e
       0.21640366 0.36507675 0.19685763 0.30024594
0003c0 ce 14 af 3d 83 cd 11 bd fd 37 8d bd 4a 57 d6 3e
       0.0854889 -0.035596382 -0.068954445 0.4186347
0003d0 e4 05 ce 3e 45 68 ab 3e d6 d7 91 bb 7a 77 67 3e
       0.4023887 0.3347799 -0.0044507785 0.2260417
0003e0 16 8c 91 bc 35 e5 92 3d 9e 33 39 be 04 d5 3e bd
       -0.017766993 0.07172624 -0.18086097 -0.046589866
0003f0 25 d2 82 3e 6b 03 d2 3e 07 b0 7e 3e f3 d3 b6 3e
       0.25550953 0.41018233 0.24871837 0.3570858

conv1.bias f4 [4]
000000 0e 95 a2 bc c9 3f 2b bd b5 dd 16 be ce 93 fc bb
       -0.019846465 -0.041808877 -0.14733012 -0.0077080494

conv2.weight f4 [8, 4, 4, 4]
000000 28 d7 77 3e 45 1e 22 3e e4 39 af be be 90 ec be
       0.2420317 0.1583186 -0.34223855 -0.4620418
000010 ac 3b a9 3d 71 52 65 3d 4c 42 bc be bd ac 8d bf
       0.08263335 0.055986825 -0.3676933 -1.106834
000020 1f f4 ad bd f1 86 71 bd 03 5b 8e be 15 e6 1d bf
       -0.08493828 -0.05896658 -0.2780381 -0.616792
000030 e5 19 e3 bd 14 ff 47 bd 08 c3 fc 3c ce c4 9a bd
       -0.11088923 -0.048827246 0.030854717 -0.07557069
000040 a4 a7 2d 3e 3e ef 8d 3e b6 c2 e9 be f1 95 9c 3d
       0.16958481 0.2772159 -0.45656365 0.076457866
000050 8a 91 a1 be 28 94 d0 3e 17 52 85 bf 15 17 aa 3e
       -0.3155635 0.40738034 -1.0415677 0.33220735
000060 7f 5d 16 bf a9 da 83 3e 5d bc c8 be b4 d7 f4 3e
       -0.58736414 0.25752762 -0.3920621 0.47820818
000070 4c 26 1c be f8 5e 1f 3d b6 6c 04 3d e3 ec 0f 3e
       -0.15248984 0.03890893 0.032330237 0.14055209
000080 bf 37 3d be fa 88 a3 be 96 c2 96 3e bc 69 30 3e
       -0.18478297 -0.31940442 0.29445332 0.17227834
000090 1f ea 1d bd b4 03 4a be 65 27 c8 3e bf 48 49 3e
       -0.038553353 -0.19727975 0.39092556 0.19656657
0000a0 22 73 c7 3e a4 d0 5c be 9b 7a 98 3e d4 f1 22 3f
       0.38955027 -0.21563965 0.2978104 0.6365025
0000b0 b4 f3 ea 3e 73 9f eb 3b 77 0b 90 3e bc 96 f8 3c
       0.45889056 0.0071906387 0.28133747 0.030345313
0000c0 0b f9 a7 3e 20 8b 4b 3e 94 f9 3b 3d 64 51 73 bd
       0.32807192 0.1987729 0.045892313 -0.059403792
0000d0 df 08 f7 3e 72 ca 15 3d fe 54 d2 bd e0 3b 33 be
       0.48248956 0.03657002 -0.10270117 -0.17503309
0000e0 7f 31 0a 3e 67 61 8b 3d 46 80 22 3e 7c 89 ff bd
       0.13495444 0.068056874 0.15869245 -0.12477395
0000f0 ee b9 49 3e 41 68 3c 3d 44 fd 61 3e 83 ab c1 3c
       0.19699833 0.04599786 0.2206927 0.023641353
000100 24 76 6f be 55 1f d2 be 8f 32 70 bd 8d 6b c9 be
       -0.23384911 -0.4103953 -0.058641966 -0.39339867
000110 da a7 91 3e 24 69 4a 3d 58 48 2c be 9d 83 22 bf
       0.28448373 0.049416676 -0.16824472 -0.63482076
000120 0e dd be 3d 0a 2b b1 3b 63 0d 0c bf 5e e9 f3 bd
       0.093195066 0.005406742 -0.54707927 -0.11909746
000130 8c 99 bb bd 16 71 27 be 05 5b 88 be 6e 26 32 3a
       -0.09160146 -0.16351733 -0.26631942 0.00067958876
000140 48 fc 14 be 10 c6 1a 3e 1a 2c 9a be c6 f3 da 3d
       -0.14549363 0.15114617 -0.30111772 0.10691027
000150 11 fd 07 3e 51 0d 06 3e ca b1 94 3e 70 ee 68 3d
       0.13280131 0.13091017 0.29041892 0.056868017
000160 ac 80 f6 be 04 28 9f 3d 47 cf 34 be 15 66 81 bc
       -0.48145044 0.07771304 -0.17657195 -0.015795747
000170 69 1e 18 bf 87 2d 65 bf af ab 26 bf b3 57 ea bb
       -0.594214 -0.89522594 -0.6510572 -0.007151568
000180 7f 79 bf 3d 51 41 e4 3d bb c4 5c be 2a 5f 01 3d
       0.093493454 0.111452706 -0.21559422 0.031584896
000190 60 ce 39 bd 85 7b 80 be 95 cc c9 be 62 3d 6e be
       -0.04536283 -0.25094238 -0.39413896 -0.23265603
0001a0 0a e6 0e be f3 e9 d6 be 0c 43 fb 3d d4 a7 d7 be
       -0.1395494 -0.41975364 0.122686476 -0.4212023
0001b0 12 e7 e4 3e 7d c5 06 bf 85 9d 40 be 16 6e ad 3d
       0.44707543 -0.52645093 -0.18810089 0.08468263
0001c0 89 41 d0 3d 60 46 49 3e 85 ea 8a bd 40 d0 4d be
       0.1016875 0.19655752 -0.06783012 -0.20098972
0001d0 df da 1b 3e af 2d 57 3d 99 09 11 bf 7c 30 fc bc
       0.15220211 0.0525338 -0.5665527 -0.030784838
0001e0 fc 3f 6f 3e 59 c7 89 be 54 3e 2c 3e e9 d0 22 3e
       0.23364252 -0.26909903 0.16820651 0.15900005
0001f0 55 a0 ed bd eb 3b 32 3e 3c 67 e3 3d a1 63 f3 3c
       -0.116028465 0.1740567 0.11103675 0.029710593
000200 03 d1 00 be 50 b9 d9 bd d3 76 de bd 23 e7 8a be
       -0.12579732 -0.10631049 -0.10862508 -0.27129468
000210 60 c5 49 be 79 1f 0c be bf 07 f3 be 39 fe fc 3a
       -0.19704199 -0.13683881 -0.47466847 0.0019301838
000220 38 ee ab 3c 7d 1d 46 3d 43 35 86 be 80 51 db 3d
       0.020987615 0.048367966 -0.2621251 0.10708904
000230 f6 ef 9e be 40 b9 02 be a2 1f 2b be 90 01 9c 3d
       -0.3104245 -0.1276598 -0.16711286 0.076174855
000240 b1 df 21 bf 2d 5f 84 3d 30 f0 33 bb 93 3c 6b 3d
       -0.6323195 0.06463466 -0.0027456395 0.057430815
000250 17 59 41 bf fe e6 84 3e 59 5d 8f 3e c7 f1 79 3d
       -0.75526565 0.25957483 0.28000906 0.061021592
000260 85 99 9d bc bc 4d 74 3d 8d f5 22 3e e7 ee 9a 3e
       -0.019238243 0.059644446 0.15913983 0.30260393
000270 b4 f8 88 3e c9 03 95 3c f8 87 c2 b9 7c 73 c6 3e
       0.26752245 0.018190281 -0.00037103868 0.38759983
000280 45 e9 f3 bd 5e 8b 88 bd 47 0a 8d be 39 60 ae 3e
       -0.11909727 -0.06667207 -0.27546903 0.34057787
000290 c6 70 37 be 78 41 b3 bd 53 1d b2 3e af 39 5e be
       -0.17914113 -0.087527215 0.34787998 -0.21701692
0002a0 08 1d 1b bd 3d 95 9b be e1 e4 9b 3e aa a3 3d be
       -0.037869483 -0.30387297 0.30448058 -0.18519464
0002b0 c8 67 0e be 29 80 3e be bb 23 35 bb 5d 2d 41 bf
       -0.13906777 -0.18603577 -0.0027639705 -0.75459844
0002c0 00 be 96 be f0 3a 1f 3e 3a 02 c6 3d 3e 0b d4 3c
       -0.29441833 0.15549827 0.096683934 0.025884267
0002d0 36 b8 01 be 34 60 5f bf 62 0e 72 3e 96 2e 52 be
       -0.12667927 -0.8725617 0.23638299 -0.20525584
0002e0 bb 5b e5 3d 17 da d8 be 39 e4 32 3e 66 3d 5a 3d
       0.11199137 -0.4235389 0.17469873 0.05328121
0002f0 d0 de 40 be fe 1f 00 3d de c5 0b 3f 44 7c a7 bb
       -0.18834996 0.03128051 0.54598796 -0.005111249
000300 a7 0e 8a bd fb 5b a0 be dd a8 c1 be c7 6a bb bd
       -0.06741076 -0.31320176 -0.37824145 -0.091512255
000310 51 b5 0e be af 80 2a be bd e7 a0 bc b4 04 62 be
       -0.13936354 -0.16650651 -0.019641751 -0.22072107
000320 7d d9 fa 3d 60 2e a9 3d 97 a8 61 3c 6a da 75 be
       0.12248514 0.082607985 0.013773105 -0.240091
000330 f8 6a 45 3e 88 0e 01 bc 52 36 a7 bc 1f ee 73 bc
       0.19279087 -0.007877 -0.020411644 -0.014888315
000340 dc cd d7 be 45 87 28 bd e8 bd f0 3e ca 42 29 3e
       -0.42149246 -0.041144628 0.47019887 0.16529384
000350 d1 b7 d7 bd 65 11 29 3e f0 0c 06 3e be 98 8b 3d
       -0.10533107 0.16510542 0.13090873 0.06816243
000360 6f 98 23 3e ae c8 8e 3e 2e 3c eb bd e7 14 c5 3e
       0.15976118 0.2788748 -0.11486088 0.3849251
000370 0b ef f5 3e 6f b0 6b bd a6 1e 1f be 94 15 6c bd
       0.48033938 -0.057541307 -0.15539035 -0.057637766
000380 af 21 29 bf ef c0 97 3e 5c 51 8a bd 67 c5 47 be
       -0.6606702 0.29639384 -0.06753799 -0.19508897
000390 c1 38 2f bf fd cb ad 3e d0 c0 5a be 84 cd 0f 3f
       -0.68445975 0.33944693 -0.21362615 0.56172967
0003a0 e8 39 60 bd 99 d4 0a 3f 62 2c 1a bf 72 67 cf be
       -0.054742724 0.5423065 -0.6022397 -0.4050861
0003b0 11 03 06 3c b8 64 74 3e f6 cd 8c be 4c 3b a8 bd
       0.008179442 0.23866546 -0.27500886 -0.08214435
0003c0 7f 9f fe 3d 50 22 23 be d7 bb 5e be c2 68 fb bd
       0.12432765 -0.15931058 -0.21751343 -0.1227584
0003d0 d9 58 06 3d 17 07 f0 be a8 58 2c be 53 8a 19 bd
       0.032799575 -0.4688041 -0.16830695 -0.037485432
0003e0 5c 9f 2d 3e 1a 24 ad 3d 50 ae 30 3e 86 a1 12 3e
       0.16955322 0.084541515 0.17253995 0.14319429
0003f0 12 2f 24 3e 2b 8e 8c 3d 0b ac f3 3d 6c d5 80 3e
       0.16033581 0.06863054 0.11898049 0.25162828

conv2.bias f4 [8]
000000 fc 8d b9 bd 8f a7 ee 3d 2c f0 b6 3c 65 3f 59 bb
       -0.090602845 0.11653053 0.02233132 -0.0033149358
000010 9e ab 2f be 19 e4 55 3b d8 f9 02 bd 36 7c 39 3e
       -0.1715531 0.0032637178 -0.03197655 0.18113789

fc1.weight f4 [64, 392]
000000 e9 83 50 3e 89 6d 55 bf 52 3c 03 be 57 e6 b6 3d
       0.2036282 -0.8337026 -0.12815979 0.089306526
000010 5b a5 65 be 6a 4a 65 bd 74 4c 6a bc 6c 6c 86 be
       -0.2242636 -0.05597917 -0.014300454 -0.26254594
000020 d3 4c 6b bd 9c 52 c8 bd 01 65 b4 3c 35 62 5f be
       -0.057446312 -0.097813815 0.022020819 -0.21814807
000030 db a8 a5 3d 5e 53 9a 3d 37 97 13 be d5 07 81 bd
       0.08088847 0.07535432 -0.14413153 -0.06300322
000040 7c 8b 5f 3e 75 c6 ef 3d 2b 1c 4d bc 7e 6c f4 3c
       0.21830553 0.117077745 -0.012518923 0.02983689
000050 74 31 da 3b 92 5d a6 bc 46 56 43 be 90 b0 58 3e
       0.0066587273 -0.02030829 -0.1907588 0.21161103
000060 b6 8e bf 3d 57 55 22 be 90 af 1d bd 28 ed c8 bd
       0.09353392 -0.15852867 -0.038497508 -0.09810859
000070 b9 b6 5f bd 01 3a d4 be bb d2 8d 3e 48 83 09 bf
       -0.054617617 -0.41450503 0.27699837 -0.53715944
000080 fa 05 73 bf 3a f0 33 be 1c 3f 3a be a0 31 b2 bd
       -0.94930995 -0.17572108 -0.18188137 -0.087008715
000090 e3 1a 72 3d 17 34 38 3c 0c 2b 91 3e e8 a3 dd 3e
       0.059107672 0.011242888 0.28353155 0.43289113
0000a0 45 e4 97 be 24 a4 b9 bc b1 8d 8b be c0 0f 93 3e
       -0.29666343 -0.022661276 -0.2725654 0.28722954
0000b0 41 6b 9d 3e a8 7f a7 be 9f 55 22 3e 38 b4 b8 be
       0.3074589 -0.3271458 0.15852974 -0.36074996
0000c0 cf 91 1d b9 23 c6 5e 3d a0 e1 ef 3d da d9 07 bd
       -0.00015027005 0.054388177 0.117129564 -0.033166744
0000d0 c9 d2 ce bd 42 7d cc bc f2 b4 bb 3d b5 ea 21 be
       -0.10098798 -0.024962071 0.09165372 -0.1581219
0000e0 38 4e 85 3d 5b 79 4b bc aa 00 11 bd cb 71 27 be
       0.0650906 -0.01241907 -0.035401024 -0.16352002
0000f0 39 f0 ec bd fe e6 29 3d e0 d9 1d 3e a3 19 48 bd
       -0.11569256 0.041480057 0.15415144 -0.048852574
000100 29 21 0d be 0a 4e da 3e 68 70 49 be 4a 91 24 3d
       -0.13782181 0.42637664 -0.19671786 0.04017762
000110 1f 61 61 be 8e 38 23 3d 00 b3 81 bd cf c3 8e be
       -0.22009705 0.039848857 -0.0633297 -0.27883765
000120 1d 41 dd 3e 03 c7 7b 3e 8f 68 92 3c 68 32 0f be
       0.4321374 0.24587636 0.017872123 -0.13984072
000130 85 cf 63 be 1a 64 cb 3b a7 4e 37 be 44 e8 e8 3d
       -0.22247131 0.0062070014 -0.17901097 0.11372426
000140 25 ad b5 3e 72 f7 9e 3e 1e e1 1e be 80 0a d0 3c
       0.3548366 0.3104816 -0.15515563 0.025395632
000150 72 f3 55 3e 6a d5 8e 3d d2 90 f9 bc 13 11 f5 bc
       0.20893648 0.06974299 -0.030464564 -0.029915368
000160 92 82 20 be 83 89 2c be b9 e3 54 be b3 22 ad bc
       -0.15674809 -0.16849332 -0.20789994 -0.02113471
000170 2a a0 ad 3e c4 4b 9c bb aa 80 70 3d ba 18 91 3d
       0.33911258 -0.004769774 0.058716454 0.07084794
000180 fe 89 c6 3d d1 05 09 3e 73 40 48 3e 0c c5 81 3d
       0.09694289 0.13381125 0.19555835 0.06336412
000190 07 0b 1f 3e d1 a4 84 3d d2 12 1d 3e a4 ec 3c 3e
       0.1553155 0.06476749 0.1533921 0.18449646
0001a0 76 ec 20 be 76 0e a0 bd ad 03 26 be a0 74 50 be
       -0.15715203 -0.07815258 -0.1621234 -0.20356989
0001b0 32 e8 27 3e 2a 1e c2 bd cd e0 83 3d 2d e4 ff bc
       0.16397169 -0.094784096 0.06439362 -0.031236732
0001c0 52 b3 c7 bd 7a 0f 1c 3e 3f 80 29 3f ab 87 7a bd
       -0.097509995 0.15240279 0.66211313 -0.06116454
0001d0 ab 44 26 3e 58 d8 ca bd 74 82 da bd 46 66 ab 3e
       0.16237132 -0.099045455 -0.10669413 0.33476466
0001e0 20 17 07 bf ca 25 d0 bd cc cc b1 bd 7e 9d 99 bd
       -0.5276966 -0.10163458 -0.0868164 -0.075007424
0001f0 39 50 91 be 18 7f bf bd d7 ff 12 3d e7 f3 84 be
       -0.28381518 -0.09350413 0.03588852 -0.25967333
000200 2f a3 c7 be 07 9b 89 3e 2f 7d 57 3a 71 1f a6 be
       -0.38991687 0.2687609 0.0008220253 -0.32445863
000210 f7 29 c6 3d a7 92 70 3e 79 15 42 be d3 0f 24 bd
       0.09675973 0.23493443 -0.18953504 -0.040054154
000220 d7 7c 86 bc 88 ff 5f be 98 4a ed bb 87 4e 01 3d
       -0.01641695 -0.21874821 -0.0072415583 0.03156903
000230 c8 e1 09 3e 5f 58 07 3e 13 9a 1a bc 72 48 9b 3e
       0.13465035 0.13217305 -0.009436148 0.3032871
000240 16 9c 0b 3e ec 6e 08 3d 58 b2 57 bd a9 2d 97 3e
       0.13633761 0.03330891 -0.052660316 0.29527023
000250 07 e5 1e be 58 77 10 3d 10 c2 bb be a7 16 1c 3f
       -0.15517054 0.035270065 -0.36671495 0.60972065
000260 be b1 ac bd b4 1f 70 3d 8a 93 e3 be 3c 5b 8e bd
       -0.08432339 0.058623984 -0.444485 -0.06950995
000270 a6 c6 cd 3d 2f 72 04 be 4e 59 64 3d b4 b4 98 3d
       0.10047655 -0.12934183 0.05574923 0.074563414
000280 2b e5 b5 bd a6 0c 29 3e 1b fb e9 3d 52 02 e4 be
       -0.08881601 0.16508731 0.11424848 -0.4453302
000290 f6 67 a5 3e c5 b8 91 3e 3d 44 42 3e e7 10 3f bd
       0.32305878 0.2846128 0.18971343 -0.04664698
0002a0 bf 30 00 3d f6 a5 40 bf 91 5a 12 bc 4d bf 39 bf
       0.031296488 -0.75253236 -0.0089327255 -0.72557527
0002b0 7e ce 69 3e 66 8f b1 bd da 37 da bd 9e 12 07 3e
       0.22832677 -0.08669929 -0.10655184 0.13190696
0002c0 b2 a3 fb be c5 e2 bf 3e 60 a5 9e 3d cd 2f 7e 3e
       -0.49148327 0.374777 0.077463865 0.24822922
0002d0 14 fe 69 3d d2 b8 ef 3d eb 6b 88 3e 4f 9e a3 3d
       0.057127073 0.117051736 0.26644835 0.07989179
0002e0 ca 24 09 3f 9f f0 95 bd 1c ab 42 3e d7 83 7b be
       0.5357176 -0.073212855 0.19010586 -0.24562012
0002f0 f6 cc 5e bd 24 ad e2 be b8 c4 d2 be 91 8c 6d be
       -0.054394685 -0.4427272 -0.4116571 -0.23198153
000300 39 6f f5 bd 47 8d 1b 3d a1 3a f0 3e a1 bd c0 bd
       -0.11984105 0.03797653 0.4691973 -0.09411169
000310 b4 85 3c 3c e1 33 f3 3b b5 2f 34 be 8a 71 80 3e
       0.011506487 0.007421956 -0.17596324 0.25086623
000320 2a 85 21 be 32 96 e8 bd 3d 1f d3 bd 67 77 66 be
       -0.15773454 -0.113567725 -0.103086926 -0.22506486
000330 c9 37 9d be 6c 48 46 bd 68 3e 20 be 87 9c 78 be
       -0.30706623 -0.04840891 -0.15648806 -0.2427846
000340 c1 4c b4 bd 67 6a 97 be 6d 8e 0b be 44 ba f7 bd
       -0.08803702 -0.29573366 -0.1362855 -0.12096074
000350 95 10 27 be 52 f9 30 3e 5f 84 d3 3e a7 b6 0d be
       -0.1631492 0.17282608 0.4131193 -0.13839208
000360 8e 0b 90 3e 33 84 2a bf 51 5f a4 bd ac 83 12 3d
       0.28133816 -0.6660797 -0.08025993 0.035770103
000370 f8 18 bc be 7e b6 4b 3b c8 3b 60 bc 97 dc 6f 3d
       -0.367378 0.0031084116 -0.013686128 0.05855998
000380 3d 1d 0f be 08 66 a3 bc b8 28 ce 3d cb 6b a5 3c
       -0.13975997 -0.019946113 0.1006636 0.020193001
000390 7c 9f 13 3e 8a 00 55 bd 2c 99 0d 3d bd 6f 9a 3c
       0.14416307 -0.052002467 0.034569904 0.01885211
0003a0 94 97 8e be 49 24 c6 3d 80 05 c3 3e c0 84 dd bd
       -0.2785002 0.096748896 0.38090134 -0.10816336
0003b0 b8 39 48 be 40 d8 e6 bd bc 8a cc bd c9 8a 31 be
       -0.19553268 -0.11271715 -0.09987399 -0.17338099
0003c0 b7 4e dd be 28 55 29 be 91 8d ee bc bc e1 85 bd
       -0.43224117 -0.16536391 -0.029120238 -0.06537196
0003d0 af ff 2d 3e 17 d2 43 bd 7b 93 d2 bc f4 b3 7a be
       0.16992067 -0.04780778 -0.02570509 -0.24482709
0003e0 01 ba 59 3d 24 67 1b be a4 ed 5d 3e 79 27 b9 3e
       0.053155903 -0.15176064 0.21672684 0.36162928
0003f0 40 a6 83 be fa de c2 bd e8 90 05 3d 5e eb eb bd
       -0.25712776 -0.09515186 0.032608896 -0.11519502

fc1.bias f4 [64]
000000 df 38 12 3e bd a7 97 3e fd 01 f6 3c f3 86 1f 3d
       0.14279507 0.29620162 0.030030245 0.038947057
000010 b7 09 8a 3e f3 91 34 3e c7 6d 4a 3d 41 00 55 3e
       0.26960537 0.176338 0.049421098 0.20800878
000020 e7 1c 9a 3e ea d7 f4 3d d9 22 97 3e 7a 76 a0 3e
       0.30100176 0.11955245 0.29518774 0.3134039
000030 14 49 87 bd 1b fc 7d 3e 63 45 8a 3e 72 c3 02 3e
       -0.066057354 0.24803202 0.27006063 0.12769869
000040 d3 0a a0 3d 2e b9 d1 3e e0 03 36 3c d3 71 b7 3e
       0.078145646 0.40961593 0.011109322 0.35829028
000050 69 b4 70 3e 76 39 fa 3d 5c 9a fe 3d 75 fa a1 3d
       0.23506321 0.12217991 0.124317855 0.07909099
000060 dc e0 a4 bd c2 8b 44 39 fb 92 a2 3c bf 7b 87 bd
       -0.08050701 0.0001874408 0.019845476 -0.066153996
000070 59 74 7b bd 89 65 c9 3d 55 ea fc bd a9 a8 01 3e
       -0.061390255 0.098338194 -0.12349383 0.12661995
000080 fc 27 b0 3d 15 7b fe 3d b4 a9 85 bd 1b 4c 1e 3e
       0.086013764 0.1242582 -0.06526509 0.1545872
000090 75 d2 ca 3e f2 1f 4d 3e 8f 54 13 3e 98 c8 54 3e
       0.3961369 0.20031717 0.14387725 0.20779645
0000a0 0d 57 98 bd 99 f5 96 3e 5f d2 d4 3d 6b 6b bd 3e
       -0.074384786 0.2948425 0.103916876 0.36996016
0000b0 41 c4 f3 3d a8 b8 4b 3e e1 0b c5 3d 34 b4 c7 3d
       0.11902667 0.1989466 0.09621406 0.09751168
0000c0 2e a4 b2 3e 41 9c c5 3d c2 5f 42 3e a0 51 fe 3d
       0.34890884 0.09648944 0.18981841 0.124179125
0000d0 7a e5 aa 3e b3 d8 c3 3d a8 48 27 3e 0b f6 1f 3e
       0.33378202 0.095628165 0.1633631 0.15621202
0000e0 87 a6 09 bd 6d e9 dd 3d 4e c2 a7 3e 02 85 b4 bd
       -0.03360608 0.10835538 0.3276543 -0.08814432
0000f0 f4 71 4d 3d 60 2b 12 3e 33 0c f3 3d b0 e4 a7 3e
       0.050157502 0.14274359 0.11867561 0.32791662

fc2.weight f4 [2, 64]
000000 d1 15 89 3d 77 ad fc bd 5f 2d 89 be 90 e7 94 be
       0.06693614 -0.12337773 -0.26792428 -0.29082918
000010 21 2b 32 be 25 45 42 be 4e b3 4a 3d f4 7e 14 be
       -0.17399265 -0.18971689 0.049487405 -0.14501554
000020 c1 37 09 be d9 a5 09 3d fb f3 2b be 53 98 bc bd
       -0.13400175 0.03360543 -0.1679229 -0.09208741
000030 e4 4d ac 3d b8 59 13 be a2 88 1f be 58 81 66 be
       0.08413294 -0.14389694 -0.15579465 -0.22510278
000040 9f c9 9d 3d 56 00 e2 bd f9 0a 24 be 08 68 8f bd
       0.07704472 -0.1103522 -0.1601981 -0.07002264
000050 3d c7 35 be 38 69 80 3d ce 05 06 3d 0f 1e 67 be
       -0.17751785 0.06270069 0.03272038 -0.2257006
000060 6f 74 08 bd 17 81 fa 3c 5c 09 37 3d f6 81 af bd
       -0.033314165 0.030579133 0.04468666 -0.0856971
000070 87 68 f6 bd ae a1 a1 3d ce af 17 3d bd f7 f9 3c
       -0.12031656 0.07892166 0.037032895 0.030513639
000080 29 af 80 3c e9 7b 02 3d e1 3d 75 bc 9b 35 12 be
       0.015708523 0.03185645 -0.014968366 -0.14278261
000090 63 e3 da bd 91 ce fe bd cc 72 31 bd 1c d2 78 be
       -0.10687902 -0.12441743 -0.04332237 -0.242989
0000a0 a4 db 5b 3e 2e 8c a8 bd fa c7 bf 3c 1b a7 da bd
       0.21470505 -0.08229862 0.023410786 -0.10676404
0000b0 fe 94 63 3d c8 35 15 be d1 74 78 3d 56 74 ec 3c
       0.055562012 -0.14571297 0.06065828 0.028864067
0000c0 23 ac c3 bd d8 11 21 3d 17 c0 31 be b2 9c 11 be
       -0.09554317 0.039323658 -0.17358433 -0.14219931
0000d0 ae 81 c7 bd 8c 5e 6c bc b5 0e 50 be 78 11 96 3d
       -0.09741531 -0.014426839 -0.2031811 0.07327551
0000e0 4e 32 42 3d 8b 4a 51 3c 6e 4d eb bd ff 61 00 3d
       0.047411256 0.01277412 -0.11489378 0.031343456
0000f0 2c 16 f9 3c d0 ca 24 3d f4 3b 07 3d e2 4a 05 be
       0.03040608 0.04023248 0.03301616 -0.13016847
000100 9f 63 67 3d bc 58 b3 bc 09 e2 04 be 10 ad 11 be
       0.05649149 -0.021892898 -0.1297685 -0.14226174
000110 cb b3 f7 bd 2f 04 bb bd 09 29 77 3d 60 8f 1f be
       -0.1209484 -0.09131657 0.06034187 -0.15582037
000120 46 b2 e5 bd d0 c2 46 3d 39 8f 04 be 78 3a ab bd
       -0.112156436 0.04852563 -0.1294526 -0.083607614
000130 34 2b 02 3e 11 89 0d be 83 90 9d bd 32 66 4a be
       0.12711793 -0.13821818 -0.07693579 -0.19765547
000140 2b 01 8b 3d ef 77 4b be 70 cd 5c 3d aa 44 2a be
       0.06787332 -0.1986997 0.053906858 -0.16627756
000150 56 1e d4 bd 09 ad b1 3d ce 1b 8e 3d c1 3d 56 be
       -0.103573486 0.08675582 0.06938897 -0.20921995
000160 e4 69 f7 3d fb 73 4f 3d 80 3d 62 3d 0b fe 20 3e
       0.12080744 0.050647717 0.055234432 0.1572191
000170 60 59 c2 3d 37 4c 9c 3d 09 48 65 3d e9 57 2e 3d
       0.09489703 0.07631724 0.0559769 0.042564306
000180 be 39 d1 3d f4 ba 3b 3d da 63 8f bd 29 fd 45 be
       0.102160916 0.04583259 -0.07001467 -0.19334854
000190 0d 65 14 bd c5 f7 14 be 3f 41 4e be cf 56 38 3d
       -0.036229182 -0.14547642 -0.20142077 0.045004662
0001a0 0c 64 03 bd b7 69 d6 bd cf a5 83 3d a5 5c c0 bd
       -0.032077834 -0.10469382 0.0642811 -0.093926705
0001b0 c2 ad 49 3d 5a 82 ed bd e0 78 be 3d e9 0b a8 3d
       0.049237974 -0.11597128 0.09300399 0.08205397
0001c0 57 ce f5 bd c3 bd 59 3d 54 12 2b be f3 52 33 be
       -0.12002247 0.053159487 -0.1670621 -0.17512111
0001d0 6f 21 2d be f6 4b 0b bf 74 9f 9c bd 8f a8 c0 be
       -0.16907285 -0.5441278 -0.07647601 -0.376286
0001e0 ee bf d2 3d ee b4 e1 be 37 df bd bd c2 92 67 be
       0.10290514 -0.4408335 -0.092710905 -0.22614577
0001f0 3e 93 47 3d 9d 0e 97 3d d4 e6 5c 3d c3 4b 72 bd
       0.048724405 0.07375834 0.053931072 -0.059154283

fc2.bias f4 [2]
000000 9c c5 19 3f 47 17 cd 3d
       0.6006715 0.100142054
