assignment-5/models/best_model_9.4.pth (torch, 110548 bytes, 8 tensors)

conv1.weight f4 [4, 4, 8, 8]
000000 63 bb a9 bd 0d 59 8c bd 30 fd 09 be 3f c1 b7 bd
       -0.08287694 -0.068529226 -0.1347549 -0.08972406
000010 fb e4 92 bd ca be 9d 3d f2 ce 67 bc d0 ee 13 3d
       -0.07172581 0.07702406 -0.014148461 0.03611642
000020 68 6a 5b bd 97 4a f0 bd 89 40 49 be 9c a3 8f 3d
       -0.053568274 -0.11732977 -0.19653524 0.07013628
000030 35 b0 3e bd c1 2d e5 3b 6e 5d a9 bd f5 29 15 bd
       -0.046554763 0.0069939797 -0.082697734 -0.036416966
000040 f2 63 17 be 3b d8 9b 3d 47 d9 0a be 6c e0 f1 3d
       -0.1478422 0.07609602 -0.13559447 0.11810383
000050 61 12 38 3c 1b 5d de 3d 81 a9 b4 bd 10 cb f5 bc
       0.011234851 0.10857602 -0.08821393 -0.030004054
000060 de 1a 77 bd 58 29 41 3d f9 6f 1d bb f1 64 c1 bd
       -0.060328357 0.04715857 -0.002402304 -0.09443081
000070 b8 a9 d2 bd 71 08 a3 3d 81 01 71 3d 00 a3 bc 3b
       -0.102862775 0.079605944 0.058839325 0.005756736
000080 16 c1 40 bd 2e da 93 3d 14 f3 eb 3c 0d 02 1d 3e
       -0.04705914 0.07219349 0.028802432 0.15332814
000090 bb e0 90 3c 4b 5e 96 3d 9f 60 74 bd c5 28 18 be
       0.017685285 0.07342204 -0.059662458 -0.14859302
0000a0 05 5c 27 3d 55 b9 07 3c 2f ff 54 3d c0 2c 89 bd
       0.04085924 0.008283933 0.052001175 -0.066979885
0000b0 ae a2 88 bd 6a e1 4d bd 2f 5b 0d bd 8e 3f 0a bc
       -0.06671654 -0.0502638 -0.034510788 -0.008438004
0000c0 e0 fe 9f 3d f2 bb 20 3c 9c 4f 2a 3d 14 00 90 3d
       0.078122854 0.009810435 0.041579828 0.07031265
0000d0 92 13 87 bd 47 bd 6e 3d 55 79 e1 bd c3 fb 41 bd
       -0.065955296 0.058285978 -0.110094704 -0.04735924
0000e0 a6 fe 14 3e fb 2d 1d 3e 04 f9 03 3d 38 0d a6 bc
       0.14550266 0.15349571 0.0322199 -0.020269975
0000f0 38 0d 8e 3d 6d 55 a2 bc 1a 39 cf bd 9c f3 36 bd
       0.06936115 -0.019816125 -0.10118313 -0.044665918
000100 8b 72 9e 3d 91 40 29 3d 76 c6 b6 3d 31 4d e8 3c
       0.07736691 0.04132134 0.08924572 0.02835712
000110 6e 2c 9f bd d6 9d bd bd 24 5e 4e 3b 7d 97 18 bd
       -0.07772146 -0.092586204 0.0031489218 -0.037253845
000120 c6 bc 8a 3d 6f 6c 6b 3d 21 eb d5 3b c9 16 34 3e
       0.06774287 0.057476457 0.0065282737 0.17586817
000130 61 c1 a6 3d 59 c6 91 bd 21 f5 0e be f7 89 9b 3d
       0.08142353 -0.0711791 -0.13960697 0.07594674
000140 2b 55 b5 3d 0e c6 a4 3d cd e9 9e 3d a0 e6 df bb
       0.08854135 0.080455884 0.07759438 -0.0068329126
000150 9a e2 a2 3d 36 d8 54 bd d4 f9 06 bd fb fb 6b bd
       0.07953377 -0.051964007 -0.0329531 -0.057613354
000160 58 e1 aa 3c 5f 0b dc 3d 72 30 72 3d 7c a8 6e 3d
       0.020859405 0.10744356 0.059128232 0.058266148
000170 5e 4d 10 be 0d 03 f3 bd e5 01 e6 bc 9b cd e6 3d
       -0.14092013 -0.11865816 -0.028077075 0.11269685
000180 6b 21 bf 3c 34 fd e7 3d a9 16 06 3d 52 2e d8 3d
       0.023331365 0.113275915 0.032736454 0.1055571
000190 e7 df d5 3d f2 f3 ae bd e3 9b b7 bd a5 ea 95 bd
       0.104430966 -0.085426226 -0.0896528 -0.073201455
0001a0 94 67 e2 3d a9 eb fd 3c 99 0c 39 3c 28 40 c8 bc
       0.11054912 0.03099616 0.011294507 -0.024444655
0001b0 aa d3 d4 bc db 4a 8d 3d 17 db ef 3d 7e 8a f6 bd
       -0.025979836 0.06899043 0.1171171 -0.12038134
0001c0 a8 69 70 3e 18 a4 aa bc 54 59 e1 3c e1 53 51 3d
       0.23477805 -0.0208302 0.027508415 0.051105384
0001d0 53 ac 8f 3d e5 4c 19 be 3d 48 0a be ef ca b5 bc
       0.0701529 -0.14970739 -0.13504119 -0.022191493
0001e0 11 d5 2e bd 17 8b cf 3c 8c 3e a4 3c 49 b6 6d bd
       -0.042683665 0.025334878 0.020049356 -0.05803517
0001f0 95 a4 b2 bc 63 3a 61 bd 0a fb b2 bd 83 9b 20 be
       -0.021806994 -0.054987323 -0.08739288 -0.15684323
000200 36 bd 97 bd 45 17 a4 bd 1f 6d 13 3e 87 bf b3 bd
       -0.07409136 -0.08012251 0.14397095 -0.08776765
000210 8c d5 12 be da 51 80 bd 56 5e e7 3d 1a f5 a1 bd
       -0.14339274 -0.06265612 0.1129729 -0.079080775
000220 ec f7 c7 3a 96 f7 46 bd 44 5c 36 3d 24 31 24 3e
       0.0015256382 -0.04857596 0.044521585 0.1603437
000230 07 01 a4 bc de ad f0 bc 72 28 e6 3d 7d b9 91 bb
       -0.020020021 -0.029379781 0.11238183 -0.0044471608
000240 fa 26 90 3e 7f 82 8e 3e 7f 2d 5b 3c 87 a3 d3 3d
       0.28154737 0.27833936 0.013377546 0.10333925
000250 20 e4 d7 3d 4a 64 64 3e 34 6d e6 3d 38 be 97 3c
       0.10541558 0.22303882 0.112512976 0.01852332
000260 7b 25 f7 3d 22 19 37 3e 90 d5 a9 3d eb 38 ec 3d
       0.12067696 0.17880681 0.08292687 0.11534294
000270 48 a0 7c bc 88 dd db 3d 0c 67 03 bd 5a 2b 2b 3e
       -0.015419073 0.10735613 -0.032080695 0.16715756
000280 03 95 7d 3d 6a 4d 13 3c 91 ec 55 3e 6c 35 95 3e
       0.061909687 0.008990625 0.20891024 0.2914232
000290 de 24 68 bd fa 1c 20 3c 92 ba 9d 3d 96 13 78 3c
       -0.056675784 0.009772534 0.07701601 0.015141388
0002a0 a8 f9 20 3d 2b a3 d5 3b 4d c9 5c bc c5 df 11 3b
       0.03930059 0.0065196953 -0.013475728 0.0022258621
0002b0 de f3 11 bd c0 7c 09 bd 1c 98 09 3e 65 5c 6a 3e
       -0.03563296 -0.033566236 0.13436931 0.22886808
0002c0 30 f3 c6 3d 26 10 0d 3d 8d df 75 3d 31 dc a3 3d
       0.09714353 0.03443923 0.060027648 0.080009826
0002d0 82 27 3e be 22 fa f6 bd cb aa 7c bd 11 16 84 3d
       -0.18569759 -0.12059428 -0.06168632 0.06449521
0002e0 ef 9d bd bd 14 19 10 be 44 dc 14 be f7 cd 07 bd
       -0.09258639 -0.14072067 -0.1453715 -0.033155408
0002f0 59 c7 02 3e a1 99 1e 3d eb 6c 77 bb 74 3e 9d bd
       0.12771358 0.03872073 -0.003775413 -0.076779276
000300 6d e6 16 be b1 19 35 be e9 7f a0 be a2 d6 0c be
       -0.14736338 -0.17685582 -0.31347588 -0.13753751
000310 ce 0c 45 be 48 29 24 be c5 54 a9 3d 9f e8 05 3e
       -0.19243166 -0.16031373 0.08268122 0.13077019
000320 83 15 40 be 8d 76 45 be fd eb 18 bf 5b 94 17 bd
       -0.18758206 -0.19283505 -0.5973509 -0.037006717
000330 1b 6b 2c be e1 c2 b3 bd db 26 f4 3d 6f 41 21 3e
       -0.16837732 -0.087774046 0.119214736 0.15747617
000340 b3 b5 65 be 5b 0c 96 bd 45 42 b5 be 58 3e 28 be
       -0.22432594 -0.07326575 -0.35402122 -0.16430032
000350 fd f9 72 3d 25 c5 ba 3d 6d d2 a8 3d 9f a2 a5 3e
       0.05932044 0.091196336 0.082432605 0.32350633
000360 9b 66 16 be 8f a3 8f bc 95 f3 bf be d8 c9 2c 3d
       -0.14687578 -0.017534046 -0.37490526 0.04218468
000370 7d 8f 67 3d 57 fb 05 bb 18 c9 1d be 53 48 b8 3e
       0.056533325 -0.0020444 -0.15408742 0.3599268
000380 06 71 18 3d 86 e8 82 3d 8b 89 26 bd a8 00 0e 3e
       0.037217163 0.063920066 -0.040658515 0.13867438
000390 f4 64 d3 3d 50 b7 4e 3e 13 9b 30 3e d3 0b 95 3e
       0.1032199 0.20187116 0.17246656 0.29110584
0003a0 4c 05 f3 bc 88 b2 1a 3d df 0f 51 bd 8b a1 2a 3e
       -0.029665612 0.037767917 -0.051040526 0.16663186
0003b0 0c d5 a5 3e 05 86 15 3e 4e 71 9a 3d 7b fb 52 3e
       0.32389104 0.14601906 0.075411424 0.20603745
0003c0 c5 51 0d 3e 01 97 a6 3d 49 03 c5 bd 3c 1f 85 3e
       0.13800724 0.081342705 -0.09619767 0.26000392
0003d0 39 7d 96 3e fb 3f ef 3d 77 5a 1d bd e7 70 8d 3e
       0.29392412 0.11682125 -0.038416352 0.276252
0003e0 e2 34 b7 3c 08 88 d7 3d 07 0c 00 be aa 1d 85 bd
       0.022364084 0.10523993 -0.12504588 -0.064997986
0003f0 b7 d7 43 3e f3 2c a9 3e 36 af 44 3e 7f 42 49 3e
       0.19125257 0.33042106 0.19207463 0.19654272

conv1.bias f4 [4]
000000 2e ac c8 bc 81 74 f8 bb a4 97 e1 bb be 7d 5e bc
       -0.024496164 -0.0075822477 -0.006884532 -0.013579784

conv2.weight f4 [8, 4, 4, 4]
000000 50 09 26 3e 74 04 bd 3d a2 ec 91 be 87 90 57 be
       0.1621449 0.09229365 -0.2850085 -0.21051227
000010 fa 5c 9f 3d ea 2e ba 3d 11 2f 81 be 24 d4 1d bf
       0.07781406 0.090909794 -0.2523122 -0.61651826
000020 72 28 85 bd bf e9 b8 bd ce 95 c0 be 75 b7 aa be
       -0.06501855 -0.090289585 -0.37614292 -0.33343092
000030 eb b9 f0 bd c3 4a 8b bb f9 1a 16 bd 41 f8 6a 3c
       -0.11754211 -0.0042508557 -0.036646817 0.014341415
000040 85 09 6f 3e 0d df 85 3e 00 9c 32 bf 7d ad da 3d
       0.23343475 0.26146737 -0.6976929 0.106776215
000050 11 9b 4e be 6e 46 90 3e c8 26 1d bf a6 30 33 3e
       -0.2017634 0.28178734 -0.613873 0.17499027
000060 ed cb b8 bd db 45 d7 3d 68 e3 a1 bc 1f 6e ac 3e
       -0.09023271 0.10511371 -0.019761756 0.33677766
000070 76 b9 75 3e b8 c2 10 3d ee 06 cd 3d 14 ea 9c bb
       0.23996529 0.03534195 0.10011087 -0.0047886465
000080 18 a3 44 bd 14 a5 e3 be 82 53 5f 3e 50 6c 0d 3d
       -0.0480071 -0.44461882 0.218092 0.034527123
000090 90 ed 83 3c e4 5b 15 bd 74 00 c7 3e a5 30 3a be
       0.01610449 -0.036464587 0.38867533 -0.18182619
0000a0 76 13 90 3e 66 60 4f be d0 0e 36 3e 5b fd e4 3e
       0.28139848 -0.20251617 0.17779088 0.44724545
0000b0 f2 63 e7 3e 94 de 1f be 79 11 34 3e 2d 0a af bd
       0.4519344 -0.1561225 0.1758479 -0.08546863
0000c0 5a 6d c2 3e a1 bb 4c 3e ed 3a 23 3d ca de a8 bd
       0.37974054 0.1999345 0.039851118 -0.08245619
0000d0 57 fd e6 3e 33 8d 13 3d 64 52 ea bd 18 c4 92 be
       0.45115158 0.03602333 -0.11441496 -0.28665233
0000e0 95 02 e8 3d 9a 09 b0 3d f4 a0 9c bc 16 ee 01 3d
       0.113286175 0.08595581 -0.019119717 0.031721197
0000f0 8b aa 01 3e b1 ad a4 3d 42 fa b3 bc e0 8f d0 bd
       0.12662713 0.080409415 -0.021969918 -0.10183692
000100 8f e6 84 bc 98 92 3d be 6c d3 be bd 56 44 07 bf
       -0.01622322 -0.18512952 -0.09317669 -0.5283865
000110 51 95 5c 3e 3a 73 23 bc 36 cc 97 bd a5 ad 91 be
       0.21541335 -0.009976203 -0.07411997 -0.28452793
000120 b8 5a a6 bc e6 34 70 bd 7d e2 03 be 52 98 33 be
       -0.02030693 -0.058644198 -0.12879367 -0.17538574
000130 36 1f e1 bd 5b 99 63 bd eb 64 a5 be 80 ca 9e bd
       -0.10992281 -0.055566173 -0.32303557 -0.077534676
000140 49 78 53 be ca c3 2f 3e 39 60 cc bd 02 fc 97 3d
       -0.20651354 0.17164531 -0.099792905 0.074211136
000150 c1 57 8f 3e 60 2b be 3d 7c 37 51 3e e4 59 95 bd
       0.27996638 0.09285617 0.20431322 -0.07292536
000160 b8 3c 89 be 5d 2d 03 be 89 7d aa bd 1c 4a be 3b
       -0.26804137 -0.12810273 -0.08324725 0.0058071744
000170 f7 85 9d be a1 ba 30 bf d7 9b 2f be 29 8e d6 be
       -0.3076627 -0.69034773 -0.17149292 -0.41905335
000180 cb 05 e5 bd 33 9b 8a bd da c8 71 be e2 ad a2 bd
       -0.111827455 -0.06767883 -0.23611775 -0.07943322
000190 60 fc c1 bd 5b 18 2c bd df fd 22 be 2d 61 61 bc
       -0.09471965 -0.042015415 -0.15917157 -0.013756079
0001a0 e1 4f b4 bd ca c0 7b bd 57 74 4f 3e 3c 18 49 bd
       -0.08804298 -0.061463155 0.20259224 -0.049095377
0001b0 19 40 c8 3e 18 a5 6e bd d7 5d 8c bd 14 06 23 3d
       0.39111403 -0.058262914 -0.06853836 0.03980072
0001c0 35 10 4c 3e 11 cf 13 bb 65 f5 47 be ab 13 cc be
       0.19928057 -0.002255384 -0.19527204 -0.39858755
0001d0 fc 7b 59 3c d7 20 41 be f3 3a 11 be 6a 99 c5 bd
       0.013274189 -0.18860184 -0.14182644 -0.09648402
0001e0 38 a6 34 3e d8 d6 2c be 3e 18 58 bc 3e e2 8f bd
       0.17641532 -0.16878831 -0.013189374 -0.07025574
0001f0 03 ac f3 bd 12 0c b0 3d 2a 1c 42 be a1 9c 10 be
       -0.11898043 0.08596052 -0.18956056 -0.14122249
000200 a0 68 55 be d6 b8 ba bd 84 b4 4a 3c d2 6d 60 be
       -0.20840693 -0.09117286 0.01237214 -0.21916893
000210 ae d1 e5 be 81 cc 35 be 68 02 0e be 99 e9 ac 3b
       -0.44886535 -0.17753793 -0.13868105 0.0052768704
000220 4f b1 6e be a3 9f b4 3d 89 ca 8c be 39 ea 7a 3d
       -0.23309825 0.08819511 -0.27498272 0.06125853
000230 ce f5 8a bc cd 75 4a 3d 0e bb 9d bd 91 c7 08 3d
       -0.016962912 0.04942875 -0.077016935 0.033393446
000240 e1 71 7d be a7 b9 93 3d 4d f6 77 bd 3f e4 15 3e
       -0.24750473 0.07213145 -0.060537625 0.1463785
000250 33 29 22 bf f5 e9 29 3e 62 7c 1e 3e a4 9f a1 3d
       -0.63344115 0.16593154 0.15477136 0.07891777
000260 31 35 89 bd c7 14 8a 3d e7 33 46 3c 3a 9d a1 3e
       -0.066995986 0.06742244 0.012097335 0.31565267
000270 ac 19 b8 3e 52 59 f2 bd 31 45 2b 3d 09 0d 90 3e
       0.35957086 -0.11833443 0.041814033 0.28134945
000280 aa 8e 59 bc 84 23 ea bd a5 87 09 be 96 3e b6 3e
       -0.013278643 -0.11432555 -0.1343065 0.35594624
000290 ff d9 bd bc bb 37 80 3e 31 2c 39 3e 20 5e 8e be
       -0.023175238 0.2504252 0.18083264 -0.27806187
0002a0 69 1c a8 bb 55 89 b4 bd 6d 96 4d 3e 08 87 da be
       -0.00513034 -0.088152565 0.20076914 -0.42681146
0002b0 38 65 6c 3d 46 b8 87 be 4d 90 f0 bc 12 8c ce be
       0.057713717 -0.26507777 -0.029365683 -0.4034124
0002c0 09 74 46 bf 70 ab c1 be 2c eb 84 3e 58 88 f2 bc
       -0.77520806 -0.3782611 0.25960672 -0.02960603
0002d0 de ff 2c bf 81 12 94 be 84 4d 71 3e 67 69 df bc
       -0.6757792 -0.28920367 0.23564726 -0.02727194
0002e0 0d dc 0b bf 42 90 02 bf 5f 21 96 3d 7e fb 05 bd
       -0.54632646 -0.5100137 0.07330584 -0.032710545
0002f0 b2 a8 73 be 9a c3 4d be 05 c0 90 3e 06 45 38 3e
       -0.23794821 -0.20094147 0.282715 0.1799508
000300 db 62 ac bd 97 64 2f be 9f 9d d8 bd 55 5d e3 3c
       -0.08417293 -0.17128216 -0.10576939 0.027754465
000310 64 13 1f be 93 e5 77 be b6 94 37 be 37 31 ce bc
       -0.1553474 -0.2420867 -0.17927822 -0.025169952
000320 ac 01 32 3e da 06 90 3d 16 83 c6 bd e7 cf 97 be
       0.1738345 0.07032557 -0.096929714 -0.29650804
000330 bb ed fa 3d 88 86 39 bd 91 d4 6a 3c 4c a9 cf bd
       0.12252375 -0.045294315 0.014332906 -0.10139713
000340 6f 3f bc be 94 f7 2c 3d 87 2e 0d 3f 0f de 6f 3e
       -0.36767146 0.042228296 0.5514912 0.23424552
000350 a9 c4 88 3d 7d 48 01 3e 6f 04 e4 3c 30 0c b1 3d
       0.06678135 0.12625308 0.027834145 0.08644903
000360 e1 16 d1 be bb 83 d4 3d fd 28 17 3d 55 f5 42 3e
       -0.40837768 0.10376688 0.036904324 0.19038899
000370 c0 bd f4 3e f9 1c 81 3c e7 0e a1 bd 91 36 d0 bc
       0.47801018 0.015760886 -0.078641705 -0.025416644
000380 77 21 8a be a4 83 b2 3e 34 d5 a3 be a1 7c c1 be
       -0.26978657 0.3486606 -0.319986 -0.37790397
000390 24 c9 45 be 2e 5f 4d 3e 49 a6 10 be 4e 11 b2 3d
       -0.1931501 0.2005584 -0.14125933 0.08694707
0003a0 7c 0d bb bd 9a ef 02 3f 41 95 62 be fa 90 27 be
       -0.09133431 0.5114685 -0.22127248 -0.16363898
0003b0 e4 80 50 bd 17 cd 5a 3e e7 b7 de bd 4b e0 40 3d
       -0.05090417 0.21367298 -0.1087492 0.047088902
0003c0 a6 d3 22 3e ac 28 ad bd 6a c9 dc bd 99 f2 d2 bd
       0.1590105 -0.08455023 -0.10780604 -0.10300178
0003d0 c5 9a 12 3e 9d 2a 48 bf 55 38 26 bc ed 9e a0 bd
       0.14316852 -0.7819002 -0.010145267 -0.07842813
0003e0 7b d9 a5 be 2a f3 2f bd 10 5b 6f 3e fb 50 83 bd
       -0.32392487 -0.04295651 0.23374581 -0.0641193
0003f0 66 5c eb 3d 07 97 7e bc 92 eb fa 3d c3 f2 b9 3d
       0.11492233 -0.015538937 0.12251963 0.09079506

conv2.bias f4 [8]
000000 5e 1b 2b bd 91 d7 fe 3d 62 78 3a 3c 91 9d 0e ba
       -0.041774146 0.1244346 0.011381241 -0.00054403493
000010 a7 4e 24 bd bf 27 24 3c 8d 83 6f bc dc 6a 2b 3e
       -0.04011407 0.010019242 -0.0146187665 0.16739982

fc1.weight f4 [64, 392]
000000 df 6e 1e 3d 30 f6 06 bf 38 f3 1d be 32 d3 88 be
       0.038679954 -0.527194 -0.15424812 -0.2672363
000010 e5 ea e8 3d ee 4f 89 be fc b2 18 bd 0e 9f 35 bd
       0.113729276 -0.26818794 -0.037280068 -0.04434114
000020 63 11 27 be 64 57 03 bd 3e c2 df 3d e1 70 33 be
       -0.16315226 -0.032065764 0.10925721 -0.17523529
000030 af ba 0f be 86 ed af bd 04 b9 32 3e 4e b6 bc bb
       -0.14036058 -0.08590226 0.1745339 -0.005759037
000040 87 a6 27 3e d8 ea 1b 3e a4 a0 2b be aa 98 04 b9
       0.16372119 0.15226305 -0.16760498 -0.00012645373
000050 c5 96 85 bd e6 86 47 3d 28 a2 ba bc a1 98 ce 3d
       -0.06522898 0.048712634 -0.0227824 0.100877054
000060 2a 69 0d be e9 bd 41 be 07 aa ff 3c 79 9f 44 be
       -0.13809648 -0.18920101 0.031209005 -0.19201459
000070 ea 29 93 bd 71 9d 00 be d2 d8 21 bd 65 4b 1d 3d
       -0.07185729 -0.12560059 -0.039513417 0.03840198
000080 0d 9e 48 be 53 f7 7d be b2 63 05 be 18 10 af bc
       -0.19591542 -0.24801378 -0.13026312 -0.021369979
000090 82 39 79 3d 6b fc 33 3d 9e 86 a3 3e 96 00 7c 3e
       0.06084586 0.043941896 0.31938642 0.24609599
0000a0 ad 36 cc be ac 33 1d be ba c9 88 be 6c 14 9c 3d
       -0.39885464 -0.15351743 -0.26716405 0.07621083
0000b0 76 2d 20 3e db 70 e4 bd 6c f5 bb 3d f3 93 87 be
       0.15642342 -0.11154338 0.0917767 -0.26480064
0000c0 5a e2 87 bd e1 16 d7 3d 28 7f 3d 3e d6 8d 69 3e
       -0.0663497 0.10502411 0.18505538 0.22808012
0000d0 6c 1e a3 bd f1 4a e0 3c 98 7d f1 3d f6 01 f2 bc
       -0.07964787 0.027379485 0.11791533 -0.02954195
0000e0 be 75 98 3c 5b 22 57 bd af af 08 bd 28 23 e0 bd
       0.018610831 -0.052523 -0.03337067 -0.109442055
0000f0 b3 35 9a 3d bf 3f a1 3d d0 5d b7 3c 24 32 b9 bd
       0.075297736 0.07873487 0.0223836 -0.09042767
000100 8f f9 70 be 1a 35 b3 3d 8b e1 6d bd d3 f2 64 bd
       -0.23532699 0.08750363 -0.058076423 -0.055895638
000110 7a e9 02 be 8e ad 0e 3e c9 b0 ea bd 00 f1 01 be
       -0.12784377 0.13933393 -0.114595 -0.1268959
000120 8d 87 79 3e 51 42 4f 3e 72 ae 84 bd 68 e5 bc bd
       0.24368115 0.20240141 -0.06478585 -0.09223443
000130 f8 5f c1 bd e6 11 9e 3d 38 fe bd 3c 33 c7 53 3d
       -0.09442133 0.077182576 0.02319251 0.051703643
000140 dc 26 8c 3e 89 1c ca 3d a8 0c 6f 3d 74 66 bc 3c
       0.27373397 0.09868724 0.05836168 0.022998072
000150 cf 97 51 3e f6 d3 77 bb 29 f6 b2 3d 87 6a ae bd
       0.20468067 -0.0037815548 0.087383576 -0.08516412
000160 76 da 07 bd 8d 63 7f bc d1 75 41 be 45 45 9d 3d
       -0.033167325 -0.0155877 -0.188926 0.07679228
000170 0b 4f a2 3e 0a bc 86 3e 8c 2c f1 3d 45 a6 12 3e
       0.3170093 0.26315337 0.11776075 0.1432124
000180 f8 e5 c9 3d 8d 4a a1 bd 92 8e 97 3d 52 c7 63 be
       0.09858316 -0.078755476 0.0740024 -0.22244003
000190 5b 1f 46 3e cf 41 e4 bb 98 17 4a 3d 7d 55 a2 3d
       0.19347899 -0.006965853 0.049338907 0.07926462
0001a0 22 2f e0 3c 73 55 13 bd 4c 7a 88 3c ff 50 7f 3e
       0.027366225 -0.035970163 0.016659878 0.24933241
0001b0 77 92 ad 3e 0b 18 9b 3c f2 c6 47 bd bd 04 bc bc
       0.33900806 0.018932363 -0.048773713 -0.022951478
0001c0 f9 4b 85 bd 04 98 3d 3e 96 c0 a8 3e 4f 34 a8 bd
       -0.06508631 0.1851502 0.3295943 -0.08213102
0001d0 58 24 bc 3c 2a 4c e9 bd c1 63 19 3d 9a 8c 23 3e
       0.022966549 -0.1139148 0.03744865 0.15971604
0001e0 03 a2 66 3d a4 6a f9 be c9 45 aa 3c c7 50 04 bd
       0.05630685 -0.48714173 0.02078523 -0.032303598
0001f0 4e 91 b4 be d0 f7 94 bd f6 a0 61 3d 56 f6 de bd
       -0.3526711 -0.07273829 0.055085145 -0.108868286
000200 3a 82 ee bd b4 c2 f2 3d ec 27 fb 3c 9f 08 7d be
       -0.116459325 0.11853543 0.030658685 -0.2471032
000210 7c da 07 3e 12 23 b0 3e 92 c0 3c be 06 02 5d 3e
       0.13266939 0.34401757 -0.18432835 0.21582803
000220 e8 1c 1b be a7 0f 20 3c 44 66 9f 3d fb 72 cd bd
       -0.15147746 0.009769357 0.077831775 -0.100316964
000230 d6 14 85 3e 97 8e 81 3d 32 20 8c 3a 8c ce df 3d
       0.2599246 0.06326025 0.0010690747 0.109280676
000240 b3 e0 d7 bd 6b 29 b9 3c d6 97 47 bc 1f 00 ea be
       -0.10540905 0.022602757 -0.012182197 -0.45703217
000250 f4 fd 34 3e 20 87 bc bc 4d da ff be 5f 58 28 3e
       0.17675 -0.023013651 -0.49971238 0.16439961
000260 fd bc d4 be 43 3d 28 be 13 62 6c be 2d e1 94 3d
       -0.41550437 -0.1642962 -0.23084287 0.07269511
000270 3d 23 03 bd cf f5 98 bd 17 c3 33 3d 7c f4 06 be
       -0.032016028 -0.07468759 0.043887224 -0.13179201
000280 59 8f d1 3b 87 99 28 3e c0 29 64 3e c2 2a 65 be
       0.006395262 0.16464816 0.22281551 -0.22379592
000290 05 f4 04 3e 84 0f 6b be 27 9f dd bc b9 73 34 3c
       0.12983711 -0.22955137 -0.027053429 0.011013919
0002a0 3a b9 54 3e 18 61 73 3c 1f ca 1d be b7 27 e2 be
       0.20773783 0.014854692 -0.15409134 -0.44170925
0002b0 98 87 1b 3e 02 6b e0 bc 82 47 48 be ee 7f 8b 3a
       0.15188444 -0.027394775 -0.19558528 0.0010642984
0002c0 2f 9d 99 bd 54 93 5f 3e 0f 8a 55 bb 9b 60 2c 3e
       -0.075006835 0.21833545 -0.003258351 0.16833727
0002d0 bb 2a bb bd 27 14 4b 3d 6c 18 0e 3d 9b c7 71 bd
       -0.091390096 0.049579766 0.03469126 -0.05902825
0002e0 31 d9 5c 3e 58 57 61 be a6 83 a2 3e 1a 35 71 be
       0.21567227 -0.22005975 0.31741065 -0.23555413
0002f0 66 23 79 bd 49 42 a3 be a2 fb ea be 14 a0 7c 3d
       -0.060824774 -0.3188651 -0.45895106 0.0616761
000300 7b 8c a6 be e1 0f 6a 3e c4 04 49 3e 95 dc 47 3c
       -0.32529053 0.2285762 0.19630724 0.012198587
000310 9f b2 d2 3c 33 47 5e 3e 8e 7a 56 be 5a f5 6c 3e
       0.025719939 0.21706848 -0.20945188 0.23140469
000320 57 2b d8 3d d5 fb 4d be 72 c7 3f 3e 55 8d 08 3d
       0.105551414 -0.20115598 0.18728426 0.03333791
000330 2b 78 6c bd 85 df 2f 3b b0 38 dd bd 32 35 9e be
       -0.05773179 0.002683611 -0.10801828 -0.3089996
000340 08 bb a3 3d f5 e5 66 be 56 51 9d 3d 14 57 ef 3c
       0.07994658 -0.22548659 0.07681529 0.029216327
000350 65 dc 56 3d 27 25 93 3e 19 24 4e be d2 85 44 bd
       0.05245628 0.28739282 -0.20130958 -0.047979183
000360 ab 8f b0 3d b4 cc 45 be 71 64 e2 bd 7e c1 4c 3e
       0.086211525 -0.1931637 -0.11054314 0.19995686
000370 0c f9 02 bf 40 d7 46 bd c9 8f e3 bd 0b e1 ce 3d
       -0.51161265 -0.048545122 -0.11111409 0.10101517
000380 ea 1b 37 be 96 82 4c 3d b3 ad fa 3d 34 3b a0 bd
       -0.17881742 0.049929224 0.12240162 -0.07823792
000390 2a 41 77 3c 4c 9d 0e 3e 0c 54 36 bd 6d 77 1d be
       0.01509122 0.13927191 -0.044513747 -0.15377589
0003a0 ea e3 71 be b3 29 e5 bd 0e 19 e9 3d c2 7a ec 3c
       -0.23622099 -0.11189594 0.11381732 0.02886713
0003b0 24 ac 67 be d0 fa 13 3e 85 1b e5 bd 7f 3a 86 be
       -0.2262426 0.14451146 -0.111868896 -0.26216504
0003c0 9a 93 9a be 47 97 10 be 37 e5 57 3e 12 d8 e7 3e
       -0.30190736 -0.14120208 0.21083532 0.45282036
0003d0 0d 16 b7 3d 1e 26 12 3e a2 eb 16 be b0 ea 64 be
       0.08939753 0.14272353 -0.14738324 -0.22355151
0003e0 ad a4 d6 3d 61 e6 2a 3d 0b 80 b6 3c 08 e0 77 3e
       0.10480628 0.041723613 0.022277853 0.24206555
0003f0 d3 dd f1 bd ac f9 f1 bb aa 24 47 3e d9 2e 23 3e
       -0.11809888 -0.0073844995 0.1944758 0.1593584

fc1.bias f4 [64]
000000 89 a0 f1 3d 0c 6c 1d 3e 3d 45 a6 bc 62 cc 6d 3b
       0.11798198 0.15373248 -0.020296687 0.0036285152
000010 e9 cb 3b 3e 3f de 8c 3d 2a 1f e6 3d 22 9f 32 3e
       0.18339504 0.068783276 0.11236413 0.17443517
000020 f5 14 2d 3e 42 3f bd 3d 8b 53 26 3e a4 5d 46 3e
       0.16902526 0.09240581 0.16242807 0.19371659
000030 9f 87 f8 3d 88 77 14 3e 87 8d 22 3e 83 b2 d5 3d
       0.12135243 0.14498723 0.15874301 0.10434439
000040 42 15 b0 3d 48 89 69 3e 94 2b a7 3a e7 6e 67 3e
       0.085978046 0.22806275 0.0012754076 0.226009
000050 f5 5b f2 3d d6 6e d1 3d e7 a8 c4 3d c9 7b ef 3d
       0.11833946 0.102262184 0.09602528 0.11693532
000060 b7 a5 8f bd d2 71 a8 3d 5e 0f c3 3d 29 08 5f bd
       -0.070140295 0.082248345 0.095244154 -0.05445114
000070 59 74 7b bd 78 fe fe 3d e5 71 ee bd 84 2e d2 3d
       -0.061390255 0.1245088 -0.116428174 0.102627784
000080 c0 67 91 3d c0 5e ef 3d b4 a9 85 bd d5 74 17 3e
       0.07099867 0.11687994 -0.06526509 0.14790662
000090 b5 78 52 3e a8 d2 e5 3d 7b db 16 3e ce ee 10 3e
       0.20553859 0.1122182 0.14732163 0.14153597
0000a0 0d 57 98 bd e2 ae 4b 3e b3 b6 bd 3d e9 67 66 3e
       -0.074384786 0.19890931 0.09263363 0.22500576
0000b0 0c 76 fc 3d d2 cb fa 3d 51 95 9e 3d fc 69 a8 3d
       0.12327203 0.12245907 0.077433236 0.0822334
0000c0 39 a8 60 3e 5b 95 b6 3d 06 ff f2 3d 92 2a 0f 3e
       0.21939172 0.08915206 0.11865048 0.13981083
0000d0 00 d5 6c 3e d3 6c de 3d 9a 17 c0 3d f3 91 02 3e
       0.23128128 0.108606 0.09379502 0.12750988
0000e0 b1 20 f4 3c 7d d9 08 bd cd db 3f 3e 02 85 b4 bd
       0.029800745 -0.033410538 0.18736191 -0.08814432
0000f0 6b 6d ce 3d 1f 7c f9 3d 1f 9d e0 3d 4c 18 54 3e
       0.100794636 0.12181877 0.109674685 0.20712394

fc2.weight f4 [2, 64]
000000 e3 83 39 3d 96 04 3e be 9e eb 73 be 27 e6 c4 be
       0.045291793 -0.18556437 -0.2382035 -0.38456842
000010 e6 5f c4 bd a7 b7 c2 be 66 9c 61 3d b4 59 0b be
       -0.09588604 -0.3803074 0.055080794 -0.13608438
000020 b3 4c 3c be 75 00 53 3d 09 34 93 be aa d0 e7 bd
       -0.18388633 0.051514108 -0.28750637 -0.113190964
000030 b5 6b 94 3d 89 f5 7f be ca 83 51 be aa e5 c9 be
       0.07247106 -0.24996008 -0.2046043 -0.39433032
000040 26 c1 ae 3d ee 2d 0a be 4f 51 23 be 8a 7f e1 bd
       0.08532934 -0.13494083 -0.15948986 -0.11010654
000050 9e eb 77 be f3 cc ab 3d 38 c0 52 3d 11 fd d6 be
       -0.24210975 0.083887 0.051452845 -0.4198995
000060 9d 96 34 bd 04 c2 6e 3d ae 30 8c 3d 12 dc bc bd
       -0.04408895 0.058290496 0.068452224 -0.092216626
000070 87 68 f6 bd 7d 92 71 3d db f1 c8 3d d3 73 7e 3d
       -0.12031656 0.058977593 0.09811755 0.062122177
000080 e3 68 45 3d 51 8b 54 3d e1 3d 75 bc 45 2d 88 be
       0.04819573 0.051890675 -0.014968366 -0.26597038
000090 b0 73 e8 bd b2 81 85 be f8 a1 eb bd 17 6d 53 be
       -0.11350191 -0.26075512 -0.115055025 -0.20647083
0000a0 a4 db 5b 3e 51 83 f6 bd bd 7a 4b 3d 90 48 05 be
       0.21470505 -0.12036765 0.0496776 -0.13015962
0000b0 80 2d 8f 3d da f9 5d be 38 4b af 3d 68 f7 5c 3d
       0.069911 -0.21677342 0.08559269 0.053946882
0000c0 56 45 b6 bd eb 8a 4e 3d 70 ca 97 be c6 23 75 be
       -0.088999435 0.05042545 -0.29646635 -0.23939428
0000d0 77 08 f0 bd 66 9c 4c 3c 93 b3 84 be 38 e8 63 3d
       -0.117203645 0.01248846 -0.25918254 0.055641383
0000e0 7c 4b ba 3d ba e5 34 3e 5f 6c 2b be ff 61 00 3d
       0.09096429 0.17665759 -0.16740559 0.031343456
0000f0 87 7d 66 3d 35 7a 8a 3d 27 91 41 3d c5 9c 3a be
       0.056272056 0.067615904 0.04725757 -0.18223865
000100 84 a5 bf 3d b0 e4 9e bd a0 18 c2 bc 08 8b 9a be
       0.093577415 -0.077584624 -0.023693383 -0.30184197
000110 80 2e 80 be 8e 7d 26 3d c3 eb 9a 3d bc d7 f6 bd
       -0.25035477 0.040647082 0.07564499 -0.12052867
000120 ac c6 0f be 8a d6 98 3d 94 98 58 be bf 1e d8 bd
       -0.14040631 0.07462795 -0.21151954 -0.10552739
000130 04 b3 af 3d 8d 6e 1d be 65 61 f9 bd 66 f2 82 be
       0.085790664 -0.15374203 -0.1217678 -0.2557556
000140 f5 b7 bd 3d 28 ab 07 be 31 cf 92 3e 0d 11 dd bd
       0.09263603 -0.13248885 0.286737 -0.10794268
000150 fb df 14 be 2c 73 f9 3d 91 f9 b0 3d 82 d5 7e be
       -0.14538567 0.121801704 0.08641351 -0.24886134
000160 e4 69 f7 3d 4f 58 aa 3d d1 4f 90 3d 95 84 41 3e
       0.12080744 0.08317625 0.07046474 0.18898232
000170 60 59 c2 3d e6 97 9a 3d c5 ae 90 3e d2 06 87 3d
       0.09489703 0.075485036 0.2825834 0.06593098
000180 19 64 f0 3d b8 3b b1 3d da 63 8f bd 3f fb 89 be
       0.11737842 0.086539686 -0.07001467 -0.26949498
000190 51 7e 74 bd 38 2f 63 be a0 c1 87 be c2 18 82 be
       -0.059690777 -0.22185981 -0.26514912 -0.25409514
0001a0 0c 64 03 bd 6e 71 f3 bd 89 fd 8c 3d 5b 96 f6 bd
       -0.032077834 -0.11886869 0.068842955 -0.12040397
0001b0 31 8d 89 3d 1c 11 f4 bd b5 f5 e7 3d c0 95 bf 3d
       0.06716383 -0.11917326 0.11326162 0.093547344
0001c0 db 2a 10 be 8b 06 91 3d d9 c8 79 be 8a e7 53 be
       -0.14078848 0.07081326 -0.24393024 -0.20693794
0001d0 02 58 02 be 8f dd ff be 39 30 e2 bd f5 2f 71 3d
       -0.12728885 -0.49973723 -0.11044354 0.058883626
0001e0 f6 3e c9 3d 67 9a 05 bf 0b 14 12 be c2 92 67 be
       0.09826462 -0.52188724 -0.14265458 -0.22614577
0001f0 11 aa 80 3d 89 f5 dc 3d 70 ef b3 3d e2 87 6f bd
       0.062824376 0.107890196 0.087859035 -0.058479197

fc2.bias f4 [2]
000000 4f 15 4b bd ca 39 0c bf
       -0.04958087 -0.5477568
