assignment-5/models/best_model_25.2.pth (torch, 110560 bytes, 8 tensors)

conv1.weight f4 [4, 4, 8, 8]
-0.13245314 0.026743714 -0.1613297 0.0300622 -0.010515718 0.1634919 -0.06871477 -0.034455698
-0.12299403 -0.14107083 -0.24422935 0.15654077 0.08554714 0.14090413 -0.24377449 -0.08623853
-0.06663583 -0.05232394 -0.2267197 0.02966593 -0.0018418925 0.23381342 -0.12543383 -0.016524242
0.11874382 0.01849439 -0.14367014 -0.1755651 -0.19965495 0.047008827 -0.18462624 -0.021309467
-0.061109133 -0.06574083 -0.020914493 -0.050278883 0.013714268 0.0077480474 -0.10409141 -0.31500804
-0.048387326 -0.06356643 -0.10927612 -0.10490123 -0.16399573 0.0030957828 -0.2939209 -0.06777673
0.12982288 -0.055189643 0.086932994 0.20551273 -0.17681436 0.13930966 -0.08012055 -0.20659776
0.08532371 0.065626174 0.14366052 0.05566372 -0.0066452865 0.02862836 -0.18219885 -0.14641216
0.07481209 -0.045524724 0.17075664 0.19943836 0.057216577 -0.042174853 0.047913544 0.03372224
0.027321626 0.20189978 -0.10380126 0.2764886 0.32897037 -0.2276642 -0.12039909 -0.035386503
0.05104198 0.17623536 -0.23464349 0.23106153 0.10996322 -0.04446277 0.0122596705 -0.03153447
0.124798164 0.13315892 0.13772129 0.0028180727 0.0015021407 0.007521398 0.115866855 0.104079664
0.060152072 0.1793222 0.019699557 0.013676341 0.30374458 0.013456252 -0.017557628 -0.21140254
0.07791481 -0.0039779614 0.06983199 -0.096924976 -0.001064418 0.10757567 0.046343807 -0.21230198
0.2036724 -0.026083544 0.14616413 0.28970432 0.094231755 0.053863067 -0.15632942 -0.24971381
0.035456203 0.0012482234 0.18072687 -0.09193914 0.14365464 -0.013330922 -0.1211177 -0.40345448
-0.3205082 -0.2692786 0.31471658 -0.27147937 -0.13833845 0.037414704 0.15451263 -0.16985261
0.055223737 0.10000348 -0.05517943 0.21248487 0.14139849 0.07392153 0.17966874 -0.07874499
0.31913698 0.53444684 -0.061214216 0.36659697 0.27946663 0.41090935 0.25123182 0.18009508
0.3345884 0.22346468 0.25807247 0.1934638 0.057837754 0.53273845 0.18577139 0.18240343
0.30433336 0.22586916 0.15356809 0.21238248 0.33912644 0.12754154 0.08911117 0.11055524
0.056012988 0.14625442 0.14012676 0.19334677 0.227853 0.29167432 0.13477083 0.28680405
0.051537167 -0.09817006 0.19713004 0.040780995 -0.00642444 -0.059938688 -0.16899188 0.04279457
-0.17760584 -0.2804777 0.08661474 -0.09457085 0.10488137 -0.1023475 -0.0037003306 -0.2123315
-0.22077382 -0.5519446 -0.46820316 -0.31229213 -0.30846736 -0.104002886 0.2329048 -0.1580141
-0.29425597 -0.32264513 -1.1490464 -0.33679482 -0.33362854 -0.56185937 0.085994855 0.132888
-0.22718647 -0.30343956 -0.60662097 -0.27998397 -0.22231463 -0.27753916 0.033526503 0.48168203
-0.2440527 -0.28520304 -0.6408544 -0.20905955 -0.3190843 -0.22000155 -0.36894944 0.3248454
0.14088093 0.19516508 -0.043102436 0.02222787 -0.1396933 0.31693318 -0.057519052 0.36714476
-0.21310568 0.21204299 -0.073311836 0.16201894 0.23479788 0.41801605 0.20637296 0.3519428
0.06770443 -0.016930494 -0.0834425 0.42646128 0.42248333 0.41238353 0.034775905 0.17554845
-0.025631592 0.018878883 -0.22689667 -0.06917068 0.23359182 0.48054954 0.21396047 0.39453858
00000000: cca1 07be a215 db3c 9d33 25be 0145 f63c
00000010: 1e4a 2cbc 6c6a 273e 54ba 8cbd 6b21 0dbd
00000020: 4be4 fbbd df74 10be 4217 7abe 394c 203e
00000030: 5733 af3d 2c49 103e 05a0 79be d49d b0bd
00000040: 5e78 88bd a151 56bd 3629 68be f705 f33c
00000050: a86b f1ba c96c 6f3e ba71 00be d95d 87bc
00000060: f62f f33d 8c81 973c 441e 13be 56c7 33be
00000070: 5972 4cbe 548c 403d a90e 3dbe 3191 aebc
00000080: 924d 7abd 21a3 86bd df54 abbc 3bf1 4dbd
00000090: cfb1 603c 55e3 fd3b e12d d5bd bc48 a1be
000000a0: ca31 46bd 1e2f 82bd 29cc dfbd 75d6 d6bd
000000b0: 7fee 27be 9ee2 4a3b cd7c 96be 87ce 8abd
000000c0: 4af0 043e 890e 62bd ed09 b23d ee71 523e
000000d0: d30e 35be 31a7 0e3e 3e16 a4bd 5d8e 53be
000000e0: 33be ae3d 0467 863d be1b 133e a4ff 633d
000000f0: b4c0 d9bb 0686 ea3c 5692 3abe 12ed 15be
00000100: 1537 993d 2278 3abd d4da 2e3e 9239 4c3e
00000110: ee5b 6a3d 8abf 2cbd fe40 443d 5520 0a3d
00000120: 9ad1 df3c d1be 4e3e c195 d4bd ea8f 8d3e
00000130: ce6e a83e ce20 69be cc93 f6bd 70f1 10bd
00000140: 6511 513d 0b77 343e 6246 70be 659b 6c3e
00000150: 6634 e13d 981e 36bd c9dc 483c 4a2a 01bd
00000160: 2e96 ff3d d05a 083e cf06 0d3e 6aaf 383b
00000170: 7ae3 c43a 0f76 f63b 9a4b ed3d b827 d53d
00000180: 0562 763d 3da0 373e f760 a13c bb12 603c
00000190: 6984 9b3e 9d77 5c3c 04d5 8fbc e879 58be
000001a0: cd91 9f3d 8f59 82bb 1304 8f3d 9a80 c6bd
000001b0: f183 8bba a250 dc3d 01d3 3d3d b165 59be
000001c0: 7f8f 503e 28ad d5bc 0dac 153e 2054 943e
000001d0: 94fc c03d 859f 5c3d d214 20be fab4 7fbe
000001e0: 863a 113d 6d9b a33a 7710 393e 964a bcbd
000001f0: 341a 133e f169 5abc 8f0c f8bd 9691 cebe
00000200: a719 a4be e2de 89be 8822 a13e 58ff 8abe
00000210: 98a8 0dbe 2940 193d 8f38 1e3e d8ed 2dbe
00000220: 4932 623d a0ce cc3d d303 62bd a295 593e
00000230: c4ca 103e 2c64 973d 15fb 373e 0e45 a1bd
00000240: ec65 a33e 82d1 083f c2bb 7abd 99b2 bb3e
00000250: 4016 8f3e b662 d23e 75a1 803e d86a 383e
00000260: 2c4f ab3e edd3 643e 1322 843e 601b 463e
00000270: 48e7 6c3d 8c61 083f db3a 3e3e f7c7 3a3e
00000280: 95d1 9b3e 3f4a 673e f440 1d3e cb7a 593e
00000290: fba1 ad3e 409a 023e eb7f b63d c96a e23d
000002a0: e06d 653d b8c3 153e 647d 0f3e b2fc 453e
000002b0: 4c52 693e 5656 953e 5d01 0a3e fbd7 923e
000002c0: a318 533d 620d c9bd 75dc 493e f909 273d
000002d0: 1c84 d2bb 4582 75bd 350c 2dbe 5c49 2f3d
000002e0: 4ede 35be c69a 8fbe 1263 b13d 5dae c1bd
000002f0: 0bcc d63d 919b d1bd 3f81 72bb 6e6d 59be
00000300: 8812 62be 3e4c 0dbf 53b8 efbe c1e4 9fbe
00000310: 6fef 9dbe 77ff d4bd 997e 6e3e 73ce 21be
00000320: b8a8 96be be31 a5be f413 93bf 5f70 acbe
00000330: 5cd1 aabe 04d6 0fbf 121e b03d cb13 083e
00000340: 92a3 68be 6e5c 9bbe 834b 1bbf 0f5a 8fbe
00000350: 72a6 63be 9d19 8ebe 1653 093d 079f f63e
00000360: f3e8 79be 2206 92be 090f 24bf b513 56be
00000370: 045f a3be 1648 61be f1e6 bcbe 2352 a63e
00000380: 1743 103e 5bd9 473e 2e8c 30bd 3917 b63c
00000390: c30b 0fbe 1145 a23e 1999 6bbd 66fa bb3e
000003a0: 6038 5abe cc21 593e 8424 96bd 4be8 253e
000003b0: db6e 703e 3306 d63e 6f53 533e d931 b43e
000003c0: 9fa8 8a3d d2b1 8abc e7e3 aabd 2259 da3e
000003d0: bc4f d83e ef23 d33e 2e71 0e3d f9c2 333e
000003e0: 58f9 d1bc e3a7 9a3c 9a57 68be 5ca9 8dbd
000003f0: b232 6f3e 970a f63e 7418 5b3e f600 ca3e

conv1.bias f4 [4]
-0.021862105 -0.048591927 -0.16153714 -0.038346536
00000000: 2818 b3bc 5408 47bd fe69 25be 4211 1dbd

conv2.weight f4 [8, 4, 4, 4]
0.2512729 0.14901227 -0.40448463 -0.42850408 0.087855496 0.096354805 -0.32350457 -1.2515644
-0.04435098 -0.046212655 -0.29340604 -0.7517425 -0.107977696 -0.07057915 0.06526997 -0.07393824
0.121389486 0.27540693 -0.4742926 0.13475029 -0.2786662 0.4566758 -1.0640715 0.23760143
-0.70700234 0.24655935 -0.41530228 0.49097303 -0.3440012 0.054519296 -0.048562035 0.10228488
-0.30485362 -0.2949039 0.3335523 0.1746427 -0.08411435 -0.20041895 0.39169997 0.38648984
0.4435099 -0.24665034 0.27503684 0.81404895 0.4782267 0.060088836 0.29037085 0.1299215
0.341731 0.1603828 0.0034720604 -0.048202492 0.5374631 -0.035784923 -0.12357086 -0.1554859
0.08430648 -0.0046002003 0.10900222 -0.24269503 0.097819775 0.0043169474 0.22713968 0.0025965332
-0.2713149 -0.43458202 0.071241826 -0.34130427 0.29857558 0.018178267 -0.21335459 -0.8705736
0.11713013 0.034586344 -0.6135899 -0.22916661 -0.016258063 -0.25218022 -0.21882482 0.030999612
-0.17854156 0.18776101 -0.28402597 0.09669879 0.16306022 0.20263146 0.23942582 0.16031477
-0.48465753 0.16367564 0.0138580445 0.0008189379 -0.6894286 -0.9641585 -0.57732075 -0.03678363
0.02611159 0.23062369 -0.2444365 0.025226777 -0.037602674 -0.3237867 -0.20355429 -0.10548836
-0.14206672 -0.66055506 0.04653758 -0.5285512 0.43117815 -0.5386801 -0.24040368 0.07095107
0.10078462 0.23576143 -0.13039978 -0.25538793 0.21958047 0.13774972 -0.61448145 -0.13306877
0.2577002 -0.23964965 0.2201291 0.16178212 -0.13336554 0.14722477 0.12481682 -0.23900135
-0.119589895 -0.0925076 -0.10311196 -0.2344162 -0.28000897 -0.093694 -0.5084775 -0.012643381
0.036340427 0.02084583 -0.2974213 0.09356582 -0.2701604 -0.14924084 -0.23584609 0.056947306
-0.81683886 0.06514017 0.029921865 0.0953622 -0.6384738 0.27122205 0.19357295 0.05511906
0.11526548 0.10017985 0.087003194 0.28911233 0.16077954 0.010226768 0.15563332 0.41516533
-0.08706892 -0.12658612 -0.2704439 0.40920162 -0.12795305 -0.10039188 0.3494351 -0.1398148
-0.27721748 -0.29893595 0.3579272 -0.13265385 -0.1731026 -0.118880965 -0.12215493 -0.7137054
-0.042267427 0.17715827 0.030923096 0.06951598 -0.11391441 -1.0019834 0.2242347 -0.23549603
0.124356866 -0.40038627 0.20922536 0.097536385 -0.17394821 0.04794608 0.528555 0.030590327
-0.09178602 -0.40071467 -0.4567917 -0.16751792 -0.15070386 -0.1713195 -0.009203223 -0.20962712
0.12679386 0.06554954 0.012441795 -0.19149849 0.21676491 -0.009201553 -0.00086257764 -0.014865322
-0.5728628 -0.1532022 0.50009996 0.15391801 0.05822038 0.116857216 0.16703591 0.10861222
0.2782117 0.32526 -0.123192936 0.41725174 0.5520881 -0.04028297 -0.20786107 -0.04481338
-0.7523237 0.26526976 -0.0019199558 -0.14868748 -0.653163 0.40238744 -0.10990928 0.5934367
-0.086294316 0.45794758 -0.45090416 -0.5270383 0.02081083 0.23174526 -0.31525823 -0.07126793
0.11305088 -0.16836779 -0.3222394 -0.2415927 0.088911906 -0.4156025 -0.029233914 -0.033100076
0.027317502 -0.02590817 0.12949991 0.21254581 0.14575014 0.08358936 0.24856737 0.24089812
00000000: d7a6 803e ac96 183e 9c18 cfbe e364 dbbe
00000010: 95ed b33d ab55 c53d 64a2 a5be 4333 a0bf
00000020: 60a9 35bd 7b49 3dbd 5139 96be 3272 40bf
00000030: 6923 ddbd cd8b 90bd 43ac 853d ef6c 97bd
00000040: 0d9b f83d 2302 8d3e 7bd6 f2be fbfb 093e
00000050: 56ad 8ebe 69d1 e93e 7f33 88bf ca4d 733e
00000060: 1bfe 34bf 0e7a 7c3e 80a2 d4be d160 fb3e
00000070: ed20 b0be a04f 5f3d fce8 46bd bc7a d13d
00000080: c615 9cbe a5fd 96be 5ec7 aa3e 89d5 323e
00000090: 2544 acbd a03a 4dbe e68c c83e ffe1 c53e
000000a0: bb13 e33e e891 7cbe a1d1 8c3e 8365 503f
000000b0: 21da f43e b61f 763d 7dab 943e 240a 053e
000000c0: 5ef7 ae3e 643b 243e 828b 633b fa6f 45bd
000000d0: 2f97 093f 3693 12bd b812 fdbd b237 1fbe
000000e0: e0a8 ac3d 47bd 96bb 8e3c df3d 0c85 78be
000000f0: bc55 c83d 2e75 8d3b 4e97 683e 992a 2a3b
00000100: c9e9 8abe 8981 debe 3ce7 913d 6fbf aebe
00000110: e6de 983e 97ea 943c a079 5abe e9dd 5ebf
00000120: ece1 ef3d 69aa 0d3d 3a14 1dbf a7aa 6abe
00000130: a12f 85bc c41d 81be 9d13 60be e6f2 fd3c
00000140: 99d3 36be 6c44 403e da6b 91be 040a c63d
00000150: 42f9 263e 9f7e 4f3e 0b2c 753e 8e29 243e
00000160: 0825 f8be 969a 273e da0c 633c fead 563a
00000170: 657e 30bf 17d3 76bf 4bcb 13bf 6eaa 16bd
00000180: f9e7 d53c 9e28 6c3e 904d 7abe 63a8 ce3c
00000190: 4305 1abd 5fc7 a5be 8970 50be 480a d8bd
000001a0: f079 11be 231a 29bf 319e 3e3d 224f 07bf
000001b0: 62c3 dc3e f0e6 09bf 622c 76be cb4e 913d
000001c0: 2b68 ce3d 726b 713e 8587 05be 35c2 82be
000001d0: b4d9 603e 430e 0d3e a84e 1dbf 2e43 08be
000001e0: 48f1 833e b866 75be 8669 613e 36aa 253e
000001f0: fa90 08be 17c2 163e f69f ff3d c5bc 74be
00000200: 8ceb f4bd a074 bdbd 5d2c d3bd cd0a 70be
00000210: 565d 8fbe a4e2 bfbd 952b 02bf 2f26 4fbc
00000220: b3d9 143d e0c4 aa3c 9b47 98be 709f bf3d
00000230: 7752 8abe 97d2 18be a381 71be 9441 693d
00000240: 5a1c 51bf 3668 853d b31e f53c 424d c33d
00000250: 0573 23bf 9edd 8a3e fd37 463e 86c4 613d
00000260: 4f10 ec3d 182b cd3d bb2e b23d 8806 943e
00000270: 64a3 243e 2d8e 273c 575e 1f3e 8d90 d43e
00000280: 3151 b2bd cb9f 01be 9f77 8abe e082 d13e
00000290: 2006 03be 429a cdbd 28e9 b23e 9c2b 0fbe
000002a0: 73ef 8dbe 220e 99be 3c42 b73e 69d6 07be
000002b0: cf41 31be dd77 f3bd 5d2c fabd 66b5 36bf
000002c0: 9c20 2dbd fa68 353e 6f52 fd3c 655e 8e3d
000002d0: f54b e9bd fe40 80bf c89d 653e df25 71be
000002e0: d0ae fe3d 6eff ccbe 2c3f 563e 28c1 c73d
000002f0: 7b1f 32be 1c63 443d 614f 073f 9198 fa3c
00000300: 4ffa bbbd 792a cdbe 9ae0 e9be d189 2bbe
00000310: 1d52 1abe 616e 2fbe 1dc9 16bc 7ea8 56be
00000320: 40d6 013e d63e 863d acd8 4b3c 2e18 44be
00000330: 9ff7 5d3e 1cc2 16bc 9b1e 62ba ae8d 73bc
00000340: 23a7 12bf 0ae1 1cbe 8d06 003f af9c 1d3e
00000350: 7e78 6e3d d652 ef3d 760b 2b3e 1570 de3d
00000360: c471 8e3e 7b88 a63e 944c fcbd 05a2 d53e
00000370: a555 0d3f c1ff 24bd 88d9 54be 3c8e 37bd
00000380: 4998 40bf 70d1 873e 07a7 fbba 8841 18be
00000390: b135 27bf ba05 ce3e 1e18 e1bd 78eb 173f
000003a0: 13bb b0bd 1b78 ea3e e9dc e6be fbeb 06bf
000003b0: 797b aa3c a14e 6d3e 8769 a1be ecf4 91bd
000003c0: 3887 e73d 9b68 2cbe 90fc a4be 1464 77be
000003d0: 7217 b63d dac9 d4be f67b efbc f293 07bd
000003e0: f4c8 df3c 5f3d d4bc a09b 043e 9ca5 593e
000003f0: 863f 153e e630 ab3d 7288 7e3e ffad 763e

conv2.bias f4 [8]
-0.10394877 0.11936684 0.01153704 -0.0012041945 -0.23970474 0.031654432 -0.0054999073 0.1784898
00000000: 18e3 d4bd 9a76 f43d da05 3d3c 10d6 9dba
00000010: 2975 75be 14a8 013d 9138 b4bb 08c6 363e

fc1.weight f4 [64, 392]
0.117912024 -0.69751763 -0.05234389 0.017219534 -0.15110555 -0.026948512 -0.06762304 -0.20624205
-0.15683495 -0.10182463 -0.14750053 -0.07264712 0.1690507 -0.026803741 -0.23747762 0.0296318
0.24523287 0.047902565 0.1284981 -0.024453392 0.1426235 -0.2829805 -0.14585172 0.21800546
0.16161467 -0.17157106 -0.08109196 -0.024058007 -0.319539 -0.40652686 0.29243624 -0.8221075
-1.2713299 -0.26698342 -0.17349349 0.15610684 0.039554812 -0.0780725 0.22432637 0.50187707
-0.33915567 0.03937653 -0.21196906 0.21299584 0.40475026 -0.38565505 0.29440972 -0.4214155
0.13882191 0.109228194 0.21484782 -0.009139568 -0.045257863 0.014226727 0.061550938 -0.107409924
-0.021402724 -0.089617364 0.091147035 -0.024379704 -0.23026225 0.11705665 0.26799387 -0.057385117
-0.035021417 0.4826012 -0.08052949 -0.049639206 -0.21551193 -0.2224293 -0.14030877 -0.05795298
0.50250566 0.2062514 -0.019081702 -0.082556486 -0.23176959 0.1567322 -0.13900727 0.12361881
0.40499595 0.34612817 -0.30591333 -0.08469815 0.08377095 0.20320159 -0.068039015 0.09884476
-0.12312468 -0.2490915 -0.2367813 -0.045367938 0.42152902 -0.07102242 0.05452029 0.15781339
-0.0075011333 0.17262511 0.14857039 0.14837307 0.29898003 -0.0010979602 0.26813132 0.23238218
-0.27343154 -0.13953969 -0.071033895 -0.22938809 0.38717097 -0.06105445 0.21083368 0.04780629
-0.117766045 0.17312565 0.81009215 0.16284603 0.14624737 -0.16393119 0.011795959 0.28532636
-0.45319673 0.08239972 -0.23879112 -0.19845699 -0.28907862 0.121786214 0.059956726 -0.27134755
-0.5957347 0.22870646 0.062834024 -0.16257332 0.03453933 0.2556402 -0.23763725 -0.06272702
0.045827933 -0.062706746 0.08258138 -0.011290895 0.16096771 0.15684882 -0.11870863 0.3822161
0.31671846 -0.017860478 -0.106221825 0.27261832 -0.17302085 0.09196479 -0.2427683 0.63930374
-0.044883497 -0.02538909 -0.38940692 -0.041117862 0.14800832 -0.21652608 0.16822527 0.15567479
-0.1232987 0.14446874 0.077254005 -0.32161605 0.4500868 0.36128837 0.29950857 -0.13490078
-0.014888565 -1.0308853 0.043597125 -0.6755281 0.10294311 -0.04906706 -0.12526184 0.22507674
-0.62512034 0.4705728 0.101705775 0.30605346 0.062181406 0.12878272 0.31726828 0.34372124
0.59760135 -0.06320682 0.13665958 -0.1979715 -0.17548117 -0.4923711 -0.29037166 -0.19032705
0.1780032 0.12979649 0.50305796 -0.19945519 -0.086335026 -0.019704565 -0.026585748 0.26469752
-0.24821588 -0.10472884 -0.17145792 -0.23028857 -0.2969722 0.04512636 0.0856722 -0.22385336
-0.13347939 -0.45575905 -0.09415916 -0.008862578 -0.18760382 0.21719605 0.5256954 -0.13469917
0.24661425 -0.91079164 0.01105148 0.09220245 -0.53731567 0.03348248 -0.037508056 0.072685316
-0.16165902 0.012149555 0.16616702 0.0074949116 0.1791147 -0.015187608 0.047792062 -0.1782637
-0.29438543 0.1401741 0.40516594 -0.15936115 -0.14643164 0.11887336 -0.095929205 0.16185847
-0.32990915 -0.32616296 -0.038965326 -0.21594712 0.36477917 -0.08586607 -0.08234881 -0.12994498
0.06582438 -0.19338697 0.12729432 0.29726365 -0.17956047 -0.07883285 -0.14954624 -0.08445164
00000000: dc7b f13d 8490 32bf 8c66 56bd fb0f 8d3c
00000010: 6abb 1abe 20c3 dcbc f37d 8abd 1e31 53be
00000020: 5799 20be 6e89 d0bd 610a 17be 03c8 94bd
00000030: a01b 2d3e 8593 dbbc 552d 73be 63be f23c
00000040: 531e 7b3e 7b35 443d 0295 033e 7b52 c8bc
00000050: e50b 123e d2e2 90be 275a 15be d33c 5f3e
00000060: 517e 253e 53b0 2fbe 8b13 a6bd 4c15 c5bc
00000070: 9e9a a3be 4a24 d0be 34ba 953e a375 52bf
00000080: f0ba a2bf 0db2 88be 47a8 31be 79da 1f3e
00000090: 3a04 223d 7ae4 9fbd d0b5 653e 047b 003f
000000a0: d0a5 adbe 4949 213d 6b0e 59be 951b 5a3e
000000b0: 6d3b cf3e 9474 c5be dfbc 963e c6c3 d7be
000000c0: 5527 0e3e 08b3 df3d 1101 5c3e 20be 15bc
000000d0: 4f60 39bd 3817 693c d61c 7c3d bcf9 dbbd
000000e0: c454 afbc 4f89 b7bd 4cab ba3d f2b7 c7bc
000000f0: dec9 6bbe 66bb ef3d 7e36 893e a80c 6bbd
00000100: 9e72 0fbd 8117 f73e a5ec a4bd 7b52 4bbd
00000110: 29af 5cbe 82c4 63be 1aad 0fbe 1b60 6dbd
00000120: 36a4 003f 9133 533e 3b51 9cbc 6013 a9bd
00000130: 0255 6dbe 687e 203e ec57 0ebe dc2b fd3d
00000140: a15b cf3e b637 b13e aca0 9cbe 3976 adbd
00000150: 1b90 ab3d 1414 503e 0a58 8bbd 1f6f ca3d
00000160: cb28 fcbd d811 7fbe cc76 72be bbd3 39bd
00000170: a7d2 d73e 3474 91bd ab50 5f3d d599 213e
00000180: 11cc f5bb a3c4 303e d622 183e 1cef 173e
00000190: e913 993e 6ee9 8fba 8248 893e 98f5 6d3e
000001a0: 38ff 8bbe 7ee3 0ebe 387a 91bd b6e4 6abe
000001b0: 463b c63e 3b14 7abd c9e4 573e 87d0 433d
000001c0: 532f f1bd da47 313e 3362 4f3f 1cc1 263e
000001d0: dfc1 153e 94dd 27be d743 413c 4c16 923e
000001e0: 6709 e8be 2fc1 a83d a985 74be 4f38 4bbe
000001f0: 1d02 94be 0d6b f93d 2f95 753d 11ee 8abe
00000200: 1282 18bf 0732 6a3e 20af 803d 9f79 26be
00000210: 1d79 0d3d 46e3 823e 2e57 73be 0677 80bd
00000220: 12b6 3b3d 656c 80bd 6d20 a93d 72fd 38bc
00000230: b8d4 243e fa9c 203e 831d f3bd d4b1 c33e
00000240: ec28 a23e 2350 92bc d48a d9bd a194 8b3e
00000250: 612c 31be 0958 bc3d 4198 78be 69a9 233f
00000260: c2d7 37bd c8fc cfbc 5860 c7be 346b 28bd
00000270: 7e8f 173e 03b9 5dbe 3f43 2c3e 3669 1f3e
00000280: 0784 fcbd 9def 133e 5937 9e3d dcaa a4be
00000290: c771 e63e cafa b83e 3059 993e 6e23 0abe
000002a0: 2bef 73bc 0df4 83bf e692 323d 69ef 2cbf
000002b0: d6d3 d23d 8bfa 48bd a444 00be 847a 663e
000002c0: e307 20bf ebee f03e 1e4b d03d 0ab3 9c3e
000002d0: eeb1 7e3d 9edf 033e fd70 a23e 3bfc af3e
000002e0: 67fc 183f 9472 81bd 7df0 0b3e 0ab9 4abe
000002f0: 56b1 33be 1118 fcbe 98ab 94be 18e5 42be
00000300: 7946 363e 5fe9 043e 68c8 003f fb3d 4cbe
00000310: 6bd0 b0bd 786b a1bc 5bca d9bc 6f86 873e
00000320: 4e2c 7ebe 137c d6bd aa92 2fbe c4d0 6bbe
00000330: bd0c 98be 6bd6 383d e874 af3d d139 65be
00000340: d2ae 08be 4059 e9be 85d6 c0bd 5934 11bc
00000350: 371b 40be a468 5e3e f993 063f 94ee 09be
00000360: 7288 7c3e a429 69bf 4411 353c a3d4 bc3d
00000370: 858d 09bf ed24 093d 0ca2 19bd 0adc 943d
00000380: f189 25be ed0e 473c b027 2a3e e097 f53b
00000390: d869 373e 72d5 78bc 9cc1 433d c28a 36be
000003a0: b0b9 96be cd89 0f3e e971 cf3e 922f 23be
000003b0: 2df2 15be e073 f33d 8876 c4bd 3abe 253e
000003c0: dae9 a8be d5fe a6be 1b9a 1fbd 3e21 5dbe
000003d0: 56c4 ba3e 8dda afbd 7ea6 a8bd 4c10 05be
000003e0: efce 863d 3c07 46be 7159 023e f132 983e
000003f0: b3de 37be 1e73 a1bd a622 19be fbf4 acbd

fc1.bias f4 [64]
0.1626558 0.3056151 0.056302894 0.037535008 0.27980205 0.22604908 0.033974957 0.20872852
0.29877678 0.14340995 0.34732667 0.37197813 -0.07431164 0.28586733 0.28318644 0.10398484
0.08325842 0.37076053 0.0016853946 0.3934793 0.32074377 0.10694785 0.15591493 0.016268259
-0.08050701 0.015363607 -0.0036091157 -0.066153996 -0.061390255 0.08054348 -0.14446904 0.13982609
0.1361901 0.13966425 -0.06526509 0.10325568 0.40704188 0.2570123 0.21110426 0.24884824
-0.074384786 0.33977517 0.108006544 0.44537842 0.12064962 0.22435434 0.113018356 0.1463824
0.34514707 0.08719592 0.22994345 0.2144885 0.3424894 0.11448677 0.17063612 0.17986973
-0.07017221 0.20169102 0.36209545 -0.08814432 0.020227913 0.12326961 0.12496636 0.39013803
00000000: 3e8f 263e 9579 9c3e dd9d 663d 4fbe 193d
00000010: 3742 8f3e 6979 673e 5329 0b3d eebc 553e
00000020: 45f9 983e 0fda 123e cdd4 b13e eb73 be3e
00000030: b330 98bd 345d 923e d0fd 903e 01f6 d43d
00000040: 6483 aa3d 53d4 bd3e 75e8 dc3a 1e76 c93e
00000050: 8738 a43e 7907 db3d 2aa8 1f3e 0345 853c
00000060: dce0 a4bd a3b7 7b3c ea86 6cbb bf7b 87bd
00000070: 5974 7bbd fbf3 a43d b1ef 13be 922e 0f3e
00000080: 6b75 0b3e 2504 0f3e b4a9 85bd b777 d33d
00000090: cb67 d03e 1e97 833e b72b 583e 13d2 7e3e
000000a0: 0d57 98bd 03f7 ad3e 8932 dd3d a408 e43e
000000b0: 2617 f73d 25bd 653e 2b76 e73d 45e5 153e
000000c0: 1eb7 b03e c693 b23d 4c76 6b3e e0a2 5b3e
000000d0: c55a af3e 0a78 ea3d 3cbb 2e3e c52f 383e
000000e0: 73b6 8fbd 1788 4e3e 9364 b93e 0285 b4bd
000000f0: 02b5 a53c c774 fc3d 5dee ff3d 2cc0 c73e

fc2.weight f4 [2, 64]
0.050506603 -0.10903295 -0.20259498 -0.26333988 -0.16968647 -0.1678008 0.04499503 -0.14999507
-0.12494075 0.03376648 -0.14012069 -0.094909765 0.05413388 -0.13389692 -0.13744983 -0.22585084
0.06551465 -0.10520986 -0.15757853 -0.030370567 -0.1203366 0.06355718 0.024455773 -0.1771759
-0.033314165 0.017928164 0.044386264 -0.0856971 -0.12031656 0.07829033 0.04453481 0.03469926
0.014426205 0.037342623 -0.014968366 -0.10046713 -0.11320887 -0.12698993 -0.13661304 -0.23349021
0.21470505 -0.10815507 0.031850442 -0.10799384 0.05973168 -0.1088736 0.07276303 0.02052038
-0.10057733 0.04781338 -0.13359547 -0.09402632 -0.117991656 0.0017685634 -0.17639637 0.06912291
0.06286513 0.0019707454 -0.14388104 0.031343456 0.026972814 0.03977659 0.02889222 -0.124337345
0.06740421 -0.051061224 -0.06848853 -0.08050082 -0.1743787 -0.06494406 0.055835214 -0.1797393
-0.079528585 0.06893255 -0.10977941 -0.07698663 0.109941795 -0.086137064 -0.04625715 -0.05620763
0.056795087 -0.10057953 0.016892208 -0.16558778 -0.13267025 0.10468011 0.052375693 -0.20921995
0.12080744 0.04261989 0.042543456 0.1572191 0.09489703 0.08187764 0.093559235 0.035413396
0.09569154 0.04915488 -0.07001467 -0.16505004 -0.043640833 -0.08193016 -0.0506222 0.015635187
-0.032077834 -0.07040719 0.044408083 -0.11960245 0.045180205 -0.07849919 0.07577439 0.053879794
-0.043340318 0.046512306 -0.14172773 -0.13438746 -0.12060873 -0.47180635 -0.082597025 -0.4315401
0.11450333 -0.34315383 -0.0700887 -0.22614577 0.041333012 0.046796277 0.036711715 -0.08291634
00000000: 03e0 4e3d ab4c dfbd 0f75 4fbe 7cd4 86be
00000010: 4ac2 2dbe f9d3 2bbe b54c 383d 4f98 19be
00000020: f0e0 ffbd b84e 0a3d cc7b 0fbe 0d60 c2bd
00000030: 7dbb 5d3d 461c 09be a6bf 0cbe 7145 67be
00000040: 8b2c 863d 4478 d7bd 445c 21be b2cb f8bc
00000050: 0973 f6bd 442a 823d 7957 c83c 996d 35be
00000060: 6f74 08bd 16de 923c 5fce 353d f681 afbd
00000070: 8768 f6bd ae56 a03d 226a 363d d020 0e3d
00000080: e45b 6c3c 94f4 183d e13d 75bc b6c1 cdbd
00000090: 0dda e7bd a609 02be 4ae4 0bbe 0f18 6fbe
000000a0: a4db 5b3e 6880 ddbd 9c75 023d e02b ddbd
000000b0: 35a9 743d 1ff9 debd c904 953d 5b1a a83c
000000c0: 7dfb cdbd f6d7 433d 40cd 08be df90 c0bd
000000d0: 9ca5 f1bd 24cf e73a 40a1 34be 5090 8d3d
000000e0: 6fbf 803d 9f27 013b 8d55 13be ff61 003d
000000f0: 17f6 dc3c c7ec 223d 61af ec3c 94a4 febd
00000100: 380b 8a3d 9325 51bd b743 8cbd 9ddd a4bd
00000110: 5490 32be 6401 85bd 77b3 643d 940d 38be
00000120: e2df a2bd 822c 8d3d 07d4 e0bd 2bab 9dbd
00000130: 2a29 e13d a168 b0bd 2378 3dbd f939 66bd
00000140: f7a1 683d a4fc cdbd 8761 8a3c d88f 29be
00000150: b6da 07be 8762 d63d e587 563d c13d 56be
00000160: e469 f73d 3292 2e3d 0c42 2e3d 0bfe 203e
00000170: 6059 c23d 77af a73d fc9b bf3d a30d 113d
00000180: edf9 c33d a156 493d da63 8fbd e102 29be
00000190: bbc0 32bd 00cb a7bd 3959 4fbd 5d15 803c
000001a0: 0c64 03bd a531 90bd 40e5 353d 21f2 f4bd
000001b0: e10e 393d 2fc4 a0bd 9a2f 9b3d 0fb1 5c3d
000001c0: 9e85 31bd b083 3e3d 1321 11be de9c 09be
000001d0: b601 f7bd 9a90 f1be a128 a9bd d3f2 dcbe
000001e0: b980 ea3d dcb1 afbe aa8a 8fbd c292 67be
000001f0: ce4c 293d 74ad 3f3d 065f 163d 0bd0 a9bd

fc2.bias f4 [2]
0.7380604 0.24685878
00000000: 87f1 3c3f 8cc8 7c3e
