assignment-5/models/best_model_104.7.pth (torch, 110572 bytes, 8 tensors)

conv1.weight f4 [4, 4, 8, 8]
000000 f2 df 12 be 70 90 b6 3d 8e 38 95 be 87 4c 9e bf
       -0.14343241 0.08914268 -0.2914471 -1.2367104
000010 fa d1 99 bf c5 04 5d bf 00 92 c9 be cf 2f 92 3e
       -1.2017205 -0.863354 -0.39369202 0.285521
000020 53 9e 00 3e 31 a0 5d bf e8 c6 b0 be df 43 cb be
       0.12560396 -0.8657256 -0.34526753 -0.3970022
000030 f1 f1 4e bf 8b 36 42 bf 45 f4 34 bf 97 88 72 be
       -0.80837923 -0.75864476 -0.70685226 -0.23684917
000040 2d b1 72 be 25 88 3e 3e d5 0d 89 3c 71 09 72 bf
       -0.237004 0.18606623 0.016730228 -0.94545656
000050 73 80 8f bd c3 7e 4f bf cf 50 01 3f dc 99 06 bf
       -0.070069216 -0.810528 0.5051393 -0.5257852
000060 33 e4 e7 bd 49 82 db 3d d3 af 18 bf 71 36 bc be
       -0.113228224 0.10718209 -0.59643286 -0.36760285
000070 44 75 97 be a3 e9 35 be 8c a0 a4 be 9c f8 ca bf
       -0.29581654 -0.17764907 -0.32153738 -1.585712
000080 35 95 3d bf 26 ba 99 be 0d 45 97 3d df a2 95 bf
       -0.74055797 -0.30024832 0.07386217 -1.1690329
000090 d9 c5 5f bf 40 64 e6 bd 62 11 6e bf e5 0f ed be
       -0.87411267 -0.1124959 -0.92995274 -0.4630119
0000a0 f3 f9 b9 be a2 35 ec bd d5 b6 0d 3e 76 ff c5 3e
       -0.3632351 -0.11533667 0.13839276 0.38671464
0000b0 47 02 1d 3e c6 af 15 be eb ca 09 bf 9e 58 85 bf
       0.153329 -0.14617833 -0.53825253 -1.0417669
0000c0 36 47 ca be eb 3a 44 be b7 18 00 bf 03 3e d1 bf
       -0.39507455 -0.191631 -0.5003771 -1.634705
0000d0 42 71 23 bf 0d d9 77 bf 24 d3 87 3f ff 38 57 3d
       -0.6384469 -0.9681557 1.061131 0.05254459
0000e0 1f b3 c7 bd 6a 71 80 be cd 2c 0d bf 9d a6 36 bf
       -0.097509615 -0.25086528 -0.55146486 -0.7134798
0000f0 b7 8f 11 3e 0e b5 86 bf 79 f5 65 bf b2 86 f6 be
       0.14214979 -1.0524004 -0.89827687 -0.4814964
000100 51 27 f4 be 69 36 49 3e 63 6c 34 3c eb 1b c3 bf
       -0.47686246 0.19649662 0.0110121695 -1.5242895
000110 d2 59 a5 3e ae 2c 85 be c0 58 5a bf d0 19 f0 3e
       0.3229509 -0.2601065 -0.8529167 0.46894693
000120 96 6f ce be 91 78 1e 3e 7b b3 6b 3e f2 c9 28 bf
       -0.40319508 0.1547568 0.23017685 -0.65933144
000130 dd 75 a8 bf 1d 4b 58 bf a2 5e 15 bf 5d fc 02 3e
       -1.3160969 -0.84489614 -0.58347523 0.12791581
000140 ea 53 99 be cb 4f 1c be 03 71 e5 bd 78 d0 b1 bf
       -0.29946834 -0.15264814 -0.11203196 -1.3891745
000150 ca e5 d7 be 8a d3 13 bf 1d a2 f6 3e 3c cc 89 bf
       -0.42167503 -0.5774466 0.48170558 -1.0765452
000160 89 b6 2a be 2e 5e a7 be e8 65 ac 3e 6a 68 be be
       -0.16671194 -0.3268904 0.33671498 -0.37189037
000170 25 c1 69 be d1 69 8a be 45 05 3a be 7a f2 38 bf
       -0.22827585 -0.27033857 -0.18166073 -0.7224499
000180 e5 24 59 3e 78 4b ab ba cf 9e bd be 54 09 82 bf
       0.2120548 -0.0013068756 -0.37035224 -1.0159097
000190 6c 86 b4 be bd ae a3 be 71 fb 8e bc fb 45 3c be
       -0.35258806 -0.31969252 -0.017453881 -0.1838607
0001a0 80 46 58 3f 8d 4f b5 3e 87 7d 35 3f 95 74 dc ba
       0.84482574 0.35412255 0.70894665 -0.0016819412
0001b0 a0 92 a8 be 64 d7 00 bf c5 6c df bd 5a 19 07 bf
       -0.32924366 -0.5032866 -0.10909418 -0.5277306
0001c0 b1 ad 08 3c a1 ff a3 be 0d 1f 88 3f 09 f2 1a bf
       0.0083421925 -0.32030967 1.0634476 -0.60525566
0001d0 be 9a 2e bf 2a 1a f5 be 0f bd d8 be 02 d9 d5 be
       -0.6820487 -0.47871524 -0.4233174 -0.41767126
0001e0 f9 51 41 3e 09 80 f2 3e 83 86 9d 3d bc c1 31 c0
       0.18878926 0.47363308 0.07691672 -2.7774496
0001f0 9b 5a eb be cf 97 66 be d0 9f 71 bf e3 36 5c be
       -0.45967564 -0.22518848 -0.9438448 -0.21505313
000200 dc bf 30 be fa 29 ef 3e ca c0 e2 be 97 05 a6 3f
       -0.17260689 0.46711713 -0.4428771 1.2970456
000210 3b 32 ae 3f de 6d 16 40 e5 30 71 be b2 3f 01 bf
       1.3609079 2.3504558 -0.23553808 -0.50487816
000220 2c ad fa be 92 21 56 3f 04 db 83 3f 2d 65 a9 3f
       -0.48960245 0.83644974 1.0301213 1.3234001
000230 ef 41 8b be a5 55 36 c0 8c 8f bb bd 2b 9a 29 be
       -0.2719874 -2.8489773 -0.09158239 -0.16562717
000240 91 b0 1e bf d5 9c 19 bd 85 65 cc bf 4f 70 ab bf
       -0.6198817 -0.037503082 -1.5968481 -1.3393649
000250 43 c9 c5 bf db de 15 bf b7 cb 89 3e c7 f3 c5 bc
       -1.5452045 -0.58543175 0.26913235 -0.024164094
000260 4b 6f 0d 3f 8b 42 9e 3e 8e 19 a2 be 03 c2 2a bf
       0.55247945 0.30910143 -0.31660122 -0.6670229
000270 a5 99 33 3e a0 b0 01 3f 3d 05 aa 3f ed d7 be 3e
       0.1753908 0.50660133 1.3282849 0.37274113
000280 de d6 54 3f f4 7c a2 3f 7a cb 9f bf 89 46 a5 be
       0.8314036 1.2694383 -1.2483971 -0.32280377
000290 c2 5c 98 3e 64 a0 19 3e 89 d2 95 3d e6 62 0a be
       0.2975827 0.1500259 0.07315547 -0.1351429
0002a0 fe 63 b0 3f 66 4e 5d 3f 3e 85 56 3f f7 37 3f bf
       1.3780515 0.8644775 0.8379706 -0.7469477
0002b0 2f f1 b1 be e1 ab 81 be e3 4b 81 bc 3d f7 96 bf
       -0.3475432 -0.25326446 -0.015783256 -1.1794201
0002c0 95 f6 29 3f 4d 34 57 3f 9b ba 24 3f 4a d3 d3 be
       0.6639188 0.8406418 0.6434724 -0.41372138
0002d0 c5 22 4e bf 43 b3 1f bf da e4 0a be 7f 7b 4b bf
       -0.80521804 -0.62382907 -0.13563862 -0.79485315
0002e0 04 05 18 3e 64 f3 60 3e cd f7 0d 3f 9f 69 07 be
       0.14845663 0.21967846 0.5545624 -0.13223885
0002f0 69 a3 1b 3f 92 52 0f 3f 8d 16 a3 bf 52 43 90 3c
       0.6079622 0.5598537 -1.2741257 0.017610226
000300 a0 22 c4 be be cd 76 be 8a 00 13 bf b4 64 88 3f
       -0.38307667 -0.24101922 -0.574227 1.0655732
000310 f7 4d 47 bf e9 87 d3 bf c3 fc 08 c0 dd 5d da bf
       -0.7785334 -1.6525851 -2.1404274 -1.7059895
000320 79 87 b2 bf 18 03 f5 bf 44 71 86 bf 1b 26 c7 3e
       -1.3947593 -1.9141569 -1.0503316 0.3889626
000330 73 fd 31 bf 99 83 1f bf e3 94 3b 3e 22 a4 d9 bf
       -0.6952736 -0.6231018 0.18318515 -1.7003214
000340 f4 51 1a c0 61 c8 d1 bf 2e 8d df bf 56 49 c3 be
       -2.411252 -1.6389276 -1.746496 -0.38141888
000350 a8 a6 35 bf 02 56 3c bf 72 47 87 bf e8 2d b0 bf
       -0.7095742 -0.7356874 -1.0568678 -1.376401
000360 19 af b5 bf 73 4c 93 bf 42 a1 d7 be 14 56 27 bf
       -1.419406 -1.1507705 -0.42115217 -0.6536572
000370 86 a8 07 bf 08 78 e0 be 82 c0 82 bf 87 c6 3b be
       -0.5299152 -0.43841577 -1.0214999 -0.18337451
000380 db 8c bf bf c9 de 5e bf 79 c6 7f bf 1e cc a7 3e
       -1.4964861 -0.87058693 -0.9991222 0.32772917
000390 39 68 21 be 48 c3 a3 bd 05 31 1b bf c4 c5 04 c0
       -0.15762414 -0.07996231 -0.6062167 -2.0745707
0003a0 de 6e 2c bf ea ef 8d be 0f 93 97 3d 51 ef 3c 3c
       -0.6735667 -0.27722102 0.07401096 0.011531667
0003b0 c5 34 8f bd 5b d1 30 3f d0 6e 7d bc 66 28 f3 bd
       -0.06992487 0.6906945 -0.015468314 -0.1187294
0003c0 fa 01 1a be b2 3c 16 bf bc 63 68 be f4 2c 13 bf
       -0.15039816 -0.58686364 -0.22694296 -0.5749047
0003d0 44 2e d2 bf 23 03 42 bf 7c 41 4f 3f 51 1e 00 c0
       -1.6420369 -0.75786036 0.80959296 -2.0018504
0003e0 d6 0b fa 3e f6 64 7d 3f fc 96 9a 3d 3b 06 0f bf
       0.48837155 0.9898218 0.07548329 -0.5586888
0003f0 db 1a 52 bf 9c 3b 03 3e 88 ce 53 bf 0c 94 a2 bf
       -0.8207223 0.12815708 -0.82737017 -1.270143

conv1.bias f4 [4]
000000 65 ab a4 3e d9 33 ea bd 33 ec 58 bf 20 03 28 3d
       0.32162014 -0.114356704 -0.8473541 0.041018605

conv2.weight f4 [8, 4, 4, 4]
000000 83 d1 8f be ab 09 3c 3e 3a 21 84 3e 73 8f 2b 3e
       -0.28089532 0.18363063 0.258066 0.1675394
000010 4c 58 a8 3e d7 39 3c bd 71 42 d1 3b d3 bc 4c 3e
       0.32879865 -0.045953598 0.0063860943 0.19993906
000020 6b b7 73 be f4 1a 21 3f 9c fd 7b bc f2 75 c1 3e
       -0.23800437 0.6293175 -0.015380289 0.37785298
000030 7f 1e 87 bd c4 bb 7d be 04 64 c7 bf 6d ec b2 bd
       -0.065976135 -0.24778658 -1.5577397 -0.08736501
000040 ee 8d b8 bc a8 c0 ae be 17 ac b9 bd f8 cb b3 3c
       -0.022528615 -0.3413136 -0.09066027 0.021947846
000050 27 76 80 bf 9b 3a 85 c0 61 d9 51 3e 04 73 d9 3c
       -1.0036057 -4.163404 0.2049308 0.026544102
000060 e5 8b 1a bf 3b e1 2f bf 14 15 2c 3f d8 26 cc bd
       -0.6036971 -0.6870305 0.6721966 -0.09968346
000070 78 34 08 3e 44 4d 83 3e af a2 91 3e ad 13 e1 3d
       0.13301265 0.25644886 0.2844443 0.10990081
000080 70 3d 68 bf 04 a7 bb bf 9f 60 b3 be 2c cf ea bd
       -0.90718746 -1.4660344 -0.35034654 -0.11465296
000090 f2 a6 8b be 48 41 02 c0 aa 20 1b bd d3 f0 bf bd
       -0.27275807 -2.0352345 -0.037872948 -0.093721054
0000a0 23 7c d6 bf 10 fe 1b bf b2 c7 75 3d b0 0e 1c 3d
       -1.6756634 -0.60934544 0.060004897 0.038099945
0000b0 c4 c5 a2 be 98 dd 42 be db 8a ff 3b bc 9e 2a 3d
       -0.31791508 -0.19029844 0.0077985353 0.041655287
0000c0 1b 38 03 bf 4b 5a 0a bf c9 5c 23 be 62 2d f7 bc
       -0.51257485 -0.54044026 -0.15953363 -0.030173007
0000d0 1f 14 a0 bd 76 c2 14 be 05 88 bd 3d 8a 4a 81 bd
       -0.07816338 -0.14527306 0.09254459 -0.06313045
0000e0 42 42 fe 3e f9 a4 9b 3e 72 cb 80 3e 93 e7 37 be
       0.49659926 0.30399302 0.25155216 -0.17959432
0000f0 9a f0 ee 3e f4 f7 82 3e d4 b9 25 3e a0 27 af bf
       0.4666794 0.25579798 0.16184169 -1.3683968
000100 25 e2 dd bd bb 3f ca 3e 7c a8 e6 be 5a 2d 75 3f
       -0.10834149 0.39501747 -0.45050418 0.95772326
000110 fa 3d 9c 3c d2 22 5a 3e d7 fa 06 bf 97 18 30 be
       0.019072521 0.21302345 -0.527265 -0.1719688
000120 af e7 6e bf 73 e7 aa 3c b5 46 3c bf 56 d2 7c 3e
       -0.9332227 0.020862317 -0.7354539 0.24689612
000130 7a da 31 be 3f 6d 12 3f 4e 71 6d 3e 99 9f ae be
       -0.17368498 0.57197946 0.23187754 -0.34106138
000140 b4 e6 2d 3e fe 24 d0 be 74 6b 38 3e 26 7c c0 bf
       0.16982538 -0.40653223 0.1800974 -1.5037887
000150 51 94 71 be be 11 cf 3e 93 d8 97 bf ab cb e9 bd
       -0.23591734 0.40443224 -1.1862968 -0.114158
000160 d5 15 b5 be 76 93 82 3e 47 5c 5f be cf c5 00 be
       -0.3536822 0.2550313 -0.21812545 -0.12575458
000170 ad e6 05 3d 19 79 4d bc 65 5f 7d 3e b6 2d 2f bf
       0.032690693 -0.012541079 0.24743421 -0.68429124
000180 26 28 d9 bd 63 6c 23 3b ca 91 92 be d4 e8 81 bf
       -0.10603361 0.002493643 -0.28626853 -1.0149179
000190 51 e2 cc bf 01 8a 15 3e ab 82 e3 3e b4 d9 d7 bf
       -1.6006566 0.14603426 0.4443563 -1.6863313
0001a0 ce 25 29 bf db a1 e1 bd 16 af 9b 3e 47 13 cd be
       -0.6607331 -0.110171996 0.30407017 -0.4005377
0001b0 32 82 06 3e ad d8 86 be 7e ee 63 3d 58 19 26 be
       0.13135603 -0.26337186 0.055647366 -0.16220605
0001c0 42 bb 08 bf ea 7b af 3d c5 12 41 3f d6 98 d9 3e
       -0.5341073 0.085685566 0.75419265 0.42499417
0001d0 93 f8 88 3e e9 47 de 3c d3 fe b8 3e 81 75 12 bf
       0.26752147 0.027133899 0.36131915 -0.57210547
0001e0 49 49 09 3f 77 e8 6a be 10 da 5b bf e4 72 ab bd
       0.5362745 -0.22940241 -0.8587961 -0.08371523
0001f0 71 21 85 3d b8 dc 23 3f 87 4e 81 be ad 7b 65 bf
       0.06500519 0.64008665 -0.25255224 -0.8964184
000200 67 38 ad 3d ce 58 80 3e 7a 09 2c bf 95 53 54 be
       0.084580235 0.25067753 -0.6720196 -0.20735009
000210 c1 e7 01 bf 64 1a 69 bf ce 96 07 be 64 8e c7 3f
       -0.50744253 -0.91055894 -0.13241121 1.5590329
000220 f7 20 c8 3d 81 e6 8e bf 0d 77 fa bf d8 d1 c6 be
       0.097719125 -1.1164094 -1.9567581 -0.38831973
000230 a2 68 5e be 33 ad 9b 3e f1 7c 02 bf 83 39 70 bd
       -0.21719602 0.30405578 -0.50971895 -0.058648597
000240 6b 0e c4 3d 25 7c f2 bc f9 ed 02 bf 7a 0b 40 be
       0.095730625 -0.029600212 -0.5114437 -0.18754378
000250 80 83 09 3f b3 f0 26 3f fd a5 94 bf c5 a4 9f bf
       0.5371628 0.6521103 -1.1613156 -1.2472159
000260 64 ce 2f bf 53 4c fc 3e 04 1f 43 bf 2c ae 5a bf
       -0.686743 0.4927698 -0.762192 -0.85422015
000270 0c d4 b1 bd f2 b2 ba 3d b6 68 42 bf 7c c3 00 bf
       -0.08683023 0.09116162 -0.75941026 -0.50298285
000280 80 b9 cb bd 7b 42 80 bd d9 19 d2 3b 2e 64 a9 be
       -0.09947491 -0.0626268 0.0064117727 -0.33084244
000290 b8 5d 68 bf 2c d2 fc bc b3 21 3d 3e 6b f8 56 c0
       -0.90768003 -0.030861937 0.18469886 -3.3589122
0002a0 35 70 80 be 1d d9 51 3e 68 66 bf 3e 5c 89 53 c0
       -0.25085607 0.20492978 0.37382817 -3.3052588
0002b0 75 4f 2a bf c3 1e 04 bf e0 72 c0 3e a7 a3 05 bf
       -0.6652749 -0.5160944 0.37587643 -0.5220284
0002c0 48 22 90 be 2a 65 89 bd bd 54 62 3e 49 e3 20 be
       -0.28151155 -0.06708749 0.22102638 -0.15711702
0002d0 53 53 95 be c0 68 5d bf c9 f2 c3 3e 77 96 4a bc
       -0.29165134 -0.8648796 0.38271168 -0.012364975
0002e0 8f f7 cf be 60 ef 81 bf e1 23 70 bd 38 3d 75 be
       -0.4061856 -1.0151176 -0.058627967 -0.23949134
0002f0 08 c5 75 bd 94 77 17 bf ca 65 1c be e8 f3 8e 3f
       -0.060002357 -0.59166837 -0.15273204 1.1168184
000300 06 a8 39 3d d3 5b 9e bf bf bf 08 c0 39 ba e9 bf
       0.045326255 -1.2371773 -2.1367033 -1.8259956
000310 e9 48 97 3e 7d 2e 1f bd 3f 38 94 be 04 1f a1 bf
       0.29547814 -0.038862694 -0.28949162 -1.258759
000320 8c fa 54 3c 19 e6 b0 3e 67 b5 75 bd f8 f2 6f bc
       0.012999188 0.3455055 -0.059987452 -0.014645331
000330 fe 49 52 3d 7a db fd bd fb 07 8d 3f 8b ca 80 3e
       0.051340096 -0.123953775 1.101806 0.25154528
000340 9d 3c 92 bd 38 16 60 be 99 b1 da bd de 24 b6 3e
       -0.07140467 -0.21883476 -0.10678405 0.35575002
000350 dd a9 47 3e 71 a4 94 be e0 9c 3d 3e e1 7e 68 3e
       0.19498391 -0.2903171 0.18516874 0.2270465
000360 1e db f1 3e b2 a1 07 3d db 1d e6 3e 32 16 b8 3d
       0.47237486 0.03311319 0.44944653 0.089886084
000370 3e 26 0c bf fd f9 b1 be 04 22 90 be ff bb 8a bd
       -0.5474585 -0.34761038 -0.28150952 -0.06774139
000380 12 f6 b2 3b 96 0d d8 3a 45 b6 a1 3b fe 90 0c be
       0.005461463 0.0016483541 0.0049350583 -0.13727185
000390 29 64 8e bf 64 50 19 bf 2a 00 8e be 74 10 d3 bb
       -1.1124316 -0.5988829 -0.277345 -0.0064411703
0003a0 d3 8e 1c be 7d c3 b2 bd 6f 12 14 bf 5a 99 4e be
       -0.15288858 -0.08728693 -0.5784063 -0.20175686
0003b0 d0 db 13 3e f0 92 5a be 6f 21 84 be 1f f0 46 bf
       0.1443932 -0.21345115 -0.25806758 -0.77710146
0003c0 5d 43 01 3d 81 a8 92 bd a3 b4 37 bb 07 c0 0e c0
       0.031558383 -0.07161046 -0.0028031252 -2.2304704
0003d0 ac b5 a7 bd 5d e7 ab 3e e4 cd 01 be 16 d6 75 be
       -0.08188948 0.33574954 -0.12676197 -0.24007449
0003e0 94 1d 68 3e 5a 3e 0f 3f 22 79 a9 be b4 ef 02 bd
       0.22667533 0.55954516 -0.3310023 -0.03196688
0003f0 42 cb a1 be 85 36 bf 3d 9f 42 7b 3e b8 d5 22 3e
       -0.31600386 0.09336571 0.24537133 0.1590184

conv2.bias f4 [8]
000000 d8 a5 ec be 6b 51 8f 3b 5f 36 83 3f 57 a1 b0 3e
       -0.4622028 0.0043737195 1.0250968 0.34498093
000010 09 7c 41 3f 9e 0d 8d 3d f8 40 c8 3e cf c0 d1 bc
       0.7557989 0.06887363 0.39112067 -0.025604634

fc1.weight f4 [64, 392]
000000 72 fe c9 bd 47 a3 8c 3e a8 8c f1 3e b8 78 12 3f
       -0.09862985 0.2746832 0.47177625 0.5721545
000010 2f a2 58 3e a2 9b 1d be 66 39 20 bf 6b d1 07 bf
       0.21155618 -0.153914 -0.62587583 -0.5305392
000020 7e b4 c9 bf 08 0b 1e c0 15 0e 6b 3e 67 6f aa be
       -1.5758207 -2.4694233 0.2295459 -0.33288118
000030 e8 fe 5d 3f 18 6c 2a bf 45 6b dc be 3e ab 5b 3f
       0.8671708 -0.6657119 -0.4305059 0.8580817
000040 1e 65 96 bf 04 28 69 3d cc d1 07 bf 4e 88 26 3f
       -1.1749609 0.056922927 -0.530545 0.65051734
000050 90 5f 72 be 0a ab 05 bf ed 4f 84 bf c7 d0 88 bf
       -0.23669267 -0.5221411 -1.0336891 -1.0688714
000060 84 08 6a bf 02 e9 44 be 51 af 04 bf 1c 5f 46 bf
       -0.91419244 -0.1922951 -0.5183001 -0.77488875
000070 61 6b 63 bd 7f d0 86 3e 34 06 e7 be df 03 1a c0
       -0.055522326 0.26330945 -0.4512192 -2.4064863
000080 b5 95 30 bf 7c a5 27 bd b4 93 9a bf d1 d9 0d bf
       -0.68978435 -0.040929303 -1.2076325 -0.55410486
000090 50 bf d9 be 6d 54 6d bf dc 22 08 c0 dc 4d 9f bd
       -0.42528772 -0.9270695 -2.1271276 -0.07778522
0000a0 87 98 46 bf 93 fc c0 3e 2f 99 9d 3d 82 36 39 bf
       -0.7757649 0.376927 0.07695233 -0.723488
0000b0 80 8a 75 be 11 ec bb be 48 8a 2d be d0 eb ca 3e
       -0.23978615 -0.36703542 -0.16947281 0.39633036
0000c0 93 8f 60 3f 24 ce a2 bf f0 d1 9b 3e 7a 32 8e 3e
       0.87719077 -1.2719159 0.30433607 0.27772886
0000d0 23 ed b0 3e 5a 2c 70 3b 62 54 8a 3e 90 a5 d9 bf
       0.3455592 0.003664753 0.27017504 -1.7003651
0000e0 45 50 91 bf a0 0a 36 bf 5e 67 e8 be 94 30 11 bf
       -1.1352621 -0.7110996 -0.45391363 -0.5671475
0000f0 ca ff 6d bf 97 2d 91 be 74 90 30 bf 73 b5 5d be
       -0.9296843 -0.28355095 -0.6897042 -0.21651249
000100 4b 78 39 bf 44 36 5f be 44 ef bd 3e 43 18 c9 3e
       -0.7244918 -0.21798044 0.37096608 0.39276323
000110 94 03 a8 3d cc 14 63 bf 2f 03 15 be a6 35 dd 3c
       0.082038075 -0.8870361 -0.14551996 0.02700312
000120 c8 70 7f bf 56 66 58 bf 3e c4 72 bf 3e 4f da be
       -0.99781466 -0.8453115 -0.9483069 -0.42638582
000130 04 96 ba bd 0b 4d d6 3e c2 7b 9c 3c 72 85 97 3d
       -0.091106445 0.41855654 0.019101981 0.073984995
000140 49 d8 ca 3e e9 88 72 be 5c bc f2 be a2 46 bb bd
       0.39618137 -0.2368504 -0.47409332 -0.091443315
000150 29 ad c1 3d 2f ba 7f 3f 8d b3 13 c0 21 9d de bb
       0.09456856 0.9989347 -2.307834 -0.0067936336
000160 00 bd 8d bd d0 f4 a8 be 10 37 2e bf 76 78 c0 bf
       -0.069208145 -0.32999277 -0.6805277 -1.5036762
000170 89 f4 17 be 24 38 bb bf 47 0e b9 3d e4 73 3e 3f
       -0.14839377 -1.4626508 0.09035926 0.74395585
000180 28 08 f1 be 2d 59 48 bf 48 c8 18 3e 25 a6 77 bf
       -0.47076535 -0.7826107 0.14920151 -0.9673789
000190 bb 8e 63 3e 2e 1c 9f 3e db 40 63 be e3 2e 3a bf
       0.22222416 0.31076187 -0.22192709 -0.72727793
0001a0 80 e0 35 be ad 3f a3 bd 92 66 c4 bf 43 67 8f bf
       -0.17761421 -0.079711296 -1.5343802 -1.1203388
0001b0 3c 6b a2 bf 11 7f 9e 3e 92 b4 a3 be fb 38 55 be
       -1.2688975 0.3095632 -0.31973702 -0.20822518
0001c0 ae f6 16 3f b2 d6 23 c0 1e 89 74 be 13 75 fa bf
       0.58970153 -2.559979 -0.23880431 -1.9566978
0001d0 cf ac a2 bf 03 38 38 bf 32 77 9d be c0 e8 8f 3f
       -1.2708987 -0.7196047 -0.30755 1.1242905
0001e0 1f 7d 70 c0 3f e0 14 bf 5f 64 dc be 80 b2 ac bf
       -3.7576368 -0.5815467 -0.43045327 -1.3491974
0001f0 9e 0c b1 be d3 a8 bc bf b5 a1 a6 be be e5 dd bf
       -0.3457994 -1.4739021 -0.32545248 -1.7335737
000200 54 0f 20 bf ed f6 4a bf 95 3d 03 3e 8f a5 10 bf
       -0.6252339 -0.7928303 0.1281646 -0.5650262
000210 a8 5b 30 bf 63 e6 0e bf dc 81 1b c0 a4 49 07 be
       -0.68889856 -0.5582029 -2.429801 -0.13211685
000220 6d a2 b7 3e 73 d8 c0 be da 13 d3 bd 3d 82 2b bf
       0.3586611 -0.37665138 -0.10306521 -0.669956
000230 43 60 19 bd a2 fe a4 bf 3c 0e 6a be 5a 0a 06 bd
       -0.037445318 -1.2890208 -0.22856992 -0.032724716
000240 47 ea 12 3e ac cd 13 bf bd 1b f7 bd 8e 7f 88 bf
       0.14347182 -0.57735705 -0.120658375 -1.0663927
000250 e3 02 51 3c 80 45 9c bf 9b 4a 47 3f f5 f3 64 3e
       0.012757036 -1.220871 0.77848214 0.22358687
000260 f6 71 c5 3e 1d 64 09 3d cd e2 74 bf b6 bf e8 3e
       0.38563508 0.03354274 -0.9565857 0.45458764
000270 31 a3 75 be 76 29 15 bf e7 b3 96 3d df 95 0f 3e
       -0.23988034 -0.5826639 0.073585324 0.14022015
000280 31 9c 87 be e8 6d 8b 3c c6 6c 88 3e 46 69 d4 bf
       -0.26486352 0.01702018 0.26645488 -1.6594627
000290 35 ae a7 bf 1d 4d ba bf d2 3a 55 bf fe b0 d8 be
       -1.3100039 -1.4554783 -0.8329288 -0.42322534
0002a0 f5 e2 fc 3d fd 6b 93 3d b8 13 0c bf 32 84 28 bf
       0.12347976 0.071983315 -0.5471759 -0.65826714
0002b0 bd de e1 be a3 2d 88 3e 1e 2b 23 bf 40 3f b6 bf
       -0.44115248 0.26597318 -0.63737667 -1.4238052
0002c0 fd e1 d0 3d fe 09 2f bf b0 d5 9f be 6d a7 18 be
       0.10199354 -0.6837462 -0.31217718 -0.14907618
0002d0 19 7b cc 3e 05 f6 45 bd ba 52 84 bf 21 5f b1 bf
       0.39937666 -0.048330326 -1.0337746 -1.3857156
0002e0 56 33 5a 3e fd 7b 62 bf 95 83 11 bd 20 2c a2 3a
       0.21308646 -0.8847044 -0.035525877 0.0012372769
0002f0 da b3 8e 3e 66 b8 fe 3b 00 2b 87 bf d0 a4 bf 3c
       0.2787159 0.007773447 -1.0559998 0.023394018
000300 92 a6 2d 3e da e6 64 3e 6a d3 fb bc 84 34 a3 be
       0.16958073 0.22353688 -0.030740459 -0.31876004
000310 8c 43 b0 bf 38 04 df bf 8d 33 27 3f 66 18 db 3d
       -1.3770614 -1.7423162 0.65313035 0.10698013
000320 cb d3 0c 3e 1c f5 fe be d2 6f 92 bf 69 73 c9 bf
       0.13752668 -0.4979638 -1.1440375 -1.5738345
000330 dc 0f 15 c0 6e 5d 5a 3e 09 ff 5d be 63 53 4f 3f
       -2.329093 0.21324703 -0.2167932 0.80986613
000340 f4 dc 00 bf fb fa 0b bf 80 3a af 3f c9 e4 ec bf
       -0.5033715 -0.5467984 1.3689728 -1.850732
000350 08 ba 6e bf ca 48 29 3d 4d ab 74 bf 16 dc 37 bf
       -0.9325261 0.041329183 -0.95573884 -0.718202
000360 34 29 12 bf 7d e8 72 bf 71 c6 a1 bf 8c bc 88 bf
       -0.5709412 -0.94886 -1.2638685 -1.068254
000370 58 9a bd be 85 14 5a 3d 61 a5 22 bf 27 4a 47 3e
       -0.37031817 0.053242225 -0.635336 0.1946188
000380 8b 80 41 3f fb 9c e2 bf 3e 8f ad bd 31 16 c8 bf
       0.75586766 -1.7704157 -0.08474587 -1.5631772
000390 52 f3 2e bf 0c 6d b1 3e 35 e1 82 be 10 ab 83 bf
       -0.6834003 0.3465351 -0.25562444 -1.0286579
0003a0 cb e6 49 bf 0a 0f 15 3e f7 53 80 be 06 e0 9f be
       -0.7886779 0.14556518 -0.2506406 -0.31225604
0003b0 61 65 63 bf b4 b9 a5 be fb 79 d4 bd 79 bf a9 bf
       -0.88826567 -0.32368243 -0.103748284 -1.3261558
0003c0 af 2b 0b 3f 38 63 c1 3e e4 b8 15 3e a2 93 03 bf
       0.5436353 0.3777101 0.14621311 -0.51397145
0003d0 d2 ef 6c bf 2f 21 4b 3d 66 4c 91 bd 2a 4c bd bf
       -0.92553437 0.049592193 -0.0709465 -1.4788868
0003e0 8c 14 65 be b1 6f 99 3d 8e cf 28 bd 8c 91 cd be
       -0.2237112 0.074920066 -0.041213565 -0.40150106
0003f0 26 d0 b9 be 28 09 02 3e 0d c8 c5 bf 25 9a 8b bf
       -0.36291617 0.12698805 -1.5451676 -1.0906416

fc1.bias f4 [64]
000000 eb 87 32 3f 02 72 53 3f f2 cd 20 3e bb 56 c6 3f
       0.69738644 0.8259584 0.15703562 1.5495218
000010 4f 9e 52 be 3a b3 c4 3d 7d 7c 1f 3f 13 61 14 3f
       -0.20568202 0.09604497 0.6229933 0.57960624
000020 b8 87 59 3f af 31 34 3f 2e fe ef 3e da 60 35 3f
       0.84972715 0.7038831 0.4687361 0.7085091
000030 dd f4 e0 3f 99 df b7 3f 62 30 7e 3f 23 f5 b1 3f
       1.7574726 1.4365112 0.99292576 1.3902935
000040 66 39 b6 3f 22 68 60 3f 03 07 8d 3f 98 a5 f4 3d
       1.4236267 0.87658894 1.1017765 0.11945647
000050 fc 05 32 3f e0 7a 33 3f 81 7a 4d 3f ca cb e3 3f
       0.6954038 0.7010937 0.8026505 1.7796566
000060 31 a5 24 3f fb c3 29 3f 41 bb e7 3e 8e 4a 0f 3f
       0.6431456 0.6631467 0.4526005 0.55973136
000070 ff 95 a2 3f 60 2d 8c 3c e2 da e3 3f f0 b9 f6 3f
       1.2702025 0.01711148 1.7801173 1.9275494
000080 6f 5e 91 3f f5 0f 8b 3f dc 43 95 3e 30 02 a6 3f
       1.1356944 1.0864245 0.29153335 1.2969418
000090 2e 12 65 3f a1 68 d7 3f f3 c0 bc 3d b1 7d 99 3f
       0.89480865 1.6828805 0.0921649 1.1991483
0000a0 a6 ec bc 3f 0c 6f 78 3f 32 d9 a9 3f e8 d3 57 3e
       1.4759719 0.97044444 1.3269408 0.2107693
0000b0 a8 29 08 3f 7e 17 cc 3f 4d 86 13 3f b0 fe e4 3e
       0.5318856 1.5944669 0.576268 0.4472556
0000c0 53 0d f0 3e d0 f7 9b 3e ff 51 e5 3e e7 82 05 3f
       0.46885166 0.30462503 0.4478912 0.52152866
0000d0 67 fd ab be 8c 5d 8f 3f da 37 fc 3e 0d d3 71 3f
       -0.33591768 1.1200423 0.4926136 0.9446266
0000e0 33 6b cf 3f af 48 df 3f 85 cf 4a 3f 0b bd 15 3f
       1.620459 1.7444056 0.792229 0.5849158
0000f0 31 14 e8 3e dc 1b 3e 3f 59 ea 40 3f e8 71 b9 3e
       0.45327905 0.7426126 0.75357586 0.36219716

fc2.weight f4 [2, 64]
000000 f0 02 ad be d2 77 eb ba 8c 45 23 be 3f 6c f6 bd
       -0.33791304 -0.0017964786 -0.15944499 -0.12032365
000010 98 ba d8 3d 7b 17 a6 bd 04 a9 5b 3c b0 1a d8 3c
       0.10582465 -0.08109947 0.013406996 0.026379913
000020 a8 17 56 bf b7 c4 73 be 1d 8f f6 3c e0 8b d1 bd
       -0.83629847 -0.2380551 0.030097539 -0.10231757
000030 90 f5 33 be a1 dc 11 be 6b 9e 8f be b0 3f 28 3b
       -0.17574143 -0.1424432 -0.2805055 0.0025672726
000040 ca 6f 8b bd 16 33 2e 3c e1 8d 92 bd dd 12 a8 be
       -0.068084314 0.010632297 -0.071559675 -0.32826892
000050 57 9e 0c 3d 72 9e 28 3c e4 5b bf bd 51 f4 94 bd
       0.034330692 0.010291683 -0.093436986 -0.07273162
000060 9f 45 c7 bd 1d 2e 2c 3d 64 23 42 3d ec 26 8a 3c
       -0.09730076 0.042036165 0.047397032 0.016864263
000070 56 a4 0f be 27 28 e0 bd a7 7a a8 bd d1 f4 b3 bd
       -0.14027533 -0.109451585 -0.08226519 -0.087869294
000080 55 31 16 be 97 27 43 3c e3 18 01 bf 01 b8 46 bd
       -0.14667256 0.011911294 -0.504286 -0.048515324
000090 94 40 8f be dd f4 d2 bd d7 27 18 3c d0 65 2e be
       -0.27978957 -0.1030061 0.009286842 -0.17031026
0000a0 83 49 7a bd 49 e8 a5 3c 8f 7f e0 bd f5 b7 bd 3c
       -0.061105262 0.020252364 -0.1096183 0.023159007
0000b0 37 6b 05 3d 18 9c 9f bd 6e b0 d7 3c 1a 6e 43 bf
       0.03257295 -0.077934444 0.026329245 -0.76339877
0000c0 f2 04 e0 3c ce e9 85 be 91 66 78 3c f2 1f 12 3d
       0.027346108 -0.2615494 0.0151611725 0.035674997
0000d0 24 5f 21 be f3 f7 ae bd 30 93 f8 be 18 40 a6 3c
       -0.1575895 -0.08543386 -0.48549795 0.020294234
0000e0 2b b0 89 bd f1 13 ff bc 7c 79 f7 3c 5b dd 08 3d
       -0.067230545 -0.031137438 0.030209295 0.033414226
0000f0 bf b2 c6 be 51 a5 06 3d e3 47 03 3d 85 62 6a 3c
       -0.38808247 0.0328725 0.03205098 0.014305715
000100 c4 10 c4 b7 c7 b0 6e be 82 54 7d be ef 49 95 bd
       -2.3372828e-05 -0.23309623 -0.24739268 -0.07289492
000110 ca 69 26 bf 08 56 22 3e fa 49 85 be 4d 7b 14 3d
       -0.6500517 0.15853131 -0.26033002 0.0362504
000120 05 b7 55 3b 81 6c fe be 3c 1e 32 3d 7b c8 b8 bd
       0.003261031 -0.49692157 0.043485865 -0.090226136
000130 81 e1 1c be 8a d7 77 bd 1e 27 8c 3b a2 48 27 be
       -0.15320398 -0.06050829 0.004277124 -0.16336301
000140 92 51 54 bd 64 de 91 be 0a 10 82 bd c2 75 ed bd
       -0.051835604 -0.28489983 -0.063507155 -0.11594726
000150 00 d6 28 3c da 39 28 be b0 83 14 be a7 48 9e bd
       0.010304928 -0.16428319 -0.1450336 -0.07728701
000160 52 d9 89 bd 31 10 37 3d d2 d2 95 3d b0 6a 6e be
       -0.06730904 0.044693176 0.073156014 -0.23282886
000170 ab 56 10 be 08 d6 3d be b1 6a 87 bd 2d ba 92 bd
       -0.14095561 -0.18538678 -0.06612147 -0.071644165
000180 0a ae d8 bd 0f 28 07 be 6c 7a 83 3b dd f5 e6 bd
       -0.1058007 -0.13198875 0.0040123966 -0.112773634
000190 b4 d1 42 3e ba 9f e8 bd f3 ad a2 be 76 42 c3 bd
       0.19025308 -0.113585904 -0.31773338 -0.09534161
0001a0 9d 0e c7 bd 49 54 5c be 6b 96 f0 bd ea ab 84 be
       -0.09719584 -0.21516527 -0.1174744 -0.2591241
0001b0 a1 83 38 3d e2 e8 23 bd aa ae 26 3d 1b d3 07 bd
       0.045047406 -0.040017016 0.040693916 -0.03316031
0001c0 60 6e 54 3d b1 73 31 be 22 e4 99 be cd be 2a 3d
       0.051863074 -0.17329289 -0.30056864 0.041685868
0001d0 d6 27 02 3e 5b 7f 09 be 2e 78 1f bf d3 8e 8d be
       0.12710509 -0.13427489 -0.62292755 -0.2764803
0001e0 be d6 8d bd 95 0d b0 bd 62 30 8f 3d c6 92 04 3d
       -0.069257244 -0.085963406 0.0699165 0.032366537
0001f0 71 f4 75 3b 5f d7 03 3d bb 0c 8d 3d bc 11 4c be
       0.0037529732 0.032187816 0.06887194 -0.1992864

fc2.bias f4 [2]
000000 fd 82 f9 3f fc 6f f4 3f
       1.94931 1.9096675
