assignment-5/models/best_model_41.6.pth (torch, 110560 bytes, 8 tensors)

conv1.weight f4 [4, 4, 8, 8]
00000000: 4b77 063d 26ba 0c3d a131 a3bd 7fa2 71bc
00000010: 39eb 1a3e 62a4 4d3c 221b 74bd 346b ed3c
00000020: 30ee 03be 028a 7bbd b447 ddbc 0ef1 0cbd
00000030: 31f9 52bc 38c1 1a3d 1dbb 21bd 91bc a3be
00000040: b519 9ebd 2391 51bd d07d 67bd 85fe 53bb
00000050: 3e87 12bd 7e58 f93c 0e2c b2bd 874e 88be
00000060: 31a8 ae3d beb8 653d 6c1f 723d b9db 8a3d
00000070: fb09 343c 746e 0d39 4cd9 223c 7528 78be
00000080: b8ca 383e 3ce2 48bb 97e8 8ebc 36b4 053e
00000090: 8a29 213b 289f 10bd c2d0 87bd 5d90 a53d
000000a0: 03fd 2d3b a7b3 eb3c 1b25 ad3d 8804 053e
000000b0: a8a8 f23b f010 46be 55a9 f13d bd8b f23c
000000c0: bc91 c53d c314 ab3d e95f c0bc ea63 e53d
000000d0: 57fb 613e 3fe9 193d 4d26 2cbd 3cfa 60bd
000000e0: fa3b 3ebd 3428 763d 63f4 8e3d 6702 f1bc
000000f0: af89 adbd e23a 9a3d 7f52 aebd cd1a ef3d
00000100: f7d4 10bd cd52 efbc 0320 373d 1de3 5c3b
00000110: 27dc 6d3e efe0 923c 428e 7f3d 715a 803d
00000120: adbf 363d 3abe babd 0feb 3abd 56e0 3dbe
00000130: cab1 433b 38c1 a33d 8456 703d 3d9d b0be
00000140: 1945 0abe 7129 693d d4d9 29be 0f48 89bb
00000150: 295c 783c ffa6 d03b 437c 53bd 1177 77bc
00000160: d676 c4bc 29cd 7a3d 341c 69bd d114 de3d
00000170: 7d04 02be f987 91be 0e9d 403e 1b71 adbe
00000180: c89f e33b c110 213d d40d c93d dd09 b43d
00000190: 9938 0cbe 94d1 8a3d 51dc 24be 85b2 19be
000001a0: 87c6 a0bc f210 a9ba e92c 30bd 3313 a0bd
000001b0: bcd6 82bd 1798 1fbd 110e 9e3d 55df 63be
000001c0: 0243 4f3b a948 c3bd 9459 b13d 2c2f e33d
000001d0: f19f 473e 36b0 c9bc 623e a8bd 63dc 97bd
000001e0: b3fd ef3c 8145 783e 34e2 c73d 31ea d43d
000001f0: ee06 cebd af6f 36be 46cc bebd ccf0 9dbd
00000200: 579e 85bc d4f7 7e3c 6045 db3d bc17 223c
00000210: 25b7 cc3d 42c9 473e 8ba5 423e 6053 963e
00000220: 9539 173d 7b61 8abe 0d70 0a3d 7b14 dfbc
00000230: f777 2abd 8036 613d f7b1 363e 58aa 81bd
00000240: ec18 3a3c b587 2ebd e421 a0bd 8c6b bc3c
00000250: 9cc0 e1bd 1a5b c0bd 02bf e23d 0a39 583e
00000260: dcd1 153d a247 b8bd ca08 e9bd 7d94 49bc
00000270: a794 12bb f210 b6be b1fe c1bc 4d26 8bbe
00000280: 23c4 e83c 7c9b 7ebe 78d9 f6bc c2ce 30be
00000290: e1cc fdbd 828d 81bd f2da 18be 0a07 66bb
000002a0: 1d5f 64bd 8ded b7bd 2285 d0bd bd34 b0bd
000002b0: 79a4 edbd d768 1ebe b6e9 98bd ffd2 e9bd
000002c0: 5a39 63bd 8414 18bd 1f17 163e 37d1 b83d
000002d0: b30c ab3d 5eb4 4fbd ddb5 50bd 9743 373c
000002e0: a363 ba3d 6e3c a63d 8cd9 403e e6c4 76ba
000002f0: f1ff 183b d310 683d b272 ba3b b92b 22be
00000300: b3db b93c 2ff3 063d a07c b93d 9430 01be
00000310: 396b 893d afcd 313e d73e 3e3e 9d92 bf3d
00000320: f789 35bb 8cce 173e 7b5d 0abd 1af0 01bc
00000330: 5fa2 123e a2c3 8c3e c490 bb3b 591a 973d
00000340: 682b 2c3e dcf1 803d e78a 02bd 6499 d33e
00000350: 8edf fa3e 700f c93e 67ad 903e 921e ad3e
00000360: f79f 5e3e 9d10 d8bd 7955 963d 682f 813e
00000370: bff6 ff3e 1101 7c3e 4898 5c3e fb7f 163e
00000380: b8e3 e73d fa9c 6cbd 4e2a bf3c 4221 cb3e
00000390: 804f c43e 8d62 a23e 488b 563e 9a3b f23e
000003a0: e573 6a3e 48e2 e9bc 525d 5bbd 6351 dd3c
000003b0: 243a 683e 3d1b 463e ad0d 8fbc 4239 713e
000003c0: a7ef f93d 1553 95bd aacb 043e faae 173e
000003d0: 0846 713d b0e7 1dbb ed31 d43d 140d 803d
000003e0: a19c 20be 8479 afbd 46f8 a53e e6f1 313e
000003f0: 77ec 213e 61aa 143d f5e7 f2bc 6bc4 d2bd
0.03282861 0.034357212 -0.0796845 -0.014748215 0.15128793 0.012551399 -0.05959619 0.028981782
-0.1288383 -0.06141091 -0.02701173 -0.034409575 -0.012876795 0.037781924 -0.039485086 -0.31979802
-0.07719747 -0.051163804 -0.05651647 -0.003234775 -0.03577351 0.030437704 -0.08699809 -0.26622412
0.08528174 0.056084387 0.059111997 0.0678019 0.010988708 0.00013487955 0.009939503 -0.24234183
0.18046081 -0.0030652424 -0.017444892 0.13057026 0.002459141 -0.035308033 -0.06631614 0.08084176
0.0026548512 0.028772188 0.08454343 0.1299001 0.0074053593 -0.19342399 0.11799876 0.029607648
0.09646937 0.08353569 -0.023483234 0.11200698 0.22068535 0.037575956 -0.042028714 -0.054926142
-0.046443917 0.060096934 0.06980207 -0.02942009 -0.08473527 0.07530762 -0.08511829 0.11675034
-0.03535935 -0.029214287 0.044708263 0.0033704706 0.23228513 0.017929522 0.062391527 0.0626725
0.04461639 -0.09118314 -0.045634326 -0.18542609 0.002986061 0.07995838 0.058676258 -0.34494963
-0.13502921 0.056924287 -0.16587001 -0.0041894983 0.015158691 0.0063675637 -0.051632177 -0.015104071
-0.023982447 0.061230812 -0.056911662 0.10843814 -0.12697025 -0.2842405 0.18809912 -0.33875355
0.0069465376 0.03932262 0.09817091 0.08790944 -0.13693465 0.06778255 -0.16099669 -0.15009506
-0.019625915 -0.0012898727 -0.04301158 -0.07816162 -0.063886136 -0.038963404 0.07717527 -0.22253163
0.0031625633 -0.09535343 0.08659664 0.11092982 0.19494607 -0.024620157 -0.082150236 -0.07415082
0.029295778 0.24245264 0.09759942 0.10396231 -0.100599155 -0.17816041 -0.09316306 -0.07711944
-0.016310854 0.0155620165 0.107065916 0.009893354 0.099958695 0.19510368 0.19008462 0.29360485
0.03692015 -0.27027497 0.033798266 -0.027231446 -0.041618314 0.054983616 0.17841326 -0.063313186
0.011358481 -0.04260989 -0.07818964 0.023000501 -0.110230654 -0.09392376 0.11071588 0.21115509
0.03657709 -0.08998038 -0.113786295 -0.012303469 -0.0022366436 -0.35559803 -0.023681017 -0.2717766
0.028413838 -0.24864 -0.030132994 -0.17266372 -0.12392593 -0.063258186 -0.14927271 -0.003509941
-0.05575477 -0.08980856 -0.10181643 -0.08603809 -0.11603636 -0.1546968 -0.07466452 -0.114171974
-0.055474617 -0.03712894 0.14657257 0.090242796 0.083520316 -0.05070912 -0.05095469 0.011185548
0.091010354 0.08116995 0.18832988 -0.00094134954 0.0023345912 0.05665667 0.0056899423 -0.15836991
0.022687769 0.03294676 0.090569735 -0.12616187 0.06709904 0.17363618 0.18578659 0.09354136
-0.0027700642 0.14824885 -0.033780556 -0.00793078 0.14319752 0.27493006 0.0057240445 0.07378072
0.16813433 0.06296131 -0.03187075 0.41327965 0.48998684 0.3926959 0.28257295 0.33812386
0.21740709 -0.10550044 0.07340521 0.2523148 0.4999294 0.24609782 0.21542466 0.14697258
0.11322731 -0.057766892 0.023335602 0.3967381 0.38341904 0.31715813 0.20951569 0.47311097
0.22895773 -0.028550282 -0.053555794 0.027016347 0.22678429 0.19346328 -0.017462576 0.23556998
0.12203913 -0.07291237 0.12968317 0.14812842 0.058904678 -0.0024094395 0.10361085 0.062524945
-0.15684749 -0.08568099 0.3241598 0.17377433 0.1581286 0.0362953 -0.029651621 -0.1029137

conv1.bias f4 [4]
00000000: d264 95be c21e 173a 6cd8 8abc 23af 963c
-0.29178482 0.0005764776 -0.016948901 0.018394059

conv2.weight f4 [8, 4, 4, 4]
00000000: e47b 33be cf13 833e 9bae 6fbb af1e 96be
00000010: b821 6abd df16 983d 92b8 a43d 64f5 593d
00000020: 83a2 15bf 2b0d 22be d5ed adbe 08de 81be
00000030: 7d6c 64bf 3ee4 05bf 04ff a9bc ac19 a7bd
00000040: 3bad 0a3e 9d41 c8bb 20a1 553e 15c7 333e
00000050: 8101 dd3e baa1 b1bc 08e3 c9be 1086 8e3e
00000060: 5348 7e3e 9688 32be d615 423e 96fe 02be
00000070: f692 0dbd e6b8 87bf dd57 1a3e 3b91 3f3b
00000080: 1f55 7f3d d23b a2bc 1eac 263f 683d f5be
00000090: a23f 8e3e 05c1 253e be24 943e b1d1 b43d
000000a0: c6aa bebd ee1c d43d c75e 08be 9a95 883c
000000b0: fff3 f0be a519 063e f003 1fbd 4c20 15be
000000c0: e0fc a03d 12f8 e4bd 2fe8 f0be 5fec 7fbe
000000d0: 193c 41bc ebb6 b83e e89e 0b3e e0ac 54bf
000000e0: 33f8 b83e 3516 d83e 168c 493e 8a71 d6be
000000f0: f8fd 30be 729a 083f b1e0 7dbd 244a 13bf
00000100: 2849 72bf 7ed3 c63b 8732 343b 1f69 9c3d
00000110: 2994 40bf 2fa3 8fbe c7fc f7bd 8a2d 14bd
00000120: 7872 afbe 2908 263c 224c 28be 4df0 50bd
00000130: fac9 46bd 64df 613d a9ac 9abc acae 4d3c
00000140: 4d11 b53d 3b98 e13d a0f4 18bd 1957 1c3e
00000150: bc20 14be 6f0a 0d3d 9499 1f3d 9671 80be
00000160: 11e7 b53c 006b a73e de40 833e c378 75bb
00000170: e62a d03d 3701 723e 7d37 213e f916 c23d
00000180: ba55 eebd 97f7 233e d05b 01bd 15d8 19bc
00000190: 5183 893d 3fdf 4f3d 071d 7f3d 0d32 343d
000001a0: 4755 1a3e 6d61 23be b304 aabe bbbc 85bd
000001b0: dca3 833d 537c ef3b 2d6b 603e 4e59 35bd
000001c0: ef5f 7abe bd7b a33e 55a9 823d e601 a7be
000001d0: 0cbf ea3d 945c 513e 1360 ce3d c850 a0be
000001e0: ddc4 713e ab11 c33e f88a 4f3e c9c5 0abf
000001f0: 13fe 85bb d20b f03d 45d7 333e 36e6 febe
00000200: 333f a3bd 0b72 c63b 36b8 81be 7817 edbd
00000210: 97c1 c23b a910 963d 9f52 7bbd 919c 42be
00000220: 2f98 11be 14fd 7bbd 3426 233e 5e40 5cbe
00000230: 83fa 92bd b0d2 683d b7a8 3bbd fc61 b2be
00000240: 567b b03d 4fa9 7e3e 4cf6 e33c 5556 d3be
00000250: c5f8 e1bc 9fd3 833e 2477 7e3e b556 21bf
00000260: 77df 9fbe 8335 cd3d 9edc 17be b8be 9abc
00000270: 1c93 b4bd b850 ad3e a71d 1a3c 8b4d 9bbd
00000280: 78f2 1c3f 04ec f5be 292d 073f 6284 753d
00000290: 9ca7 133f d0c2 353e 1433 923e e586 80bd
000002a0: 758c 29be 555b 383e 7285 e93e ba5e 12be
000002b0: 75d7 49bd 478b a53e a94a be3e 3cf8 8ebe
000002c0: 5706 763e cbcc 8d3c 4fa4 fd3d 98cb 9bbe
000002d0: 7b49 e03e cab4 e6be e962 0abd c42b 543d
000002e0: eb2b 92be c5f2 cdbe d65e 26bf d39f 49bf
000002f0: 01da ccbd 3796 9cbe 7cf6 e2bd be98 0cbf
00000300: f731 dabd ed57 24be 8678 fcbd f18d 873d
00000310: b5cf 1cbc b790 c33d ca2e 34be 5a39 bf3d
00000320: d171 833e cb98 36bc d990 83be 053d 05bf
00000330: 6150 6abe 6b62 dfbc fdbd 02be eedd 54be
00000340: 6688 94b9 0d41 6d3d 1534 ab3e 9ae2 033e
00000350: 99d9 b43e bd45 09bd 53b7 dbbd 865d fabd
00000360: 6d56 e2bd 91ee 97bd 236d 573e 9e6e b9bd
00000370: ce4a 21bb 4ad3 02bd e871 48be 77a9 143d
00000380: 844f cd3e 66eb 4ebd e48d ed3d c7f4 043e
00000390: 5397 593e 9ea0 51be d951 b43d e861 5b3e
000003a0: 02e4 c9bd 87fe c7bb 4600 c1bc 3368 0ebe
000003b0: 79db 18be 6b57 ad3e 9050 b83e 98be a1be
000003c0: 59b3 203e 5e3b c23e ff48 a3bc 4983 40be
000003d0: ab8e 98bd 7157 763e 9b2f b33e 7056 a1be
000003e0: 0a84 04bd a1e7 a43e 8a39 8ebc 9df6 c2be
000003f0: 8c28 3abe 6aa4 37be ce18 fbbc fd60 a13e
-0.1752773 0.2560105 -0.0036572579 -0.29320285 -0.057161063 0.07426237 0.080430165 0.05321254
-0.584511 -0.15825336 -0.33970514 -0.2536471 -0.8922804 -0.52301395 -0.020751484 -0.081591934
0.13542645 -0.0061113373 0.20862246 0.17556413 0.4316521 -0.021683563 -0.39431024 0.27836657
0.24832277 -0.17434916 0.18953642 -0.1279243 -0.03456398 -1.0603302 0.1507258 0.0029230851
0.062337037 -0.019803915 0.6510638 -0.47898412 0.27782923 0.16186912 0.28934282 0.08829058
-0.09309916 0.103570804 -0.13317405 0.016672898 -0.47061154 0.1309572 -0.038822114 -0.14563102
0.07860732 -0.11180128 -0.47052142 -0.24992512 -0.011794114 0.36077055 0.13634837 -0.83076286
0.3612686 0.42204443 0.19682345 -0.41883498 -0.17284381 0.53360665 -0.06198186 -0.57535005
-0.9464288 0.0060676923 0.0027495937 0.07637238 -0.75226074 -0.28054187 -0.1210876 -0.036176242
-0.3426702 0.0101337815 -0.16435292 -0.05101042 -0.048532464 0.055144683 -0.018881159 0.012553852
0.088411905 0.11015364 -0.037342668 0.152676 -0.14465612 0.03443378 0.038964823 -0.2508666
0.022204908 0.32698822 0.25635427 -0.0037456013 0.10164432 0.23633276 0.15743823 0.09477038
-0.11637445 0.16012417 -0.0315817 -0.009389897 0.067145 0.050750013 0.062283542 0.043993045
0.15071593 -0.15955134 -0.3320671 -0.06530138 0.06427738 0.007308522 0.21915884 -0.04427462
-0.24450658 0.31930342 0.06379954 -0.32618636 0.114622205 0.20445472 0.100769185 -0.3131163
0.23610254 0.38099417 0.20267856 -0.54208046 -0.004089126 0.117210045 0.17562588 -0.49785012
-0.07971039 0.0060560755 -0.25335854 -0.11576742 0.005943488 0.073273964 -0.06135809 -0.19005038
-0.1421821 -0.06152065 0.15932542 -0.21508929 -0.071766876 0.056841552 -0.045815196 -0.3484038
0.086172745 0.24869274 0.027827404 -0.41276804 -0.027584443 0.25747392 0.24850136 -0.6302293
-0.31225178 0.10019972 -0.14830253 -0.01888977 -0.088171214 0.33850646 0.009406484 -0.075831495
0.6130748 -0.48031628 0.52803284 0.059940703 0.57677627 0.17750096 0.28554595 -0.06275729
-0.16557486 0.1800359 0.45609623 -0.14293948 -0.04927774 0.32332823 0.37166336 -0.27923763
0.24025856 0.017309567 0.12384855 -0.30428767 0.4380606 -0.45059806 -0.033785734 0.05179955
-0.28549132 -0.4022428 -0.6498846 -0.787595 -0.100025184 -0.30583355 -0.110821694 -0.54920566
-0.10654061 -0.16049166 -0.123276755 0.0661887 -0.009571006 0.095490865 -0.17595974 0.09337111
0.25672773 -0.011144827 -0.25696447 -0.52046233 -0.22882225 -0.027268609 -0.12767787 -0.20787784
-0.00028330385 0.057923365 0.33438173 0.1287941 0.35322264 -0.033513773 -0.10728326 -0.122248694
-0.11051641 -0.0741855 0.21037726 -0.09054302 -0.0024611237 -0.031939782 -0.19574702 0.036294427
0.40099728 -0.050517462 0.11599329 0.12984 0.21249132 -0.20471427 0.08804674 0.21424067
-0.09857942 -0.00610334 -0.0235597 -0.13906936 -0.14927472 0.33855757 0.35998964 -0.31590724
0.15693416 0.3793592 -0.019932268 -0.18800081 -0.07449087 0.24056794 0.34997258 -0.3151126
-0.032352485 0.3220797 -0.017361421 -0.38078776 -0.1817953 -0.17933813 -0.030651476 0.3151931

conv2.bias f4 [8]
00000000: 81d9 39bd bae8 7dbc f99d c43c fc7e 84bc
00000010: 942f e83b f08c 4c3e a81d 54bb df8c 0cbd
-0.045373444 -0.015497381 0.024001108 -0.016173832 0.00708575 0.19975638 -0.003236631 -0.034314033

fc1.weight f4 [64, 392]
00000000: 5bce 9ebe c233 b73d 7351 42bd e2d7 e1bd
00000010: b04a 24be a3cc 873c 25ed 58bd 2b28 2abe
00000020: c807 0b3e c569 9cbc 552d c73c 3617 7d3c
00000030: 69dd a53d f1dc cbbd 468e 423e a478 84bd
00000040: 0b85 aa3e 503b 2c3d 45e9 bc3c ab1d 9fbd
00000050: 6756 f4bd 216b 3cbe 5f98 31bf d2ff 743e
00000060: 55f4 953e 086b 3f3e fd6c 013e 1828 01be
00000070: f24c 07bf e046 383d e67b d03d 893e 22be
00000080: 8d40 b8be c167 c23c e4de 5abd 931d c6bd
00000090: 19f1 d4bd 132b 43bd 39c7 903c f7a7 27be
000000a0: 9715 f23d 66e4 1f3e 173d bb3c ccf8 d7be
000000b0: e060 b43c e83f 2e3d cff3 32be 3f2f dd3d
000000c0: 7e72 aeb9 1517 cabb b65b 133d c725 43bc
000000d0: 20e3 01be 663d 79be 9bfc 8cbe a4a9 fc3d
000000e0: 92fb 093e a6e2 89be 6774 503d 7479 8c3d
000000f0: 55e2 26be 5731 f53d 6dab 183e aca3 923e
00000100: 6a1a 95be 80d6 153d e5aa 69bd a3cd e73c
00000110: d2b0 973d dc53 273e fa26 f0bd 2c2c 61be
00000120: 3b5d 343e 6426 133d 180d a7bd f154 b1bc
00000130: 3716 733e 63ea 50bf 6f39 2dbe e2b5 ae3e
00000140: 9666 e8bc de56 94ba f08e 9d3d 3fbc 4dbd
00000150: ae25 d03c 03c0 d6be c877 123e 8f78 723c
00000160: 8b4c 11be 8c4d cdbc b203 dd3d 0984 953e
00000170: 3814 80be 9410 183d a1a4 09be c2ee 56be
00000180: 9b62 c83d 9f29 d13c 6042 f9bd 3d2f e1be
00000190: bf0d d6bd d1f8 1d3e ad3f 98bc 8f7c b7bc
000001a0: daf4 203c 9097 da3d 8c71 83be 9bf9 9fbd
000001b0: d32d cabd 2dab 2abe 99a2 b43c 45bb 753e
000001c0: d26a 32be e805 85be a743 02bf 29f6 d2bd
000001d0: f6eb 04bd 4f8f f03d f087 e4bc 1118 83be
000001e0: 7750 1dbf 1d43 bf3d 31a9 d8bd e613 803d
000001f0: f89d 9d3d 9750 0fbe c34c 02bf 30c8 adbe
00000200: 9c53 973d e239 d5bc 95d2 113d da20 743d
00000210: 5140 ffbd 95c9 c73e d291 01bf 47c9 bd3b
00000220: d016 003e 7314 893c c520 3f3d bc83 0e3d
00000230: c0a0 cb3d bee3 79be beef 113e e1b4 2abe
00000240: 2104 11be 0bf8 0c3e 0367 083e c917 82be
00000250: c739 3f3d 0475 d1be 2e5b 803d 347e 883d
00000260: 3061 103e 1cbb 063d 76e7 99be 8eed bbbd
00000270: 8744 1abe 7a33 25bd 4d90 ac3d 078b 1ebc
00000280: 422b 8a3d bc31 25be 50b8 58be e1df c9bd
00000290: 5130 6abd dab0 803e 5c63 09bd 91c7 7b3c
000002a0: 7596 433d e5b2 52bd cb79 c93d 3fa0 973d
000002b0: ab02 2a3d 70e9 c63d 2c4a a0bd 1a1b dabd
000002c0: 0173 983e 1049 21be eece 97bd 56ea 443d
000002d0: 26c2 5f3d 5fdb 0abe ef04 b43e 47d5 4dbd
000002e0: 8acf c7bc 7fbe a53e 6cf3 853e bca2 1ebc
000002f0: 985c e43b 821b 863d 3ada b53e d132 063e
00000300: 41dc 0a3e 15dd 8a3c 999b d93e dcfd 84bd
00000310: e559 8a3e 82e9 92be 7cce 983e d29c e2bb
00000320: 3395 893d 854d 0a3e 0a90 bdbe db72 acbc
00000330: 63f8 61be 7436 04be 99bd 443e 261b 7abd
00000340: ff20 82bd ef7f 15be 9563 1ebd c37a eebe
00000350: a39f a43e e5fb 2ebe 6e9a 373c fdc8 de3d
00000360: 3e23 b1bd c2df 933e cd23 5ebf 89cc 853e
00000370: 2dfd af3d e8bc 673d 6af1 84bd 2b6f 0e3e
00000380: ecbb 6dbe 19d0 56bf e1bb 0c3f 0ced 4c3e
00000390: 4d42 16bd 6401 debc 9160 ddbc 363c 233e
000003a0: 5375 66bf ac36 973e 0306 253d ce20 53be
000003b0: a06e 433e 594e 143e ab34 d23e cd4f c7be
000003c0: 5271 89be 6978 81be 98e3 25be 60f9 523c
000003d0: 6bbf 743c faf2 bb3e 4e59 a23e 52ca 903c
000003e0: e066 88bd e348 01bf 9a86 273e 3f2c 91bc
000003f0: 3bb6 6a3e ea22 303e 7404 2b3e 5675 47bd
-0.31016812 0.08945419 -0.047440957 -0.110275045 -0.16044116 0.01657707 -0.052960534 -0.16616885
0.13577187 -0.019093404 0.024313608 0.015447428 0.08098871 -0.099542506 0.18999586 -0.06468323
0.3330463 0.042048752 0.02306045 -0.077693306 -0.119305424 -0.18400241 -0.69373125 0.23925713
0.29287973 0.18693173 0.12639232 -0.12612951 -0.52851784 0.044989467 0.10179882 -0.15844168
-0.35986748 0.023731114 -0.05343522 -0.096736096 -0.10397548 -0.0476485 0.017673122 -0.16372667
0.11820524 0.15614471 0.022856278 -0.42182004 0.02201885 0.042541414 -0.17475818 0.10800027
-0.0003327317 -0.0061673024 0.035976134 -0.011910862 -0.12684298 -0.24339828 -0.27536473 0.12337044
0.13474873 -0.26930732 0.05089226 0.06859103 -0.16297276 0.119723015 0.14909144 0.28640497
-0.29121715 0.036581516 -0.057047743 0.028296297 0.07406773 0.16340584 -0.11726184 -0.21989506
0.1761369 0.035925284 -0.08156794 -0.021646949 0.23738943 -0.81607646 -0.1691644 0.3412314
-0.02836923 -0.0011317392 0.07693279 -0.050228354 0.025408592 -0.41943368 0.14303505 0.014799251
-0.14189355 -0.025061391 0.107917204 0.29202297 -0.25015426 0.037125185 -0.13441707 -0.20989516
0.097844325 0.025532542 -0.12170863 -0.43981352 -0.104518406 0.15426947 -0.01858505 -0.022398261
0.009824002 0.106734395 -0.25672567 -0.0781128 -0.098720215 -0.16666861 0.022050189 0.23997219
-0.17423561 -0.2598107 -0.5088448 -0.103008576 -0.032451592 0.11746084 -0.027896851 -0.256043
-0.61450905 0.09338973 -0.10579146 0.06253795 0.07696146 -0.13995586 -0.5089838 -0.33941793
0.07388994 -0.026028577 0.035601217 0.059601642 -0.12463439 0.39020982 -0.5061313 0.0057918164
0.12508702 0.016733384 0.04666211 0.0347936 0.0994277 -0.24403283 0.1425161 -0.16670562
-0.14161731 0.13766496 0.13320546 -0.25408772 0.04668596 -0.40909588 0.06267391 0.06664696
0.14099574 0.032893285 -0.30059403 -0.09176169 -0.15065204 -0.040332295 0.08425961 -0.009676701
0.06746532 -0.16132253 -0.2116406 -0.09857155 -0.057174984 0.25134927 -0.033542022 0.015367405
0.04775091 -0.05144014 0.09837683 0.074036114 0.04150645 0.097124934 -0.07826647 -0.106497005
0.2977524 -0.15750527 -0.074125156 0.048075043 0.054628514 -0.13560246 0.35160014 -0.050252225
-0.024390955 0.323719 0.2616228 -0.009682354 0.006969046 0.065482154 0.35518056 0.13105322
0.13560583 0.016951123 0.42501524 -0.06493732 0.2702171 -0.28693777 0.29845035 -0.006915667
0.067179106 0.13506134 -0.37023956 -0.021050861 -0.22067408 -0.12911397 0.19212951 -0.061061047
-0.0635395 -0.14599584 -0.038669188 -0.46578035 0.32153043 -0.17088278 0.0112062525 0.10878179
-0.086493 0.2888165 -0.8677338 0.2613261 0.08593211 0.05657664 -0.064913586 0.13909595
-0.23216218 -0.8391128 0.5497418 0.20012301 -0.036684323 -0.027100272 -0.027023586 0.15940937
-0.9002277 0.295339 0.040288936 -0.20617983 0.19085169 0.14483012 0.41055807 -0.3892807
-0.2684427 -0.25287178 -0.16200101 0.012876838 0.014938216 0.36708814 0.3170876 0.017674599
-0.06660247 -0.5050184 0.1635994 -0.017721293 0.22921078 0.17200819 0.16700917 -0.048695885

fc1.bias f4 [64]
00000000: ded8 a83e f6c2 b33e d7d5 8b3e 7518 2b3d
00000010: dbeb 933c d360 a8bd 0034 a53e eb58 4b3d
00000020: 22c1 523d 3313 943e a98a 953e d59d 803e
00000030: 2aa2 ac3d ef8f 203d 83d3 573d f4b2 b63d
00000040: 33e3 8f3e 3d6a 833e b5cd 8dbd ae37 2b3d
00000050: 4c6d ad3d 7783 a53e 8be5 9c3e 7077 af3e
00000060: 42e2 9f3d 4555 01bc 08be d73d 0f8b 8a3d
00000070: c175 b63e 9aca 813d 29ad 733e db30 1c3d
00000080: c3b5 78bd 6e4e 9b3e 47bf 643d 6270 7f3d
00000090: 7fb5 863e 7a7b 8e3e 6723 943e 87d3 ab3d
000000a0: 5298 943e ecff a7bd 848d 233d 813b 873e
000000b0: 93a4 583e 4bc8 613d 2304 953e 1fc4 8d3e
000000c0: 92e3 2b3e c9da 293d 1867 963d 9df9 253e
000000d0: 5d0a a53e c89a b03d ba09 c9bd b2d9 a23e
000000e0: 3c68 5ebd 1edf 043d 1eb5 a13e af4c b53d
000000f0: dc8c 803e 8f83 983e b347 333d 3c31 8e3e
0.32977957 0.3510968 0.27311584 0.04177137 0.0180568 -0.08221593 0.32266235 0.049645346
0.051453717 0.28920898 0.29207352 0.25120416 0.08429368 0.039199766 0.052691948 0.08920851
0.28103027 0.2566699 -0.06924001 0.041801147 0.08468112 0.32326862 0.30643877 0.3427081
0.07806827 -0.007893865 0.105342925 0.067648046 0.35636714 0.06337471 0.23796524 0.03813253
-0.060720216 0.30333275 0.05584648 0.062363036 0.26310346 0.2782858 0.2893326 0.08389955
0.2902246 -0.0820311 0.03992988 0.26412585 0.2115653 0.055122655 0.2910472 0.2768869
0.1678603 0.041468415 0.07343882 0.16208501 0.3223447 0.08623272 -0.09816308 0.31806713
-0.054298624 0.032439344 0.31583494 0.08852517 0.25107467 0.2978787 0.04376955 0.27771938

fc2.weight f4 [2, 64]
00000000: e994 0ebe e951 3dbe 9793 25be 9c7a 873d
00000010: 4d09 0c3d 6625 1abd 434d 15be f3c7 e13c
00000020: 83e8 123d 1fb0 2cbe 2367 26be 2d49 3dbe
00000030: f89e 0a3e 516c 233d 9fbe 0e3d f149 e1bb
00000040: cbd2 a3be 5584 59be 7e8f 43be 33d8 3a3d
00000050: f3a9 163d eceb e7bd 7d17 06be 677f 23be
00000060: f8a4 243d a3a3 a93d 70e6 873d 3668 293d
00000070: 55aa 00be 56a2 513d 3cc0 86be c9b0 403d
00000080: 509e c4bc 2a45 42be 0217 3a3d ffe3 ce3d
00000090: 4005 1cbe 5f66 26be 0c7d 15be 6a50 473b
000000a0: cae1 4bbe 3e8c 3ebc 33ca 143d ac18 3ebe
000000b0: 7237 60bf 4fff 203e ea27 2dbe 171c 31be
000000c0: 1a76 9bbe 0aff e73d 4e83 9f3d eb0d 0c3d
000000d0: bd5c 2bbe c295 da3c 552b ffbd 4e7e 61be
000000e0: b161 933d 0001 1cbf 4eb3 56be 535f 313d
000000f0: 96ab 8fbe 39d3 31be 66ec 4c3d 9776 1ebe
00000100: 0419 0abe d04f 25be 44e4 29be 7e2f 123e
00000110: df51 663d f934 d63c 0e3e 2dbe 8399 653d
00000120: b828 6f3d 45f7 2cbe 53c3 30be c1bd 50be
00000130: 4ac8 083e dd31 1f3d d74b 3d3d 1aa2 35bf
00000140: acfd 68be 678a 55be 4384 933e 4de3 383d
00000150: 8588 493d 5271 1bbe 8c1e 35be afd1 22be
00000160: 2dcd 4b3d 598e e93d 1c7f 593d 740d 683d
00000170: f322 0fbe b853 553d cb1d 48be ef6e 1a3d
00000180: 0ad0 efbd 4b48 35be f9fb 413d 0d74 983d
00000190: 5867 1bbe ca30 2dbe 859c 0bbe 624c 053e
000001a0: 3933 29be 16fe 91bd c123 953d bdf4 4cbe
000001b0: 6b17 4fbf 9603 443e d366 f9bd 1de9 26be
000001c0: a648 cc3d 979f 1b3e 6253 643d 6808 14bf
000001d0: 2960 ebbd 55d1 823d b2c3 0e3e c957 3abe
000001e0: 9734 b53d 9151 eb3e 55c2 2dbe 28b4 a03d
000001f0: 2a91 9abe 6cad 56be f2a2 763d 2d54 23be
-0.13923992 -0.18488277 -0.16169582 0.06615183 0.034188557 -0.037633322 -0.14580254 0.027561164
0.03586627 -0.1686406 -0.16250281 -0.18484946 0.13537204 0.03989822 0.03484976 -0.0068752696
-0.3199676 -0.21241887 -0.19097707 0.04561634 0.03678317 -0.113242954 -0.13094898 -0.15966569
0.04019639 0.08283164 0.06635749 0.04135915 -0.12564977 0.051180206 -0.26318538 0.047043595
-0.02400127 -0.18971696 0.0454321 0.101020806 -0.15236378 -0.16249989 -0.14598483 0.003041292
-0.1991035 -0.011630116 0.036325645 -0.18564099 -0.875846 0.15722392 -0.16909757 -0.17295872
-0.30363542 0.11327942 0.07788716 0.03419296 -0.16734596 0.026682738 -0.12459437 -0.22020838
0.071963675 -0.60939026 -0.20966837 0.0433038 -0.28060597 -0.17365731 0.050030135 -0.15474926
-0.13486105 -0.16143727 -0.16590983 0.1427593 0.056230422 0.026148306 -0.16918203 0.056054603
0.05838844 -0.16891201 -0.1726201 -0.20384885 0.13357654 0.038865913 0.046214905 -0.7095047
-0.22753018 -0.20853578 0.28811845 0.045138646 0.04920246 -0.15179947 -0.17687434 -0.159003
0.049756218 0.11404104 0.053099737 0.056653455 -0.13978176 0.052081794 -0.19542615 0.03770345
-0.11709602 -0.17703359 0.04735944 0.0744401 -0.15176141 -0.16913143 -0.13633926 0.13017419
-0.16523446 -0.07128541 0.0728221 -0.20015235 -0.8089511 0.19141993 -0.12177815 -0.16299863
0.09974794 0.15197597 0.055743583 -0.57825327 -0.114929505 0.06387583 0.1394184 -0.1819755
0.08847921 0.45960668 -0.16968663 0.07846862 -0.30188876 -0.20964593 0.06021399 -0.1595008

fc2.bias f4 [2]
00000000: fbb2 8a3f 72a2 363f
1.083587 0.7134162
