assignment-5/models/best_model_10.4.pth (torch, 110560 bytes, 8 tensors)

conv1.weight f4 [4, 4, 8, 8]
00000000: 16fd c5bd fae8 90bd 1950 0ebe faab cabd
00000010: e28d 8abd 7030 c93d 34cc 02bc c456 213d
00000020: bebb 6cbd 4a13 eebd c57b 41be 7769 913d
00000030: 29bc 12bd f1ee c53c db6d a8bd ad5c 20bd
00000040: b877 25be 02f4 843d f82c 04be 1e7c fa3d
00000050: 7cce 983c ae4b ef3d 9c3d d1bd 3c9e 38bd
00000060: bce5 aebd e84c e03c 4cea 31bc 8da6 eebd
00000070: 6e2a f8bd dd77 9b3d 52f6 643d 3931 25ba
00000080: 82ba 9abd e25c 6c3d 7916 da3c 465f 1a3e
00000090: 1041 0a3b 65c4 a43d c85f 7ebd fd8d 18be
000000a0: 6c32 963c 3bac c5ba 9058 3a3d b08c 9fbd
000000b0: be83 abbd 6793 56bd cefe 30bd 7716 6bbc
000000c0: 9cc1 903d a0e8 ac3b 1120 673d d266 a13d
000000d0: 619d 8fbd a0d9 613d 1056 e3bd 1ddf 88bd
000000e0: b6a3 163e e85a 213e 3a49 e53c d46a d0bc
000000f0: bf2d 903d c2e5 ecba 48f0 aebd 3184 53bd
00000100: 1dc5 893d 3a35 243d d9ff b53d b162 d73c
00000110: 2718 92bd 1864 d4bd 0b41 223b 7378 1abd
00000120: e4e4 823d a8ca 5b3d e471 963c 79ed 3b3e
00000130: 8206 bf3d d8c3 b8bd e371 19be 2e32 913d
00000140: 52c6 a73d 801c b73d 89ae 7e3d efd3 d5b8
00000150: e333 b53d 72f5 73bd b235 1fbd c173 44bd
00000160: fcbb 473c 1702 c13d 559e 213d 5010 333d
00000170: 1cec 00be 9290 e8bd 288d d0bc b3c4 f93d
00000180: ad5c b43b 1130 f03d 13ca d53c 31c8 b93d
00000190: b941 e53d 9d0b a5bd 48e9 c7bd 4d54 8abd
000001a0: 6a80 bc3d 1395 c03c a416 9fba 936c 2dbd
000001b0: 3137 0dbd b006 893d a4c5 f13d 3f50 02be
000001c0: 7de4 6f3e 926a 36bc 3adf bf3c f24a 5b3d
000001d0: c345 9f3d 3a2d 11be 15bc 15be 5061 d9bc
000001e0: be1d ebbc d924 153d 153f c43c eff6 6dbd
000001f0: f3f2 e9bb d634 31bd 9e0a cbbd 914e 24be
00000200: dca4 a0bd 44a2 b6bd 0468 153e c02e aebd
00000210: ae8c 18be 9573 8bbd 4d21 e43d 841d 99bd
00000220: 8d3b 0a3c f080 52bd b5b4 cf3c c474 2d3e
00000230: 6f91 f8bc c2dc 05bd 0114 f13d cc0b 7e3c
00000240: 55d3 903e a4a6 8f3e 6bf1 273c fa6d 013e
00000250: 7ce4 d03d 9b00 623e 3239 f23d 3f03 123d
00000260: 1422 e53d a359 233e f54b a93d 3f84 013e
00000270: cba7 8ebc d068 cf3d be96 debc e267 403e
00000280: 0f45 903d 5468 543c c807 553e 68b5 9a3e
00000290: 939e 4dbd 2cb1 693b a1b6 973d 560a 023d
000002a0: 9648 473d 86a0 ec3b f3d6 d2bc 1df7 4abc
000002b0: 98a6 f3bc baf1 ecbc 8e4d fc3d 3ba6 753e
000002c0: 60a0 e33d f202 243d 7732 7a3d 3e06 9e3d
000002d0: ec01 40be 07f7 09be 75c6 89bd f5c4 853d
000002e0: caa3 9dbd c40b 0cbe 9990 0abe 0351 e2bc
000002f0: 35bc 0a3e 63ae fb3c cea3 b1bb bc6b 9cbd
00000300: 3d90 20be 5bd6 39be abb5 a0be 58e6 26be
00000310: f6a2 46be 19ec 20be 1ab5 c73d 455c fb3d
00000320: 16cd 50be 6ff6 40be 093d 19bf 4e4c 00bd
00000330: 1e1a 3bbe 0527 a6bd 44b4 053e 775f 213e
00000340: b442 6bbe 1941 afbd cd6b b2be e63a 2dbe
00000350: 0767 5e3d c7af ad3d 547c d53d fa7e a73e
00000360: d1db 2dbe 1e3e d4bc 2315 c6be 6430 2a3d
00000370: 447f 543d 5c77 203c 31ad 21be cd1b be3e
00000380: 3cda 593d 8581 853d 385d 08bd 020d 103e
00000390: 8595 c93d 51c8 473e f4e2 3c3e dd15 9c3e
000003a0: 980d 09bd 9a38 1d3d a7c1 75bd e25c 293e
000003b0: 0694 9f3e d321 173e 80cf bc3d b1b8 503e
000003c0: 442e 223e 4861 bc3d 41d0 bbbd 1daf 833e
000003d0: d48a 953e ae30 ef3d 28ee efbc d9d2 843e
000003e0: db7f 973c 1a78 d63d d5c9 f7bd a346 51bd
000003f0: b180 343e 92dc a53e 05be 463e 9b0b 483e
-0.09667413 -0.07075687 -0.13897742 -0.09896083 -0.06765343 0.09823692 -0.007983256 0.039389387
-0.057796232 -0.11624773 -0.1889487 0.07100194 -0.035823975 0.024161788 -0.08224078 -0.039150883
-0.1615895 0.06491853 -0.12907779 0.12230705 0.018653147 0.11684357 -0.10216829 -0.04507278
-0.08539912 0.027380422 -0.010859083 -0.11652861 -0.12117468 0.075912215 0.05589897 -0.0006301585
-0.07555105 0.057705767 0.026622044 0.15075406 0.002109591 0.08045272 -0.062103063 -0.14897914
0.01833459 -0.0015081236 0.045494616 -0.07790506 -0.08374737 -0.052386668 -0.04321175 -0.014348618
0.07068178 0.0052767545 0.056427065 0.078809395 -0.070124395 0.055139184 -0.111003995 -0.066831805
0.14710888 0.15757334 0.027989019 -0.025441565 0.070399754 -0.0018073844 -0.08541924 -0.05163974
0.067270495 0.040089823 0.0888669 0.026292177 -0.07133513 -0.10370654 0.0024758007 -0.037712526
0.06391314 0.053660065 0.018364854 0.18352307 0.09327413 -0.09021729 -0.1498485 0.07089649
0.081921235 0.08940983 0.06217817 -0.00010196107 0.08847787 -0.059560247 -0.038869567 -0.047961954
0.012190815 0.09424227 0.039457638 0.04371673 -0.12590069 -0.113556996 -0.025457934 0.121957205
0.005504212 0.11727918 0.026097333 0.090713866 0.11194176 -0.08058856 -0.09761292 -0.0675436
0.092041805 0.023508584 -0.0012137485 -0.042339873 -0.034476463 0.06690729 0.11805275 -0.12725924
0.23427005 -0.011133807 0.023421872 0.05353827 0.07776978 -0.14177409 -0.14622529 -0.02653566
-0.028700706 0.036412094 0.023955861 -0.058096822 -0.0071395575 -0.04326328 -0.099141344 -0.16045596
-0.078439444 -0.089176685 0.1459046 -0.085050106 -0.14897415 -0.06809155 0.11139164 -0.07476333
0.00843705 -0.051392496 0.025354723 0.16939074 -0.030342786 -0.032681234 0.117713936 0.015505742
0.28286234 0.28056824 0.01025043 0.12639609 0.1019983 0.22070543 0.118273154 0.035647627
0.111881405 0.15952162 0.08266441 0.12648104 -0.017413994 0.10127413 -0.027171489 0.18789628
0.07044422 0.012964327 0.2080375 0.30216527 -0.050200056 0.0035658581 0.074078806 0.03174814
0.048653208 0.0072212843 -0.025737261 -0.012388018 -0.029742524 -0.028923858 0.1231948 0.23989193
0.111145735 0.04004187 0.061083283 0.07716034 -0.18750733 -0.1347314 -0.06727306 0.06531707
-0.07697256 -0.13676363 -0.13531722 -0.02762652 0.13548358 0.030722803 -0.0054211384 -0.07637736
-0.15680023 -0.18148176 -0.31388602 -0.16298807 -0.19398102 -0.15715064 0.09751339 0.122734584
-0.20390734 -0.18844007 -0.5985876 -0.03132277 -0.18271682 -0.08112911 0.13057047 0.15759073
-0.22974664 -0.08557338 -0.3484787 -0.16916999 0.054297473 0.084807925 0.10424104 0.32714063
-0.16978385 -0.025908526 -0.38688 0.041550055 0.051879182 0.0097940825 -0.15788724 0.37130585
0.05318664 0.065188445 -0.033292025 0.14067462 0.09842972 0.19510008 0.18445951 0.3048543
-0.03346023 0.038384058 -0.059999134 0.16539338 0.3116762 0.14758997 0.09219265 0.20382954
0.15837961 0.091982424 -0.09170581 0.25719538 0.2920748 0.11679207 -0.029288366 0.25942114
0.018493583 0.10472126 -0.12099043 -0.051092755 0.17627217 0.32394844 0.19408424 0.19535677

conv1.bias f4 [4]
00000000: 671b f5bc 97a6 12bc 5969 5bbc 19d4 8dbc
-0.029920293 -0.008950851 -0.013391816 -0.01731305

conv2.weight f4 [8, 4, 4, 4]
00000000: 3171 2f3e d795 a13d fb18 93be ba7b 5fbe
00000010: ae78 af3d fcd2 ae3d 6f05 89be 2239 23bf
00000020: 5496 96bd 0fe6 ddbd 0fe4 c1be 1876 b6be
00000030: 6934 e0bd 9655 f9bb 7b63 34bd 1c73 7a3c
00000040: fc44 5f3e f669 803e 4b2a 36bf 0cba eb3d
00000050: fb54 78be afa6 8b3e e5ea 20bf d0d3 363e
00000060: 92c6 eabd 419c d43d 16a3 6dbd b5f4 ae3e
00000070: ca9d 8e3e d296 9e3c 3499 ed3d 7e36 11bd
00000080: 0274 8bbd 295e e6be 9f52 4b3e 0605 333c
00000090: 4c87 47bc 361d 66bd 9e65 be3e 7d75 44be
000000a0: 23a6 9b3e 2327 3cbe e162 373e c4ea e63e
000000b0: 8994 ee3e 6d9c 1fbe 9d97 3b3e 2542 9cbd
000000c0: 14d3 b53e fa95 2c3e 4f69 be3c 5501 d1bd
000000d0: 2e7d ee3e 309b ae3c d71d f2bd 82ca 8cbe
000000e0: bd35 023e 614e ab3d a40f 8ebc 905e d73c
000000f0: 9a98 003e 542a 5f3d 627b 683b 4de9 febd
00000100: ef22 05bc 9ba5 62be e749 9dbd 980c 08bf
00000110: 1f66 613e 59ec 45bc 98b5 a0bd e008 9abe
00000120: 6968 b5bb a9ed 4fbd 1a67 08be e6a2 0dbe
00000130: 9278 babd 79b5 4cbd 667a 9cbe 21c6 a3bd
00000140: d9ef 4bbe 7b5f 293e 4039 dabd 1077 8b3d
00000150: fc07 903e 3911 e93d c72f 1a3e 4053 bcbd
00000160: 3599 81be d4a5 febd 22ab 0bbe 080a 153c
00000170: d8fc 9fbe b253 33bf 0f29 54be 8d28 d1be
00000180: 68a2 01be c6fa 1dbd e4a1 68be 4df6 02bd
00000190: a29b cabd b473 26bd e265 50be fa11 babc
000001a0: 46cf 7fbd a8d9 acbd e4d4 683e c6d7 c0bc
000001b0: 697b cf3e e638 8dbd e1f9 8fbd 9430 033d
000001c0: 6d99 563e 248e ae3c 052c 4abe f997 c8be
000001d0: afcf c53c 5fd1 6ebe b5bf 00be a09b 9fbd
000001e0: 2179 323e eafb 37be 5513 b3bb add7 8abd
000001f0: f352 0fbe a024 b43d 54e8 28be b815 f5bd
00000200: 5cea 5bbe 8721 c4bd 0481 543b 00dd 67be
00000210: b0e8 e7be 4666 41be 0308 12be 080a 903c
00000220: 1649 54be 5b89 af3d 768e 9fbe 906d 753d
00000230: d0ff f0bc a600 293d 30e8 b0bd b402 e93c
00000240: 7e8d 7dbe f195 a43d 6dc1 86bd 5aa4 0e3e
00000250: 9fa6 35bf 58f1 3b3e df9d 303e cbb4 813d
00000260: 9407 51bd af1e 863d d5ec 2dbb ab45 a53e
00000270: 9cd4 b23e a8e8 25be 4678 8f3c 5749 883e
00000280: f913 84bc aa48 babd 1fcb ddbd 5eaa af3e
00000290: 614a c7bb aed6 883e 6769 2f3e 7585 95be
000002a0: a22e 02bd 2900 b8bd 2649 493e 573d e1be
000002b0: e1bc 5d3d 53ae 93be c4cd 0abd 5c6d cbbe
000002c0: b52b 45bf 8de9 b8be 8725 853e 7925 51bd
000002d0: 951c 2abf e834 aabe 6b62 6e3e 3745 66bc
000002e0: 4c2e 0cbf aeab f7be 1f75 c03d 14df 08bd
000002f0: c62e 87be 1ac6 36be a7e0 913e 3b37 213e
00000300: 30d6 a6bd 37cc 36be 3ea8 15be e217 ef3a
00000310: 0549 1abe 87f0 65be c455 2ebe d84f 75bc
00000320: 7b9c 343e 0650 7b3d 019f cebd 2a30 99be
00000330: cff6 053e 68f2 3bbd 1d6b aa3c df82 d3bd
00000340: 9d1d bfbe 242f 553d 1b50 0a3f 3b3b 573e
00000350: 5a93 783d a1eb 2a3e 4990 553d 4455 a63d
00000360: 3ed2 d1be 8719 0f3e f039 863c f234 553e
00000370: 4186 e93e 84bf 7fbb fc25 aabd c1c4 a6bc
00000380: ba9f 94be 0938 af3e 59b5 aabe fe63 a1be
00000390: e506 2fbe 8b51 7a3e 99bc 15be 5a40 a33d
000003a0: 14ac babd 59e5 043f ef7d 6cbe 26e9 2cbe
000003b0: eb29 80bd e871 543e 0758 bbbd dcb8 343d
000003c0: 5dd9 203e d995 a9bd 38a2 c0bd 9c7c 3ebd
000003d0: 3adf 373e 043b 43bf 7302 4dbd fdbb c9bd
000003e0: 24b8 b0be c545 55bd a3eb 7a3e 5812 98bd
000003f0: 0daa f03d e537 4dbc 01a7 0b3e 5dee a33d
0.17133023 0.07889908 -0.28729996 -0.21824542 0.0856794 0.08536336 -0.26761958 -0.6375905
-0.073528916 -0.10834896 -0.37869307 -0.35636973 -0.109474964 -0.0076090796 -0.044040184 0.015286233
0.21803659 0.25080842 -0.71158284 0.11510095 -0.24251167 0.27275607 -0.6285842 0.17854238
-0.114636555 0.103813656 -0.05801686 0.34171072 0.27854759 0.019359026 0.11601487 -0.03545236
-0.06809236 -0.44993713 0.19855736 0.010926491 -0.012178253 -0.0561802 0.37186903 -0.19185443
0.3040019 -0.18374304 0.17908813 0.45100987 0.46597698 -0.15587015 0.18319555 -0.076298036
0.35512602 0.16854087 0.023243574 -0.10205332 0.4657988 0.021314234 -0.11822098 -0.2749825
0.12715812 0.08364559 -0.017341442 0.026290208 0.12558213 0.054483727 0.0035473933 -0.12446842
-0.008126005 -0.22133486 -0.076801114 -0.53144217 0.22011612 -0.012080275 -0.07847136 -0.30084896
-0.0055361283 -0.05076376 -0.1332058 -0.13831672 -0.09105028 -0.049977753 -0.30562133 -0.079967745
-0.19915713 0.16540329 -0.10655451 0.06809819 0.28131092 0.11380238 0.15057288 -0.09195566
-0.253122 -0.12433973 -0.136395 0.00909663 -0.31247592 -0.70049584 -0.20718788 -0.4085125
-0.1265961 -0.038569234 -0.22718006 -0.031973172 -0.09892966 -0.040637687 -0.20351365 -0.02271365
-0.06245353 -0.08439952 0.22737461 -0.023540389 0.40523842 -0.06895618 -0.070300825 0.03202875
0.20956965 0.021308012 -0.19743355 -0.39178446 0.024146883 -0.23322056 -0.1257313 -0.07793355
0.1742902 -0.17967191 -0.005464951 -0.06779418 -0.13996486 0.08796048 -0.16494876 -0.11967033
-0.2147612 -0.09576707 0.0032425532 -0.22642899 -0.45294714 -0.1888667 -0.14260869 0.017582908
-0.20731005 0.0857112 -0.31163377 0.05991894 -0.029418856 0.041260384 -0.08638036 0.028443672
-0.24761006 0.080364116 -0.06579862 0.13929883 -0.7095737 0.18353784 0.17247723 0.06333312
-0.051032618 0.06548821 -0.0026538868 0.32279715 0.34927833 -0.16202033 0.017513406 0.26618454
-0.016122805 -0.09095891 -0.10829758 0.34309667 -0.0060818647 0.26726288 0.17130052 -0.29203382
-0.031782754 -0.089844055 0.1965681 -0.4399211 0.054135207 -0.28843936 -0.03388764 -0.39731872
-0.77019817 -0.36115685 0.26005194 -0.051061127 -0.6644986 -0.3324349 0.23279731 -0.014054588
-0.54758143 -0.4837317 0.09397339 -0.03341587 -0.26402873 -0.17849007 0.2849171 0.15743725
-0.08146322 -0.1785134 -0.1461496 0.001824137 -0.15066917 -0.22455035 -0.17024904 -0.0149726495
0.17637818 0.061355613 -0.10088921 -0.2991956 0.13082431 -0.045885473 0.020803029 -0.10327696
-0.3732728 0.05204691 0.5402848 0.21018688 0.0606874 0.16691448 0.052139554 0.08121732
-0.40980715 0.13974582 0.016385049 0.20820978 0.4561024 -0.0039024064 -0.08308026 -0.020357491
-0.29028112 0.3422244 -0.33341482 -0.315216 -0.17092474 0.24445169 -0.14622726 0.079712585
-0.091148525 0.51912457 -0.23094915 -0.16885814 -0.06257995 0.20746577 -0.09147649 0.04412161
0.15707918 -0.08280534 -0.09405941 -0.046505556 0.17956248 -0.76261926 -0.050051164 -0.09850309
-0.34515488 -0.05206849 0.24503951 -0.07425374 0.117511846 -0.012525533 0.13637926 0.080044486

conv2.bias f4 [8]
00000000: 7ef1 6abd 12a1 fe3d 1d2a 4b3c 672f 4dbc
00000010: 0075 4fbd 1c99 03bc c1d8 9cbc b8fa 253e
-0.05735921 0.124330655 0.012400177 -0.012523509 -0.05064869 -0.00803211 -0.019146325 0.16208923

fc1.weight f4 [64, 392]
00000000: 1b04 4d3d e1ca 07bf 2bcf 2ebe 259c 88be
00000010: 3439 cd3d ed77 95be 0ca0 2bbd 6120 bdbc
00000020: 53de 42be fdc5 68bc 1e9b aa3d 6cce 3dbe
00000030: 7ea6 09be 3e70 9ebd fb60 1b3e 3c85 26bc
00000040: b137 163e 61fa 223e 235b 28be a8dd 7f3c
00000050: 889d 95bd d1ba 0f3c 5542 99bd a3ec da3d
00000060: ba3d ddbd 141f 4dbe 81cc d43c b694 43be
00000070: b997 92bd 7d15 edbd 578b adbc f518 b23c
00000080: d038 4ebe f530 91be 0443 edbd d12f c1bc
00000090: c128 893d ef98 0a3d 24cd af3e 5fa8 743e
000000a0: e77c d7be bfab 0fbe 47fc 91be 8aa7 893d
000000b0: deef 173e bd0f ecbd ed27 b93d 26bf 99be
000000c0: a84e 8dbd 9129 ca3d 655e 333e 0d35 423e
000000d0: d8f1 94bd 7f39 c43c 42e6 f33d e33e babc
000000e0: dddc b23c 8320 5ebd 3cc6 1dbc a174 f2bd
000000f0: 4146 863d 2182 a83d 2377 f33c 6a7f a8bd
00000100: ff5b 7abe 2686 833d 211f b3bd 00f3 6dbd
00000110: ec62 f2bd a993 193e 4329 e9bd 8048 f7bd
00000120: 9fee 8a3e aab5 563e ad14 6fbd 6546 acbd
00000130: 94d6 c0bd 6613 103d 43e9 c6bb e5ab 813d
00000140: 417d 8e3e fda9 bf3d 5ab6 523d 2633 fa3c
00000150: 2c8f 4f3e 2b06 8fbc dede 9f3d d246 b4bd
00000160: 4433 12bd fc7e 57bc 2bd6 47be b386 8e3d
00000170: 490a a23e 044c 853e d01c fa3d 457e 113e
00000180: 52ea cb3d 8db2 acbd 4916 a53d f27d 56be
00000190: 5b5d 443e ea4f a6bc de12 2b3d 915a 963d
000001a0: 88c9 023d 18fd 21bd 7195 7c3c a105 873e
000001b0: 6e98 b23e 8532 783c 8af0 33bd dd0f 11bd
000001c0: 753b d3bd 3748 3a3e 4e1d 9d3e 114e 41bd
000001d0: 1bfa be3c be2b d1bd aec1 533d 9b8b 353e
000001e0: 9451 333c bb53 eebe 42da f03c 30a0 49bd
000001f0: da95 b2be 1bd2 7bbd 71f9 7c3d f561 d0bd
00000200: 6181 03be 91ee 0a3e 45e4 183d a914 85be
00000210: 60b1 083e afea bc3e 9da1 32be af6a 5a3e
00000220: 0810 20be 2f03 c73c 6310 643d ec10 cabd
00000230: 167a 903e 1032 ad3d 9f99 3a3c e34e c03d
00000240: f95f f1bd 1f60 b03c dfc9 e03a dfb0 edbe
00000250: 8134 1f3e dd3c 58bb c3d9 02bf ceb9 2f3e
00000260: 3f59 dbbe b072 33be 919c 82be 987c 453d
00000270: 5083 30bd 435a 9cbd e386 093d 93ac f6bd
00000280: dc76 593c b5a6 223e 505f 493e bb1b 69be
00000290: 9e53 0c3e 22ba 5fbe b103 49bc 1483 fc3c
000002a0: 4452 373e 19fa 4e3c fa13 1cbe fa10 e7be
000002b0: fcb2 173e af6e 15bd 0958 51be e41b d2ba
000002c0: 9208 d1bd 5d44 693e 4ac5 fabb 03c7 363e
000002d0: a412 81bd 13e4 373d 8de6 513d edd1 40bd
000002e0: aada 643e 7905 38be 204b 993e 3e2b 70be
000002f0: 9afa 7ebd b037 9dbe b878 e1be b7c4 5d3d
00000300: 1784 98be 7313 6c3e 63ee 2f3e 4c11 b93c
00000310: 6337 ba3c 0a2a 5e3e 0e84 4ebe 81eb 7d3e
00000320: 6358 d23d 623d 58be 0cf7 453e c341 153d
00000330: 14fa 8abd 6301 e43c 7c3c 0cbe 148c a1be
00000340: 7237 a93d eb37 57be 272a 0c3d 05a3 9c3c
00000350: eff2 173d 3cb4 953e 86ec 49be ef00 fcbc
00000360: 3e19 c53d 6880 37be d67c c2bd fbea 513e
00000370: 8513 febe 2d4a 47bd f5d9 c9bd 879c cf3d
00000380: f27c 3dbe c4f2 423d 0cb3 053e 83c7 65bd
00000390: 95a6 d43b d09d 073e df1d a3bd e50b 10be
000003a0: e361 5abe dc87 fcbd 94ab ed3d ba52 fa3c
000003b0: 2dfe 61be 906b fe3d e4bf d9bd 0ac8 90be
000003c0: f104 8dbe c6ae 08be 94b3 793e 29c5 ed3e
000003d0: 166b b93d 0d21 f13d 0c49 01be 75ef 63be
000003e0: 08e7 093e 457d 023d 1620 723c f55a 673e
000003f0: e6cb 06be 1886 f5bb ba8d 413e 8358 3a3e
0.050052743 -0.53043944 -0.17071216 -0.2668163 0.10020676 -0.2919306 -0.04190068 -0.023086729
-0.19030122 -0.01420736 0.083303675 -0.18535775 -0.13442418 -0.07736252 0.15173714 -0.0101636015
0.14669682 0.15915824 -0.16441016 0.015616812 -0.07305437 0.008772568 -0.07483355 0.10689666
-0.10802789 -0.20031387 0.025976421 -0.19099697 -0.07157845 -0.11576364 -0.021184606 0.021740416
-0.2013886 -0.28357664 -0.11585048 -0.023582371 0.06697226 0.033837255 0.34336197 0.23892353
-0.4208748 -0.1403036 -0.28512785 0.06721409 0.14837596 -0.11526439 0.09040818 -0.30028647
-0.06899768 0.098712094 0.17516477 0.1896555 -0.072726905 0.023953198 0.119091526 -0.022735065
0.021833831 -0.054230224 -0.009629782 -0.118386514 0.065563686 0.08227945 0.029719895 -0.08227427
-0.24449156 0.06422071 -0.08746172 -0.05809307 -0.11835274 0.14997734 -0.11384823 -0.12074375
0.27135178 0.20967737 -0.058369327 -0.08411864 -0.094159275 0.03517475 -0.0060702874 0.063316144
0.27829936 0.093585946 0.051443435 0.030541968 0.2026946 -0.017458996 0.078061804 -0.088025704
-0.035693422 -0.013152834 -0.19515292 0.069592856 0.31648472 0.26034558 0.12212527 0.14208324
0.099568024 -0.08432493 0.08060891 -0.20946482 0.19176237 -0.020301778 0.04176604 0.07341493
0.031930476 -0.03954801 0.015416489 0.26371482 0.3488192 0.015148764 -0.043930568 -0.03541552
-0.10314075 0.1819161 0.3068642 -0.04719359 0.023312619 -0.10213421 0.05169838 0.17729037
0.010944743 -0.46548256 0.029400948 -0.049225032 -0.34879953 -0.06147967 0.061761323 -0.10174934
-0.12842323 0.13567568 0.03732707 -0.25992325 0.13348913 0.368978 -0.17444463 0.21329759
-0.15631115 0.02429351 0.05567969 -0.09866509 0.28218144 0.08456814 0.011389165 0.093900464
-0.117858835 0.02153021 0.0017150006 -0.46424004 0.15547372 -0.0032995262 -0.5111353 0.17160723
-0.42841527 -0.17524219 -0.25510076 0.048214525 -0.04309398 -0.076344036 0.033575904 -0.12044635
0.013272967 0.15883906 0.19665265 -0.22764485 0.13703772 -0.21848348 -0.0122689465 0.030824222
0.17902476 0.01263287 -0.15241995 -0.4513014 0.14814371 -0.03648251 -0.20443739 -0.001603004
-0.10206713 0.22779985 -0.007652913 0.17849354 -0.063023835 0.044895243 0.05124526 -0.0470752
0.22349039 -0.17970838 0.29940128 -0.23453996 -0.06225071 -0.3070655 -0.44037414 0.05414268
-0.29788277 0.23054294 0.17180781 0.022591256 0.022731489 0.21695724 -0.20167562 0.24796869
0.10270765 -0.21117166 0.19332522 0.03643967 -0.0678598 0.027832692 -0.13694948 -0.31552184
0.082625285 -0.21017425 0.034219887 0.019120703 0.037096914 0.2923907 -0.19719133 -0.030762164
0.09623955 -0.17920077 -0.09496467 0.20499794 -0.49624267 -0.048654724 -0.09856025 0.10137277
-0.18504694 0.0475948 0.13056582 -0.056098472 0.0064895847 0.13243794 -0.07964682 -0.14067037
-0.21326403 -0.123306006 0.116049916 0.030557025 -0.22069617 0.1242286 -0.10632303 -0.28277618
-0.27542832 -0.13347921 0.2438491 0.46439484 0.09053628 0.11773882 -0.12625521 -0.22259314
0.13467038 0.031857748 0.014778158 0.22593291 -0.13163719 -0.007492792 0.1890172 0.18197827

fc1.bias f4 [64]
00000000: 2711 eb3d bca4 213e 3d45 a6bc 38c8 dc39
00000010: 267b 373e 82e0 763d fb02 f33d 94c1 373e
00000020: 2876 2f3e 09a2 e33d 9183 263e 5658 4c3e
00000030: 41b9 f03d 922c 173e 5009 2d3e ed37 ee3d
00000040: 55de c33d c92e 743e c048 8e3c 941c 733e
00000050: df77 fd3d 4ddb df3d 2cd3 d03d 4df8 0a3e
00000060: b7a5 8fbd 546f b73d 3645 d13d 2908 5fbd
00000070: 5974 7bbd 29c0 073e f6a2 ebbd 58f3 dd3d
00000080: 1e41 853d 20f6 d83d b4a9 85bd 67bb 0a3e
00000090: 8b85 5c3e 3683 e03d 76c4 0d3e 56fe 0e3e
000000a0: 0d57 98bd f347 493e 0307 d13d 0384 603e
000000b0: ae3d f93d f0ac 0a3e 748a 9b3d 6e3c b93d
000000c0: c492 5e3e c7fb d73d ce7a ff3d 93d7 1f3e
000000d0: 8ea8 6c3e 5d41 d43d 6d06 d83d 2fbb 043e
000000e0: fc7b b83c aef8 c0bc ec50 3b3e 0285 b4bd
000000f0: bd9e ea3d fe74 ef3d c0b9 db3d 0f04 543e
0.11477881 0.15785497 -0.020296687 0.00042110845 0.17918071 0.0602727 0.11865803 0.17944938
0.17134917 0.1111489 0.16261126 0.19955572 0.117540844 0.14763096 0.16898084 0.11631761
0.09563891 0.23845972 0.017368674 0.2374137 0.12376379 0.109305 0.10196528 0.13571282
-0.070140295 0.08956781 0.10218279 -0.05445114 -0.061390255 0.13256897 -0.11505692 0.1083743
0.06506561 0.105938196 -0.06526509 0.13548051 0.21535318 0.109625265 0.13844475 0.13964209
-0.074384786 0.19656353 0.102064155 0.21925358 0.121699676 0.13542533 0.07594767 0.09044729
0.21735674 0.105460696 0.12474595 0.15609579 0.23111174 0.103640296 0.105481006 0.1296203
0.022520058 -0.02355608 0.18292588 -0.08814432 0.11456058 0.11692236 0.107287884 0.20704673

fc2.weight f4 [2, 64]
00000000: c7ae 433d 7da1 41be 9eeb 73be 38a3 cebe
00000010: ec0f adbd d6df babe a2c2 653d 727e 04be
00000020: ee64 2ebe e818 643d 5d1d 91be c9ca e6bd
00000030: 3abd 833d ab10 70be 6422 54be b000 c3be
00000040: 99f4 ca3d db49 10be 77d2 31be 1eb1 f3bd
00000050: e254 66be c62d 963d eec9 4d3d d85c c5be
00000060: 9d96 34bd 147f 423d fbb0 853d 12dc bcbd
00000070: 8768 f6bd bef5 813d bb09 833d 9709 783d
00000080: 12a5 473d fb62 473d e13d 75bc 7b41 6ebe
00000090: c9fb 0abe 7a5d 80be 74cf eebd 177f 41be
000000a0: a4db 5b3e 57fa f8bd 124c 5b3d 96b9 f5bd
000000b0: f0b8 9b3d 7946 5fbe 39dd 9c3d df61 263d
000000c0: c945 b5bd 0caa 6c3d c448 8bbe 7fcb 6bbe
000000d0: e528 0abe b536 2d3b 49a2 83be 06e9 643d
000000e0: f809 b03d 1998 223e e3f0 2abe ff61 003d
000000f0: 5e76 843d b237 8b3d e407 393d f040 3fbe
00000100: ca0a a83d e5c7 aebd a018 c2bc 4e4f 8ebe
00000110: 4c7b 82be e029 4f3c 7494 a13d 170e 0ebe
00000120: 0831 22be 4285 b63d 712d 4ebe 42a8 ebbd
00000130: d763 ad3d 8328 13be bb38 07be 6dff 86be
00000140: 6efa bd3d 5000 13be b155 8a3e 540b 06be
00000150: df76 16be f2c0 003e 252a bf3d ef2a 89be
00000160: e469 f73d 6166 b23d 7d87 903d 9584 413e
00000170: 6059 c23d 1864 823d 35d2 9e3e 890c 883d
00000180: 3bd0 063e 721b 993d da63 8fbd 7ca1 8abe
00000190: 5d26 8cbd c49a 62be 5277 7ebe 1f14 82be
000001a0: 0c64 03bd dad1 02be 71bb 8a3d fbb1 f6bd
000001b0: 4f64 8f3d 8288 edbd ba8a e23d f948 db3d
000001c0: 6c39 14be f076 973d 1fbb 82be a44b 56be
000001d0: e37d 19be 19ab 03bf 3f59 d8bd 581d 6c3d
000001e0: f5ee bf3d 6826 06bf d485 04be c292 67be
000001f0: fdf7 8a3d f4a4 b73d 8d9e b33d bc4b 7bbd
0.047774103 -0.18909259 -0.2382035 -0.403589 -0.084503025 -0.36498898 0.05609382 -0.1293886
-0.17030689 0.055687815 -0.28342715 -0.11269147 0.064325765 -0.23443858 -0.20716244 -0.38086462
0.099099346 -0.14090674 -0.17365442 -0.11899017 -0.22493318 0.07332949 0.050241403 -0.38547397
-0.04408895 0.047484472 0.06527897 -0.092216626 -0.12031656 0.063457 0.0639834 0.06055602
0.048741408 0.04867838 -0.014968366 -0.23267166 -0.13572611 -0.25071317 -0.11660662 -0.18896137
0.21470505 -0.121571235 0.053539343 -0.11998288 0.076036334 -0.21804227 0.076593824 0.04062068
-0.08851201 0.057779357 -0.27203953 -0.23026846 -0.13492163 0.0026430313 -0.2570975 0.05588629
0.085956514 0.15878333 -0.16693453 0.031343456 0.06467889 0.067977324 0.04517354 -0.18677115
0.08205183 -0.085342206 -0.023693383 -0.2779488 -0.25484693 0.012644261 0.07889643 -0.13872562
-0.15839016 0.08912136 -0.20134522 -0.11506702 0.084663086 -0.14370923 -0.13205235 -0.2636675
0.09276281 -0.14355588 0.27018502 -0.13090259 -0.14693783 0.12573603 0.0933421 -0.26790568
0.12080744 0.087109335 0.07057092 0.18898232 0.09489703 0.063667476 0.3101975 0.06643016
0.13165371 0.07475938 -0.07001467 -0.27076328 -0.06843255 -0.22129351 -0.24850205 -0.25405976
-0.032077834 -0.12775365 0.06774033 -0.12045666 0.07001554 -0.115983024 0.11061616 0.10707278
-0.1447503 0.073957324 -0.25533387 -0.20927292 -0.14989428 -0.5143295 -0.10563897 0.057645172
0.09371749 -0.52402353 -0.12941676 -0.22614577 0.06785581 0.08967009 0.087704755 -0.061351523

fc2.bias f4 [2]
00000000: 5422 9dbc a585 09bf
-0.019181408 -0.5371955
