assignment-5/models/best_model_45.9.pth (torch, 110560 bytes, 8 tensors)

conv1.weight f4 [4, 4, 8, 8]
-0.31276587 -0.0028679278 -0.0002901846 -0.026305364 -0.21467854 -0.0527609 0.073211245 -0.0077619585
0.0067903404 -0.011934891 0.21975276 0.10061251 -0.21336187 0.3131617 0.22383304 0.08948001
0.06963209 0.25614792 -0.15553336 0.2192051 -0.06917677 0.25762364 0.22938667 0.082405664
0.067526855 -0.047649737 -0.43559146 0.011126244 0.1840495 0.34256712 0.041436087 -0.09442148
-0.33079207 -0.081248164 -0.39195168 0.25238144 0.0699181 0.27740586 0.1290419 -0.10706146
-0.311526 -0.17594403 -0.36089662 0.074788906 -0.068567894 0.20056215 0.10356666 -0.011029649
-0.06646833 -0.07729352 -0.39362323 0.10856874 0.03169521 0.18661325 0.07097145 0.1092631
0.053143773 0.0054376167 -0.071591616 0.19902045 0.3681011 0.29732892 0.24527259 0.20480067
-0.06358635 -0.08047794 0.18055297 -0.10036856 -0.106582046 -0.12400919 -0.012059759 -0.27488142
-0.039054647 0.042874925 -0.17419943 -0.11388117 -0.27476296 -0.14025232 -0.29686493 -0.14528483
0.2199744 0.017272668 -0.24020655 0.2670335 -0.23286957 0.047434013 -0.021124583 -0.19916266
-0.5784326 -0.33461687 0.22432512 0.4070318 -0.025580605 0.1026 0.21853518 -0.11131571
0.111655734 -0.25914383 -0.2222553 -0.028557682 -0.007164683 -0.05935634 -0.19513747 -0.21465066
0.21053824 -0.050732736 -0.22360437 -0.013127909 0.44070843 0.1787987 0.09547576 0.08146551
-0.070623375 0.19493134 -0.068980895 -0.08224688 -0.19427793 0.22552629 0.2802646 -0.02124591
0.03687358 0.14844233 0.07011234 0.08597626 0.06693845 0.3245358 0.40876198 -0.08563943
0.043970205 0.02923079 -0.33067447 -0.10310122 -0.033263303 -0.10628955 -0.06745948 -0.19406635
-0.23195441 -0.11971025 -0.24363777 -0.21336591 -0.27080816 -0.049192972 -0.24780297 -0.19144212
-0.0790881 -0.276803 -1.0047842 -0.2366051 -0.2894101 -0.1611951 0.021359947 0.10670169
0.5505083 0.14341857 -1.2342654 0.028589696 0.2699454 -0.2685468 0.04278385 0.028247954
0.67788786 0.05120542 -0.42289186 -0.045922365 -0.11536369 -0.07628901 -0.06383267 -0.21203698
0.26083705 0.56776166 0.18296283 0.37140006 0.082115114 0.25469497 -0.03576338 -0.4873521
-0.056790378 -0.11447666 -0.015370497 -0.23637313 0.034224633 0.16555403 0.119624645 -0.07563033
0.011827185 -0.03956104 -0.13841382 -0.118387595 0.051048003 0.31059593 -0.0013917439 -0.17857999
0.40548316 0.69835985 0.57679856 0.38359082 0.25714758 0.28030112 0.029966392 0.05724872
-0.5133151 -0.3338457 -0.56019086 -0.012423955 0.24645762 0.3802734 0.0792445 0.047970865
-0.42799306 -0.42326182 -0.026815386 -0.04821703 0.17211561 0.16571128 -0.24039768 0.211879
-0.4964783 -0.2792952 -1.2642914 -0.068743154 0.24689852 -0.020328002 -0.31874752 -0.12990333
0.17831078 -0.067598544 -0.96422416 -0.3771017 0.052180197 -0.1913811 -0.28578147 -0.17553896
0.48895365 0.24442986 -0.15483905 -0.023795972 -0.029959 -0.29079187 0.08343489 -0.73157454
0.13056566 -0.0017859997 -0.101292536 -0.27998698 -0.21279347 -0.14227962 -0.1943858 -0.26138225
0.21406505 0.06266795 -0.045852922 -0.13925542 -0.14479282 0.01918795 0.03353906 0.06179899
00000000: d922 a0be d8f3 3bbb eb23 98b9 597e d7bc
00000010: b1d4 5bbe d01b 58bd c7ef 953d 0758 febb
00000020: 8181 de3b 908a 43bc de06 613e ef0d ce3d
00000030: 897b 5abe bb56 a03e 7d34 653e 4c41 b73d
00000040: 459b 8e3d d225 833e 2344 1fbe 4d77 603e
00000050: 8dac 8dbd 3fe7 833e 57e4 6a3e 4dc4 a83d
00000060: 854b 8a3d 5f2c 43bd d805 dfbe da4a 363c
00000070: 7977 3c3e f564 af3e e3b8 293d 0d60 c1bd
00000080: 945d a9be 7065 a6bd e4ad c8be 2438 813e
00000090: 3931 8f3d 2408 8e3e 8f23 043e 0a43 dbbd
000000a0: 5680 9fbe ac2a 34be 71c7 b8be ed2a 993d
000000b0: 536d 8cbd 2a60 4d3e c21a d43d b3b5 34bc
000000c0: 8c20 88bd 114c 9ebd fc88 c9be 4a59 de3d
000000d0: d6d2 013d 8b17 3f3e 7b59 913d 55c5 df3d
000000e0: 49ad 593d 092e b23b a09e 92bd 04cc 4b3e
000000f0: bf77 bc3e 7f3b 983e bd28 7b3e 44b7 513e
00000100: 8f39 82bd 9ed1 a4bd e1e2 383e 088e cdbd
00000110: b047 dabd 88f8 fdbd 4c96 45bc 42bd 8cbe
00000120: c4f7 1fbd 9e9d 2f3d 5661 32be 883a e9bd
00000130: bbad 8cbe 4e9e 0fbe aefe 97be 8cc5 14be
00000140: f840 613e 697f 8d3c b5f8 75be 9db8 883e
00000150: 5c75 6ebe 2b4a 423d 760d adbc 4cf1 4bbe
00000160: 2914 14bf e752 abbe 7cb5 653e 7966 d03e
00000170: 6b8e d1bc f31f d23d b0c7 5f3e 7ef9 e3bd
00000180: c3ab e43d 80ae 84be e596 63be cdf1 e9bc
00000190: b8c5 eabb a21f 73bd 1ed2 47be 62cd 5bbe
000001a0: 5697 573e 21cd 4fbd 8bf8 64be 7116 57bc
000001b0: 89a4 e13e 0217 373e cc88 c33d 64d7 a63d
000001c0: fda2 90bd 159c 473e db45 8dbd 0d71 a8bd
000001d0: cbf0 46be 5df0 663e d77e 8f3e e70b aebc
000001e0: c008 173d 4401 183e 0f97 8f3d 5214 b03d
000001f0: 0717 893d 8e29 a63e 4049 d13e ba63 afbd
00000200: 1a1a 343d 6975 ef3c 2a4e a9be bc26 d3bd
00000210: 1a3f 08bd 56ae d9bd 3228 8abd 54b9 46be
00000220: 7585 6dbe a62a f5bd 2e7c 79be 987c 5abe
00000230: 5ea7 8abe 927e 49bd 10c0 7dbe 6709 44be
00000240: f1f8 a1bd 1fb9 8dbe c59c 80bf 9b48 72be
00000250: 902d 94be 5410 25be 0efb ae3c 6a86 da3d
00000260: 1dee 0c3f 51dc 123e 69fc 9dbf f034 ea3c
00000270: 4936 8a3e f77e 89be 1e3e 2f3d 4168 e73c
00000280: 0f8a 2d3f c6bc 513d 4885 d8be 1719 3cbd
00000290: cc43 ecbd 6a3d 9cbd b4ba 82bd 3920 59be
000002a0: 6f8c 853e d458 113f 9c5a 3b3e 2628 be3e
000002b0: f82b a83d 6167 823e 9f7c 12bd 3786 f9be
000002c0: 079d 68bd bd72 eabd 89d4 7bbc cc0b 72be
000002d0: 212f 0c3d ff86 293e c4fd f43d 13e4 9abd
000002e0: cfc6 413c c20a 22bd 5abc 0dbe 3275 f2bd
000002f0: b617 513d 6e06 9f3e 2d6b b6ba acdd 36be
00000300: 7d9b cf3e b6c7 323f 12a9 133f 0466 c43e
00000310: d9a8 833e a183 8f3e 147c f53c a27d 6a3d
00000320: 9e68 03bf d3ed aabe ab68 0fbf d88d 4bbc
00000330: 635f 7c3e 32b3 c23e f14a a23d 197d 443d
00000340: e821 dbbe c6b5 d8be f1ab dbbc 387f 45bd
00000350: 133f 303e 38b0 293e cf2a 76be cff6 583e
00000360: 6732 febe c8ff 8ebe 4dd4 a1bf 36c9 8cbd
00000370: f7d2 7c3e e986 a6bc e032 a3be 6105 05be
00000380: 1a97 363e 1b71 8abd 65d7 76bf 7913 c1be
00000390: e7ba 553d 68f9 43be f351 92be 7cc0 33be
000003a0: 2258 fa3e d24b 7a3e 218e 1ebe c5ef c2bc
000003b0: 946c f5bc ace2 94be e9df aa3d 7848 3bbf
000003c0: 01b3 053e 3518 eaba 7672 cfbd 745a 8fbe
000003d0: 88e6 59be c0b1 11be 120d 47be e5d3 85be
000003e0: de33 5b3e 0e58 803d 46d0 3bbd f998 0ebe
000003f0: 9244 14be 0c30 9d3c 4160 093d f020 7d3d

conv1.bias f4 [4]
-0.03553545 0.07181807 -0.14916673 -0.019855192
00000000: 9f8d 11bd 5a15 933d 2abf 18be 5ba7 a2bc

conv2.weight f4 [8, 4, 4, 4]
-0.21551272 0.22747006 -0.038803633 0.08754025 -0.12811613 0.020642804 -0.06372036 0.049315084
-0.13057901 0.19155362 -0.36686552 0.07767241 -0.17065752 0.14058954 -0.25229073 0.023423735
-0.05384563 -0.15555158 0.059747208 -0.58393383 -0.55973065 -0.09128313 -0.20162772 -0.40280494
-0.05087213 0.055137575 -0.19999342 -0.4372213 0.07795678 0.37439272 0.0045240507 -0.62276316
-0.23222163 -0.24080741 0.008887645 0.079904266 -0.40599838 -0.29902023 0.15723035 0.048764504
-0.38431114 0.020350536 -0.2287164 -0.15589479 -0.06119667 0.13340864 -0.16834801 -0.038736794
0.26021463 -0.063151665 -0.19597329 0.54445314 -0.12243411 0.18030576 -0.09932165 0.45799837
0.10337566 -0.44785073 -0.41322687 0.27579346 0.13669026 -0.09803328 -0.27459922 0.07073117
-0.2163718 0.033784956 0.19704069 0.1937002 0.08776929 0.08893196 0.09434518 0.16624977
-1.1133437 -0.07879401 0.08140739 0.17707452 -0.24881801 -0.32053128 0.0038169762 0.06453961
-0.055101547 0.00736448 0.24505882 0.31743994 -0.22789863 -0.22612391 0.25817162 0.11710418
0.2103272 -0.26038775 -0.10644564 0.47990125 0.017464694 -0.2557014 -0.04344621 0.38484123
-0.116247684 0.08461355 -0.06764397 0.1367558 -0.0123189725 -2.2644701e-05 -0.18737812 -0.15095302
0.10245574 -0.41722196 -0.018062232 -0.55557525 -1.0973344 -0.19690536 -0.34997296 -0.2027747
-0.8014956 0.10946916 0.21021383 0.4581678 -0.0157671 0.48263544 0.30882475 0.16734512
-0.039430454 0.0348651 -0.22694165 -0.05602629 -0.117634304 -0.9396969 -0.37628794 -0.213943
-0.06196337 0.13236108 -0.36400852 0.03271693 -0.36870137 0.3038733 0.023657365 -0.16793683
0.050435316 0.07632221 0.15104096 -0.036130138 0.15453921 -0.02269607 0.13666975 -0.1461933
0.02233769 0.01593524 -0.052666817 0.031224418 -0.057515875 -0.15069528 -0.013914294 -0.056433216
0.104729325 0.09835749 0.14777474 -0.12001102 0.09899069 -0.054869354 0.06070879 -0.19577605
-0.027711062 0.03868944 -0.22189344 -0.1879296 -0.3455219 0.09664706 -0.08761095 -0.15646331
-0.047169402 -0.07386381 -0.06926623 -0.42318597 -0.107439786 -0.5167374 -0.14629255 -0.028287293
0.11104193 -0.4469553 -0.2727276 0.04560645 0.13986608 -0.085731305 -0.5935875 -0.5235478
0.06568747 0.6099479 -0.51105136 -0.10211824 -0.22473624 -0.11558701 -0.40136623 -0.14680214
0.009375586 -0.11317514 0.04383906 0.2834176 -0.33630246 0.058276985 -0.25263146 0.36680543
-0.08426147 0.063767344 0.059115868 0.20305048 -0.23674926 0.13144794 0.113794655 0.065538526
-0.0009383047 0.273476 0.083747245 0.2662843 -0.2990507 0.0993287 0.051604178 0.11895626
0.20981781 -0.10767737 -0.0020425695 0.032146517 0.4474824 -0.14345963 0.1605091 0.22513375
0.038885787 -0.13946933 0.047306404 -0.24048549 -0.751823 -0.19312917 0.2803605 0.0074450625
-0.010106725 -0.17880243 0.26881814 0.023867741 -0.24255365 -0.13732971 -0.33028743 -0.033782065
0.042310312 0.6212893 0.18366319 0.14128438 -0.22821522 0.3717346 0.41390714 0.68314344
-0.2548284 0.16136056 0.4728707 0.42306748 -0.22565989 0.005173424 -0.005303609 -0.090718776
00000000: 5eaf 5cbe e9ed 683e 8ff0 1ebd 4d48 b33d
00000010: e030 03be 191b a93c d27f 82bd 9dfe 493d
00000020: 81b6 05be a226 443e ccd5 bbbe b612 9f3d
00000030: d8c0 2ebe b4f6 0f3e 402c 81be 22e3 bf3c
00000040: 3c8d 5cbd ea48 1fbe 7db9 743d b07c 15bf
00000050: 824a 0fbf a6f2 babd 7f77 4ebe 733c cebe
00000060: 4b5f 50bd f0d7 613d 13cb 4cbe 78db dfbe
00000070: cea7 9f3d 67b0 bf3e 7d3e 943b 686d 1fbf
00000080: 82cb 6dbe 3896 76be 7c9d 113c d9a4 a33d
00000090: 05df cfbe 2e19 99be fe00 213e 4abd 473d
000000a0: 6ec4 c4be 2bb6 a63c a234 6abe e2a2 1fbe
000000b0: 5ca9 7abd 469c 083e 6c63 2cbe 79aa 1ebd
000000c0: da3a 853e a955 81bd 39ad 48be 4861 0b3f
000000d0: bcbe fabd 13a2 383e 2669 cbbd c37e ea3e
000000e0: 9eb6 d33d b14c e5be 7992 d3be cd34 8d3e
000000f0: 88f8 0b3e acc5 c8bd 4598 8cbe 81db 903d
00000100: 9290 5dbe 1862 0a3d 09c5 493e 5859 463e
00000110: 63c0 b33d f621 b63d 0c38 c13d 613d 2a3e
00000120: 0c82 8ebf c15e a1bd ebb8 a63d 0653 353e
00000130: 26ca 7ebe ad1c a4be 3c26 7a3b 582d 843d
00000140: 29b2 61bd bc51 f13b b3f0 7a3e 7d87 a23e
00000150: 425e 69be 078d 67be 122f 843e 51d4 ef3d
00000160: 0360 573e 8b51 85be 2c00 dabd 9eb5 f53e
00000170: 1e12 8f3c 4beb 82be a7f4 31bd e909 c53e
00000180: 4413 eebd de49 ad3d ec88 8abd b609 0c3e
00000190: 84d5 49bc 20f5 bdb7 0de0 3fbe 6e93 1abe
000001a0: 51d4 d13d 1e9e d5be 3ff7 93bc 2e3a 0ebf
000001b0: 7475 8cbf 8fa1 49be a82f b3be 2ca4 4fbe
000001c0: d12e 4dbf 5e31 e03d 4b42 573e f894 ea3e
000001d0: 012a 81bc fe1b f73e 471e 9e3e 855c 2b3e
000001e0: d481 21bd b5ce 0e3d 6463 68be d37b 65bd
000001f0: 41ea f0bd fa8f 70bf d0a8 c0be e013 5bbe
00000200: 4dcd 7dbd aa89 073e 535f babe 3002 063d
00000210: 6dc6 bcbe 4895 9b3e 17cd c13c a2f7 2bbe
00000220: 4395 4e3d d24e 9c3d 7baa 1a3e 32fd 13bd
00000230: 873f 1e3e 1ced b9bc 28f3 0b3e b2b3 15be
00000240: 88fd b63c 9f8a 823c 29b9 57bd 5aca ff3c
00000250: c495 6bbd dd4f 1abe c7f8 63bc 8426 67bd
00000260: 547c d63d a76f c93d 4352 173e 56c8 f5bd
00000270: a2bb ca3d b0be 60bd c8a9 783d 8479 48be
00000280: 4f02 e3bc d178 1e3d 0938 63be 9e70 40be
00000290: 3fe8 b0be e5ee c53d 5f6d b3bd eb37 20be
000002a0: b434 41bd e945 97bd 74db 8dbd d5ab d8be
000002b0: 6409 dcbd e748 04bf b7cd 15be c1ba e7bc
000002c0: f469 e33d 53d7 e4be f4a2 8bbe d4cd 3a3d
000002d0: 0e39 0f3e e593 afbd 5af5 17bf 3b07 06bf
000002e0: 2787 863d 8c25 1c3f 43d4 02bf 5e23 d1bd
000002f0: 4221 66be e2b8 ecbd e07f cdbe 4d53 16be
00000300: 0f9c 193c 5ec8 e7bd 9690 333d 1d1c 913e
00000310: d62f acbe d9b3 6e3d e958 81be eccd bb3e
00000320: 4791 acbd 7498 823d 7b23 723d 77ec 4f3e
00000330: 666e 72be 4a9a 063e 2c0d e93d 1039 863d
00000340: 90f8 75ba 0c05 8c3e ad83 ab3d 6a56 883e
00000350: 2c1d 99be d86c cb3d e75e 533d 579f f33d
00000360: 7bda 563e f485 dcbd a1dc 05bb 11ac 033d
00000370: 6a1c e53e 15e7 12be 7f5c 243e 7689 663e
00000380: b446 1f3d 0cd1 0ebe 5cc4 413d d441 76be
00000390: 7977 40bf a7c3 45be 698b 8f3e b6f5 f33b
000003a0: ad96 25bc fc17 37be 88a2 893e 4886 c33c
000003b0: fc5f 78be 29a0 0cbe 6f1b a9be 105f 0abd
000003c0: 944d 2d3d d10c 1f3f 3412 3c3e daac 103e
000003d0: 40b1 69be ff53 be3e a3eb d33e 7de2 2e3f
000003e0: de78 82be b43b 253e 1c1c f23e 4d9c d83e
000003f0: 6313 67be d385 a93b e6c9 adbb c4ca b9bd

conv2.bias f4 [8]
0.06768677 -0.11125518 0.20479703 -0.22938228 -0.02449088 -0.10292335 -0.014869098 0.061751693
00000000: 5c9f 8a3d c1d9 e3bd 50b6 513e 30e3 6abe
00000010: 19a1 c8bc 7ac9 d2bd 849d 73bc 58ef 7c3d

fc1.weight f4 [64, 392]
-0.56164086 -0.62581056 0.09869653 0.120795794 0.07208632 -0.13685925 0.046752516 0.45941952
-0.038025565 -0.18569064 -0.5329686 0.20400229 -0.01382691 -0.043347776 0.059381668 -0.11757706
-0.28592452 -0.20954603 0.04524825 -0.060936462 0.1174158 0.21467873 -0.12360636 0.0746599
-0.39747784 0.44730613 0.013629099 0.116359085 -0.063313715 0.1450246 -0.06334345 -0.09885816
-0.059039973 0.5040983 0.5070132 0.2503422 0.14750342 0.07662314 -0.48786026 0.08851016
0.0007100839 -0.13284299 -0.21286525 0.5091624 -0.42714778 -0.14246501 0.25820383 0.0484556
0.15590645 -0.617305 -0.8210546 0.23967066 -0.23131728 0.120807566 -0.36058304 -0.39106613
0.28760374 -0.0027596278 -0.33922195 -0.7313334 0.14284007 -0.16518295 -0.11144526 -0.117987595
-0.024690375 0.61162597 -0.085790835 -0.12524007 0.19596513 0.115385525 -0.11313038 -0.1461871
0.0720636 -0.25333625 -0.50313383 0.19165276 -0.20142397 -0.11001342 0.1071137 0.03954199
-0.040708393 -0.65189284 -0.14000262 -0.36124524 -0.003821156 -0.09188381 0.1398017 -0.23421608
0.35705778 -0.056085795 -0.18782564 0.02410987 -0.06540592 0.37271732 -0.23030186 0.04995295
0.14772831 -0.21041118 -0.039995864 -0.23053032 -0.088808045 0.16521968 0.27644283 0.04425763
0.019057361 0.03608432 -0.07650081 0.24195932 0.020217441 0.09463267 0.20300178 0.0243384
0.28677306 -0.22224683 0.18131547 -0.15058327 -0.00063909346 0.25410372 0.20730916 0.16900179
0.03974112 0.003082146 0.087082036 0.1688366 -0.00299912 0.01902141 -0.31633174 -0.13701841
-0.09448494 0.27914414 0.23435336 -0.06640966 0.058538456 -0.30199254 -0.44481397 -0.42101324
0.05619286 -0.086428076 0.19152151 -0.1550015 -0.11864678 -0.33042455 -0.057975233 0.17599626
0.110849604 0.06813794 -0.14186633 -0.09405073 -0.7620593 -0.06645763 -0.074344166 -0.52177066
-0.2627663 0.06972899 0.3951594 0.044413224 0.026987037 -0.17389588 -0.27411026 0.024905184
0.04201707 0.63055956 0.11773615 0.08034661 -0.19424325 -0.27157792 0.10562807 -0.27272776
0.33502612 0.101068236 -0.059110448 0.5185467 0.4090044 0.02803319 -0.020499118 0.26707494
0.031505056 -0.2446024 -0.06541471 -1.4637333 -0.02070669 -0.0016870083 0.30945128 -0.26176354
0.144198 -0.49926096 -1.7729931 -0.08473516 -0.12166033 0.31770235 -0.15570965 0.31715742
0.035738196 0.044511545 0.19351095 -0.046677444 -0.73844904 -0.32625017 -0.72838736 0.50973874
0.034377977 -0.1180067 -0.47092453 -0.40140754 -0.065228336 -0.027074479 -0.13802418 0.20236012
-0.42940578 0.071362786 0.10879358 -0.038152285 -0.2689498 -0.44363952 0.22191624 -0.37175778
0.07828619 0.16949795 0.0061826864 -0.34140205 -0.4438135 0.0010509758 0.12681894 0.055686604
-0.2157886 -0.12284597 -0.3973204 0.6418562 -0.60307074 0.18191509 -0.14396052 -0.22616914
0.021130446 -0.30137601 0.048158325 -0.16136666 0.30161047 -0.10513466 -0.16020827 -0.83396447
-0.65593904 0.27535734 0.3387669 -0.2917784 -0.11080857 0.077369906 -0.25041988 -0.7656401
-0.16913068 0.049395714 0.22834158 0.051458787 0.16368684 -0.41503617 -0.14932851 0.32959723
00000000: b2c7 0fbf 1f35 20bf 6821 ca3d c963 f73d
00000010: fea1 933d d524 0cbe 917f 3f3d 0939 eb3e
00000020: b2c0 1bbd b025 3ebe a170 08bf fae5 503e
00000030: 448a 62bc 708d 31bd 313a 733d 3ecc f0bd
00000040: b364 92be 3c93 56be 3b56 393d 8398 79bd
00000050: b277 f03d bed4 5b3e 5525 fdbd 4ae7 983d
00000060: 3782 cbbe 4f05 e53e 964c 5f3c ac4d ee3d
00000070: 9faa 81bd 5481 143e 36ba 81bd 2676 cabd
00000080: e6d3 71bd 960c 013f 9ecb 013f da2c 803e
00000090: 230b 173e 98ec 9c3d d2c8 f9be d144 b53d
000000a0: ed24 3a3a fe07 08be 59f9 59be 7858 023f
000000b0: 1db3 dabe 59e2 11be 4b33 843e 6179 463d
000000c0: f1a5 1f3e b307 1ebf a230 52bf 3a6c 753e
000000d0: 70de 6cbe f569 f73d 579e b8be d239 c8be
000000e0: cc40 933e dfda 34bb 80ae adbe aa38 3bbf
000000f0: ab44 123e b825 29be 6a3d e4bd 7ba3 f1bd
00000100: 7843 cabc 8593 1c3f 1bb3 afbd ef3e 00be
00000110: 15ab 483e 3f4f ec3d e7b0 e7bd 12b2 15be
00000120: 1596 933d 4ab5 81be 61cd 00bf 9f40 443e
00000130: 1642 4ebe b74e e1bd 6d5e db3d c8f6 213d
00000140: d8bd 26bd 73e2 26bf d95c 0fbe 23f5 b8be
00000150: 5c6c 7abb 942d bcbd 2d28 0f3e 57d6 6fbe
00000160: 47d0 b63e 38ba 65bd 5d55 40be 1082 c53c
00000170: 8af3 85bd ced4 be3e 40d4 6bbe 779b 4c3d
00000180: 1746 173e 0776 57be b4d2 23bd 2410 6cbe
00000190: fee0 b5bd 592f 293e ea89 8d3e 7d47 353d
000001a0: 2f1e 9c3c 27cd 133d 75ac 9cbd 2fc4 773e
000001b0: 0c9f a53c c6ce c13d b3df 4f3e 5361 c73c
000001c0: ebd3 923e ac94 63be c3aa 393e 8032 1abe
000001d0: d688 27ba e219 823e da48 543e ce0e 2d3e
000001e0: 96c7 223d d4fd 493b 1158 b23d 80e3 2c3e
000001f0: e28c 44bb cad2 9b3c 3cf6 a1be 8e4e 0cbe
00000200: 5281 c1bd fbeb 8e3e 54fa 6f3e ca01 88bd
00000210: 05c6 6f3d c49e 9abe a8be e3be 0c8f d7be
00000220: 7c2a 663d 3401 b1bd 371e 443e b7b8 1ebe
00000230: 15fd f2bd 682d a9be 7077 6dbd 5d38 343e
00000240: 1e05 e33d e78b 8b3d 6845 11be ab9d c0bd
00000250: 5116 43bf f01a 88bd c141 98bd c392 05bf
00000260: 4e89 86be 13ce 8e3d 5552 ca3e a4ea 353d
00000270: eb13 dd3c c311 32be 2e58 8cbe f505 cc3c
00000280: 171a 2c3d 5a6c 213f a71f f13d c38c a43d
00000290: b4e7 46be 430c 8bbe 8853 d83d f9a2 8bbe
000002a0: 8b88 ab3e ddfc ce3d cc1d 72bd 7abf 043f
000002b0: 0669 d13e dca5 e53c c4ed a7bc 0cbe 883e
000002c0: 720b 013d 0d79 7abe 26f8 85bd 9d5b bbbf
000002d0: 14a1 a9bc 9b1e ddba 6670 9e3e df05 86be
000002e0: a4a8 133e 229f ffbe 70f1 e2bf a189 adbd
000002f0: 0d29 f9bd e2a9 a23e 5a72 1fbe 7562 a23e
00000300: 3762 123d bd51 363d bc27 463e d930 3fbd
00000310: ff0a 3dbf 430a a7be 9877 3abf 3d7e 023f
00000320: eccf 0c3d 7fad f1bd 051d f1be 4a85 cdbe
00000330: 6f96 85bd 4ccb ddbc 3656 0dbe 7e37 4f3e
00000340: 13db dbbe a726 923d 2bcf de3d 9245 1cbd
00000350: cab3 89be b824 e3be 033e 633e 0957 bebe
00000360: 8354 a03d df90 2d3e 2298 ca3b 40cc aebe
00000370: 863b e3be e5c0 893a d3dc 013e a317 643d
00000380: b0f7 5cbe ab96 fbbd 946d cbbe b050 243f
00000390: d862 1abf f347 3a3e 636a 13be e298 67be
000003a0: c219 ad3c f54d 9abe aa41 453d 4d3d 25be
000003b0: b06c 9a3e d750 d7bd a30d 24be b27e 55bf
000003c0: 9feb 27bf a3fb 8c3e db72 ad3e fa63 95be
000003d0: 9bef e2bd 1d74 9e3d 0937 80be fd00 44bf
000003e0: 9830 2dbe 2953 4a3d 60d2 693e 73c6 523d
000003f0: 869d 273e 9f7f d4be 93e9 18be f8c0 a83e

fc1.bias f4 [64]
0.06463354 0.0029445018 0.0418049 0.3780616 0.0021507055 0.0060717994 0.32400537 0.45637336
0.33674496 -0.06151935 0.57443386 0.60886306 0.28814113 0.020074008 0.5391483 0.39717796
0.38455343 0.029130919 0.07163846 -0.10215598 -0.019884331 -0.065140404 0.46431312 0.42276496
-0.019890543 0.055863306 0.021459762 0.6404012 0.030653676 0.29767308 0.05134983 0.40380344
0.31420785 0.30895734 0.054090153 0.20279625 0.03507134 0.66648823 -0.026311109 0.030311238
0.32685274 0.013894459 0.50416225 0.487719 0.43300423 -0.03987198 -0.022692328 0.67794126
0.45006302 -0.04472302 0.076904126 0.46007553 0.30054772 0.012049151 0.20317797 0.37002027
0.34276664 -0.026601473 0.33657062 -0.03594642 0.32294747 0.4749981 -0.065712355 0.23161884
00000000: 975e 843d 8bf8 403b 9d3b 2b3d 4a91 c13e
00000010: daf2 0c3b f2f5 c63b 08e4 a53e c5a9 e93e
00000020: d669 ac3e b7fb 7bbd 190e 133f 73de 1b3f
00000030: 3c87 933e 3f72 a43c 9f05 0a3f e95a cb3e
00000040: 30e4 c43e f7a3 ee3c 2fb7 923d 2837 d1bd
00000050: 77e4 a2bc 5568 85bd 73ba ed3e a674 d83e
00000060: 7ef1 a2bc ecd0 643d 62cc af3c 55f1 233f
00000070: 6b1d fb3c 9b68 983e 3354 523d 53bf ce3e
00000080: dadf a03e a82f 9e3e a38d 5d3d d2a9 4f3e
00000090: f7a6 0f3d f99e 2a3f 658a d7bc 464f f83c
000000a0: 3e59 a73e 96a5 633c c710 013f 4eb6 f93e
000000b0: bbb2 dd3e cd50 23bd 43e5 b9bc 8f8d 2d3f
000000c0: a96e e63e 7c2f 37bd e97f 9d3d 058f eb3e
000000d0: 64e1 993e cd69 453c e30d 503e 4c73 bd3e
000000e0: 1c7f af3e 55eb d9bc fc52 ac3e 8e3c 13bd
000000f0: 5f59 a53e f332 f33e 3394 86bd 7d2d 6d3e

fc2.weight f4 [2, 64]
0.0634096 0.0133805005 0.03868144 -0.06953222 0.1075057 0.0526345 -0.19463767 -0.0756446
-0.16906588 -0.18675852 -0.27430955 -0.21031946 -0.18754007 0.026327612 -0.13167386 -0.182634
-0.097631596 0.014561922 0.06011307 -0.14130352 0.03565378 -0.019834436 -0.12570927 -0.20746082
-0.28732562 0.008159773 0.019516572 -0.1777367 0.04324668 -0.17745306 0.023950217 -0.075440474
-0.12785725 -0.15520456 0.02838054 -0.0015732142 0.005177724 -0.15816708 0.05718194 0.036943283
-0.17099151 0.04431327 -0.21967587 -0.17523143 -0.14431737 0.26155332 0.10254682 -0.14829801
-0.13038121 0.054250974 0.018012999 -0.18980423 -0.19464314 0.015828798 -0.013190998 -0.13884464
-0.1850849 0.10871628 -0.12981051 -0.08035897 -0.16608408 -0.15659137 -0.01334179 -0.46649215
0.036900144 0.043779753 0.10566528 -0.21204117 0.08256702 -0.46685645 -0.23239107 -0.09299353
-0.071719 -0.118981 -0.12980962 -0.1473062 -0.12944278 0.018631712 -0.11447234 -0.10702113
-0.13097863 0.03481265 -0.30511203 0.22086012 0.03174501 0.100961186 -0.14593081 -0.18888998
0.09957086 0.036984075 0.03778696 -0.13154586 0.03132558 -0.11456565 0.045208357 -0.108479716
-0.1493044 -0.13898197 0.051873777 -0.5225082 0.064713605 -0.1622234 -0.0067545143 0.008629809
-0.121427275 0.083311744 -0.17411953 -0.15656818 -0.09841571 0.13322024 0.119458795 -0.14612864
-0.15042062 0.018201897 0.053738393 -0.24984986 -0.14894253 0.03192247 -0.3412681 -0.16374701
-0.13799427 0.15440807 -0.07693367 -0.011539259 -0.07325616 -0.20517841 0.014956199 0.03552561
00000000: e4dc 813d e339 5b3c 6e70 1e3d e966 8ebd
00000010: f32b dc3d 4697 573d 194f 47be 8eeb 9abd
00000020: 9b1f 2dbe a03d 3fbe 4d72 8cbe fc5d 57be
00000030: 810a 40be 01ad d73c 83d5 06be 6804 3bbe
00000040: 13f3 c7bd 2195 6e3c 1f39 763d dfb1 10be
00000050: b309 123d d47b a2bc eeb9 00be 9c70 54be
00000060: 581c 93be 92b0 053c 38e1 9f3c 9c00 36be
00000070: 6e23 313d 41b6 35be 3f33 c43c 8980 9abd
00000080: 03ed 02be f2ed 1ebe 4e7e e83c 4f34 ceba
00000090: e6a9 a93b 8df6 21be 9c37 6a3d d751 173d
000000a0: 6618 2fbe d581 353d b6f2 60be de6f 33be
000000b0: efc7 13be 51ea 853e 1104 d23d 6fdb 17be
000000c0: a782 05be 4536 5e3d ff8f 933c 0a5c 42be
000000d0: 8850 47be 65ab 813c 0e1f 58bc 4a2d 0ebe
000000e0: e586 3dbe a4a6 de3d 0ced 04be 3e93 a4bd
000000f0: f211 2abe 7d59 20be 8697 5abc 0fd8 eebe
00000100: 9b24 173d 6652 333d 0a67 d83d 5221 59be
00000110: e618 a93d cf07 efbe edf7 6dbe 6473 bebd
00000120: 69e1 92bd 4fac f3bd d0ec 04be 70d7 16be
00000130: a68c 04be 88a1 983c 7970 eabd e52d dbbd
00000140: 431f 06be b697 0e3d a537 9cbe 2829 623e
00000150: 0e07 023d bdc4 ce3d e36e 15be 606c 41be
00000160: cfeb cb3d 9d7c 173d 80c6 1a3d f5b3 06be
00000170: 404f 003d 65a1 eabd 662c 393d 9d2a debd
00000180: 41e3 18be 4a51 0ebe 9979 543d 19c3 05bf
00000190: 9188 843d e41d 26be f954 ddbb 0b64 0d3c
000001a0: ddae f8bd 599f aa3d 644c 32be 6953 20be
000001b0: 2d8e c9bd e36a 083e d0a6 f43d bfa2 15be
000001c0: dd07 1abe 251c 953c ca1c 5c3d a4d8 7fbe
000001d0: 6484 18be 23c1 023d b1ba aebe 4cad 27be
000001e0: 5f4e 0dbe 261d 1e3e 668f 9dbd 290f 3dbc
000001f0: 5307 96bd 4a1a 52be d80a 753c 4d83 113d

fc2.bias f4 [2]
1.664144 1.4247789
00000000: ac02 d53f 285f b63f
