assignment-5/models/best_model_40.9.pth (torch, 110560 bytes, 8 tensors)

conv1.weight f4 [4, 4, 8, 8]
00000000: bfc6 73be 1426 053c b761 02bd 546c 9bbc
00000010: 166c 5bbe d0d3 453d 2f33 173d abf9 34bd
00000020: 498c 04bc 9048 2bbd 61a5 373e d2a4 a93d
00000030: 15bd 75be 78cc a33e 4cde 0b3e 5567 163e
00000040: ddf3 343d 2b5e 943e 8243 69bd c868 913e
00000050: 27be e1bd f54e 6e3e d8ef 833e b8bf 1e3d
00000060: 1ec5 463d 8da0 42bd 06f8 ebbe fca1 d4bc
00000070: 2083 2e3e e2c3 843e a43a 523d b83e a2bd
00000080: f041 7cbe e790 15bb aacd a2be 76f5 763e
00000090: 05b3 c63d 29b5 663e d7b2 8a3d 3515 d0bd
000000a0: 023d 84be c346 1abe 6de7 94be 77ec d93c
000000b0: e366 f0bd babe 383e 1757 a93d 34f9 303c
000000c0: 3e8e 95bc f7b5 87bd 30d9 a5be ab92 7b3d
000000d0: f5e4 4cbd 39ce 433e b177 583d d30f df3d
000000e0: 8b75 d53d c7ea af3d 36c3 9bbc 854a 653e
000000f0: 316b cc3e f20c 983e 3619 913e bed6 4c3e
00000100: 0f35 b8bd 0fc4 9ebd c944 063e 1fca cfbd
00000110: 7345 b2bd 6d2f 21be c8e1 72bc f9cc 56be
00000120: 8eda 01bd 7818 533d 5f40 c6bd 9b6d 7dbc
00000130: 2f60 52be 2426 1bbe 8ec3 80be 67a5 a7bd
00000140: df61 3b3e d6da 243a 097d 30be 436d a43e
00000150: bfbe 60be c5ce 4e3d 7fe4 9c3d d29d e6bd
00000160: a163 19bf b109 c6be 483e 2b3e ca34 a93e
00000170: acb8 013c 1da2 103e 9f92 543e 6921 bdbc
00000180: cdcf 953d ad02 65be dd73 4ebe 323f 1abb
00000190: 090a 6bbc 50b2 8fbd eb1e 46be aa82 3abe
000001a0: 4503 833e edd9 0abb e1ae 2dbe 0848 9139
000001b0: 2185 c33e fc7d 223e aeee e33d cc1f 003e
000001c0: d476 7ebd 6b32 4d3e 1a00 4ebd 9a17 2abe
000001d0: 1161 2fbe ef2a 713e 7dea 783e 03a2 e9ba
000001e0: 6c7a 7f3c 9cec 133e 1b4a 2b3d 1794 8e3d
000001f0: 3292 6e3d f213 973e c82e a43e 9e8c e4bd
00000200: 8a5e b43b 4bf1 44bd 873b 8dbe 00ed 3cbd
00000210: 3c2d 4f3b cc26 96bd 76ff 96bc 3ef8 00be
00000220: 4b7f 66be 90ef 71bd bf1e 13be d762 05be
00000230: f181 94be fb77 abbc eb29 4dbe fd78 4abe
00000240: 6f2e 99bd c8f3 8abe dffc 7abf 19b2 43be
00000250: 40cd 94be 5adb dfbd a24b 093d 90e7 ca3d
00000260: 9e0e da3e 692e d4bc f796 80bf f13d ab3d
00000270: 24dc 613e 16c4 57be a3f5 fb3d 064a 203d
00000280: bce5 183f 769f f83c 45e3 cabe ea52 adbd
00000290: 2caa ebbd 466a 84bd 4cca 17bc e139 39be
000002a0: 269f 713e 9c8f 023f 5646 273e 6501 dc3e
000002b0: cc1e 1e3e ea31 8b3e e610 16bc 2da2 d7be
000002c0: ea1b b1bc f8d2 25be 8450 11bd eb82 4dbe
000002d0: 95d7 3b3d 54e5 1e3e 51d3 163e 9e81 4cbd
000002e0: 7a48 b83d e669 38bd 7a33 c0bd fcf8 0abe
000002f0: 616f be3d 98f9 a03e 320d 2c3d 2006 acbd
00000300: d473 a23e 4b45 273f a106 163f c0dd 853e
00000310: 49b5 663e 35a8 7c3e 36ac 9c3c 0cfa 823d
00000320: 52c3 06bf 2425 b4be 25e8 02bf 3820 5dbe
00000330: 933b 503e b26c a13e 5fd6 883d 9a39 7a3d
00000340: bcc6 babe f838 00bf e0ac dcbd e66e 93bd
00000350: 743e 2e3e 1c9a 1f3e f7f4 6ebe 6db6 383e
00000360: 2d48 0abf e15e 72be 9254 afbf 223e 14be
00000370: 5b5d 863e b414 c1bc cce9 b6be 8483 ffbd
00000380: abc0 db3d 3773 a6bd 73c6 6ebf 2237 b1be
00000390: fb25 983d 2a22 31be d792 a6be 4613 33be
000003a0: 56ea e23e 7b49 323e fe34 29be 0b40 3fbd
000003b0: 1f31 623c 24db 8ebe eb34 b93d 9c3c 2ebf
000003c0: 8b9d f43d 8e24 ddbb 1208 02be ebe7 8abe
000003d0: cfcd 3abe c5d7 0abe 2ce3 7ebe 836f 4fbe
000003e0: 9a85 523e af0c 483d 15bd 5abd 94c7 34be
000003f0: 73bf 18be b3c4 403d 08fd 913d 1d26 1a3d
-0.23806284 0.008126754 -0.03183147 -0.018972553 -0.2142795 0.048297703 0.036914047 -0.044183414
-0.008090087 -0.041817248 0.17934181 0.0828339 -0.2399791 0.31991935 0.13659018 0.14687856
0.04417788 0.28978094 -0.056949146 0.28400254 -0.11022597 0.23272307 0.25768924 0.038757056
0.04852783 -0.047516394 -0.46087664 -0.025956146 0.17042208 0.25930697 0.051325455 -0.07922119
-0.24634528 -0.0022821964 -0.31797534 0.24117073 0.09702114 0.22530045 0.06772392 -0.10160295
-0.25827795 -0.15066056 -0.29082814 0.026602013 -0.11738374 0.18041506 0.08268564 0.010801602
-0.018256303 -0.06626504 -0.32392263 0.06141917 -0.050023038 0.19121636 0.05284852 0.1089169
0.1042281 0.08589702 -0.019013982 0.22391708 0.3992553 0.29697376 0.28339547 0.20003793
-0.08994495 -0.07752239 0.13112177 -0.101459734 -0.08704653 -0.15740748 -0.014824338 -0.20976628
-0.03170257 0.051537007 -0.096802466 -0.0154680265 -0.20544504 -0.15151268 -0.25149196 -0.08185845
0.18299054 0.00062887126 -0.17235197 0.3211461 -0.21947764 0.05049016 0.0766077 -0.112605706
-0.59917647 -0.3867927 0.16722977 0.33048087 0.007917564 0.14124341 0.20759057 -0.02308722
0.073150255 -0.22364302 -0.20161386 -0.0023536202 -0.014345654 -0.07016432 -0.19347732 -0.18213907
0.25588432 -0.0021187023 -0.16961242 0.00027710223 0.38187507 0.15868372 0.11129509 0.1251213
-0.062125042 0.20038764 -0.050293066 -0.16610566 -0.17126872 0.23551534 0.243082 -0.0017824773
0.0155931525 0.14445728 0.04181872 0.0696184 0.05824489 0.29507405 0.3206694 -0.11159633
0.005504434 -0.048081677 -0.27584478 -0.04612446 0.0031612655 -0.07331619 -0.01843236 -0.12594697
-0.22509496 -0.059066355 -0.14367197 -0.13025986 -0.29005387 -0.020931235 -0.20035522 -0.19772716
-0.0747956 -0.27139115 -0.980421 -0.19110908 -0.29062843 -0.1093051 0.033519395 0.09907448
0.42589277 -0.025901036 -1.0046071 0.08361424 0.22056633 -0.21070895 0.12302711 0.039133094
0.59725547 0.030349474 -0.39626518 -0.0846308 -0.11507067 -0.064655825 -0.00926454 -0.18088485
0.23595867 0.5100038 0.16335425 0.42969814 0.15441436 0.2718652 -0.009159302 -0.42115918
-0.021619756 -0.1619376 -0.035477176 -0.20069472 0.045859892 0.15517169 0.14729048 -0.0499283
0.08998199 -0.045022868 -0.093848184 -0.13571543 0.092985876 0.31440425 0.04200477 -0.08399606
0.31728995 0.6534011 0.58603865 0.26145744 0.22530092 0.24673541 0.019125085 0.06395349
-0.52641785 -0.35184586 -0.51135474 -0.21594322 0.20335226 0.3152824 0.06681513 0.06109009
-0.36479747 -0.5008693 -0.10775161 -0.071988866 0.17016011 0.15586132 -0.23335634 0.1803834
-0.5401638 -0.23669006 -1.3697684 -0.14476827 0.262431 -0.023569442 -0.35725248 -0.124762565
0.10730108 -0.08127444 -0.9327156 -0.34612375 0.07429119 -0.17298189 -0.32533905 -0.17487821
0.4431941 0.17410843 -0.16524121 -0.046691936 0.013805657 -0.27901566 0.090432964 -0.6806123
0.119441114 -0.0067487424 -0.12698391 -0.27130064 -0.18242572 -0.13558872 -0.24891347 -0.20257382
0.20558777 0.04884022 -0.05340298 -0.17654258 -0.14916782 0.047062587 0.0712834 0.037634004

conv1.bias f4 [4]
00000000: ead1 5bbb 020d 713d 7156 1cbe 2411 30bc
-0.0033541867 0.058850296 -0.1526735 -0.010746274

conv2.weight f4 [8, 4, 4, 4]
00000000: 20f8 11be bd97 413e 7abb af3b 50a9 7e3d
00000010: 4cb2 5fbe db4c 913d 1aca 263e a58a 4d3d
00000020: d596 6cbe 68cf 4f3e 7c88 8fbe eee9 e73c
00000030: 29d5 4abe f021 f73d 284d 85be 18f1 a2bd
00000040: 8ddd 663d 7f8e b6bd aa40 4d3e fe5f 9cbe
00000050: 7ea8 a5be 4b02 22be 5c8e 0cbe b724 edbe
00000060: 298f f3bc b69c 0e3d 4e90 19be 4dc7 cdbe
00000070: bc4d 713d 6dcb ba3e 0783 5ebd bfda 30bf
00000080: cdfa 83be 6703 a9bd c31a ef3c 33d0 d03d
00000090: a65c 91be 445b b0be 3d9f e43d 2d1f be3d
000000a0: 6cdf 99be 964c 3a3c 3d86 8fbe a31e 12be
000000b0: bcfe 0dbd 2a34 273e 3c7b 4cbe ab8d 9fbc
000000c0: b59a 473e 9880 a4bd 35f4 80be dfd0 fc3e
000000d0: 867b 2fbe 4f60 2c3e b93a aabd 2ae1 de3e
000000e0: 885f 7d3d 7766 f1be c005 c9be 1b15 863e
000000f0: 615b b53d 4adc 61be 9f20 85be ce58 9b3d
00000100: f64d 29be 1835 8a3d 7562 793d 6ef8 473e
00000110: 697a c33d 1e63 7b3c 0aef 523e 51cb 943d
00000120: d49f 7abf 6248 8fbd ef6a 643d 07b8 4a3e
00000130: c83e b0be 82fe b6be a196 d33d 06f2 783d
00000140: 634f 5bbd 1b65 e6bd fa50 303e b25b a13e
00000150: adaf 2bbe 8c7f 47be d87d 143e c7bb 2fbd
00000160: d5f7 5b3d 53d8 83be 1df9 cdbd 4938 043f
00000170: 14ac a93c 244f b6be b7df 0ebe 5f38 bc3e
00000180: f4f2 44be 1724 303d f597 673c ea0e c63d
00000190: f52a 77bd 68e7 88bc 5a6a 1bbd ef01 14be
000001a0: 0cdc af3c 2bf8 ebbe a5a0 3fbd f782 cebe
000001b0: b5cf 77bf d4e9 4fbe 25db b8be 9b0d 5cbe
000001c0: 4b36 62bf 18fb 133e 2496 973e 2f96 093f
000001d0: cc90 003d f6b9 023f b132 a43e d4cc 893e
000001e0: d5a0 8ebd 311a b63b 843e 83be 7ab7 06be
000001f0: 3dbf 8bbd 1442 44bf 0dcd 0dbf 1829 76bd
00000200: 934f 303c f5e0 f03d bb86 6cbe c9c0 84bc
00000210: 4380 cebe 33eb f63d 4205 c93d b3fe 89bd
00000220: 9ebc 9e3c c243 9c3d 9764 db3d 74ad ebbd
00000230: fd3e c93d ee96 cabd f64c 2e3e d5e2 81be
00000240: 3bbe f73c 7899 8b3c e3f2 88bc c6eb 2f3d
00000250: a91f 503c 1eaa 0abe 1e87 153c 1976 c4bc
00000260: 1eef fa3c 968e 293d dd1b bb3d bdca 06be
00000270: 9477 f13c e27e 95bd 14dd 8b3d 3e4f 33be
00000280: 80b5 c1bc f8c7 14bb 8452 45be 2840 11be
00000290: 8a16 8dbe 8a13 0bba 5c16 8bbd cc6c 63be
000002a0: 248e 26bd 7b1b a6bd 282f f1bd 14d4 bdbe
000002b0: 3933 23be 868d 0fbf 4425 a6be f26d 1dbd
000002c0: f67e af3d 32b4 b5be 50a4 80be 630f 21bd
000002d0: c08b 763e 8568 bbbd dad8 efbe be67 e0be
000002e0: 6dfa 573c c299 103f b455 c6be 231e 83bc
000002f0: 2651 0fbe dac7 44be b1a2 e7be d96b 0ebe
00000300: da55 203d 078d 9ebd 848e 283d 506c 863e
00000310: cce5 c5be 211d 463d 221f 45be 02fd d03e
00000320: d7f9 67be 2142 6d3d 1f0a b43c 6fdb 513e
00000330: 1fc9 62be 0cdd 2b3e 6029 053e d481 3a3d
00000340: dc1c 12bc 786b 763e e4be a83d 1e85 9f3e
00000350: faf9 64be d357 873d 1963 25bd 6ecf 4f3d
00000360: caec 8e3e fcd8 24be 8813 433d e7cd 953d
00000370: 23af 973e 4eaa e3bd 44d2 263e f785 543e
00000380: 9ffc c43c b5c0 e6bd b3a7 0e3d afd2 9bbe
00000390: 4844 33bf b2a0 13be cacb 853e af7d 03bd
000003a0: c207 dbbd 21f5 0bbe 24ae 7a3e 9b37 193c
000003b0: eacf 58be b9cf c5bd ac3c b0be 5c85 ebb9
000003c0: 3bca 203c a5aa 1b3f a33b 3f3e 260e ec3d
000003d0: eaaf 4abe 85ae 9b3e ec68 dd3e e8e5 1b3f
000003e0: ebfd 47be c50a da3d d9c6 da3e 13da e33e
000003f0: 11ac afbe 5dd2 84bd dc1c 8ebd 0c91 3ebe
-0.14254808 0.1890554 0.005362925 0.062173188 -0.21845359 0.07094737 0.16288033 0.05018105
-0.23104413 0.20293963 -0.28033817 0.028309789 -0.19807877 0.1206702 -0.26035428 -0.07956141
0.05636363 -0.08913898 0.20044199 -0.30541986 -0.32355112 -0.15821187 -0.13726181 -0.46317074
-0.02973135 0.03481742 -0.14996454 -0.40191117 0.058912024 0.36483327 -0.054324176 -0.6908378
-0.25777283 -0.08252602 0.029187566 0.10195961 -0.28390998 -0.3444463 0.11163185 0.0928329
-0.3005327 0.011370799 -0.28032103 -0.142695 -0.03466676 0.16328493 -0.19968885 -0.019476732
0.1949261 -0.0803234 -0.25186315 0.49378106 -0.17136964 0.16833614 -0.08311982 0.43531162
0.061858684 -0.47148487 -0.392622 0.26187977 0.0885532 -0.2205669 -0.2600145 0.075852975
-0.16533646 0.06748408 0.06088491 0.19528362 0.09544832 0.015343456 0.20598999 0.07265342
-0.9790013 -0.06996228 0.055766042 0.19796763 -0.34422898 -0.3574105 0.103314646 0.060777687
-0.053542506 -0.11249753 0.1721839 0.3151527 -0.16766234 -0.19482249 0.1450113 -0.042903688
0.053703148 -0.2575098 -0.1005728 0.51648384 0.020711936 -0.35607255 -0.13952528 0.36761758
-0.19233304 0.043003168 0.0141353505 0.096708134 -0.0603437 -0.016711906 -0.03794322 -0.14453863
0.021467231 -0.46087775 -0.046784062 -0.40334293 -0.9680131 -0.20304042 -0.36104694 -0.21489565
-0.88364094 0.14451253 0.29606736 0.53744787 0.03138809 0.51065004 0.32069924 0.26914084
-0.0696427 0.0055573215 -0.25633633 -0.13155928 -0.06823585 -0.7666333 -0.5539101 -0.060097784
0.0107611595 0.11761657 -0.2309827 -0.016205208 -0.4033223 0.120565794 0.09815456 -0.06738033
0.019377049 0.07630111 0.10712545 -0.11507693 0.09826467 -0.09892069 0.17021546 -0.25368372
0.030242076 0.017040953 -0.01671738 0.04294946 0.012702861 -0.13541457 0.009126453 -0.023982095
0.030631598 0.041395746 0.09136174 -0.13163276 0.029475965 -0.072995916 0.06829277 -0.17510697
-0.023646116 -0.0022702198 -0.19269758 -0.1418463 -0.27556258 -0.0005305341 -0.06791374 -0.22209471
-0.0406629 -0.0811071 -0.117765725 -0.37075865 -0.15937509 -0.5607532 -0.32450306 -0.03843493
0.08569138 -0.3548904 -0.2512536 -0.039321315 0.24076748 -0.09150795 -0.46845132 -0.4382915
0.013182265 0.56484616 -0.3873726 -0.016005581 -0.139958 -0.19216862 -0.4524131 -0.13908328
0.039144374 -0.077417426 0.04115154 0.2625451 -0.38651884 0.048367623 -0.19250157 0.4081803
-0.226539 0.057924394 0.021977482 0.20493864 -0.22147034 0.16783541 0.13004065 0.04553397
-0.008918013 0.24064434 0.082395345 0.31156248 -0.22360983 0.06608548 -0.04037771 0.05073493
0.2791503 -0.16098398 0.04762605 0.073146634 0.29625806 -0.111164674 0.16291147 0.20754229
0.02404624 -0.11267225 0.0348279 -0.30434176 -0.70026064 -0.14416769 0.2613204 -0.032102283
-0.10694839 -0.13667728 0.24480492 0.009351636 -0.21173063 -0.096587606 -0.3442129 -0.00044922053
0.0098138405 0.6080726 0.18675093 0.11526136 -0.19793668 0.30406585 0.43244112 0.60897684
-0.19530456 0.106465854 0.42729834 0.44502315 -0.34310964 -0.06485436 -0.06939098 -0.18610018

conv2.bias f4 [8]
00000000: 40a1 543d 6673 4fbd 6d97 553e ddb8 29be
00000010: 5a9a 0e3c ab8d 65bd ea8c debc 11f7 533c
0.051911592 -0.050647162 0.20858546 -0.16574426 0.0087037925 -0.05604331 -0.027166802 0.012937323

fc1.weight f4 [64, 392]
00000000: 9269 19bf b43b 19bf 11a9 c53d 5452 d53d
00000010: bc01 093d ec5d 4ebe 251c 2a3e af99 e73e
00000020: 501b 14be 241f 27bd 3b1b ebbe e4da 043e
00000030: 1960 2b3b ded0 eabd 5ccd a23d 61c1 19be
00000040: b42d 3e3b 8947 c8bd 7055 c0bd f17b 76bd
00000050: 05f7 7b3e 3696 e13d 413d d5bd 1a86 9a3d
00000060: 4238 08be 6275 bc3e 1314 0b3e c628 093e
00000070: ddc5 5bbd 387f b83c 97de c5bd 4178 81bd
00000080: 3a0e dfbd 6216 e33e e432 b63e bb4b 213e
00000090: 967c 82bd c0f3 5c3e b419 a8be 8605 3d3e
000000a0: 9e89 c2bc aa37 393b 6dcb 89be b6d4 943e
000000b0: 4865 14be c35a 59be d71c 6d3e 7904 4abd
000000c0: 1765 4a3e 0540 0ebf 62aa 47bf 5041 4b3e
000000d0: ccdc 00bf 8027 293d d550 94be bb8f 85be
000000e0: edaf 9f3e 0be5 f3bc b8fb aebe 9fbb 6abf
000000f0: 73e5 92bd b247 3b3d 57c2 45be d262 a3be
00000100: 6c8a 7dbd 1936 e13e bed9 b5bd 4743 99be
00000110: 2bd0 113e d7f0 083e f024 aebd 8ecf 22be
00000120: 66f6 dd3d 41e5 d1be 1e2b 18bf a349 713e
00000130: f783 10be 6e00 00bd 94df fe3d 2aba e8bd
00000140: 744a a8bd def4 ebbe 342a cf3c e6cf cdbe
00000150: fbc0 5fbd 6239 8c3c 2968 f03d 976b a8be
00000160: dd65 823e e5eb 163d 8a6a f1bd 259b a8bd
00000170: b4b5 30be 06aa 233f b383 68be ade4 9abd
00000180: eb76 453e 8803 ecbd 0082 f7b6 cb0b 64bd
00000190: 6266 343b 7ea0 8a3e af5c 953e f0af 9f3d
000001a0: a77c ff3c 01c7 a33d 08ca 85bb 1c19 873e
000001b0: 8ef1 ec3d bf7e 2e3e 0b70 713e 6111 353d
000001c0: 2eca 153e 6d9f d1bd 096a 693e e90c bbbc
000001d0: c034 6c3d 6b9c 653e fa8a 0f3d 46aa ec3d
000001e0: 22e1 993d 0dbf 0dbd 324c 2e3e 0e9c 523e
000001f0: a8c8 de3c d221 5a3d ec8c 77be f5d0 4dbd
00000200: b9bb 0bbd 38a9 943e aee7 7d3e 4384 963c
00000210: 7dfe 903e 0ab4 27be ae74 acbe 69eb 6dbe
00000220: 7173 c03d c785 f23c 253d 753e 41c8 4cbd
00000230: 5773 96bd 791a e2bd 4fbf 0b3d 0df2 843e
00000240: 97f2 f83d c887 bc3d 1bb4 99bd ede2 9dbe
00000250: 53ca 6abf affc 0bbe d449 9dbd 6965 34be
00000260: ac4d d6bd a381 063d 9304 a23e 8c5d 913d
00000270: 462e 9ebd bb0c 06be 3beb 4fbe 74ef 7b3e
00000280: 546f 58bd 27d6 0d3f 73fd 133e 961a b5ba
00000290: 431c f3bd 5a75 0fbe b90a e63d 0d70 5dbe
000002a0: 11c4 653e 1131 343d 7113 c53c 3855 d13e
000002b0: f989 993e 807d 8cbe f43c e13d 6a48 613e
000002c0: e87b 2c3d 8335 20be 2ef6 14be 1017 8fbf
000002d0: 6a28 063d b650 9cbd 09a1 6a3e d732 6abe
000002e0: 62c0 7f3d 5375 0bbf 7a9a b3bf c9ae efbd
000002f0: 936f 3fbe ef1b 1b3e 2b90 5cbe f2d2 be3e
00000300: e035 f43d 6492 12be 70c1 a33e c698 b9bd
00000310: e3a2 3cbf ee80 b9be 0ca6 49bf f7d7 ef3e
00000320: 0056 1a3b bf36 28be 62be 5bbe e60e b3be
00000330: f1c2 3bbd 6232 203c b06d 37bc cbc2 423e
00000340: 0632 5fbe 79a8 123e 15d1 203d a2da 95bd
00000350: 9964 91be 32dc a7be aecd 8f3e b3be 0fbe
00000360: 572a c73d a390 043e 5047 d53c b6eb dcbe
00000370: 8f86 1bbf 5a58 8cbd 65e1 6a3d c72f 0f3e
00000380: 7340 89be 8532 03be 4147 89be f666 c83e
00000390: 3b22 48bf 47e9 de3d f99e 2dbc 713c 3bbe
000003a0: 839f 13bc 8e7a e3be 18d6 913c 4d4d 44be
000003b0: e6a5 173e 9544 43bd b0f4 abbe f32d 6ebf
000003c0: 9536 13bf 58e2 983e 3695 663e aa98 3abe
000003d0: 22fb de3d d27b 5a3e 1a83 67be 35f7 6abf
000003e0: 3831 153d 113e ba3d 9c77 a63d 8e69 933d
000003f0: c433 063e abd1 aabe 0c07 a8ba 953e cf3e
-0.5992671 -0.59856725 0.096513875 0.104160935 0.03344892 -0.20153016 0.16612299 0.4523444
-0.14463544 -0.040801182 -0.45919213 0.12974125 0.0026149808 -0.114656195 0.079493254 -0.15015174
0.002901894 -0.09779269 -0.09391296 -0.060176793 0.24605949 0.110149786 -0.10412074 0.07545109
-0.1330271 0.36808306 0.13581876 0.1339446 -0.053655494 0.0225216 -0.09661596 -0.06321765
-0.108913854 0.44353014 0.355857 0.15751545 -0.06371419 0.21577358 -0.3283211 0.18459138
-0.023747262 0.0028261938 -0.26913014 0.29068536 -0.1449176 -0.21226029 0.23155533 -0.04932067
0.19765125 -0.55566436 -0.7799436 0.19849133 -0.5033691 0.041297436 -0.2896792 -0.2608622
0.31188908 -0.029772302 -0.3417642 -0.9169254 -0.0717267 0.04572267 -0.19312416 -0.3191133
-0.061899588 0.43986586 -0.08879422 -0.2993414 0.14239566 0.13373123 -0.08503139 -0.15899488
0.108380124 -0.4099522 -0.5944079 0.23563246 -0.1411284 -0.03125041 0.12444988 -0.11363633
-0.08217326 -0.46085256 0.025288679 -0.40197676 -0.0546274 0.017117206 0.11738617 -0.32894585
0.2546834 0.03684606 -0.11787899 -0.082327165 -0.17256814 0.6393131 -0.2270649 -0.07563148
0.19283645 -0.11524111 -7.3763076e-06 -0.05567531 0.0027526845 0.2707557 0.29172274 0.07797229
0.031187369 0.07996941 -0.004082922 0.26386344 0.115695104 0.17040537 0.23577897 0.044206027
0.14627907 -0.10235486 0.22794355 -0.022833304 0.057667494 0.2242295 0.035044648 0.115559146
0.07513644 -0.03460603 0.17021254 0.20567343 0.02719529 0.05325491 -0.24174851 -0.050248105
-0.034114573 0.29035354 0.2479541 0.018373614 0.2831916 -0.16377273 -0.3368277 -0.23234333
0.09397019 0.029604806 0.23949106 -0.049995665 -0.07346218 -0.110402055 0.034117993 0.2596592
0.12155645 0.09205586 -0.075050555 -0.30837193 -0.9171497 -0.1367061 -0.07680097 -0.1761681
-0.104640335 0.032838475 0.31644115 0.07097921 -0.0772367 -0.13090794 -0.20304577 0.24603063
-0.052840546 0.55404896 0.14452152 -0.0013817127 -0.11870625 -0.1400961 0.11232514 -0.21624775
0.22438075 0.043992106 0.024057122 0.4088533 0.29988077 -0.274395 0.10997954 0.2200028
0.042110354 -0.15645413 -0.14547035 -1.1178913 0.032753386 -0.07632582 0.22912993 -0.22870956
0.06243933 -0.544759 -1.4031518 -0.117032595 -0.18694906 0.15147375 -0.2153937 0.37270314
0.11924338 -0.14313656 0.3198352 -0.09062342 -0.73686045 -0.36231178 -0.7876899 0.46844456
0.0023549795 -0.16427134 -0.21459344 -0.34972304 -0.045840207 0.009777637 -0.011195585 0.1901962
-0.21796426 0.1432208 0.039261896 -0.073170915 -0.28397062 -0.32785183 0.2808661 -0.1403759
0.097248726 0.129458 0.026034981 -0.43148583 -0.60752195 -0.06852789 0.05734386 0.1398307
-0.26806983 -0.1281224 -0.26812175 0.39141053 -0.7817723 0.10884338 -0.010596984 -0.18284775
-0.0090101985 -0.4442944 0.017802283 -0.19170113 0.14809379 -0.047672827 -0.3358512 -0.9303886
-0.5750516 0.29860187 0.22517857 -0.18222299 0.108877435 0.21336296 -0.22608605 -0.9178346
0.03642389 0.090938695 0.081282824 0.07197867 0.13105685 -0.3336309 -0.0012819483 0.40477434

fc1.bias f4 [64]
00000000: 559d a33d 5134 c0bb 9beb 4a3d 721c af3e
00000010: 338c 963d 3d81 0a3c 3d23 a03e 66b1 d43e
00000020: b0a0 c13e b7fb 7bbd 29a3 023f 1cd1 063f
00000030: d26d 9c3e 3912 0d3d c3cd ec3e 22f0 cd3e
00000040: 1f9c c03e de63 e63c 4396 0c3d 2837 d1bd
00000050: fc9e 5f3c 5568 85bd e87b d93e d01a d13e
00000060: 283a 0e3a 3b10 e63b a023 bb3b 3277 113f
00000070: f1c5 1f3d b2aa b03e aab5 323d c591 c23e
00000080: 7943 bc3e ffda aa3e 05e5 343d e9c6 153e
00000090: aa23 3e3c 4768 153f 94a9 a13c 5477 cf3c
000000a0: 67ce ad3e e918 933c bf06 df3e 5011 da3e
000000b0: f78a bc3e cd50 23bd 43e5 b9bc 5130 183f
000000c0: fb9e b33e df76 603c 18fd 223d c355 b73e
000000d0: ef04 b23e 43ee ccbb 4c72 6f3e 40ee af3e
000000e0: 2841 a93e d846 63bd 8ef2 c73e 8e3c 13bd
000000f0: 225f a83e d057 d23e 3394 86bd 76b6 6a3e
0.07988993 -0.0058656116 0.049541097 0.3420139 0.0735096 0.008453664 0.31276885 0.41541594
0.37817907 -0.06151935 0.5103021 0.52662826 0.30552536 0.034441207 0.46250734 0.4022227
0.3761911 0.028123792 0.03432299 -0.10215598 0.013648745 -0.065140404 0.42477345 0.4084077
0.0005425536 0.007020978 0.005711034 0.568225 0.03900713 0.3450523 0.04363028 0.38001838
0.36770228 0.33370206 0.044163723 0.1462666 0.011605183 0.5836224 0.019734181 0.025325455
0.33946535 0.017956214 0.43559834 0.42591333 0.36824772 -0.03987198 -0.022692328 0.59448725
0.3508223 0.013700216 0.03979215 0.35807618 0.3476939 -0.006253989 0.23383445 0.34361458
0.33057523 -0.055487484 0.39052242 -0.03594642 0.3288508 0.4108262 -0.065712355 0.22921166

fc2.weight f4 [2, 64]
00000000: a7a1 8f3d d1d8 d03c cc85 5e3d 9cf0 18be
00000010: ecbc d83d 3f5c 893d 490a 59be b4c4 07be
00000020: 9d8a 09be a03d 3fbe 9449 94be ffe7 5fbe
00000030: 9b46 58be dcf9 f93c ef0f 11be 02bf 13be
00000040: 36bf dbbd df87 1b3d 4904 d43d dfb1 10be
00000050: 6a92 503d d47b a2bc 7f65 f4bd 8910 5fbe
00000060: 7292 2abe fea4 993c 1728 dd3c 5b31 2fbe
00000070: 6ee3 4d3d fe7f 45be 5050 d23c 2cce aabd
00000080: 9348 3dbe 9a6d 35be ebc7 313d c93b 583d
00000090: 06f3 543c da70 27be f57b 453d 4d6c 543d
000000a0: 88cb 1abe 908e 243d 8a78 85be 1b1a 20be
000000b0: 5148 11be 51ea 853e 1104 d23d 960f 1abe
000000c0: 7456 0abe f08d 7a3d 01a9 be3c 27b4 2bbe
000000d0: 2bad 35be b454 bf3c f755 99ba 35b4 30be
000000e0: bcc2 1dbe 51d7 91bd 8472 0ebe 3e93 a4bd
000000f0: 77f5 27be 5f68 21be 8697 5abc 3b02 02bf
00000100: f0f7 173d 4809 973d 3f63 fb3d 30f1 13be
00000110: 0939 063e e954 e5be 5464 33be 9bab 2abe
00000120: 0186 0dbe 4fac f3bd 9280 54be 12b5 15be
00000130: 6e22 00be ff94 323d 5f8b c8bd f1d0 11be
00000140: 4339 26be b888 6e3d 2fa7 5cbe 2829 623e
00000150: 0833 343d bdc4 ce3d b7dc 02be 3175 3bbe
00000160: b6ee 0b3e 75d3 863d 609a 833d d597 0cbe
00000170: 8fac 1e3d b86d 04be 128f 5b3d dbd3 14be
00000180: 8ca2 23be 1500 1dbe ac8c a43d 6867 1dbf
00000190: 120e 933d 255e f8bd 14c9 483d f67d 613d
000001a0: 9f69 0bbe 2547 dc3d 8321 4bbe 8250 08be
000001b0: b97b c2bd e36a 083e d0a6 f43d 8dc0 0dbe
000001c0: ba12 28be f11d 8a3d 80cf 583d ca7f 38be
000001d0: 5778 5bbe 1672 973d 9146 b0be 2475 15be
000001e0: 9c11 0dbe dc3b 5f3e 4b35 0bbe 290f 3dbc
000001f0: 2e1b e5bd 311a 17be d80a 753c 20f9 bdbc
0.070132546 0.025494011 0.054326817 -0.14935535 0.10582909 0.06707048 -0.2119533 -0.1325863
-0.13431783 -0.18675852 -0.28962386 -0.21865843 -0.21120684 0.03051465 -0.14166234 -0.14428332
-0.1072983 0.037971374 0.1035238 -0.14130352 0.05092088 -0.019834436 -0.11933421 -0.21783651
-0.16657427 0.018755432 0.026996655 -0.17108671 0.050265722 -0.19287106 0.025673062 -0.083401054
-0.18484716 -0.17717591 0.043403547 0.05279139 0.012997394 -0.16351643 0.048213918 0.051861096
-0.15116704 0.04017502 -0.26068527 -0.15634958 -0.14187743 0.26155332 0.10254682 -0.15045008
-0.13509542 0.06117052 0.023273947 -0.16767941 -0.1774184 0.02335582 -0.0011698593 -0.17256244
-0.15406317 -0.071211465 -0.13910872 -0.08035897 -0.16402231 -0.1576247 -0.01334179 -0.50784653
0.037101686 0.07374817 0.12274789 -0.14447474 0.13107695 -0.44791344 -0.17518741 -0.16667025
-0.1382065 -0.118981 -0.2075217 -0.14619854 -0.12513134 0.043599125 -0.09792208 -0.14239861
-0.16232781 0.058235854 -0.2154815 0.22086012 0.04399398 0.100961186 -0.12779509 -0.18306424
0.1366528 0.06583301 0.06425929 -0.13729794 0.038738783 -0.1293248 0.05360324 -0.14533941
-0.15979975 -0.15332063 0.080346435 -0.6148591 0.07180418 -0.12127332 0.049019888 0.055051766
-0.1361451 0.10755757 -0.19837002 -0.13311961 -0.094962545 0.13322024 0.119458795 -0.13842984
-0.16413394 0.06743992 0.052932262 -0.18017498 -0.21432625 0.07394807 -0.34428838 -0.14595467
-0.13776249 0.21800178 -0.13594548 -0.011539259 -0.11186825 -0.14756085 0.014956199 -0.023190081

fc2.bias f4 [2]
00000000: f2f6 b23f 55ef 783f
1.3981612 0.9724019
