assignment-5/models/best_model_110.9.pth (torch, 110572 bytes, 8 tensors)

conv1.weight f4 [4, 4, 8, 8]
000000 c5 09 9f be 87 29 01 3f 15 fe 49 bf 9a a3 97 bf
       -0.3106214 0.5045399 -0.78903323 -1.1846802
000010 43 7a 65 bf 21 74 0c 3f 6c d0 b8 bf f4 28 12 3f
       -0.8963968 0.548647 -1.4438605 0.5709374
000020 aa 6f bf ba 58 b4 62 bf 6a 8f 46 3f e6 d2 0b 3d
       -0.0014605422 -0.8855643 0.7756258 0.034136675
000030 dd 72 b9 be 2d 54 7e bc 88 bb 44 bf 2c cc f3 bc
       -0.36220446 -0.015522999 -0.7684865 -0.029760443
000040 5b ee 61 bf 67 d3 46 3f 69 91 d3 3e ac a4 48 be
       -0.88254327 0.77666324 0.41321877 -0.19594067
000050 8f 4a 22 3f 80 4b f8 3e 8b 9b 13 bf 26 56 69 be
       0.6339502 0.48495102 -0.57659215 -0.2278677
000060 f4 4c 38 3e a2 80 42 3e 88 07 fb be b8 03 90 3e
       0.17998105 0.18994382 -0.49029183 0.28127837
000070 a9 a7 df bd dc 9e 8c 3f f0 49 9c be 9e a1 0d 3e
       -0.109206505 1.098598 -0.3052516 0.13831183
000080 a1 26 26 bf 6e 51 90 be b5 39 d4 bf 01 62 d8 3d
       -0.64902693 -0.28187126 -1.6580111 0.10565568
000090 77 60 fe 3d 89 15 68 3f ce 2d 05 3e 0c 61 eb be
       0.12420743 0.9065786 0.13005754 -0.45972478
0000a0 4e be 89 bc ee ca 4a bf 51 5d f9 bf 72 48 80 be
       -0.016814377 -0.79215896 -1.9481603 -0.2505527
0000b0 34 54 20 be 3f b8 1d 3f c2 1f 04 bd b5 e5 0a 3e
       -0.15657121 0.6160926 -0.03225685 0.13564189
0000c0 86 67 1c be 04 f3 6e be 28 29 9e be 8f f9 ce 3e
       -0.15273866 -0.2333489 -0.30890775 0.40424773
0000d0 8c 88 38 bd 83 ee 5b be 53 1a 14 be 33 04 9a 3d
       -0.045052096 -0.21477704 -0.14463167 0.07520332
0000e0 91 94 9c bd 66 90 c5 be 6c f8 ce 3d 9f 2b b6 be
       -0.07645524 -0.3858673 0.101059765 -0.35580155
0000f0 d1 2a 0c bd bd 12 2c 3f af 20 e1 bd c2 ba 1e 3e
       -0.03422052 0.6721609 -0.10992562 0.1550093
000100 9b d3 13 3f 75 9f d5 be 13 11 c9 3f 12 d3 97 bf
       0.5774476 -0.4172322 1.5708336 -1.1861289
000110 c4 c6 7f bf 19 50 e7 be f8 11 42 3e 73 5b 16 bf
       -0.9991267 -0.45178297 0.18952167 -0.5873329
000120 b2 63 41 bf 43 37 10 3d f5 de 0b bf 45 11 e2 3e
       -0.7554275 0.03520895 -0.5463708 0.441538
000130 06 22 b8 bf f1 be 26 3f 7b 09 79 be 53 96 b9 bf
       -1.4385383 0.65135103 -0.24320023 -1.4499
000140 df 66 f1 3e 68 46 ed 3d 8b ae f7 be 34 c1 dd 3f
       0.47148797 0.115856946 -0.48375353 1.7324586
000150 0a ee ab 3c e7 26 1d 3f b7 31 80 be 91 28 4f bf
       0.02098753 0.61387485 -0.2503793 -0.80921274
000160 0f de 8e bf 06 34 d0 be 0a 75 6a bf fa bd 9a 3f
       -1.1161517 -0.4066469 -0.9158484 1.2089226
000170 c8 f8 e5 3d 4d 19 df 3e a0 49 81 be d4 81 a7 be
       0.11229092 0.4357399 -0.25251484 -0.32716238
000180 a4 bf 65 3f 31 4b fb bb fa 09 ca bf 01 ee 20 3e
       0.89745545 -0.0076688756 -1.5784295 0.15715791
000190 ff 91 6e 3e d0 39 1e 3f 92 ce 0b bf 56 3d 94 3d
       0.2329788 0.61806965 -0.54612076 0.072382614
0001a0 4c 87 3c be 4c 1e ac be b5 b0 a1 be 42 a2 1a be
       -0.18410987 -0.33616865 -0.3158013 -0.15100959
0001b0 80 69 63 3f fb ac 99 3e b0 de c6 3e 51 ae 9b bd
       0.88832855 0.30014786 0.38841772 -0.076016076
0001c0 c8 9d 02 3e 11 46 da be 7c ba 49 bf 6d 1f e1 3e
       0.12755501 -0.4263158 -0.7880018 0.43969288
0001d0 f6 5f 63 3e 80 66 09 3b db e5 3d 3f f6 82 ce bd
       0.22204575 0.0020965636 0.74178857 -0.100835726
0001e0 2e 76 b7 3e e6 88 c4 bd a2 c4 90 be 68 06 af be
       0.3583235 -0.09596424 -0.2827502 -0.34184575
0001f0 c0 4a 2a 3f 30 37 ec 3e 7a 04 ec 3d a4 19 0c 3e
       0.6652031 0.46135855 0.11524291 0.13681656
000200 b7 59 4b bf ff 7d 73 be 62 a4 ad be e8 5c cc be
       -0.7943377 -0.23778532 -0.33914477 -0.39914632
000210 cb e7 72 be d9 77 62 bd 95 0e 05 3e 93 33 54 bf
       -0.23721235 -0.055290077 0.12993844 -0.82891196
000220 12 95 d2 3e d3 76 e5 bf fa e4 20 3f e8 08 a1 3d
       0.41129357 -1.7926887 0.6284939 0.07863027
000230 c2 a4 3c 3f 9a 2a 2d bf 08 3e b6 bf a2 e6 35 be
       0.736889 -0.6764313 -1.423768 -0.1776376
000240 74 db 11 bf fc 48 4a c0 03 ff 87 bf 0f 90 28 3f
       -0.56975484 -3.1607046 -1.0624698 0.65844816
000250 43 a1 49 3f a5 cc bb 3e e3 75 37 bf f4 07 c4 be
       0.7876169 0.3667957 -0.71664256 -0.38287318
000260 3c 97 77 3f 4c af b2 3e a3 70 3c c0 f4 f9 c1 be
       0.9671514 0.34899366 -2.9443748 -0.37886012
000270 6a aa 71 3d e6 89 fa 3d d6 2a 2a 3e 38 e0 c2 be
       0.05900041 0.12233333 0.16617903 -0.3806169
000280 05 f3 0c 40 3c 41 00 3f f9 52 54 bf e8 8a 3c 3f
       2.2023327 0.5009954 -0.82939106 0.73649454
000290 97 41 0e 3f a5 ea aa 3e 1b 1c 4b 3e 73 3c a7 3d
       0.5556883 0.33382145 0.1983494 0.08165827
0002a0 13 fb 4c 3f c4 7f a7 3f 65 62 5c 3f 16 2a e0 3e
       0.8007061 1.3085866 0.8608764 0.4378211
0002b0 2b 8d fd 3e a3 47 2c 3f e7 93 25 bf 53 c0 14 bf
       0.49521765 0.6729681 -0.64678806 -0.58105963
0002c0 f5 a1 f5 3d 18 45 55 3c a5 bd b7 be 9e 5f 8f 3d
       0.119937815 0.0130169615 -0.35886875 0.070006594
0002d0 39 b0 ef 3c 66 e3 a5 3e 34 7d da bd 71 60 46 3e
       0.029258834 0.32400054 -0.10668412 0.19372727
0002e0 c9 82 02 3f 37 9b 30 be b7 25 0c bf 89 93 9a 3e
       0.5098081 -0.1724671 -0.5474505 0.30190685
0002f0 4c f3 bf 3e 4d db a7 bb 77 5d 2a 3e c1 ba 6f be
       0.37490308 -0.0051225782 0.16637217 -0.23411085
000300 f4 c8 9e 3f 31 67 9d 3f a9 0c 48 3f 9a 29 fd 3e
       1.2405076 1.2297117 0.7814432 0.49445802
000310 1d a6 87 be 3c 05 c1 3f 23 23 79 3e a6 b1 b4 be
       -0.26493922 1.5079722 0.2432981 -0.35291785
000320 3d 36 7f bf 1a ff 5b 3f 63 c6 05 bf 45 30 05 bd
       -0.99692136 0.8593613 -0.5225584 -0.032516737
000330 05 24 30 3f fa 88 52 3f 7b 83 f9 3d 05 01 92 bd
       0.6880496 0.8224026 0.12183281 -0.07129101
000340 07 37 6e bf 2b e3 8f bf 24 46 72 c0 6b 90 04 bf
       -0.93052715 -1.1241201 -3.785531 -0.51782864
000350 b3 54 ed be e2 90 e6 3f ef d9 f1 3d 87 86 c0 3e
       -0.46353683 1.8012965 0.11809146 0.37602636
000360 21 14 35 bf 41 94 dd bf 2d 74 95 bf 76 f9 90 be
       -0.7073384 -1.7310869 -1.1676079 -0.28315324
000370 a7 00 bb 3e 17 82 33 bd f1 f8 99 be c5 cb 91 3d
       0.36523935 -0.043825235 -0.3007274 0.07118944
000380 3f cd 45 be 77 c3 b3 bd 79 56 83 bf 9d 51 68 bf
       -0.19316576 -0.08777516 -1.0260764 -0.9074953
000390 a7 7d 0b bf 15 9e 2e 3e 71 17 c3 3e e7 8b 09 bf
       -0.54488605 0.17052491 0.38103822 -0.537291
0003a0 63 c5 ac 3f 77 c2 3a 3f 5c 22 87 be 60 76 e6 bd
       1.3497738 0.7295298 -0.26393402 -0.11253047
0003b0 a1 88 d6 3e 49 ba 0b bf cf 1a 6c be 5f ba ce bf
       0.41901115 -0.54581124 -0.23057102 -1.6150626
0003c0 58 47 8b 38 a4 26 2a 3f 47 27 bd be d0 42 a5 bf
       6.641325e-05 0.6646521 -0.3694403 -1.2911015
0003d0 8b 8c 90 bf 3e aa d5 bd e8 bc 2a 3f 2c a1 1c bf
       -1.129289 -0.10432862 0.666945 -0.6118343
0003e0 15 5c f0 bd 2e 06 0d 3f 2e cd 95 bd 28 9e c4 be
       -0.11736313 0.55087554 -0.073145255 -0.38401914
0003f0 79 d8 83 3c 16 52 11 3f d1 91 ad 3e ca bc a0 be
       0.016094433 0.5676588 0.33900312 -0.31394035

conv1.bias f4 [4]
000000 e1 95 80 be 8d 90 fd 3d bd 9e 30 bf 3c b1 6e bc
       -0.2511435 0.123810865 -0.68992215 -0.014568623

conv2.weight f4 [8, 4, 4, 4]
000000 3c 96 82 be 12 57 a6 3e 07 8e 8d be 48 14 c0 3e
       -0.25505245 0.32488304 -0.2764742 0.37515473
000010 1c f5 7a bd 03 a5 bd bd 33 68 e5 3c 83 0d eb 3d
       -0.06126891 -0.09259989 0.028003788 0.114771865
000020 e6 f1 bf be 3b ec 0a 3f c1 3e 08 bf e3 80 ab 3e
       -0.3748924 0.5426671 -0.53220755 0.3349677
000030 ee b9 72 be 70 d0 11 3e 7f d8 69 bd 04 04 8c 3c
       -0.23703739 0.14239669 -0.057091232 0.017091759
000040 65 0f df bd d2 29 90 be e2 de 06 3e 79 6b 6e bf
       -0.10891608 -0.28156906 0.1317096 -0.9313274
000050 58 83 87 bf 85 9a 2b bf 6c 45 d2 3e b9 42 86 bf
       -1.0586958 -0.67032653 0.4106859 -1.0489112
000060 9c b6 bf bd 9b 37 10 3e 87 41 fd 3e eb c3 13 bd
       -0.09361002 0.14083712 0.49464056 -0.036075514
000070 86 fd d4 3e 05 72 de 3d 5a 7d 7f 3d 8f 92 86 bd
       0.41599673 0.10861591 0.062375404 -0.065709226
000080 09 70 b3 bf ad 93 c9 bf 42 f3 47 bf f5 e6 8c bf
       -1.4018565 -1.5748192 -0.78105557 -1.1007982
000090 40 db d3 bf 2a 00 ff be 1f 22 44 3f c2 2f 1c bf
       -1.6551285 -0.49804813 0.76614565 -0.6101037
0000a0 2b 36 b1 bf 02 a1 77 3e ee 0b d6 be 6f 62 2e be
       -1.3844656 0.24182513 -0.41805977 -0.17029737
0000b0 9e 69 d6 be af c7 df 3d a1 e6 06 bf a5 17 89 bd
       -0.41877455 0.109267585 -0.5269566 -0.06693963
0000c0 92 50 c7 3e c9 ee 59 be 81 c2 7f bf 48 1f 0a 3f
       0.38928658 -0.21282496 -0.99906164 0.5395398
0000d0 83 b2 36 3e 39 06 8a 3d d6 5a e0 be 53 87 8b 3f
       0.17841534 0.06739468 -0.43819302 1.0900673
0000e0 24 dd 1a 3e 11 b7 f2 3e 6a f8 03 bf 2d 8d fc 3e
       0.15123421 0.47405294 -0.51550925 0.4932646
0000f0 d8 e2 a0 3d 4f f2 16 3e c0 7e 4b be 4b 0e 01 be
       0.07855767 0.14740871 -0.1987257 -0.12603109
000100 73 e8 d8 be ff 2c e3 be 2b 7f af 3d e1 99 ce 3e
       -0.42364845 -0.44370267 0.08569177 0.40351775
000110 5a c1 d5 bd fa dd a0 be 8d 9c 7a 3f 0b f0 17 3f
       -0.104372695 -0.31419355 0.9789513 0.5935065
000120 34 0f 0d c0 8c bf 76 be c3 5b e5 bd 7b 6b 75 3f
       -2.204053 -0.24096507 -0.11199143 0.9586713
000130 20 f3 55 be 4b d5 1d be 2e e1 9b be 2f 55 ab 3e
       -0.20893526 -0.15413396 -0.30445236 0.33463427
000140 d2 b3 e5 be fd ab 5c bf 81 8e 8e 3e ac 8c cb 3e
       -0.44863755 -0.86199933 0.27843097 0.39755762
000150 d8 16 91 3d 1d 77 88 bf 7f aa 8b 3f e6 f0 cb 3e
       0.07084435 -1.066135 1.0911406 0.39832228
000160 ee 04 83 3e 98 e6 8e be 3a d0 c2 3d 9a c5 10 3e
       0.255897 -0.27910304 0.09512372 0.14137879
000170 18 1c 0a 3e ae 6a 68 be 77 d1 38 be 74 34 a2 3e
       0.1348728 -0.22696945 -0.18048654 0.31680644
000180 07 35 ea bd d1 a2 73 bd 2f b7 b1 3b 38 a1 7e be
       -0.114358954 -0.059481446 0.0054234485 -0.24866188
000190 15 9c c6 bf 6f 6a ad 3a 83 aa c1 3e 56 eb 93 bf
       -1.5516382 0.0013230572 0.37825403 -1.1556194
0001a0 86 53 a2 bc 38 44 d4 bd f5 67 e9 3d c5 e0 fd bf
       -0.019815218 -0.10364574 0.11396781 -1.9834219
0001b0 9f 64 11 bf 09 b7 be bf 59 c3 92 bf 46 9e 38 be
       -0.5679416 -1.4899608 -1.1465865 -0.18029127
0001c0 5c 51 3d bf f4 dc ea 3e b2 a0 ed 3e cc b3 8e 3e
       -0.7395227 0.458717 0.46411663 0.2787155
0001d0 f1 63 f1 bc e0 63 5c 3f a2 94 22 3f bd 7c a4 3e
       -0.029466601 0.860899 0.63508046 0.32126418
0001e0 e0 90 a0 3d 29 84 97 3e 55 6b da 3d 68 a1 91 3f
       0.07840133 0.29593018 0.10665003 1.1377382
0001f0 04 5c 20 be 17 24 1b bf fa f4 3a bd 8e 9e fb be
       -0.15660101 -0.60601944 -0.045643784 -0.49144405
000200 57 eb 77 bf d3 1f 80 3e 50 a1 f0 be 05 15 eb be
       -0.96843475 0.2502428 -0.46998072 -0.45914474
000210 73 48 29 be ee 6f cb 3e 75 3d 24 bf 85 cc 41 bf
       -0.16531543 0.39733833 -0.64156276 -0.757027
000220 66 18 47 bc a4 69 c8 3e 36 7a 63 bd 5b 39 42 bf
       -0.012151813 0.39143097 -0.05553647 -0.7586877
000230 09 75 bc 3d 92 c7 53 be b6 2e c5 be 62 fa 80 be
       0.0920201 -0.20681599 -0.385122 -0.25191027
000240 42 f3 3f bd 48 a0 2c 3d 10 8a 09 be b5 3b 42 be
       -0.046862848 0.042145044 -0.13431573 -0.18968089
000250 a2 3f 6b 3e 69 12 96 3e 19 cd 03 bf dd 14 2a be
       0.22973493 0.2931092 -0.5148483 -0.16609521
000260 27 ee d1 3d 5c e3 6e 3e df e1 f4 be 66 60 8e 3d
       0.10250502 0.23328918 -0.47828576 0.0695198
000270 2e 8f 95 3e 65 0d 45 3e 48 cf 02 3f 25 03 36 be
       0.292108 0.19243391 0.51097536 -0.17774637
000280 ff 7c 31 be 2f b5 4c 3e 80 ec 45 be 1e 80 e2 bd
       -0.17332838 0.19990991 -0.19328499 -0.11059593
000290 b2 2f ad be 84 40 55 3e ce 2f 34 bf ec a9 da be
       -0.3382545 0.20825392 -0.70385444 -0.42707765
0002a0 d2 c5 8f be cf 44 a3 3e ac 02 83 bf 5f b0 89 be
       -0.28080612 0.31888434 -1.023519 -0.26892373
0002b0 bc 9e 9e bd 37 19 bd bf 2e 0e a3 bf 62 cf 1a bf
       -0.0774512 -1.477332 -1.2738702 -0.6047269
0002c0 5b f1 ed bd 37 dd 4c be f6 45 c2 be c9 48 44 be
       -0.116183005 -0.20006262 -0.37944 -0.1916839
0002d0 31 86 53 3e 34 4f 99 bb 88 92 82 bf c8 65 13 bf
       0.20656659 -0.004678631 -1.0200968 -0.5757718
0002e0 48 94 9d 3e 61 eb 48 3f 11 e5 88 bf fe 71 a9 bf
       0.30777192 0.7848416 -1.0694906 -1.3237913
0002f0 c0 6c 9f 3b b0 01 a0 3e 02 5d 1b bf 8c 2a 37 bf
       0.004865259 0.31251287 -0.60688794 -0.71549296
000300 4c 52 a1 3e 84 46 d0 bd 2a b5 9d 3f a4 4c 00 3f
       0.315081 -0.101697 1.2320912 0.50116944
000310 19 67 68 be db 8d b7 bd c6 9a 9c 3f 19 a5 02 3f
       -0.22695579 -0.08962604 1.2234733 0.5103317
000320 7d 57 80 bc 1c b0 94 bd 51 39 b2 3f ac 8a ba 3e
       -0.015666718 -0.07260153 1.3923742 0.36433923
000330 af fa 23 3e d2 e6 57 3d fd 38 66 be 89 84 e4 3d
       0.16013597 0.05271036 -0.22482677 0.111580916
000340 db ee 93 bd eb bc 10 3e 8d 96 0a be 2f f5 86 3e
       -0.072232924 0.14134566 -0.13533993 0.26358935
000350 b4 3f da be 8e 36 18 3e 6a d0 45 bb d8 11 d2 3d
       -0.42626727 0.14864561 -0.003018404 0.1025731
000360 f9 3d a1 3e cd a6 12 3e 1d d7 ce be a9 45 54 3a
       0.31492594 0.14321442 -0.40398493 0.00080975384
000370 42 7f fc 3e 15 ae ea 3d 32 3b c1 3c eb fe 9b 3c
       0.4931584 0.11458985 0.023587797 0.019042453
000380 a1 d0 c2 3d 3c ab 1e be 68 b5 d6 3d 75 41 60 3d
       0.09512449 -0.15495008 0.10483819 0.054749925
000390 00 7b a8 bf 4f b7 10 bf 38 a9 6c 3e 2d d6 b2 3d
       -1.3162537 -0.56529707 0.23111427 0.08732257
0003a0 dc 8c 09 bf 78 52 3d bf ce b3 13 3e c1 4c a6 bc
       -0.5373056 -0.7395396 0.14424059 -0.020300271
0003b0 e7 c0 e3 be 26 cd 98 bf fd 3c aa be d0 e2 00 be
       -0.4448311 -1.1937606 -0.33249655 -0.12586522
0003c0 e4 1b a5 3d a5 17 89 bd ee 10 b6 3e 6f 2c 7f 3f
       0.0806196 -0.06693963 0.3555979 0.99677175
0003d0 ea bc 90 be 96 2e 38 3f 02 a6 54 3e 29 b2 b3 3f
       -0.2826913 0.71946084 0.20766452 1.4038745
0003e0 e1 20 6c bd 7a ed a7 3e d2 4c f1 3e ea 3c ac 3f
       -0.057648543 0.32798368 0.47128922 1.345609
0003f0 1d 2f c1 bb 7b 71 a2 3e 4c 7c b4 3b 26 f1 80 3e
       -0.005895509 0.31727204 0.0055079814 0.25183982

conv2.bias f4 [8]
000000 08 05 ba 3d a4 90 5f bd e4 2d 3d 3e 39 3f 9f bf
       0.09082991 -0.0545813 0.18474537 -1.2441169
000010 00 1b 1f bd 9d 64 98 bf 3b 9d 11 bf f8 5c 5b 3e
       -0.03884411 -1.1905705 -0.5688054 0.21422184

fc1.weight f4 [64, 392]
000000 8f 51 5a 3f 82 be a8 bf 53 75 04 c0 d4 7e 06 3e
       0.852807 -1.3183138 -2.069661 0.13134319
000010 c7 ed 4b 3f 3b 32 bc 3e 1b dd 0f bf 1b 01 c5 3c
       0.79659694 0.36757073 -0.56196755 0.024048379
000020 58 28 64 bf 1f f7 58 c0 26 e4 93 bf e2 e8 b0 3d
       -0.8912406 -3.390083 -1.1554 0.08638169
000030 5a 88 19 bf d5 50 4c be ad 62 80 3f 72 a2 a8 3e
       -0.5997368 -0.1995271 1.0030113 0.32936436
000040 a0 6b 58 3e fb 31 99 3f ee fb 11 bd 2b ac 18 3d
       0.21134806 1.1968378 -0.03564065 0.037273567
000050 8b 8f b0 be ef 97 05 bf 9e cb d3 3c 70 0a d2 be
       -0.34484515 -0.5218496 0.025853928 -0.41023588
000060 1c a8 ca be 57 e7 09 3f cd 22 17 be a1 0d 7a be
       -0.39581382 0.5386862 -0.14759369 -0.24419262
000070 3e 04 59 3f 5f 79 50 bf be 6c 35 be 57 59 40 bd
       0.847721 -0.814352 -0.17717263 -0.0469602
000080 23 ce 0e c0 ce ae 55 3f 7e ff 21 bf 68 6b b1 3e
       -2.2313316 0.83469856 -0.63280475 0.34652257
000090 63 7d 1d bf 35 22 1d bd ec 66 ea be 11 5f da 3e
       -0.6151945 -0.0383627 -0.45781648 0.42650655
0000a0 41 dc 6c 3d 80 70 e3 bd e6 c1 a2 bf 9e f9 3b 3e
       0.057827238 -0.11105442 -1.2715423 0.1835694
0000b0 a4 c8 df c0 20 19 47 bf 31 8a ae bd aa c2 e5 bf
       -6.9932423 -0.7777271 -0.08522452 -1.7950032
0000c0 41 a8 c5 bf 9c 0d 54 c0 45 5d f1 bf 60 d7 1f bf
       -1.5441972 -3.3133307 -1.8856589 -0.6243801
0000d0 e6 b0 6b be a7 10 21 bf 8f 05 ac bf 34 8c 13 c0
       -0.230167 -0.62916034 -1.3439196 -2.3054323
0000e0 fb e1 16 3f b0 4a 01 bf 2c c5 82 bf 35 8f 8d bd
       0.5893857 -0.5050459 -1.0216422 -0.0691208
0000f0 e2 01 20 c0 ab 2b a7 bf 89 19 70 3e a8 33 40 3e
       -2.500115 -1.3060201 0.23447241 0.18769705
000100 e6 3f 2a 3f c9 07 81 3e e0 d0 ad be 91 72 0f bf
       0.6650375 0.25201252 -0.3394842 -0.5603419
000110 d8 7a a6 bf 23 af 54 3e 86 99 81 bf 43 3a e6 3e
       -1.3006239 0.20769934 -1.0124977 0.44966325
000120 d6 26 d2 3e 74 d6 31 bf 5b 49 05 c0 5f b3 e0 bd
       0.41045254 -0.69467854 -2.0826023 -0.10971712
000130 fb a1 ab 3c 12 e9 af be e8 80 b6 3e e4 ae 61 3f
       0.020951262 -0.34357506 0.35645223 0.88157487
000140 56 bc 85 be d6 69 b2 be c5 41 4e be 20 d4 fb bc
       -0.2612025 -0.3484637 -0.20142277 -0.030740798
000150 26 d4 0f bf 67 a6 14 c0 f9 0a 43 3d 0e 6e 0b bd
       -0.5618309 -2.3226564 0.047617886 -0.034040503
000160 eb 4a 65 be 69 60 dd bf b1 33 e8 be ab 76 1a 3f
       -0.2239186 -1.7295047 -0.45351937 0.6033732
000170 f0 6d 42 c0 c7 84 83 be 94 f1 92 bf 02 68 84 bf
       -3.03796 -0.2568724 -1.1479974 -1.0344241
000180 9c e0 12 bf ee 88 0f c0 33 dd 69 3f 4c 23 91 be
       -0.57373977 -2.2427325 0.9135315 -0.28347242
000190 93 e6 98 bf ff 2a fc 3e 2b 6f 7d 3f 69 6d 89 be
       -1.1945366 0.49251553 0.98997754 -0.26841286
0001a0 f8 11 27 3f c6 ae fa 3e 10 07 01 c0 e1 df 30 bd
       0.65261793 0.48961467 -2.016056 -0.043182258
0001b0 ac 87 cc be df 80 89 3d b4 2f ab be c1 ff 70 3f
       -0.3994726 0.06714033 -0.33434832 0.9414025
0001c0 bc 1d c6 bf 25 ed 3c bf fc 46 b0 bb b7 a6 e3 bd
       -1.5477824 -0.73799354 -0.0053795557 -0.11115783
0001d0 b7 b8 a9 3e f3 98 0e 3e 1b ee 8a 3d f6 da 9e bf
       0.3314874 0.13925533 0.06783696 -1.2410572
0001e0 90 ea af bf 02 06 9c 3d 1c 0b e9 3d 1a 2f 7f be
       -1.3743458 0.076183334 0.11379072 -0.24920312
0001f0 e5 cc 38 bd e4 f1 2e 3d 96 98 00 c0 a5 4c 84 bf
       -0.045117278 0.042711154 -2.009313 -1.033589
000200 25 ec de 3d cd ab d3 3e 32 98 50 3f 45 3b ab bf
       0.10884885 0.4134201 0.8148223 -1.3377463
000210 fc fb 80 3e 9e 40 5d 3f 5a 3a b0 c0 b5 6d 1b c0
       0.2519225 0.86426723 -5.507123 -2.428571
000220 33 3f 42 3c 3b cd ea 3c 7b 7b d1 3e 21 56 0b 3f
       0.011855888 0.028662315 0.4091452 0.544283
000230 df 60 89 bf 4f e0 2a c0 d4 0b dc bf 85 81 18 bf
       -1.0732688 -2.6699407 -1.719111 -0.5957263
000240 b0 3b 02 bd bd 41 30 be d0 e3 08 3e 71 9d 1e bf
       -0.031795204 -0.17212577 0.13368154 -0.61958987
000250 80 f6 0e bf 79 cb ee 3e ec 74 1a 3d 10 39 80 c0
       -0.5584488 0.46639612 0.03770916 -4.0069656
000260 3d b8 1a be 7d a7 9f be 3c 44 20 bf 1d 63 25 bf
       -0.15109344 -0.3118247 -0.6260412 -0.6460436
000270 bd 6b f9 3e 25 50 2b bf 99 24 05 c1 ee e4 e5 bd
       0.4871501 -0.66919166 -8.321435 -0.112253055
000280 f9 cd 70 bc 12 21 9b 3e 6a 67 5c 3d 19 75 53 be
       -0.014697545 0.30298668 0.05380956 -0.20650138
000290 c5 60 55 be da 27 01 c1 1e 14 ff bd 2c 0f 6d 3e
       -0.20837696 -8.072229 -0.12455009 0.23150319
0002a0 c1 21 80 3f 87 12 e5 bc 04 36 bf be bd 5f 91 3d
       1.0010301 -0.027962936 -0.37345898 0.07098339
0002b0 d2 5d 90 3d 0a 16 39 be 26 ce c5 3e 28 70 1b 3f
       0.07049145 -0.18074813 0.3863384 0.6071801
0002c0 c9 e0 dc 3d 6c fe 9f 3d 2d 92 bd 3e 67 2b 04 c0
       0.10785062 0.07812199 0.37025586 -2.065149
0002d0 63 54 eb be 2f 8b 92 3e 8c aa 2d 3d 41 06 0c 3e
       -0.4596282 0.28621814 0.042398974 0.1367426
0002e0 82 ed 0b 3e 64 b0 a3 be 03 13 f9 bf 1c 05 f2 3c
       0.13664821 -0.31970513 -1.9458927 0.029543452
0002f0 00 6e 76 3e a6 3f 31 3e 11 08 ca bb 62 81 dd 3e
       0.24065399 0.17309436 -0.0061655124 0.43262774
000300 8b 08 8d be 23 b9 35 3f 76 3c 52 3e 05 d8 f2 3e
       -0.2754558 0.7098562 0.20530877 0.47430435
000310 3b 17 63 3f 31 a7 ef bf 21 42 c2 bf 2f 2f 2c 3f
       0.8870732 -1.8722898 -1.5176431 0.67259496
000320 55 11 02 3f 0b 1b f3 bf a8 46 35 c0 fc ec 8c bd
       0.50807697 -1.8992628 -2.8324375 -0.06881139
000330 dc d6 74 bf 35 42 03 c0 83 8a 59 3f 3f a3 db 3e
       -0.9564035 -2.050916 0.8497698 0.42897984
000340 12 e3 f3 bf f0 e4 69 bf e7 c4 13 3a dd dd 9e be
       -1.9053671 -0.91364956 0.0005636946 -0.31028643
000350 aa 43 d9 bf 35 79 b3 3d 74 77 8b be a5 79 28 bf
       -1.6973774 0.08763353 -0.27239573 -0.65810615
000360 90 17 75 3f a2 b2 9d bf 5b 93 79 be 45 64 88 bf
       0.9573908 -1.232014 -0.24372618 -1.06556
000370 f8 41 99 be f1 84 eb bd dc b8 7e 3f 18 f1 bb bc
       -0.29933143 -0.11499966 0.99500823 -0.02294211
000380 1d b1 b2 bf b7 46 3f be ce 4f 14 bf fe 11 ec 3e
       -1.3960301 -0.1867932 -0.5793427 0.46107477
000390 1f 35 90 3e 27 f3 a2 3f 14 ff 87 3e f6 45 2e 3f
       0.28165528 1.2730454 0.26561797 0.680755
0003a0 da 97 5b 3e 9a 2f 49 c0 8a 24 bd 3e e8 c5 01 bf
       0.21444646 -3.1435304 0.3694194 -0.50692606
0003b0 3c 34 cd be a3 1b 10 bf 8f a0 3f 3f f4 84 e6 bf
       -0.40078914 -0.5629217 0.7485437 -1.8009324
0003c0 65 e6 99 bf c7 a4 c1 3e cd 00 e9 be ef 93 89 c0
       -1.2023436 0.37821028 -0.45508423 -4.2993083
0003d0 ec 5c e6 bf ba ea d5 be 50 23 2b bf cf 81 11 bf
       -1.7997108 -0.41780645 -0.6685076 -0.568387
0003e0 29 79 18 bf 3f 78 e0 be d3 f6 8d 3e ff 58 bc bd
       -0.59559876 -0.4384174 0.27727374 -0.09196662
0003f0 6b 13 f6 bd 1f da eb be a5 da 9e be cd fa af bc
       -0.120154224 -0.4606485 -0.31026188 -0.021481896

fc1.bias f4 [64]
000000 ad 2f 87 3f 0c 22 38 3f 54 7e 9f 3e aa 96 ca 3f
       1.0561424 0.7192695 0.31151068 1.5827229
000010 d8 aa d5 bf 0e a2 30 3f 15 dc 62 3c 4f 53 ee 3f
       -1.6692762 0.68997276 0.013846417 1.8619174
000020 31 5f f4 3e 4e d7 21 be a0 14 6a 3f 62 94 00 40
       0.47728875 -0.15804788 0.9143772 2.0090566
000030 e1 26 db 3e 15 d2 89 3f fa 7e de 3f 47 d3 e6 3f
       0.428031 1.0767237 1.73825 1.8033227
000040 25 d5 cf 3f ad 45 11 3f 47 31 c4 3f 16 38 e2 bb
       1.6236922 0.5674694 1.5327538 -0.0069036586
000050 e2 ab 04 3f 08 3b ae be 15 4b 8e 3f ba b0 83 3f
       0.5182477 -0.34029412 1.1116663 1.0288308
000060 93 66 77 3f 8a da 0e 3f c2 a1 20 3f a3 aa 07 40
       0.9664089 0.55802214 0.6274682 2.1197898
000070 32 d9 75 3f ed 84 f9 3e 6c 2f 1e 3f 15 5e db 3f
       0.9603454 0.48734227 0.6179111 1.7138087
000080 d6 e9 9c 3f ff 8e c3 3e 7f 31 14 3f 6c 47 81 3f
       1.2258861 0.38195035 0.57888025 1.0099921
000090 28 1c 6c be 16 fe 03 40 24 7d 8b 3f 29 dc 51 3f
       -0.23057616 2.0623832 1.0897565 0.8197656
0000a0 dc 33 3c be 9a a4 b5 bb 8a 7e f0 3f 06 26 e6 3f
       -0.18379158 -0.0055433037 1.8788617 1.7980354
0000b0 cc f6 e4 3f a2 05 2d be e1 2f 08 be f4 81 01 40
       1.7887816 -0.1689668 -0.13299514 2.0235567
0000c0 af ca 3e 3f 66 20 23 3f 6e 5c 25 3f fa 90 d1 3f
       0.7452802 0.6372131 0.6459416 1.6372368
0000d0 01 6b 72 3f f3 1e 40 3f ea 25 e5 3f d7 75 bc 3f
       0.94694525 0.75047225 1.7902195 1.4723462
0000e0 c4 91 1b 3f 3f ba 7f 3f 6e ed 74 3f ba f0 ae 3f
       0.60769296 0.99893564 0.9567479 1.3667214
0000f0 5b 4b bf 3f d3 9d da 3f d2 6e b4 3c 59 c4 8b 3f
       1.4944872 1.7079414 0.0220255 1.0919296

fc2.weight f4 [2, 64]
000000 f8 9f 88 3c 50 e4 f9 3c 4c 9e f0 bd 60 22 a0 bd
       0.016677842 0.030504376 -0.11748943 -0.078190565
000010 8c f5 78 3d eb 1e 19 3c 7e 66 9b be 0a 82 8a bd
       0.060781047 0.00934575 -0.30351633 -0.06763084
000020 db d0 9b be 1f 4a 5d bd 38 ff a4 be 53 41 9d bd
       -0.30432782 -0.054025766 -0.32225966 -0.07678475
000030 e1 49 d3 be 76 57 ef 3b c6 17 bc bd 61 3a 8c bd
       -0.41267303 0.0073041273 -0.09184222 -0.068470724
000040 59 ac 82 bd 22 c8 00 3d 47 34 55 3b 3c 42 71 be
       -0.06380529 0.03144086 0.003253238 -0.23560423
000050 a0 04 f6 3c 3f 67 dc 3c 61 93 d9 bd ca a4 02 be
       0.030031502 0.0269047 -0.106238134 -0.12758175
000060 47 ec 5c be aa 75 05 3d b8 9c f6 3c 18 12 89 bd
       -0.21574508 0.032582916 0.030104026 -0.06692904
000070 f1 0d 5c 3c 02 ba fc be b8 46 ce 3c bd 01 80 bd
       0.013431058 -0.49360663 0.025180206 -0.062503316
000080 2b 97 9b bd a8 66 c8 3e a4 c7 e2 3c bf f6 11 bc
       -0.075971924 0.3914082 0.027683087 -0.0089089265
000090 d5 03 19 bf b2 7d 8e bd 04 ce 07 3c 0e 09 36 3c
       -0.5977147 -0.06957568 0.008288864 0.011110557
0000a0 44 be dd be 44 65 3a 3c 29 24 8c bd e7 32 88 bd
       -0.43309224 0.011376683 -0.068428345 -0.06650334
0000b0 f0 49 89 bd 6b c7 0f 3e 7c e4 00 3d 8f 8a 9b bd
       -0.067035556 0.14040916 0.0314679 -0.07594787
0000c0 d8 a6 95 be 84 95 e2 3c 61 fe e6 3c 56 d7 35 be
       -0.29228854 0.027659185 0.02819747 -0.17757925
0000d0 63 a0 0d be b4 fc 2b 3b 3c ef de bb 96 2b 92 bd
       -0.13830714 0.0026243152 -0.0068034213 -0.071372196
0000e0 5a f3 79 bf 33 ae 2d 3d 8d 00 cc bd 8b 55 15 be
       -0.9763695 0.042402457 -0.099610426 -0.14583413
0000f0 3b c0 b9 bd 02 3c 63 bd 27 4a 0c 3d 1e 69 3f be
       -0.09069868 -0.05547715 0.034250405 -0.18692443
000100 92 2d 64 be ba 9d 33 3d 0d c4 f5 bd e9 08 99 bd
       -0.22283009 0.04385159 -0.12000284 -0.074724026
000110 e9 46 c5 3d c8 fd 59 be d2 7e e2 be a0 c1 41 bd
       0.09632666 -0.21288216 -0.4423738 -0.047303796
000120 38 57 ae be e5 02 64 bd fa 02 52 3c e2 ac 01 bc
       -0.34050918 -0.055666823 0.0128180925 -0.007914754
000130 82 ec 9d be 7e c4 0e be 27 9b 10 bd 93 1f ac bd
       -0.30844504 -0.13942143 -0.035304215 -0.0840446
000140 25 e0 a3 bd 6f 32 ff bc 62 de e5 bd 89 6d f3 bd
       -0.080017366 -0.031151978 -0.11224057 -0.118861265
000150 04 e0 ac 3c 12 b2 12 3d c0 cc 89 bd d8 49 8f bd
       0.021102913 0.035814352 -0.06728506 -0.069965065
000160 aa 35 7d 3b cf 1a 68 3d e1 ba 41 3d 41 00 5b bd
       0.0038636723 0.05666619 0.047297362 -0.05346704
000170 c9 50 4e be a2 c3 2c 3d b2 2f 6b 3b a2 8a a7 bd
       -0.20148005 0.042178757 0.0035886583 -0.08180739
000180 24 21 85 bd b8 94 f4 3e d1 49 53 3d f1 ae 8b be
       -0.06500462 0.47769713 0.05158407 -0.27281907
000190 09 e5 19 bc 45 43 1e bd 23 b0 15 be 81 ab 57 be
       -0.009392985 -0.038638372 -0.14617972 -0.21061517
0001a0 69 a5 ce 3e 19 d3 10 3d 10 06 8a bd f8 24 9a bd
       0.40360573 0.03535757 -0.067394376 -0.075265825
0001b0 36 7d 10 bd e3 6a 08 3e d2 34 96 3c 56 35 09 bd
       -0.03527566 0.13322024 0.018335734 -0.03349813
0001c0 79 8c 43 be 2f 44 24 3d 12 91 d2 3c 68 03 63 bd
       -0.19096555 0.040104087 0.02570394 -0.05542317
0001d0 cc 34 13 be 55 8e ed bd c9 32 56 be 09 12 cf bd
       -0.14375609 -0.11599413 -0.2091781 -0.10110862
0001e0 ad 89 4e bc e6 a3 ec bb c7 a4 cf bd 9c 96 09 be
       -0.012606067 -0.0072216867 -0.10138851 -0.13436359
0001f0 27 73 79 bd cd 7f 90 bd dd f3 8d 3d 70 7c 06 3b
       -0.060900833 -0.07055626 0.06931279 0.0020520948

fc2.bias f4 [2]
000000 86 e3 fc 3f fa 30 fa 3f
       1.9756935 1.9546196
