assignment-5/models/best_model_6.1.pth (torch, 110548 bytes, 8 tensors)

conv1.weight f4 [4, 4, 8, 8]
000000 29 08 e8 bd 9d 6a 6b 3d 64 af c8 bb 5c a6 84 be
       -0.113296814 0.05747472 -0.006124424 -0.25908172
000010 64 37 6c be e1 f0 de bd 43 11 fa bd e9 4e 55 3c
       -0.23068005 -0.10885788 -0.12210324 0.013019302
000020 cd a0 53 3d f6 67 18 3e b2 73 51 be e8 11 9c 3c
       0.051667023 0.14883408 -0.2045429 0.019051507
000030 82 70 0a be 40 25 0c be a6 3b a1 bd b1 1a d2 bd
       -0.13519481 -0.13686085 -0.07872705 -0.10258997
000040 cd 3b 36 be f4 e1 78 be 2a 36 c8 bd 3f 51 15 bd
       -0.1779625 -0.24304944 -0.09775956 -0.036454435
000050 83 28 62 bd de 58 40 3d 47 7e d4 3c 54 26 53 bc
       -0.055214416 0.04695975 0.02593912 -0.012887556
000060 93 d7 56 be 4d 2b f4 bd e1 8f 7d 3d f9 99 b6 3c
       -0.20980673 -0.119223215 0.06190479 0.022290217
000070 cb 4c 55 bd 9e 74 86 bc d9 0e e6 bd 37 99 b2 3d
       -0.05207519 -0.01641303 -0.11233301 0.0872063
000080 13 f0 c0 3b 61 59 f2 3d e1 91 1c be bc 6b c5 bd
       0.005887994 0.11833454 -0.15290023 -0.09639689
000090 bc 11 a0 bd 1d 9a 22 be 33 bf 1d be d6 0b 95 bd
       -0.078158826 -0.15879102 -0.15404968 -0.07277648
0000a0 9d 26 42 3e e1 df 19 3e 62 44 50 be d4 6f aa bc
       0.18960042 0.1502681 -0.20338586 -0.020805277
0000b0 76 f5 ea 3c e3 61 8f 3c 48 ae 73 bd 50 b4 f3 bd
       0.028681498 0.01750273 -0.05949238 -0.11899626
0000c0 d5 1d 99 3c e0 18 02 3d 2b b8 36 be 62 00 d2 3c
       0.018690983 0.031762004 -0.17843692 0.025634948
0000d0 27 0a 46 3d 87 98 b6 bd b8 15 0f 3c 82 c7 93 be
       0.048349526 -0.08915811 0.0087332055 -0.2886315
0000e0 16 da 51 bd 06 b0 90 3d 80 93 4a 3c 83 6f 07 3e
       -0.051233374 0.07064824 0.012364268 0.13226132
0000f0 96 1d aa bd 38 86 7a bd 1b 2b c9 3d 62 7c 5f bd
       -0.08306424 -0.061163157 0.09822675 -0.05456198
000100 bc cb 97 be c4 69 00 be 43 81 51 3d 11 dc 47 3e
       -0.29647624 -0.12540346 0.051148664 0.19517542
000110 ed 48 fa 3d 8b 20 56 3e c7 86 53 bd 88 70 4c 3b
       0.12220941 0.20910852 -0.051642206 0.0031195004
000120 cc 72 9d 3d 67 8d cc bd 16 35 11 3d 9a a6 76 3d
       0.076879114 -0.09987908 0.035451017 0.060217477
000130 53 d7 e1 bd 47 1d 4c bd 2a 7c 0d 3e 07 0e 15 be
       -0.11027398 -0.04983261 0.13816896 -0.14556132
000140 e3 78 1d be ad d3 31 be fe 49 d4 bc 01 2a 23 bd
       -0.15378146 -0.17365904 -0.025914188 -0.03983498
000150 a1 48 56 3b e2 4d d7 bd 84 e6 b3 bd 60 61 27 be
       0.0032697099 -0.10512902 -0.08784202 -0.1634574
000160 e4 6c d0 bd 76 cc 14 be 53 f6 36 bd 30 23 d1 bb
       -0.10177019 -0.1453112 -0.044668507 -0.0063823685
000170 fd 46 a3 bd 7d 2b 8b bd c5 27 cb bc 6e 83 8e be
       -0.07972524 -0.06795404 -0.024799237 -0.27834648
000180 48 61 4e be 55 ec 1c bc b6 87 fa bd cd 81 3e 3e
       -0.20154297 -0.00957783 -0.12232916 0.18604203
000190 f5 a2 f3 3c 7b a6 f6 bc 71 fb 8e bc e1 ee ae 3d
       0.02974079 -0.030108681 -0.017453881 0.08541656
0001a0 72 ca 43 3e 0e 31 5d bc 41 70 0c bc b4 9b 2f be
       0.19120196 -0.013500465 -0.008571685 -0.1714924
0001b0 e4 bf cf bc ef e0 7f bd b4 c4 18 bd 3e 84 c9 bd
       -0.025360055 -0.062470373 -0.037296966 -0.09839676
0001c0 1a 9b 11 3d a6 6d ae bc f8 70 b7 bd cf 00 49 3d
       0.035548307 -0.021292519 -0.08957094 0.049073037
0001d0 fd 89 05 be 71 b9 15 bd 44 7f d0 bd 5c 6e 59 be
       -0.1304092 -0.036553804 -0.10180524 -0.21233505
0001e0 5b 1f 00 3d 28 57 13 bd 63 fb df bd 54 33 de bd
       0.031279903 -0.03597179 -0.1093662 -0.10849634
0001f0 7d c7 58 be 9e a4 ae bd 51 18 1b be 4a c5 d5 3c
       -0.21169849 -0.08527492 -0.15145995 0.026095051
000200 a7 1c f9 3d 8f 19 f2 bd dd 2b c2 bd 6b 63 b8 3c
       0.12163668 -0.11821281 -0.094810225 0.022508344
000210 1d 5f f2 3d d6 38 4e bd a4 ba d7 bd dd e5 5c be
       0.11834548 -0.05034717 -0.10533646 -0.21572061
000220 e3 f7 ec bd f6 d3 db bd f2 3a 0c be b9 2d 10 be
       -0.11570718 -0.10733788 -0.13694361 -0.14079942
000230 4c dc 16 bd bb 37 a6 bd b7 25 d9 3d 8a 20 b8 bc
       -0.036831185 -0.081160985 0.10602897 -0.022476453
000240 77 60 22 be cd e9 d1 bd b0 5a 85 bd 4d f4 b7 bd
       -0.15857111 -0.10249672 -0.06511438 -0.089821436
000250 ef a4 03 3e b5 54 a6 3c b0 0e 0c 3d 3c 63 3a bc
       0.12855886 0.020304063 0.034193695 -0.011376198
000260 22 19 18 3d f4 d9 9f 3c 80 eb 00 be ff 2f 19 be
       0.037133344 0.019513108 -0.12589836 -0.14959715
000270 de 7d 7a bd 2e fb 03 bd 29 c7 0d be 27 12 45 be
       -0.061155193 -0.032221965 -0.13845505 -0.19245206
000280 57 64 1a bd 0b c7 41 be 07 34 fc 3b 5d f3 1a bd
       -0.037693348 -0.18923585 0.007696632 -0.037829746
000290 ed 3e a6 3d 2f 14 28 3d a0 f8 87 bd 8f 04 a9 bd
       0.08117471 0.041034874 -0.06639218 -0.082528226
0002a0 16 3d 66 3e 01 ea b0 bc f6 1e 22 bd 9a 38 03 be
       0.2248424 -0.021595957 -0.039580308 -0.1281456
0002b0 0e 6e 1a be 91 81 c3 ba 8e 1c ab 3d d7 ea f4 bd
       -0.15081045 -0.0014915933 0.08355056 -0.11958855
0002c0 22 3a e5 bd 98 a7 18 3d 75 52 86 bd fc 69 a7 ba
       -0.111927286 0.037269205 -0.06558696 -0.0012772675
0002d0 73 b5 89 3d 33 e2 a2 bd e5 79 b1 3c 15 bf 9c be
       0.06724062 -0.079533 0.02166457 -0.30614534
0002e0 48 9b 17 3d f4 67 9e 3d c9 17 24 be 20 3c f2 3d
       0.037013322 0.07734671 -0.16024698 0.11827874
0002f0 96 b7 7c bd cc 55 f4 bd 32 2e 0d be 20 67 83 3d
       -0.06169852 -0.11930427 -0.13787153 0.06416154
000300 75 8f 6f be 51 ed 29 be 4b 0a 87 3d e3 e3 b5 3d
       -0.23394568 -0.16594435 0.0659376 0.088813566
000310 67 1c 92 bd 72 d1 59 be 60 f0 5e be 8f 7d 0a 3c
       -0.071343236 -0.21271303 -0.21771383 0.008452787
000320 75 35 20 be eb f4 e1 bd 4b ea 1a be 74 d8 00 bc
       -0.15645392 -0.110330425 -0.15128438 -0.007864106
000330 32 f1 9c 39 74 43 e8 bd f5 ab 89 bd f0 f9 fa bc
       0.00029934343 -0.11340991 -0.06722251 -0.030636758
000340 c0 9b 3b be 9b b0 31 3d 53 e7 79 bd a1 e0 50 bd
       -0.18321133 0.043381315 -0.061011624 -0.050995473
000350 65 ae 6d 3d 2b ff f1 3d 2a a4 20 bd b6 6a 2f bd
       0.058027644 0.118162476 -0.03921906 -0.042826377
000360 57 e6 93 bd 79 3e c1 bd 76 e2 d8 3b 02 57 a1 bc
       -0.07221668 -0.09435744 0.006618793 -0.019694809
000370 41 9a 0e bd 33 ae f0 3d 49 76 ee bd 14 d0 8a bd
       -0.034815077 0.11751976 -0.11643655 -0.06777969
000380 0c 2e 3c be 2e 22 37 be 78 67 01 bd 7e 3d 4e bd
       -0.1837694 -0.17884132 -0.031592816 -0.050351612
000390 aa b0 bb bd 06 bb f1 3c 67 5f 0c bd 19 82 0b be
       -0.09164555 0.029508125 -0.03427067 -0.13623847
0003a0 e2 b0 6f bd c7 1a 61 be 18 c0 1e 3e 0f 30 3a 3e
       -0.058518298 -0.21982871 0.15502965 0.18182395
0003b0 ce 5f 28 bb c8 11 09 3d 91 90 a3 bd 1e 5c f3 3c
       -0.002569187 0.033464223 -0.07986558 0.02970701
0003c0 bf b2 32 bd 70 ed 24 3c 0f bd 8e bd ea 39 1a be
       -0.043627497 0.010066375 -0.06969654 -0.15061155
0003d0 c2 4d 9f bd 78 40 38 bd 80 70 a1 3c b6 16 12 be
       -0.07778503 -0.044983357 0.019706964 -0.14266476
0003e0 4e 2d 51 be f3 99 e2 bd dc 18 8a bc da e9 44 be
       -0.20427439 -0.1106452 -0.016857557 -0.19229832
0003f0 80 c3 31 be bb 6a fe bd f4 58 40 3d 64 82 da bd
       -0.17359734 -0.12422701 0.046959832 -0.10669401

conv1.bias f4 [4]
000000 7f 04 c2 3d 2a b6 69 bc 3c 87 f4 bc 23 94 13 3e
       0.09473514 -0.014264623 -0.029849641 0.14411978

conv2.weight f4 [8, 4, 4, 4]
000000 0d 05 7d bb e0 6f 33 3e 5b 77 be be eb 63 2b be
       -0.0038607747 0.17523146 -0.37200436 -0.16737334
000010 90 f1 fb 3d 2b 1f 47 bd 89 1e 91 bd e7 e7 35 be
       0.12301934 -0.04861371 -0.07085902 -0.17764245
000020 bd 96 ee bc 33 be b2 bd d9 34 4c be c5 9a f3 bc
       -0.029124612 -0.08727684 -0.19942035 -0.029736886
000030 02 7f 10 3d c2 9b e3 bd 2c 80 b6 bd 9a 41 21 3d
       0.035277374 -0.11113693 -0.089111656 0.039369203
000040 2a cf be bc bc d8 1b 3e 6a 42 51 3d aa 1c 3d 3d
       -0.023292143 0.15219396 0.051088728 0.046169914
000050 fe 9a 9f bd 42 3f 15 3e c9 7e 72 3d 29 57 99 3c
       -0.07793234 0.14574912 0.059202943 0.018718319
000060 89 7b c0 3d cd b8 f7 3d 10 a4 55 3e d7 b2 01 bd
       0.093985625 0.12095795 0.20863366 -0.031664696
000070 c8 69 fd 3d ab 8c df bc 9a 1e 9e bb 1a e9 1d bd
       0.12373692 -0.027288755 -0.0048254253 -0.03855238
000080 3d 79 91 bd 0d 90 dd bd 05 73 33 bd 98 7e 18 3e
       -0.071032025 -0.10818491 -0.043810863 0.14892042
000090 d9 4a 88 bd 18 6f cc bd 81 b2 12 be 1d 3b 88 3d
       -0.06654901 -0.09982127 -0.14325906 0.066519
0000a0 79 5c af 3d 0d 0c 05 3d 70 50 81 3e 76 13 9f bc
       0.0856256 0.032482196 0.2525668 -0.01941846
0000b0 2b a2 e3 3b e5 eb 89 3c f8 fa 59 3e fc f7 3f bd
       0.006946822 0.016836116 0.21287143 -0.046867356
0000c0 00 21 47 3e 2c f0 13 be 07 db 7d be f2 34 c5 be
       0.19446182 -0.14447087 -0.24790584 -0.38516957
0000d0 44 16 6a 3e cf 3f ba bc ac 57 43 be d9 8e 55 be
       0.22860056 -0.022735504 -0.19076413 -0.20855273
0000e0 9a 89 5d 3e cc 0d b4 39 c2 1c 3c be db 0c c9 bd
       0.21634522 0.00034342555 -0.18370345 -0.09816905
0000f0 07 c2 83 3c 39 2b 40 3e ee 45 60 3d 09 f8 4a 3e
       0.01608373 0.18766488 0.05475419 0.1982118
000100 0f 2c 0a 3d b2 9a 27 3c ed 14 d3 bd bf 6f a7 3d
       0.033733424 0.010229753 -0.10306726 0.08175611
000110 9c f5 83 bc 09 26 1e bd 61 1f bc bd f4 6a 89 be
       -0.016108327 -0.038610492 -0.091856726 -0.2683941
000120 f8 4a 9d 3d 36 87 d1 3d 24 0d d0 3c 9e a1 82 3c
       0.07680315 0.102308676 0.025396891 0.015946206
000130 a4 b0 94 bd 56 d1 23 3e ce 5c 13 bc 6f 1e e4 bd
       -0.07260254 0.15997824 -0.008994294 -0.11138617
000140 4c fa 28 3d 65 71 e1 3d f5 2f 9b 3d c6 03 8f 3e
       0.041254327 0.110079564 0.075775065 0.27932566
000150 c9 bb 56 be f5 d2 a0 3d 3f d3 1a 3e a5 b0 65 3e
       -0.20970072 0.07852737 0.15119646 0.22430666
000160 8b 8f fa 3d cf 4a 34 be b4 8b a1 3e 88 fd 02 3e
       0.1223441 -0.17606662 0.31551898 0.12792027
000170 b8 3d b6 bd 14 37 3d 3e 55 2d 7f 3d 3e e7 c3 bd
       -0.08898491 0.18478042 0.06229909 -0.0956559
000180 0f 2b 78 bd c6 1f 93 bd 3a 66 22 3e b6 75 da bd
       -0.06058794 -0.07183795 0.15859309 -0.10666983
000190 78 e6 97 be cb 72 83 3d a3 96 c3 3d c4 4d 1e bd
       -0.2966802 0.064183794 0.09550216 -0.03864838
0001a0 82 d8 fe 3d 0c 15 66 bd ef 96 ff bd 9d d4 27 be
       0.12443639 -0.056172416 -0.1247996 -0.163897
0001b0 98 0c ba 3d 78 ba 76 bd 42 88 98 3d 0b 45 a5 bd
       0.09084433 -0.060236424 0.07447864 -0.080698095
0001c0 47 6f 8f 3b c5 02 e6 3e db 61 19 be af c0 08 be
       0.004377279 0.44923988 -0.14978735 -0.13354753
0001d0 a4 82 ba 3c 50 86 99 3e 51 1b 89 bd af 81 ca be
       0.022767372 0.29985285 -0.06694663 -0.39552066
0001e0 ce f0 8f 3c 00 67 ac 3e 51 1a 8a bd 9e d7 65 be
       0.01757088 0.33672333 -0.06743301 -0.22445533
0001f0 0f 29 bc bd a8 33 2b bd ec 0a d6 bd 88 7c 30 be
       -0.09187519 -0.04179731 -0.10451302 -0.17235005
000200 fe 4c 33 be d3 62 32 bd 0b 21 cc 3d c2 86 b4 ba
       -0.17509839 -0.043551277 0.0996724 -0.0013773071
000210 c3 5e 20 3a 54 f1 22 be 4f df ef bd f1 5a 63 be
       0.0006117636 -0.15912372 -0.117125146 -0.2220266
000220 1c 54 db 3c 2a 2e 41 be 6a 74 ce 3d 44 06 42 be
       0.026773505 -0.18865266 0.10080798 -0.18947703
000230 69 a6 06 bc 81 9e a4 bd 9f 5c cf 3c 42 1f ca ba
       -0.008218386 -0.08038045 0.02531272 -0.0015420693
000240 f1 38 98 bd 70 5b 5d 3e 95 99 a7 bd e1 49 a7 3c
       -0.07432736 0.21616912 -0.0818359 0.02042097
000250 76 95 49 3d 04 58 b5 3e a4 26 bd bd 8c b4 2c be
       0.049214803 0.35418713 -0.09235886 -0.16865748
000260 04 94 9e 3d 00 f9 ae 3e 0f 9b 0c 3c f4 64 8f bd
       0.077430755 0.34174347 0.008581891 -0.07001677
000270 92 8a 90 3d 34 2d 65 bd fb 4f f6 bd 00 2a 7d 3c
       0.0705768 -0.055951312 -0.12026974 0.015451908
000280 7d b4 dd 3d 25 01 d7 3c 1a 4a 0e 3e ac 99 20 be
       0.10825441 0.026245663 0.13895455 -0.15683621
000290 d5 67 f7 bd 71 15 93 3b d1 cb b1 3d f3 3d 1c bd
       -0.12080351 0.00448864 0.08681453 -0.038145017
0002a0 50 01 4f be 41 cd 04 3e 80 aa 6f bd 59 b7 14 be
       -0.20215344 0.12968923 -0.05851221 -0.14523067
0002b0 99 41 56 be 10 79 dd bc 02 bd 31 bb 8b 14 1f 3c
       -0.20923461 -0.027035266 -0.0027120714 0.009709488
0002c0 b1 64 85 be a8 29 17 be 7c 48 9d 3d c6 6d ee bd
       -0.26053384 -0.14761984 0.07679841 -0.11642031
0002d0 74 89 fa bd 6e d8 ab bd 0b 8e ee bc 39 99 0c be
       -0.12233248 -0.0839089 -0.029120466 -0.13730325
0002e0 41 fb 73 3e 6c 35 47 be 0b 63 99 bc 3f ca 30 3d
       0.23826315 -0.19453973 -0.018723985 0.043161627
0002f0 8a af 73 3e db 68 0f 3e af e2 32 be 89 79 d4 3d
       0.23797432 0.14004843 -0.17469285 0.103747435
000300 2d d1 1c be 9a fd a6 bd fd 06 f5 be 9c 3c 3d be
       -0.15314169 -0.081538394 -0.47856894 -0.18480152
000310 7c 27 78 3c 22 8c 2f 3e 3d ad 17 be 52 1f a5 be
       0.015146133 0.171433 -0.14812179 -0.32250458
000320 68 01 89 3d 32 c8 6a 3d 3b 83 b0 bd 73 a6 a3 bc
       0.06689721 0.057319827 -0.0861878 -0.01997683
000330 0b f0 96 3d 57 10 99 3c 0c 3e 35 bd 0f cd 87 3b
       0.07370003 0.01868455 -0.044248626 0.004144318
000340 e2 0c b0 ba 8a ad fb bd 40 58 14 3d fa 95 07 3e
       -0.0013431574 -0.12288959 0.036216974 0.13240805
000350 22 ec 49 3d d3 7c 8a bd 95 9b 3f 3c d1 ac 55 3e
       0.04929746 -0.067620896 0.0116948085 0.20866705
000360 06 15 f3 3d 65 10 a5 bd 0e 0a 2b 3d 18 fd fa 3d
       0.11869244 -0.08059768 0.041757636 0.12255305
000370 5f 6b ee 3d b3 9b 81 be 7b 28 dd bd b0 2e 4b be
       0.11641573 -0.25314102 -0.10798737 -0.19842029
000380 10 fe 28 be ad ae 19 3d db b9 60 bc e5 d0 25 3e
       -0.16503167 0.0375201 -0.013716186 0.16192968
000390 94 7f b4 b9 72 b5 19 3e 80 84 bf bd 0e 6c d6 3d
       -0.00034427329 0.15010622 -0.09351444 0.104698285
0003a0 68 84 b9 bd ae b8 7b be 81 60 9d bd c3 01 6e be
       -0.090584576 -0.24582168 -0.07684422 -0.2324286
0003b0 9e 49 0a 3e 1b e8 b9 3d 67 c9 41 3d 17 71 ad bd
       0.13504645 0.09077474 0.047311213 -0.08468836
0003c0 e2 2b 19 3e 96 45 1c 3e 47 31 c8 be 33 c6 fd bb
       0.14958146 0.1526092 -0.39100096 -0.0077445745
0003d0 63 aa 3c 3d 38 66 70 3c 95 f3 e3 3c 15 ae 2c be
       0.04606093 0.014672808 0.02782611 -0.16863282
0003e0 7b bb e4 bd ab fb df 3c 79 45 29 3e ed 6d ac 3c
       -0.111685716 0.027341684 0.16530408 0.02104851
0003f0 ea 97 ee 3c 3a 79 e7 3d 41 3f 92 3e b4 ae a8 3e
       0.029125173 0.11302419 0.28563884 0.32945788

conv2.bias f4 [8]
000000 e6 bd f8 3d 6c 3f 45 3d 11 5f 11 3e 29 ce 0a 3d
       0.12145595 0.048156187 0.14196421 0.033888016
000010 e3 a9 e3 3d a5 bb 96 3c 7e c0 6c 3d 95 f4 fe 3c
       0.11116388 0.018400023 0.057800762 0.031122485

fc1.weight f4 [64, 392]
000000 99 61 4c be 11 4b 82 be 38 e4 ef 3b e3 47 09 3d
       -0.19959106 -0.25447896 0.007320907 0.033515822
000010 f2 df 90 bc d0 f9 0c 3e aa e1 47 bd 73 64 45 be
       -0.01768491 0.13767171 -0.048799194 -0.192766
000020 a7 c2 5d be c1 4e a8 3c 7e ee 9e bc 18 73 a9 3d
       -0.21656285 0.020545365 -0.019400831 0.082739055
000030 42 9b 7c bc b6 3b 6a 3c e2 3f a3 3d 9a 81 6c be
       -0.015417876 0.014296463 0.07971169 -0.23096314
000040 5e 2f be 3c cc 70 bb 3d 0c 74 67 bd 35 b0 cf 3c
       0.023215946 0.09152374 -0.056507155 0.025352577
000050 f4 9c 51 bb 2a 43 c4 bd 2a 99 40 be 89 0c 77 3c
       -0.003198442 -0.09583123 -0.18808427 0.015078672
000060 f2 6b 1e ba d0 0a c7 3d df 39 1e 3d 2a f2 5e bc
       -0.0006043307 0.09718859 0.03862941 -0.013607541
000070 f4 c7 00 3d a8 d4 67 bd 0a b3 ba 3c 72 37 de 3d
       0.03144069 -0.05659929 0.02279045 0.10850419
000080 da 86 06 3d bb dd 09 3e 38 70 09 bd b5 e0 43 3e
       0.03284345 0.1346349 -0.033554286 0.19128688
000090 ac f1 4d bd 0f 1f 84 3d 98 7a 39 bd a9 de 62 3e
       -0.050279304 0.064512365 -0.04528293 0.2215525
0000a0 ce cf 4f 3d 2f 4a 89 bd 62 70 a4 3e 71 67 b8 3c
       0.050735287 -0.067036025 0.3211699 0.022510262
0000b0 ec ca 2f 3d 6f 9b ff 3d 78 53 ae bc 72 b3 b3 3d
       0.04291813 0.124808185 -0.021280035 0.08774461
0000c0 0a 27 a5 bd 65 b5 0a bf 8b bb 43 3e 68 16 33 3d
       -0.08064087 -0.54183036 0.1911451 0.04372254
0000d0 5c 54 9c bc 9f b4 06 bd 6f 21 c0 3d ed db fb 3c
       -0.019083194 -0.032887097 0.09381377 0.030744517
0000e0 6e 7b 71 be da 4f 2b 3c c4 b6 82 3d 28 b0 ed 3b
       -0.23582241 0.01045605 0.06382516 0.0072536655
0000f0 db 23 9d 3d fe 49 62 bc 9e d2 3f 3d e4 5e 11 be
       0.076728545 -0.013811586 0.04683172 -0.14196354
000100 c9 c3 61 be 41 fd 29 bd 68 db ce bb d6 0a ed bd
       -0.22047342 -0.041501287 -0.0063127764 -0.115743324
000110 dd e5 1a 3e cb be 08 3d 93 0e 97 3c d7 db b4 be
       0.15126748 0.03338508 0.018439567 -0.35323974
000120 35 8e 8e bd 9e 95 1f bd fa 7e f3 3d dd 81 d3 3c
       -0.069607176 -0.038961045 0.11889453 0.02581876
000130 b7 62 24 be ed 10 27 3e 26 dd 1a be 73 c9 02 3b
       -0.16053282 0.1631505 -0.15123424 0.00199565
000140 7a 74 8d bd a8 2b 10 3e bd 84 a8 3d 96 dd 3c bc
       -0.06906982 0.14079154 0.08228443 -0.01152744
000150 7c f8 10 bd 82 fd 2c be 7c fb 07 3e 5b 95 0f bd
       -0.035393223 -0.1689358 0.13279527 -0.035054546
000160 94 b6 68 bb b1 dd 0e be c4 52 21 bc 7c 63 f8 ba
       -0.0035509216 -0.13951756 -0.009846393 -0.0018950547
000170 6d 1e 52 be 06 46 91 3d 44 80 09 3e 8d d5 f7 3d
       -0.20519419 0.07093434 0.13427836 0.121012785
000180 88 bc c7 bc b5 21 9a bd fc 35 ad 3e 1b 3b d1 be
       -0.02438189 -0.0752596 0.3383025 -0.40865406
000190 45 9a 6d 3d e6 c0 9c 3c f7 69 43 bd 94 54 84 bd
       0.05800845 0.01913495 -0.047708478 -0.064614445
0001a0 9e e2 84 bd 1e 21 0f 3e 70 49 d4 be 3e c2 ad bc
       -0.06488536 0.13977477 -0.41462278 -0.021210786
0001b0 e4 19 5b bd e8 60 25 3d a1 77 20 3e e5 b9 ea 3d
       -0.053491488 0.04037562 0.15670635 0.11461238
0001c0 43 8b 4f 3e f0 4a 22 be 29 5d 85 3d ac 3b a6 bc
       0.20267968 -0.15848899 0.065119095 -0.020292126
0001d0 b2 35 a8 bb ed e7 ff bb 7a 12 5d bc 46 fc 3d 3e
       -0.005133354 -0.00780963 -0.013493175 0.18553266
0001e0 08 c2 ce be fd 15 1e 3d 5d df 0e 3d c3 bb e3 3b
       -0.4038241 0.03859519 0.034880985 0.006949873
0001f0 01 83 02 3e 5a a1 f7 3d 39 13 90 3e dd 1e a2 be
       0.12745287 0.12091322 0.28139666 -0.31664172
000200 a2 e7 53 3c fc 63 c3 3d f9 92 6c 3d 7e 5b fa 3c
       0.012933644 0.09540555 0.05775735 0.030561205
000210 d3 93 cc bd 65 3a fb 3d b6 16 09 bf 0f 01 1a bd
       -0.09989133 0.12266997 -0.5355028 -0.037598666
000220 86 c5 76 3d 9f 9b 2f bd d7 32 96 bd 71 5e 4c 3d
       0.060246967 -0.04287302 -0.07333916 0.049894754
000230 37 fc 3e 3e 4a 45 69 be 31 0e 14 be 42 11 63 bd
       0.186509 -0.22780338 -0.14458539 -0.05543638
000240 91 3e 8a 3b 9b 47 f8 3d 37 c8 8f bc 20 cc 15 bf
       0.0042188843 0.12123033 -0.017551525 -0.58514595
000250 10 cd fc bb c4 f6 4d 3c ff 9c 4c bc 4f 2c 7a 3b
       -0.007714875 0.012571041 -0.012488603 0.0038173383
000260 78 61 38 3e 1a c4 8d bb f1 83 d7 be fe 04 94 3d
       0.18005931 -0.0043263556 -0.4209285 0.07227515
000270 af e6 94 3d 33 45 03 bc 5a 4d f6 3d e0 79 12 3e
       0.07270562 -0.008012104 0.120264724 0.14304304
000280 fd 1c a2 bd 14 ce 6f be 03 98 a6 3c ac ae 4d bc
       -0.07915685 -0.23418456 0.020336157 -0.012553852
000290 9b 58 b0 bd c9 34 84 3d f0 16 ef 3c b5 7a 3e bc
       -0.0861065 0.064553805 0.029185742 -0.011625935
0002a0 db 9b 0f bf bb b0 4d 3a fd 12 ea 3a d9 4a 0b 3d
       -0.5609719 0.0007846464 0.0017858442 0.034006927
0002b0 13 69 f6 3d fd f6 b9 3d 07 60 42 3c d3 60 b3 be
       0.1203176 0.090803124 0.011863715 -0.3503481
0002c0 08 79 6c 3d 29 c4 b1 3d 07 df 44 3d 65 8e 41 bd
       0.057732612 0.08679993 0.048064258 -0.04725494
0002d0 11 05 e6 3c c7 d9 20 bb 6d 5e cb be 89 92 e6 3d
       0.028078588 -0.0024543868 -0.3972048 0.11258418
0002e0 c1 c9 33 3e 31 a8 e5 3b 3b be 84 3d 1a 40 05 bd
       0.17557432 0.0070085754 0.06481596 -0.032531835
0002f0 6b 95 2a 3e c0 be 4b be 24 f5 dc bd b8 15 68 3d
       0.16658561 -0.19896984 -0.10788944 0.056661338
000300 1f d4 1f bc 50 cd 73 bd f4 c9 14 3d 97 8d 20 be
       -0.009755163 -0.059521973 0.03632541 -0.15679012
000310 87 56 e0 be 2c 1c e3 be 4e f9 67 3e fd ad be bc
       -0.43816015 -0.4435743 0.22653696 -0.023276323
000320 40 0e fc 3d 54 7c 92 3d 2c bd 76 3b a3 04 a2 be
       0.123074055 0.0715262 0.0037649376 -0.31644163
000330 93 c6 dc be 18 ef 0b ba e9 a9 d3 bd 2f a3 4d bd
       -0.4312025 -0.0005338057 -0.10335142 -0.050204452
000340 ab 5b a9 3d 5b 83 1d 3a 30 4f ab be 80 03 8a be
       0.082694374 0.0006008648 -0.33458853 -0.26955795
000350 3c d3 f5 bd 32 3d b5 3d 08 6e bc 3c 65 26 8e 3d
       -0.120031804 0.08849563 0.023001686 0.06940917
000360 f3 e8 f5 3d 0b 8b b0 be c5 73 6b bc 4a 0d 56 3d
       0.12007322 -0.3448108 -0.014370863 0.052258767
000370 63 45 6f 3d d8 07 05 3e 60 db 4d 3d ff d1 6a 3d
       0.05841578 0.12991273 0.05025804 0.057329174
000380 30 3c 36 bd f0 c5 8a bd 7f 96 9f 3d 84 a9 48 3d
       -0.044490993 -0.06776035 0.07792377 0.048989788
000390 8a 66 8f 3c f6 1d 5b 3c 3a d8 b2 bd df 6d 5e be
       0.01750495 0.013373842 -0.08732648 -0.217216
0003a0 0a f7 13 bd 24 4b 64 3c f3 92 f6 3c 39 d9 ae 3b
       -0.036124267 0.013933931 0.030099368 0.0053359536
0003b0 a6 41 a8 3b ba bc b4 3c 47 ea 2d 3e ec 71 9f bc
       0.005134779 0.022062648 0.16983901 -0.019463502
0003c0 ff 34 31 3e 22 9a 0d bd df 7b ed 3c 8d 4e df 3d
       0.17305373 -0.03457082 0.02898973 0.10903654
0003d0 54 f6 79 3d 78 71 dc be 32 54 0c be 00 5a c6 bd
       0.061025932 -0.4305532 -0.13703993 -0.09685135
0003e0 ed 35 3d 3e 75 d4 80 3d 78 59 04 3e 5a 69 96 bc
       0.18477602 0.06290523 0.12924755 -0.018360782
0003f0 0d a7 2c be c3 17 53 3e ab 3f 53 3d 1b ea 83 3d
       -0.168606 0.20614533 0.05157439 0.064411364

fc1.bias f4 [64]
000000 f3 30 33 3e bc 3a 48 bd 81 99 52 3e cb 4c 1f 3e
       0.17499141 -0.04888414 0.2056637 0.15556638
000010 9f 5c 83 bc 33 a6 1b 3e 54 bd 17 3e 87 0d 27 3e
       -0.016035376 0.15200119 0.14818317 0.16313754
000020 be 43 2c 3e df 1d 9b 3d 44 e6 c9 3d 70 04 f5 bc
       0.16822717 0.07574057 0.09858373 -0.029909343
000030 58 45 26 3e 2b 55 11 3e 33 5e 38 3e ea 7c 0a 3e
       0.1623739 0.14192645 0.18004684 0.13524213
000040 bb c3 3b 3e fc e7 8b 3d 30 69 98 bd be 9f 1f 3e
       0.18336384 0.06831357 -0.07441938 0.1558828
000050 c5 3e 1f 3e f8 14 13 3e 05 82 bb 3d 13 55 17 3e
       0.15551288 0.14363468 0.09155659 0.14778547
000060 78 d9 b7 3d bf 51 58 3d 75 10 5e bd e1 47 e4 3d
       0.08977026 0.052812334 -0.054214913 0.11146522
000070 82 11 37 3e 49 f6 19 3e c4 d6 14 3e 93 3e 41 3e
       0.17877772 0.15035357 0.14535052 0.18871526
000080 4f b8 32 3e fe 77 17 3e aa ee ed bc d8 45 cd 3d
       0.1745312 0.14791867 -0.029044468 0.10023087
000090 6f ab 18 3e 1e 3f 42 3e 17 e5 53 3e 05 85 17 3d
       0.14909147 0.1896939 0.2069286 0.03699209
0000a0 eb 98 e3 bc a4 71 08 3e 2d f7 24 3e 96 86 30 3e
       -0.027782878 0.133246 0.16109915 0.1723884
0000b0 6d 48 9d 3d 24 00 aa 3d 94 f1 08 3e e1 51 f5 bc
       0.0767983 0.08300808 0.13373405 -0.02994627
0000c0 9b b5 23 3e cb 33 1c 3e 74 93 34 3e 98 21 1b 3e
       0.15987246 0.15254132 0.17634374 0.15149534
0000d0 d1 31 0e 3e eb b1 18 3e 88 f0 56 bd 5e 7c 14 3e
       0.13886191 0.1491162 -0.052475482 0.14500567
0000e0 a3 1d 01 3e 52 6d 19 3e b0 91 bb 3d e0 e8 06 3e
       0.12608962 0.14983109 0.09158647 0.13174772
0000f0 b3 d1 1a 3e 17 6e 0d 3e ca 4d 10 3e 53 f5 2f 3d
       0.15119056 0.13811527 0.14092174 0.04295857

fc2.weight f4 [2, 64]
000000 c4 74 44 be d0 59 b5 3d 06 29 1b be ab dc 16 be
       -0.19185168 0.08855021 -0.15152368 -0.14732616
000010 aa d9 69 3e 48 d7 6b be 34 71 02 3e 29 a7 b7 3d
       0.22836939 -0.23031342 0.12738496 0.0896743
000020 26 3a 74 be 29 f2 a4 3d ce bd d2 3d 39 51 b8 3e
       -0.23850307 0.08054001 0.102901086 0.35999468
000030 9f 2f 32 be 7a 85 9c be 32 cf 35 be 06 77 6d 3d
       -0.17400979 -0.30570585 -0.1775482 0.057974838
000040 c4 51 25 be 9a c4 e8 3d 43 d1 98 bd 9f 19 46 be
       -0.16144472 0.11365624 -0.074617885 -0.19345711
000050 49 8f 7e 3d 46 e4 90 3d 77 b6 20 3e cf 3b ac bd
       0.062148366 0.0707479 0.15694605 -0.08409845
000060 fc e8 eb 3d cb d8 cb 3d 96 19 a3 bd 84 e1 0a 3e
       0.115190476 0.09953459 -0.079638645 0.1356259
000070 b4 f3 2a be ff 50 3f be 64 59 2c be 14 be 25 be
       -0.16694528 -0.18683241 -0.16830975 -0.1618579
000080 8c 90 28 be a6 6f a6 3d 97 8a bf bd e6 2a fc 3d
       -0.1646139 0.08126764 -0.09352606 0.1231287
000090 2e e5 5c be ed f9 17 be 30 70 fe bd 1f d8 bd 3d
       -0.215718 -0.14841433 -0.12423742 0.092697375
0000a0 5e 62 42 be 00 fb 32 3e 98 51 62 be a9 8b 1a be
       -0.18982837 0.17478561 -0.22101438 -0.15092339
0000b0 16 96 a1 3d 41 79 f9 3b 0e e1 92 3d 7a fd 0f bd
       0.07889955 0.0076133315 0.07171832 -0.035153843
0000c0 31 8a 4c 3d b3 9a b5 3d 2e e4 be 3d 84 3f f0 3d
       0.049936477 0.08867397 0.093208656 0.11730865
0000d0 22 1f d1 3d 91 22 27 be a8 31 09 3e 66 1c c8 3d
       0.10211016 -0.1632178 0.13397849 0.097710416
0000e0 74 31 0b be 33 56 2c be 24 1a c8 3d 82 21 93 3d
       -0.13593084 -0.16829757 0.09770611 0.071841255
0000f0 83 7d 9e 3d 73 de 81 3d 41 53 68 3d 2a a6 c9 3d
       0.07738783 0.06341257 0.056720022 0.098461464
000100 dd 13 1b be 6a 98 90 bd b1 3d 0f be 32 30 bc bd
       -0.15144296 -0.07060321 -0.13988377 -0.0918888
000110 8d 85 33 bf 1e c6 41 be 9d 57 ea 3d 65 e4 e4 3d
       -0.7012566 -0.18923232 0.11442492 0.11176375
000120 77 4e 50 be ff 09 ad 3d 23 d0 d0 3d 3e b5 2d be
       -0.20342432 0.08449172 0.10195949 -0.1696367
000130 81 b9 2d be 32 06 80 be 99 36 06 be 2e 0e b1 3d
       -0.16965295 -0.25004727 -0.13106765 0.08645283
000140 9a 3d 15 be 37 a5 da 3d 1a 04 34 3e 5f 28 1e be
       -0.1457428 0.106760435 0.1757969 -0.15445088
000150 33 10 a7 3d 26 91 ac 3d a9 0a 0d 3e da b7 0f be
       0.08157387 0.08426122 0.13773598 -0.14034978
000160 13 ed 00 3e e4 c8 d4 3d 95 3d 23 3e 5f 36 24 3e
       0.12590437 0.10389879 0.1594146 0.16036366
000170 64 27 01 be 19 a7 2c be 39 0b 40 be e5 94 1a be
       -0.12612683 -0.16860618 -0.18754281 -0.15095861
000180 1d db 06 be ea d9 a7 3d 82 45 62 3d 83 da d8 3d
       -0.13169523 0.08195861 0.05524207 0.10588553
000190 00 34 31 be 43 e9 25 be 49 66 06 be 0c 70 0d 3e
       -0.17304993 -0.16202264 -0.13124956 0.13812274
0001a0 dc ab bc 3d 0c de 3c 3e 64 0d 32 be 93 d0 1b be
       0.09212467 0.18444079 -0.1738792 -0.15216284
0001b0 ef fc 9e 3d a6 94 2a be ae f8 a5 3d a0 29 f2 bd
       0.07763087 -0.16658267 0.081040725 -0.118243456
0001c0 ce d0 a4 3d c1 2c cb 3d 69 58 11 3e fb 7f dd 3d
       0.08047639 0.099206455 0.14193882 0.10815426
0001d0 0a 45 f0 3d d0 bb 0b be 9d 2b 2d be 1b d0 d4 3d
       0.11731918 -0.13645864 -0.16911168 0.103912555
0001e0 33 f8 4e be 6f 6f 15 be d4 98 ee 3d cc cc ba 3d
       -0.20211868 -0.1459329 0.116502434 0.09121093
0001f0 99 d5 b0 3d a1 48 a4 3d d0 5e 93 3d d8 cc 6f be
       0.086344905 0.08021665 0.071958184 -0.23417985

fc2.bias f4 [2]
000000 b3 5a b8 be 44 fe 02 bf
       -0.36006698 -0.5116923
