assignment-5/models/best_model_34.4.pth (torch, 110560 bytes, 8 tensors)

conv1.weight f4 [4, 4, 8, 8]
00000000: 077b fcbd 501d 913b c21b 2d3c 0ab9 133d
00000010: 3dcd 35be 206b 493c 166d 6c3d 4339 96bd
00000020: eb56 503c a745 65bd 918f ca3d 3d66 233c
00000030: c503 7ebe 4d92 6f3e f542 433d af27 0d3e
00000040: d350 2ebd 7a2a 593e 1e81 8c3d 5b1d 4f3e
00000050: 1a3c 05bd 13e2 de3d 2fdb 463e 2b09 81bb
00000060: 25ee 5bbb f7a4 e63c bf86 b8be f092 08be
00000070: 7aef 653e 177d 783e 85db 343d 4a51 f6b9
00000080: 669f 31be 6dd8 f03c 8527 50be 8d19 713e
00000090: f16c 793d 4fd2 453e 55ed 873d 9e39 25bd
000000a0: 4388 67be 5c7b 30be 6610 25be 7975 593d
000000b0: 2798 39bd 93ae 9f3d c9ad 1b3d 2728 e3bd
000000c0: 2cc8 023d f745 96bd 183a 86be 0f03 42bd
000000d0: 20f5 fcbd 3f89 2a3e 5c39 913d ab8e 323e
000000e0: 0dd4 063e 74a0 d03d daa8 543d c063 1b3e
000000f0: d49c bb3e bdb2 893e 1101 993e 895a 5d3e
00000100: fa12 05be 0f9f 90bd 9437 c03d acdf 60be
00000110: 1bfe 00be 11c2 11be b624 c0bd 2551 06be
00000120: ec58 4a3b 4c72 2b3c c63d a6bd 4b02 aebc
00000130: 0d12 8fbe 5251 2dbe 81b2 7abe f2a7 e6bd
00000140: 3e2e df3d e778 493d 0af8 4dbd 8474 913e
00000150: 596a fbbd 2c71 b23c 0369 8c3c 462c 6abd
00000160: 8a26 b3be 9e5c c5be ab88 103e 94f0 553e
00000170: d673 85bd 2dfb c13d 961d 2d3e a74a 9abb
00000180: 5730 a43c 8ad2 46be eaeb 1fbe b6e0 d9bd
00000190: 1a13 323d ac44 63bd b773 3ebe ec68 8ebd
000001a0: 9f26 323e 1ad2 553d f16b 98bd e964 07bd
000001b0: 49eb 8c3e e612 023e 2a24 2f3e 07d0 4abd
000001c0: 26bc 3dbc 86b3 003e 4458 143c 06ba 36be
000001d0: 1e0c b3bd 4051 573e 96fe 2d3e 5980 07bc
000001e0: 5b82 7e3d b261 bf3d 08b0 a63c a8b6 043d
000001f0: f18e 113e 5119 893e 41e1 173e 43af 23be
00000200: fb78 633d 22d7 4f3b 395b 7ebe e7f4 90bd
00000210: 8b87 443d c81f 9f3c 3058 563d 5e27 8dbd
00000220: c72f 04be d784 4fbd 0524 45be ae2e 33be
00000230: 97c2 58be a1bc 3fbd b930 24be 30e0 0dbe
00000240: b8d9 393d f3c3 25be c6e1 53bf 85c2 63bd
00000250: 0e1a 19be 8031 9cbd 50fa 23bc 7d96 5d3d
00000260: 2def d33e ecad fd3c 52e6 2dbf 7dc1 333d
00000270: 9c06 853e 4fcd 24be 94ac ad3d f63c 043e
00000280: ea02 de3e 85ce 3c3d 0a13 b8be af65 13be
00000290: df5a c4bd 50c5 d3bc 994e 223d e0a1 2ebe
000002a0: deec 383e 1642 c73e 7ccb f73d 7322 8d3e
000002b0: e62e 303e 2ed8 823e ce65 723d f3d9 aebe
000002c0: 6ecf 74bd a364 92be 9a0d d9bc dae5 03be
000002d0: 2dd0 953d a84e c63d 65de 2f3e 92a6 9bbd
000002e0: 7bd2 ce3d 409d d6bd ff5d 35bd b0c3 38be
000002f0: 76a2 bb3d af28 523e 494f 53bd 6370 a3bd
00000300: 4d9e a03e cb3c 103f 9a62 d03e 3656 dd3d
00000310: b19c 6c3e 3467 9f3e b706 453c 3625 323e
00000320: ea01 debe eaf5 acbe e8c0 e1be ec84 59be
00000330: f33a c13d c1d5 683e 37a9 413c b368 a73c
00000340: 2356 48be 744b 8dbe 9f43 8dbe 7ee6 c0bc
00000350: 3552 183e 9c10 ce3d 2eb5 a1be f352 9c3d
00000360: 8b7b ddbe 7376 4fbd 55be 87bf cbde 08be
00000370: d49f 4b3e 0516 9abd 4d1c c7be 4443 d7bd
00000380: 6832 c33c 0655 86bd 84e5 33bf b308 aebe
00000390: 940d 113e 9977 88bd 3ddb cbbe 0a6b 70be
000003a0: 075f ad3e 869a 123e ad07 2ebe d2f3 09be
000003b0: 6677 4b3d 2c07 b2be 91a4 223e 101f 08bf
000003c0: 500c 8a3d d125 1fbd ee48 ebbd c7c9 33be
000003d0: 0c9e 0bbe 2161 22be 42ad b6be 538a d5bd
000003e0: d915 6f3e ef75 8d3d c370 cebb 8b57 1abe
000003f0: 16b7 01be 5315 0d3e bc56 153e 8b00 8c3d
-0.12328153 0.004428543 0.0105657 0.03606514 -0.17754073 0.012293607 0.05772122 -0.073351406
0.012716035 -0.05597463 0.09890664 0.009973106 -0.24806125 0.23395653 0.047671277 0.1378467
-0.04255755 0.2120761 0.06860565 0.20226042 -0.03252802 0.10882964 0.1941955 -0.0039378605
-0.0033558693 0.028154833 -0.36040303 -0.13337302 0.22454634 0.24266468 0.044154663 -0.0004698134
-0.17345962 0.029400075 -0.20327576 0.23544903 0.06089491 0.19318508 0.06637064 -0.04033815
-0.22610573 -0.17234558 -0.16119537 0.053090546 -0.04531112 0.07796969 0.03800753 -0.11091643
0.03192918 -0.073375635 -0.26216197 -0.0473662 -0.123514414 0.16653918 0.070910186 0.17437236
0.13166828 0.10186854 0.051918842 0.1517477 0.36643088 0.2689418 0.29883626 0.21616568
-0.1299552 -0.07061588 0.09385601 -0.21960324 -0.12596934 -0.14234187 -0.09382002 -0.13116892
0.0030875755 0.010464262 -0.08117251 -0.021241328 -0.2794346 -0.16925552 -0.24482156 -0.11262502
0.10897492 0.049187567 -0.050285377 0.28409207 -0.122761436 0.02178248 0.017139917 -0.05717113
-0.3499034 -0.38547224 0.14114635 0.20892555 -0.065162346 0.09471736 0.16905817 -0.0047086063
0.020042581 -0.19416252 -0.15617338 -0.10638563 0.043475248 -0.055485412 -0.18598829 -0.06953606
0.17397545 0.05220232 -0.07442463 -0.03305522 0.27523258 0.12702522 0.17103639 -0.049514797
-0.011580503 0.12568483 0.009054247 -0.178444 -0.087425455 0.21027088 0.16991648 -0.008270347
0.062136035 0.09344806 0.02034761 0.032400757 0.14214684 0.26777127 0.14832021 -0.15984826
0.055535298 0.0031713923 -0.24839486 -0.070779614 0.047980826 0.019424334 0.052330196 -0.06892274
-0.1290885 -0.050663795 -0.19252022 -0.17498276 -0.2116798 -0.04681075 -0.16034211 -0.13855052
0.04537365 -0.1618803 -0.8276638 -0.05560543 -0.14951345 -0.07626629 -0.01000841 0.054098595
0.41393414 0.030966721 -0.67929566 0.043885697 0.25981605 -0.16093944 0.08480182 0.1291388
0.43361598 0.04609539 -0.35952026 -0.14394258 -0.09587645 -0.025850922 0.039625738 -0.17053938
0.18059108 0.38917607 0.120993584 0.27565345 0.1720539 0.25555557 0.05917912 -0.34150657
-0.059768133 -0.28592405 -0.026495744 -0.1288065 0.07315097 0.09682971 0.1717468 -0.0760013
0.1009874 -0.10479212 -0.044279095 -0.18043399 0.09161846 0.20523332 -0.051589284 -0.079804204
0.31370774 0.5634276 0.40700227 0.10807459 0.23106648 0.31133425 0.012025527 0.17397007
-0.43360835 -0.33781368 -0.44092488 -0.21242112 0.09435072 0.2273779 0.011820129 0.020435667
-0.19564109 -0.2759663 -0.27590653 -0.023547407 0.1487511 0.10061762 -0.31583542 0.07633009
-0.43258318 -0.05065007 -1.060496 -0.13366239 0.19885188 -0.07523731 -0.3888878 -0.10510877
0.023827747 -0.06559186 -0.7027209 -0.33991012 0.14165336 -0.066634364 -0.39815703 -0.23478332
0.33861563 0.14316759 -0.16995116 -0.13471916 0.049674414 -0.34771097 0.1588309 -0.531724
0.0674063 -0.038854424 -0.114885196 -0.1755744 -0.13634509 -0.15857364 -0.3567906 -0.10426774
0.23348178 0.0690726 -0.0063000633 -0.15072457 -0.12667498 0.13777666 0.14583868 0.06836041

conv1.bias f4 [4]
00000000: fe5c 80bb 09d1 333d 8bc5 9dbd 312f d8bb
-0.0039173355 0.043900523 -0.07703694 -0.0065974225

conv2.weight f4 [8, 4, 4, 4]
00000000: 66d8 87bd 77a6 d93d c3e5 e2bb 2b0a 663d
00000010: ee54 44be 009f cc3c 9cfa 473d 2325 953d
00000020: e080 80be 4f1b d03d 08c5 2ebc 8330 c2bb
00000030: 4809 bcbe cd81 a63d 47fa 18be ec7b 08be
00000040: 3ebc ea3c 87ff 3abe cf2e f23d 7aba 45be
00000050: 4ecd 25be 8677 0dbd 67a1 bdbd c795 90be
00000060: 5cc6 c7bd 7d60 2d3d b045 043c b3bd dfbe
00000070: 4496 c53d 7b62 cf3e c7d2 aabd ecec 36bf
00000080: 4419 0bbf bb29 11bc a7e3 373d f021 e13d
00000090: c67c 41be dbc5 96be 0319 bc3d 8d16 b63d
000000a0: 9de7 07bf 51c8 ac3c 6cf5 8fbe 7504 20be
000000b0: faa8 fabc 7045 923d 5b38 8abe 9dac 6ebc
000000c0: 8223 e23d fe3d 2abe 939c 9abe 2c3c bd3e
000000d0: 4071 07be 5cc5 e8bb 065c 25be cd99 a63e
000000e0: 3ddf d3bd b30a b6be d0c6 a3be e4fa 743e
000000f0: 557f 1abc 8cb8 64be b72b 53be a897 ab3d
00000100: 41e4 61bd 2dc4 3f3c bbd5 1f3e 61db 103e
00000110: d810 aabd f0a9 c7bc e15c b43e f0c5 07bd
00000120: d8db 56bf 450f c63b 438b 6b3d 587e bb3d
00000130: 409b e0be 3c9d f4be 7c03 0e3e dd90 bdbc
00000140: d3b9 fb3b b932 20be bd57 02bd 73b2 9b3e
00000150: 7b46 0dbe cbe4 d7bd 2d56 533d 6a9c 55be
00000160: 1be9 a23d 195d 91be 5908 79be af9c f43e
00000170: a104 ec3d af3a 67be dea9 7abe 0fe9 663e
00000180: f480 bdbd 74ca b53d dee7 573d 7345 4a3d
00000190: 6b6a 653d 0e3c 89bc d35f e33c bc5f e5bd
000001a0: 36ee b3bc 0890 17bf 4dcb 42be 2a45 5bbe
000001b0: 5c91 3abf 19db 6fbd e875 08bf 6fab 99be
000001c0: 0e81 60bf e0e0 eb3d c307 6c3e 9c8d fd3e
000001d0: e715 383c 650e b63e e99c 5e3e 39b4 a43e
000001e0: fdc2 3cbe 455e 15be 6471 b6bd 08bc 823d
000001f0: 3e0b 43bd 6fb5 0abf a08d dcbe 6c4f 9ebc
00000200: cfde 81bd f434 c73d 1efe 79be 5904 36bb
00000210: 0d3b cabd 45a3 44bd aba2 9c3d d3c4 85bd
00000220: 2700 933d d237 a2bd dde6 4a3e c8c2 a6bd
00000230: f81a 983d 085a 7ebc f753 4f3e 75c3 a2be
00000240: 4bfb e33c db45 8dbc 1cb8 153d 2bb3 7d3d
00000250: 95b7 dcbc 8731 f6bd 20b3 ff3a 9c3c 7dbb
00000260: 0727 a73d d2cb 563d 38b9 b83d 5d9b 0ebe
00000270: 9775 fc3b 73cc 4dbd 40a8 893d 87b5 24be
00000280: 1118 b3bc 726c 95bd 22ba 83be 6060 11be
00000290: 5606 73be 658e e5bc 3198 9d3d 641f 71be
000002a0: dec6 c03d 1138 763c 9ab1 2ebe c412 8cbe
000002b0: d450 08be 785f d6be d68e 70be bd93 d9bc
000002c0: d2a8 1c3e 98f0 75be 9193 13be d9f9 32bc
000002d0: 6aaa 3d3e 5235 13be 3e3d 86be a839 f8be
000002e0: 1ac0 5039 26ab 9e3e a7d0 74be a59c 073e
000002f0: f00c e9bd e196 d0bd 53e0 a7be 22ab 92be
00000300: 5cab c53c 0dbe 4fbd 914b b6bd e6cf 373e
00000310: a473 d0be 8ff2 32bd 2ebe cabd 723a bc3e
00000320: 31e4 a1be 8e32 993d 5f91 a0bd 73b1 ff3d
00000330: ba4f 19bd 864c 523e 8821 353e 9709 4fbd
00000340: f6a1 25be ffe0 263e 3657 4f3c 45dd a83e
00000350: 6a72 4e3d 6758 5dbd b747 0dbd 4d69 8c3c
00000360: 13fb 103e fd50 8dbd a353 4b3d a821 c73d
00000370: bb83 483e 6de2 8bbd a2be 3d3e b79a 903d
00000380: f49e 1bbd fb08 e1bd 83e7 aaba b8f6 94be
00000390: c608 1abf 8070 64bd e72c 773e ba4e c1ba
000003a0: 584d 66be cfb5 02be 8994 393e c299 a1bb
000003b0: dbf3 5abe 8747 a7bd 8788 84be 83ec ea3a
000003c0: 6a7f 073c c3a5 083f 5863 473e 184d 183e
000003d0: f500 30be 6863 273e 8ec5 f13e 43f6 213f
000003e0: 58ec 87bd 095d 8d3d 310c c63e 2e59 f33e
000003f0: 119f 7dbd 180e f6bb 0860 50be 9b38 c3bd
-0.066330716 0.10627454 -0.0069243624 0.05616204 -0.19173023 0.02497816 0.048822984 0.07282474
-0.25098324 0.10161459 -0.010667093 -0.005926193 -0.3672583 0.08130226 -0.14939223 -0.13328522
0.028654214 -0.18261538 0.11825334 -0.19309416 -0.16191599 -0.034537815 -0.09259301 -0.2823927
-0.09754631 0.042328347 0.008073255 -0.43699417 0.096478015 0.40504822 -0.08340984 -0.71455264
-0.5433543 -0.008860047 0.04489484 0.10992801 -0.18895254 -0.29447827 0.09184458 0.0889102
-0.5308779 0.021091612 -0.2811693 -0.156267 -0.030598152 0.071421504 -0.2699612 -0.014567521
0.11041929 -0.1662521 -0.30197582 0.3695997 -0.13226795 -0.007103605 -0.16148385 0.32539216
-0.10345314 -0.35555038 -0.3198762 0.23923832 -0.009429772 -0.22336024 -0.20622145 0.083785355
-0.05514932 0.011704487 0.15608875 0.14146186 -0.08303994 -0.024373025 0.3522711 -0.033147752
-0.83929205 0.0060443007 0.057505857 0.091549575 -0.43868446 -0.4777621 0.13868517 -0.023140365
0.007682064 -0.15644349 -0.031821955 0.30409583 -0.13796417 -0.10541686 0.051595856 -0.20860448
0.079546176 -0.2839134 -0.2431959 0.4777579 0.115243204 -0.2258098 -0.24478862 0.22549842
-0.092531115 0.088765055 0.05271136 0.04938264 0.05600969 -0.01675227 0.027755653 -0.111999005
-0.021964174 -0.5920415 -0.19022866 -0.21413103 -0.7287805 -0.058558557 -0.5330491 -0.30013606
-0.8769692 0.11517501 0.23049836 0.49522102 0.011235691 0.35557857 0.21739544 0.3216875
-0.18433757 -0.14586742 -0.08908346 0.0638352 -0.047618143 -0.54183096 -0.430768 -0.01932498
-0.063413255 0.09726897 -0.24413344 -0.0027773587 -0.09874544 -0.04800727 0.07648214 -0.06531682
0.071777634 -0.07920803 0.1981463 -0.0814262 0.07427019 -0.015524395 0.20246874 -0.31789747
0.027829787 -0.017245224 0.036552534 0.061938446 -0.026943007 -0.12021165 0.001950834 -0.0038640862
0.08161741 0.052440472 0.09019703 -0.13926454 0.0077044475 -0.050243806 0.06721544 -0.16084872
-0.021862062 -0.07296075 -0.25727946 -0.1419692 -0.23732886 -0.028022 0.07695044 -0.23547131
0.09412931 0.015028016 -0.17059937 -0.27358067 -0.13312083 -0.41869712 -0.23491988 -0.026559705
0.15298775 -0.2401756 -0.14411761 -0.010923826 0.18522039 -0.14375809 -0.262186 -0.48481488
0.00019907989 0.3098995 -0.2390772 0.13243349 -0.11379421 -0.10185028 -0.32788333 -0.2864619
0.024129562 -0.050718356 -0.08901132 0.179504 -0.40713227 -0.043688353 -0.09899555 0.3676334
-0.3161941 0.07480346 -0.07840227 0.12485018 -0.03742955 0.20537004 0.17688572 -0.050546255
-0.16175064 0.16296767 0.01265507 0.32981315 0.050402083 -0.054039385 -0.03449222 0.017140055
0.14158277 -0.06900213 0.04964031 0.09723216 0.19581501 -0.06830297 0.18529752 0.070607595
-0.037993386 -0.10988041 -0.0013038967 -0.2909448 -0.6016964 -0.05577135 0.24138223 -0.0014748194
-0.22490442 -0.12764667 0.18123068 -0.0049316594 -0.21382086 -0.0816794 -0.25885412 0.0017923269
0.008270124 0.5337793 0.1947149 0.14873159 -0.17187865 0.16346514 0.47221035 0.6326639
-0.06636876 0.06902511 0.38681176 0.47528976 -0.061919276 -0.0075090043 -0.20349133 -0.09532281

conv2.bias f4 [8]
00000000: da2b 183d ff32 8abc 2679 483e 2d34 e3bd
00000010: 6d75 8e3b 9739 03bb 2b71 7c3b c15a 193c
0.037151195 -0.01687002 0.19577464 -0.11093936 0.0043474943 -0.002002334 0.0038519602 0.009360016

fc1.weight f4 [64, 392]
00000000: 16f9 cebe 87d4 babe 2f0d 353d 25e9 e23d
00000010: 9ec8 973d 2fd7 2bbe e3d8 773e db96 823e
00000020: 13b2 f4bd 43a9 913d c335 6abe f7a4 403d
00000030: 8e28 9ebd 5521 d5bc 0d64 e53c 6380 77bc
00000040: a32d 19be f9ab 68bd c399 98ba 096c 2b3d
00000050: 5fdd 343e 4f71 0a3e 6cf7 fdbd 4bc5 2cbe
00000060: 74ad 12be ff76 7f3e 205c ce3d 85ad ddbb
00000070: 5f13 32bc 3170 e1bd 08dd 01be bcfd b9be
00000080: 7f60 9fbb bf5a 513e 1e80 323e bf4e 52bd
00000090: ef45 6b3d 04b1 de3d 396e d9be e6bb 8f3e
000000a0: 2c32 af3d 10bf 6e3e 0099 c9be 5d59 3c3e
000000b0: 94fa dabc b03f 74be 91d6 333e 3ccf b4bc
000000c0: 3d6f 913e 8453 b8be 32eb 4ebf b780 543e
000000d0: df2c cabe 02b7 7cbd 4b3b 48bd 7d14 32be
000000e0: 5682 333e 6656 00be 7c43 d5bc ab67 60bf
000000f0: 7b46 2ebe b644 dc3d f680 43be ebe0 c1be
00000100: c2ef 953b 7024 b03e 659c 5d3d ab26 c7be
00000110: 8a87 323e 15a3 7e3e 0a27 20be 0ad5 18bc
00000120: 395b 353e d700 a7be a82f 2abf a46c 223e
00000130: ac02 54bd 3d27 ba3c 5dfe 763d 591b 26be
00000140: 43ff a5bd a615 73be 54ff f13d cbc1 9dbe
00000150: 96bd 32be b19d d53d af48 84bc 4038 87be
00000160: a7e2 2fbe 5651 3bbd 6187 d03d cef1 c53b
00000170: 36cb 3abe c0e3 6b3f 3757 15bf 97a2 c4bd
00000180: d9a7 543e 8c5e 29be b474 0f3e 37f2 3e3d
00000190: 23a2 323d 90e1 973e 0b96 3e3e 745a 983d
000001a0: 1418 7cbc b27c 843d 9ed7 f93c bc15 6b3e
000001b0: ea1b 403e 908e c73d 041a 193e e2aa 23bd
000001c0: ae84 393c 57bf c43c 2f84 8c3e 8e23 293d
000001d0: e46a b43d 779a d13d 56ce d1bd 3248 853d
000001e0: 44cb 02bc 339e 86bb 85d9 203e ead0 663e
000001f0: d4eb 1f3e 9437 dc3d f439 f43d bea4 07be
00000200: e1d1 c53d c5d0 853e edbd 4d3e 1c4f 98bb
00000210: 5593 3c3e 8bee 9d3d 28af 43bd 3b37 c2bd
00000220: 941b 1d3e bff6 913d 87ea ff3d 49f3 96bd
00000230: 4130 c53d 001e b33d fa6d a13d ae62 963e
00000240: 19f5 9a3d d1e0 e13d 96a9 f8bc a17c 0abf
00000250: 543f 09bf 021b 02be 28bd acbd f79c 9cbd
00000260: 9194 19be 5d4a 043e a4b0 253e 7fc3 483e
00000270: 95fd a3bd 0c6b 75bc 111f e7bd 2859 873e
00000280: a15e 63bd 3d42 fd3e 20b6 873d 59e0 e9bc
00000290: 6449 d5bd d730 7dbe 0545 963d b84b 48be
000002a0: d7dc e13d d612 c13d a50b 9e3d 2c06 463e
000002b0: 65ca 7b3e c662 0cbf c880 a83d 80da a3bb
000002c0: d0ba 10bd 2260 8abd 3ca3 98bd 2287 f7be
000002d0: 721a c83c ee6c 9dbc 0877 193e 4f0a 48be
000002e0: 49bc 843d c127 c3be 2371 70bf a0e2 6cbd
000002f0: 871f 483d 9d46 a03c 0adf 85be 8fd2 513e
00000300: 2d1b babd be15 e0bd e473 263e 4239 803d
00000310: a2e6 02bf 7366 8cbe 1caa 4cbf b2a8 d93e
00000320: 04f6 48bd 7bdb 24bc 0913 01be 6cdf 8dbe
00000330: 06c0 38bd 4e97 183e d1f9 32be 021b c6bc
00000340: 6780 863e 1e80 c0bd 7c86 48bd ac23 c6bd
00000350: bdcf 59be a2cb 0abe aa71 c63e e365 0abd
00000360: 4618 943d 4758 d3bc b8b6 d63b a01e 04bf
00000370: cf9d 31bf d137 3dbe 0a96 acbd 0541 293e
00000380: 5c37 1fbe 7ee7 32bd e9b9 33be 4298 303e
00000390: 385f 0dbf 41d5 403d db1b b13d 9f1e 14bd
000003a0: 063c 00bb 78fa 8ebe c376 9c3b dc16 4dbe
000003b0: 42cf 0f3e 51d3 9dbd 2d80 58be c2ba 1cbf
000003c0: 8c42 02bf 62f8 443e 2c31 b93c 74b7 963b
000003d0: c471 6b3e 89d9 8a3e 9905 1bbe 40b0 39bf
000003e0: 2dd4 003e 9a97 c13d 1cbd 523d 74bf 993c
000003f0: d773 d13d 957f 9cbe 0633 163e 3b80 8a3e
-0.40424412 -0.3649027 0.044202026 0.11079625 0.074113116 -0.16781305 0.2420383 0.2550572
-0.119480275 0.07112362 -0.22872071 0.047032323 -0.07722579 -0.02601687 0.02800181 -0.015106293
-0.14958815 -0.05680463 -0.0011642504 0.041851077 0.17662571 0.13519786 -0.124007076 -0.16872136
-0.1432398 0.24947737 0.10076165 -0.00676507 -0.010868876 -0.11007727 -0.12681973 -0.36326396
-0.004863798 0.20444773 0.17431685 -0.05134463 0.05743974 0.10873607 -0.42466906 0.28073043
0.085544914 0.23315072 -0.39374542 0.18393464 -0.026730813 -0.2385242 0.1756232 -0.022071473
0.2840518 -0.36001217 -0.8082763 0.20752226 -0.3948736 -0.061697967 -0.04888467 -0.17390628
0.17530188 -0.12532958 -0.026033156 -0.87658185 -0.17019074 0.10755293 -0.19092163 -0.3786691
0.0045757005 0.344028 0.054104228 -0.3889669 0.17434517 0.24866898 -0.15639892 -0.009328136
0.1771058 -0.32617828 -0.6647897 0.15861756 -0.05176036 0.022723788 0.060301173 -0.1622137
-0.08105328 -0.23738727 0.11816278 -0.30811915 -0.17455134 0.10430468 -0.01614794 -0.26410103
-0.17176305 -0.045731865 0.101820715 0.0060407883 -0.18241581 0.92144394 -0.58336204 -0.09601324
0.20767154 -0.16539973 0.14009362 0.046617713 0.043611657 0.29664278 0.18611924 0.074391276
-0.0153866 0.06469096 0.030498322 0.2295751 0.18760648 0.097439885 0.1495133 -0.03995789
0.011323137 0.02401702 0.27444598 0.041293673 0.0880945 0.1023454 -0.102444336 0.06507911
-0.007983033 -0.0041082143 0.15707977 0.22540632 0.15617305 0.10752788 0.11925116 -0.13246438
0.09659172 0.2613584 0.20091982 -0.0046481024 0.18415578 0.07711514 -0.047774464 -0.094831906
0.15342551 0.07127141 0.124959044 -0.07370622 0.09628344 0.087459564 0.078823045 0.29372162
0.0756628 0.110292085 -0.030354302 -0.5409642 -0.53612256 -0.12705615 -0.08434516 -0.07647126
-0.1499808 0.12918992 0.16180664 0.19605826 -0.08007351 -0.014979135 -0.11285222 0.26435208
-0.055510167 0.49464598 0.066265345 -0.02854936 -0.10414389 -0.24725662 0.07337383 -0.19560134
0.1102845 0.09427421 0.07717065 0.19338292 0.24588926 -0.54838216 0.08227688 -0.0050004125
-0.03533441 -0.06756617 -0.074530095 -0.48345286 0.024426673 -0.01921698 0.14986813 -0.19535182
0.06481225 -0.38116267 -0.9392263 -0.057833314 0.04885819 0.019564921 -0.26146728 0.20490478
-0.090872146 -0.10941647 0.16255146 0.06260921 -0.5113317 -0.27421913 -0.79947066 0.42511517
-0.049062744 -0.010062094 -0.12604918 -0.2770952 -0.045105003 0.14901468 -0.1747811 -0.0241828
0.26269838 -0.093994364 -0.04895638 -0.096747726 -0.21270652 -0.13554242 0.38758594 -0.033788573
0.07231192 -0.02579893 0.0065525435 -0.5160923 -0.6938142 -0.18478324 -0.08427055 0.16528709
-0.15548462 -0.0436778 -0.17551388 0.17245582 -0.5522342 0.047078375 0.08647891 -0.036162015
-0.0019567027 -0.27925467 0.0047748997 -0.20028251 0.14043906 -0.07706321 -0.21142645 -0.6122247
-0.5088279 0.19235376 0.022606455 0.004599506 0.22992617 0.2711909 -0.15138854 -0.7253456
0.12580939 0.09452744 0.05144988 0.01876805 0.10227173 -0.30566087 0.14667901 0.27050957

fc1.bias f4 [64]
00000000: b354 ed3d 17bc 63bc 5694 bf3d dc43 8c3e
00000010: 6947 cd3d ceb3 4b3a 5434 6a3e 6d4e 9f3e
00000020: 67ac a13e b7fb 7bbd ef96 c33e 8f04 d23e
00000030: 56ef 783e 9832 953d b2f2 a13e f87c a53e
00000040: e466 963e 0a8c 2fba 4d88 333b 2837 d1bd
00000050: f64f ef3c eebc 08bd 8eee 853e ffc8 963e
00000060: 8b1c a13b 050c b13b 0e4e 3cbb 0922 d73e
00000070: 71d6 363d fed3 8f3e 8f75 2c3d 879b 923e
00000080: 6f14 9a3e fb44 823e d746 9d3d e73e 333d
00000090: 0281 67b9 0974 d33e 725e 063d 205c ce3c
000000a0: d9fe 923e 10e5 ba3d 909e 873e 7818 8b3e
000000b0: a37c 9b3e cd50 23bd 43e5 b9bc d3ab cd3e
000000c0: 3f61 8c3e 46fa 963d b83d 103d 01ea 863e
000000d0: 15b2 8e3e ea4e ffbb 31cf 4e3e 55e6 873e
000000e0: 79c9 8b3e d846 63bd a709 9c3e 8e3c 13bd
000000f0: 0684 883e 4eac 933e 56ae 0cbd 2b75 123e
0.11588421 -0.013899825 0.09354465 0.27395523 0.10023386 0.00077706284 0.22871524 0.31114522
0.31576845 -0.06151935 0.3820109 0.41019103 0.2431005 0.072850406 0.31630474 0.32321906
0.29375374 -0.00066965877 0.0027394474 -0.10215598 0.029212933 -0.033383302 0.26158565 0.29450223
0.0049167327 0.005403044 -0.0028733048 0.42018154 0.0446381 0.28091425 0.0421043 0.28634283
0.30093715 0.25443253 0.07679527 0.04376116 -0.00022077936 0.41299465 0.032804914 0.025190413
0.28710058 0.091257215 0.2648816 0.27167106 0.30368528 -0.03987198 -0.022692328 0.40170154
0.27417943 0.073719546 0.03521511 0.26350406 0.2787024 -0.0077913897 0.20196225 0.26542917
0.2730215 -0.055487484 0.30476114 -0.03594642 0.26663226 0.28842396 -0.034345947 0.14302509

fc2.weight f4 [2, 64]
00000000: c9ea 453d 4812 1c3d 4e70 a43d ee3b 3cbe
00000010: 2044 f23d 3707 e73d 4c03 4ebe 629f 18be
00000020: 9f95 1bbe a03d 3fbe d0a1 48be 7e25 24be
00000030: fc63 62be fefe 023d c720 19be e44f 38be
00000040: 7b93 e7bd 7d57 ed3c 92d8 583e dfb1 10be
00000050: aaac 733d e371 433c 1564 69be 14b1 46be
00000060: 0151 d5bb e10f b13c 82ae f43c e879 28be
00000070: 328c 223d 8336 55be 9e68 173d e55d d1bd
00000080: acf4 1bbe 7505 3ebe 682e 113d cbc2 403d
00000090: e05a ed3c da3c 0fbe 9e9e 373d 9e43 2a3d
000000a0: 1aa5 1ebe 5a06 363d bc90 85be 2ddf 70be
000000b0: eaad 3cbe 51ea 853e 1104 d23d 5226 36be
000000c0: cdd4 2abe 9f95 943d 7dff 1d3d af84 79be
000000d0: 100b 57be a79e 243d 1a90 ce3b da92 48be
000000e0: a83b 37be 51d7 91bd f4da 0dbe 3e93 a4bd
000000f0: 7b2b 33be 6854 22be adda 913c 0eec debe
00000100: 92a9 b63d 3b51 a13d e9c5 2f3e 0d1f 33be
00000110: f413 193e ffde f43c dcb0 14be b3f1 0bbe
00000120: 7b9a 1ebe 4fac f3bd 4ef0 39be 291a 1ebe
00000130: 5125 26be ec07 2f3d 2d4a 0ebe b14e 1cbe
00000140: f3d6 14be 46e1 783d 7dc1 ff3d 2829 623e
00000150: a841 653d bdc4 ce3d 97cf 10be e07b 09be
00000160: a23a ff3d d67d 943d 0fd7 4e3d 7f54 01be
00000170: 987e 5d3d 298d 1fbe c4ad 883d 868b 35be
00000180: fda9 1bbe 009e 32be a8ce dd3d a8f4 30bf
00000190: af2b a13d eef0 04be 435b 6c3d 7c74 763d
000001a0: fb79 21be d985 003e 7b75 31be 7475 3abe
000001b0: 4bf0 fabd e36a 083e d0a6 f43d c05e 18be
000001c0: e064 07be 1e06 513d ab0f b13d 0f1d 3bbe
000001d0: eef1 47be d78d 943d b75d a3be 2e78 20be
000001e0: 2604 1fbe dc3b 5f3e dd87 04be 290f 3dbc
000001f0: 0ca7 1ebe 97a2 35be d80a 753c 71d6 973d
0.04831961 0.03810337 0.08029233 -0.18382236 0.118294 0.11280673 -0.20118445 -0.1490455
-0.15193795 -0.18675852 -0.19592977 -0.16029927 -0.22108454 0.03198146 -0.1495391 -0.17999226
-0.113074265 0.028972382 0.21176365 -0.14130352 0.059490837 0.011929008 -0.22792085 -0.19403487
-0.0065099006 0.021614017 0.029868368 -0.16452754 0.039684482 -0.20821576 0.036965005 -0.10222987
-0.15230054 -0.18556769 0.035444647 0.04706077 0.028973997 -0.13988057 0.044829004 0.04156839
-0.15492669 0.04443965 -0.26086986 -0.23522635 -0.18425718 0.26155332 0.10254682 -0.17788056
-0.1668274 0.072551005 0.03857373 -0.24367021 -0.21000314 0.040190365 0.0063037993 -0.1958727
-0.17893851 -0.071211465 -0.13853055 -0.08035897 -0.17497055 -0.15852511 0.017804468 -0.4353947
0.08919062 0.078768216 0.1716534 -0.17492314 0.14949018 0.02989149 -0.14520591 -0.1366642
-0.15488617 -0.118981 -0.18158075 -0.15439667 -0.16225173 0.042732164 -0.13895483 -0.15264393
-0.14535122 0.060761712 0.12488077 0.22086012 0.055970818 0.100961186 -0.14141689 -0.13426161
0.12462355 0.07250564 0.050498065 -0.12629889 0.054075807 -0.15581192 0.06673768 -0.17729005
-0.15201564 -0.17443085 0.10830432 -0.69123316 0.0786966 -0.12982532 0.05770422 0.060169682
-0.15769188 0.12551059 -0.17329971 -0.18208867 -0.122528635 0.13322024 0.119458795 -0.14879894
-0.13222075 0.051031224 0.086455666 -0.18272804 -0.19525883 0.07253616 -0.31907436 -0.15670845
-0.15528926 0.21800178 -0.12942453 -0.011539259 -0.15493411 -0.17737804 0.014956199 0.07413948

fc2.bias f4 [2]
00000000: fb51 8b3f 1a32 0f3f
1.0884393 0.55935824
