assignment-5/models/best_model_16.8.pth (torch, 110560 bytes, 8 tensors)

conv1.weight f4 [4, 4, 8, 8]
-0.108120814 0.0031509467 -0.17448428 -0.04909142 -0.015668826 0.11270971 -0.019066298 0.025326854
-0.026621956 -0.13494532 -0.25500655 0.070558116 -0.0071080993 0.07365071 -0.15565778 -0.095764115
-0.08205086 0.03601264 -0.2605643 -0.017487692 0.09116688 0.21657741 -0.09382787 -0.030746847
0.01744022 0.04184313 -0.1840898 -0.13278742 -0.13073744 0.058287933 -0.058715258 -0.06147094
-0.10604318 -0.005529691 0.0054396503 0.121295236 0.028179143 0.068106234 -0.0967052 -0.22947997
0.009394893 -0.063646965 -0.06660525 -0.08381016 -0.11630804 -0.0255605 -0.15707777 -0.01095899
0.11746243 -0.054789625 0.05919193 0.20243815 -0.123951554 0.0868688 -0.13804784 -0.11553849
0.08188854 0.09379439 0.1458114 0.043277662 0.028783934 0.00051159796 -0.15488838 -0.09839578
0.050067034 -0.024981612 0.067546 0.021044012 -0.014280742 -0.08420388 0.019592032 -0.016789638
0.0954001 0.104260966 -0.028886188 0.20806888 0.23072797 -0.17594771 -0.17919391 0.015871048
0.07072347 0.15157858 -0.049098562 0.13081096 0.13502288 -0.0052284403 0.010819686 0.018412692
0.026770143 0.035543963 0.167463 -0.02232079 -0.06521661 -0.081522234 -0.013652973 0.12806618
-0.029827258 0.2338728 0.037846144 0.072638385 0.13196999 -0.024305213 -0.10324947 -0.12618983
0.06745373 0.018550556 -0.005571493 -0.07449002 -0.024396468 0.047235146 0.18910037 -0.1640122
0.19054137 -0.057892382 0.090585105 0.20130122 0.13515477 -0.054862816 -0.1379903 -0.12081759
0.015691174 0.04847742 0.099656746 -0.080769695 0.09261088 -0.048495002 -0.17655435 -0.2889476
-0.1706358 -0.19604269 0.26302138 -0.18073642 -0.1922854 0.015569323 0.2017498 -0.12177864
-0.000828997 0.002683421 -0.006157242 0.1850653 0.0136796255 -0.037368022 0.06271263 -0.08847178
0.37009823 0.37358463 0.010179122 0.26286408 0.21387137 0.3308261 0.18071592 0.078421116
0.1369486 0.2532658 0.17627105 0.19880325 0.010180814 0.2776108 0.036187306 0.18316537
0.1944533 0.12200374 0.21897967 0.17186701 0.13281986 0.06706094 0.05575168 0.041589618
0.10814314 0.085223496 0.076618955 0.048084155 0.069942184 0.105726935 0.18822634 0.29599774
0.06459201 -0.03970454 0.09827425 0.09370917 -0.13512197 -0.08250233 -0.14541651 0.07025489
-0.1910046 -0.23472469 0.005400212 -0.053945795 0.13171716 0.0062671658 0.021280233 -0.12593444
-0.23292337 -0.30806375 -0.4013289 -0.2103793 -0.2492279 -0.12321557 0.1604705 8.306888e-07
-0.2573337 -0.24661525 -0.8986743 -0.16146234 -0.23524763 -0.24275483 0.09196459 0.1270863
-0.23988052 -0.19372648 -0.46440145 -0.24251615 -0.004799592 -0.021083368 0.06795248 0.47455853
-0.21795948 -0.13425277 -0.4547022 -0.07774209 -0.09583994 -0.109365806 -0.31754726 0.3652639
0.12523915 0.12049436 -0.055861216 0.08546025 -0.07009887 0.19917795 0.058511242 0.30992445
-0.105084956 0.17683427 -0.110901475 0.15784192 0.30465424 0.31363556 0.15969217 0.25593644
0.15267286 0.00854473 -0.08375094 0.37784523 0.3602734 0.25751692 -0.03840234 0.20892444
-0.07951309 0.097386464 -0.1962556 -0.04437397 0.19128825 0.34099633 0.15195625 0.20308413
00000000: 726e ddbd 1d80 4e3b 02ac 32be 1614 49bd
00000010: e95b 80bc 59d4 e63d ed30 9cbc 437a cf3c
00000020: 4a16 dabc 1b2f 0abe 3890 82be c680 903d
00000030: 0feb e8bb 2fd6 963d c164 1fbe fa1f c4bd
00000040: 480a a8bd fd81 133d af68 85be 5942 8fbc
00000050: b4b5 ba3d 78c6 5d3e d428 c0bd d0e0 fbbc
00000060: cbde 8e3c b463 2b3d 0982 3cbe 6df9 07be
00000070: 09e0 05be 54bf 6e3d 697f 70bd f4c8 7bbd
00000080: 2b2d d9bd 6932 b5bb 183f b23b a369 f83d
00000090: f2d7 e63c 487b 8b3d 600d c6bd ccfc 6abe
000000a0: 0aed 193c 5759 82bd 5568 88bd a9a4 abbd
000000b0: e932 eebd 4164 d1bc ffd8 20be 568d 33bc
000000c0: 2490 f03d 166b 60bd 3d73 723d f24b 4f3e
000000d0: 50da fdbd 45e8 b13d 6a5c 0dbe 729f ecbd
000000e0: 2eb5 a73d 4617 c03d 954f 153e eb43 313d
000000f0: 49cc eb3c c21c 063a 0f9b 1ebe ba83 c9bd
00000100: 1713 4d3d 3da6 ccbc 8f55 8a3d 7e64 ac3c
00000110: c6f9 69bc 1573 acbd 787f a03c 6c8a 89bc
00000120: 2161 c33d c686 d53d baa2 ecbc 0210 553e
00000130: f443 6c3e a32b 34be 9c7e 37be 0004 823c
00000140: 77d7 903d 6a37 1b3e 931b 49bd 4ff3 053e
00000150: 7043 0a3e 5653 abbb 0d45 313c 37d6 963c
00000160: 0f4d db3c 8c96 113d 6c7b 2b3e 17da b6bc
00000170: 4990 85bd 21f5 a6bd b8b0 5fbc c823 033e
00000180: 4b58 f4bc 5a7c 6f3e 8f04 1b3d 6fc3 943d
00000190: 2423 073e ba1b c7bc 7574 d3bd e837 01be
000001a0: 2e25 8a3d 56f7 973c 1291 b6bb 398e 98bd
000001b0: 1adb c7bc a479 413d 87a3 413e d0f2 27be
000001c0: 471d 433e 9020 6dbd af84 b93d e821 4e3e
000001d0: 0366 0a3e d5b7 60bd 544d 0dbe 366f f7bd
000001e0: c78a 803c 4290 463d d618 cc3d 956a a5bd
000001f0: c6aa bd3d b2a2 46bd aaca 34be f1f0 93be
00000200: 27bb 2ebe 6abf 48be bdaa 863e f812 39be
00000210: 77e6 44be 7916 7f3c 8097 4e3e 1467 f9bd
00000220: 0c51 59ba 55dc 2f3b b1c2 c9bb c281 3d3e
00000230: 8220 603c 360f 19bd 7b6f 803d b130 b5bd
00000240: 847d bd3e 7c46 bf3e 55c6 263c 1f96 863e
00000250: 1901 5b3e 0a62 a93e 980d 393e 409b a03d
00000260: 413c 0c3e 0eac 813e 6680 343e 1493 4b3e
00000270: 6ecd 263c 0123 8e3e 2439 143d b48f 3b3e
00000280: c41e 473e 19dd f93d 353c 603e e8fd 2f3e
00000290: ee01 083e 3f57 893d e05b 643d e059 2a3d
000002a0: 277a dd3d a889 ae3d 66ea 9c3d e4f3 443d
000002b0: d93d 8f3d 5d87 d83d 68be 403e 048d 973e
000002c0: d148 843d 3aa1 22bd 0344 c93d 98ea bf3d
000002d0: 6a5d 0abe fbf6 a8bd 11e8 14be cce1 8f3d
000002e0: b696 43be ab5b 70be 43f4 b03b 44f6 5cbd
000002f0: dde0 063e cc5c cd3b e253 ae3c f5f4 00be
00000300: 7783 6ebe 88ba 9dbe fb7a cdbe ac6d 57be
00000310: 9935 7fbe 7258 fcbd 6152 243e 80fc 5e35
00000320: 3ec1 83be b588 7cbe 850f 66bf 6256 25be
00000330: c1e4 70be b994 78be ee57 bc3d e922 023e
00000340: 3da3 75be 3c60 46be 07c6 edbe 2756 78be
00000350: e545 9dbb 07b7 acbc ab2a 8b3d 56f9 f23e
00000360: c530 5fbe 8f79 09be bace e8be 3f37 9fbd
00000370: bb47 c4bd 2efb dfbd 8e95 a2be df03 bb3e
00000380: b13e 003e bfc5 f63d bbce 64bd c905 af3d
00000390: ff8f 8fbd 4ef5 4b3e 7ca9 6f3d 6bae 9e3e
000003a0: c836 d7bd 0b14 353e 5020 e3bd 50a1 213e
000003b0: a4fb 9b3e d794 a03e 5886 233e 1a0a 833e
000003c0: 4656 1c3e 32ff 0b3c 9d85 abbd ee74 c13e
000003d0: c175 b83e 42d9 833e c64b 1dbd 4af0 553e
000003e0: c2d7 a2bd 8e72 c73d 3af7 48be 7bc1 35bd
000003f0: 11e1 433e 1297 ae3e 6b9a 1b3e 49f5 4f3e

conv1.bias f4 [4]
-0.03553042 -0.014260961 -0.07957987 -0.009785474
00000000: 5888 11bd cea6 69bc c5fa a2bd 4153 20bc

conv2.weight f4 [8, 4, 4, 4]
0.23381682 0.1410311 -0.29631567 -0.3447411 0.07890261 0.06818292 -0.36166802 -0.99069816
-0.078001134 -0.086520806 -0.25424916 -0.4415094 -0.10819783 -0.031831183 0.012310896 -0.03281785
0.16848308 0.25536346 -0.5598884 0.11125429 -0.26971766 0.35911173 -0.9241889 0.21139057
-0.39336252 0.21957333 -0.26152334 0.36489472 0.13120317 -0.0020949356 0.058778178 0.07272624
-0.12697196 -0.29419628 0.20989077 0.1482513 0.0042685866 -0.20049709 0.38156983 -0.02914229
0.3648454 -0.21506988 0.29388714 0.42123154 0.50570756 -0.09834833 0.28957656 0.05475497
0.39775568 0.3052475 0.07921469 -0.13027188 0.48511446 0.046275828 -0.13531329 -0.13920994
0.15307726 0.071429655 0.15396768 -0.008124281 0.22394928 -0.06227251 0.20004201 -0.16202629
-0.13437755 -0.25766408 -0.03779511 -0.61451906 0.24998394 0.023990601 -0.0992005 -0.43504348
0.038209517 -0.073123366 -0.49365678 -0.14285289 -0.08853875 -0.09232097 -0.3220103 -0.021144211
-0.19901916 0.13417283 -0.39909983 0.093111426 0.172226 0.09539562 -0.18863863 -0.050778423
-0.2752662 -0.13491042 -0.24248628 -0.021431578 -0.7469455 -0.71425 -0.63494843 -0.30836806
0.011724867 0.038208578 -0.2102131 0.11703237 -0.040416397 -0.34149587 -0.5248546 -0.107389465
-0.14440492 -0.21503714 0.17986408 -0.10693665 0.4421558 -0.39445803 -0.20391998 0.09578507
0.17908105 0.11899974 -0.13577321 -0.33341342 -0.049602993 -0.20233178 -0.30014107 -0.013648752
0.2368029 -0.2526162 0.06950787 0.10325462 -0.04367406 0.13748476 -0.097038224 0.11788269
-0.060036097 -0.15435523 -0.09524601 -0.2608533 -0.2629188 -0.11950495 -0.42821693 0.001659159
0.0021967562 0.0072058146 -0.26382944 0.0778847 -0.2083136 -0.094664454 -0.08986045 0.050847348
-0.32465008 0.073428266 0.029727396 0.13420044 -0.9543994 0.25945392 0.30672324 0.10393678
-0.07971016 0.019962698 0.05763303 0.28931928 0.31319818 -0.08645685 -0.022404341 0.37028646
-0.104682334 -0.17824721 -0.25884512 0.36374256 -0.047799777 0.020656792 0.26138458 -0.1554924
-0.220508 -0.1448673 0.27893195 -0.32405928 -0.2414371 -0.40955806 0.0018671192 -0.49632272
-0.5108806 -0.088028595 0.16680361 -0.022311097 -0.31949508 -0.69763434 0.2428231 -0.06306867
-0.1392378 -0.3672939 0.116475455 0.0526781 -0.0013275458 0.015526189 0.46145424 0.03943757
-0.07691186 -0.1797947 -0.31451404 -0.07486166 -0.17855877 -0.18158506 -0.15142125 -0.12728688
0.13975923 0.112887606 -0.031932138 -0.2817306 0.16938414 0.0032445937 0.03158705 -0.042147215
-0.54187894 -0.034397263 0.47984678 0.20682038 -0.058151152 0.18170893 0.17390311 0.040654305
0.06820913 0.22827388 -0.045989316 0.3467812 0.48323303 -0.091650724 -0.2420717 0.017052572
-0.55035526 0.29109314 -0.21244133 -0.3235635 -0.46586862 0.3249676 -0.16596875 0.26445228
-0.07125715 0.50543964 -0.48505148 -0.25745657 -0.008622208 0.21191642 -0.13409084 -0.045681037
0.08755622 -0.059935555 -0.182294 -0.12577103 0.081060894 -1.0523878 -0.12633769 -0.06948718
-0.099110775 -0.00027267638 0.17052059 0.1507906 0.16229841 0.10444003 0.086149976 0.20373465
00000000: ad6d 6f3e 756a 103e b0b6 97be e881 b0be
00000010: b197 a13d 7da3 8b3d 8d2c b9be 659e 7dbf
00000020: 0fbf 9fbd d231 b1bd f22c 82be 850d e2be
00000030: d396 ddbd 6a61 02bd a4b3 493c 036c 06bd
00000040: d486 2c3e 00bf 823e d954 0fbf 4ad9 e33d
00000050: 6f18 8abe 7edd b73e a597 6cbf c576 583e
00000060: d066 c9be d5d7 603e 63e6 85be 7bd3 ba3e
00000070: 205a 063e 304b 09bb 63c1 703d 7ff1 943d
00000080: f004 02be e5a0 96be 9bed 563e 30cf 173e
00000090: 80df 8b3b 1c4f 4dbe 1f5d c33e d0bb eebc
000000a0: 04cd ba3e 473b 5cbe 6078 963e a9ab d73e
000000b0: 0d76 013f d96a c9bd 6143 943e bf46 603d
000000c0: a2a6 cb3e 6649 9c3e 503b a23d fe65 05be
000000d0: ec60 f83e b98b 3d3d 918f 0abe 0d8d 0ebe
000000e0: 49c0 1c3e b649 923d b4a9 1d3e b41b 05bc
000000f0: f652 653e 7611 7fbd d0d7 4c3e 38ea 25be
00000100: 459a 09be 8cec 83be 0ccf 1abd 1f51 1dbf
00000110: cafb 7f3e f087 c43c a229 cbbd 05be debe
00000120: 9581 1c3d b4c1 95bd 95c0 fcbe 0748 12be
00000130: ce53 b5bd c712 bdbd 89de a4be a036 adbc
00000140: aecb 4bbe 9a64 093e d056 ccbe 34b1 be3d
00000150: 035c 303e c75e c33d 7c2a 41be 09fd 4fbd
00000160: b1ef 8cbe f525 0abe 534e 78be 4791 afbc
00000170: d237 3fbf 17d9 36bf fb8b 22bf 6be2 9dbe
00000180: a819 403c 9980 1c3d 1a42 57be abae ef3d
00000190: aa8b 25bd 8cd8 aebe df5c 06bf 02ef dbbd
000001a0: e2de 13be b232 5cbe 4a2e 383e 9a01 dbbd
000001b0: 3f62 e23e 67f6 c9be 66d0 50be f62a c43d
000001c0: 0661 373e 23b6 f33d 2208 0bbe 2ab5 aabe
000001d0: 822c 4bbd 1030 4fbe 17ac 99be 049f 5fbc
000001e0: 767c 723e e956 81be 245a 8e3d 2977 d33d
000001f0: 92e3 32bd cec8 0c3e fabb c6bd 7b6c f13d
00000200: 69e8 75bd 4c0f 1ebe 5710 c3bd 908e 85be
00000210: 4b9d 86be 03bf f4bd 403f dbbe 2378 d93a
00000220: 74f7 0f3b c11e ec3b a714 87be 0382 9f3d
00000230: 2950 55be 70df c1bd c108 b8bd 4f45 503d
00000240: 8938 a6be 8f61 963d de86 f33c d76b 093e
00000250: 8553 74bf 25d7 843e d40a 9d3e cedc d43d
00000260: 153f a3bd d088 a33c 9d10 6c3d a821 943e
00000270: 835b a03e 4a10 b1bd 4f89 b7bc 3096 bd3e
00000280: b163 d6bd 7086 36be 5987 84be 773c ba3e
00000290: b3c9 43bd 6f38 a93c 33d4 853e 6639 1fbe
000002a0: d9cc 61be 1858 14be 2bd0 8e3e 19eb a5be
000002b0: 4a3b 77be 98b1 d1be 20ba f43a 031e febe
000002c0: 12c9 02bf 5648 b4bd 91ce 2a3e c3c5 b6bc
000002d0: dc94 a3be 2a98 32bf 9ea6 783e 262a 81bd
000002e0: 5b94 0ebe f20d bcbe af8a ee3d fec4 573d
000002f0: 0c01 aeba 8e61 7e3c bb43 ec3e 4a89 213d
00000300: f783 9dbd 1a1c 38be fc07 a1be 1251 99bd
00000310: 1cd8 36be 6ff1 39be 2c0e 1bbe 7e57 02be
00000320: 0b1d 0f3e 9e31 e73d 46cb 02bd fe3e 90be
00000330: 0973 2d3e 40a3 543b 6c61 013d 8fa2 2cbd
00000340: 94b8 0abf 25e4 0cbd 7aae f53e b9c8 533e
00000350: e72f 6ebd e811 3a3e a813 323e 2185 263d
00000360: 3ab1 8b3d a1c0 693e 4b5f 3cbd 4e8d b13e
00000370: 526a f73e 60b3 bbbd a5e1 77be d6b1 8b3c
00000380: 15e4 0cbf 290a 953e 388a 59be 1daa a5be
00000390: 5586 eebe 2762 a63e b6f3 29be 4a66 873e
000003a0: 45ef 91bd 7e64 013f ab58 f8be 59d1 83be
000003b0: 2944 0dbc 9e00 593e 1c4f 09be 0a1c 3bbd
000003c0: ad50 b33d fc7e 75bd 47ab 3abe 1fca 00be
000003d0: 4103 a63d a5b4 86bf ab5e 01be 4b4f 8ebd
000003e0: 97fa cabd 01f6 8eb9 f39c 2e3e da68 1a3e
000003f0: 8e31 263e a8e4 d53d 666f b03d d19f 503e

conv2.bias f4 [8]
-0.089251086 0.1237031 0.01620071 -0.0071507166 -0.054529756 0.005985667 -0.013094561 0.17872246
00000000: 46c9 b6bd 0d58 fd3d 5ab7 843c 8f50 eabb
00000010: 985a 5fbd 6a23 c43b 928a 56bc 0503 373e

fc1.weight f4 [64, 392]
0.13618866 -0.64720845 -0.008450835 0.007601492 0.024037173 -0.31491575 -0.17365538 -0.23507519
-0.12428726 -0.023433149 0.0994002 -0.36934102 -0.12213279 -0.067258745 -0.102830194 -0.10749079
0.21509619 0.17662308 -0.035674132 -0.10835968 -0.052803393 0.12019447 -0.2770002 0.17134888
-0.0067252954 -0.17532752 0.06357675 -0.17801453 -0.10441135 -0.335821 0.110247105 -0.47156096
-0.39687872 -0.14205682 -0.065736726 -0.1633721 0.07235473 -0.05561137 0.3450655 0.38098702
-0.4622338 -0.19320771 -0.5299277 0.1412482 0.17686963 -0.15917145 0.17936443 -0.24248986
-0.20384632 0.04956714 0.06968441 0.087413825 -0.0073254243 -0.043103725 -0.009709675 -0.11904353
-0.018334711 0.025641609 0.07109751 -0.17199811 -0.02805028 0.027761493 -0.047413934 -0.027230902
-0.2743387 0.23671009 -0.16486934 -0.03598561 -0.19890149 0.111698076 -0.06754749 -0.17360881
0.3104714 0.26966447 -0.03869089 -0.084867544 -0.044012062 0.07924748 -0.034078766 0.02961519
0.2077185 0.19478582 -0.082824774 -0.09887914 0.18035476 -0.015084286 0.004190388 -0.046345945
-0.12421515 -0.14908929 -0.06495205 -0.009144468 0.33494243 0.1840455 0.1956812 0.053418033
-0.019794364 0.1118125 0.14295904 0.027977 0.37148124 0.0005603925 0.17603879 0.12680359
-0.13089488 -0.028474942 -0.12133392 0.036529258 0.19821061 -0.0819471 0.07622111 -0.11365342
-0.01712688 0.070480466 0.86804885 0.062889494 0.07489365 -0.09127054 -0.026114613 0.28967336
-0.34597966 -0.34516072 -0.01700868 -0.051652815 -0.41583082 -0.10115612 0.0568754 -0.15060472
-0.16425478 0.19114207 -0.015513801 -0.2661231 -0.006770756 0.4425719 -0.12663326 0.28394097
0.051687974 0.006996286 0.034826577 -0.07548508 0.1380209 0.28268796 0.02593246 0.1725014
0.03699925 0.07685987 -0.018044986 -0.21678674 -0.14881532 0.12275594 -0.29023728 0.38373825
-0.022992065 0.026533745 -0.28335246 -0.059087105 -0.12681504 -0.10166507 -0.010800122 -0.096599214
0.11235897 0.045404468 0.11081839 -0.35423467 0.14555368 0.12944192 0.04318639 0.027265644
0.16805656 -0.3141008 -0.10364151 -0.75585365 0.24304591 -0.0760888 -0.18579496 0.10231195
-0.32880798 0.3265661 0.09902303 0.20069332 -0.035892054 0.103035145 0.011733566 -0.12540177
0.44849142 -0.19662385 0.24119017 -0.26309142 0.028143704 -0.47992602 -0.5692687 -0.13723117
-0.13700281 0.027670603 0.2842407 -0.054610964 0.023046952 0.10696832 -0.028391298 0.17976081
-0.03583868 -0.27019405 0.052280027 -0.1435811 -0.16803057 0.13316545 -0.33400583 -0.543722
0.09461544 -0.2718003 -0.16467468 -0.0014947352 -0.17131414 0.21508007 0.19661278 -0.20138313
0.109710194 -0.30469704 -0.16810662 0.09517745 -0.29409823 -0.027229704 -0.034906708 0.104901895
-0.08045033 -0.06024664 0.109688915 -0.18995163 0.16821752 -0.023043985 -0.02189819 -0.099180445
-0.04193967 -0.12812433 0.16379659 -0.08021879 -0.0712105 -0.0139467595 -0.1381208 -0.48107028
-0.22849669 -0.14475472 0.10467804 0.1414438 0.22267407 0.066675864 0.04982471 -0.18155915
0.051818572 -0.13368012 0.03728956 0.15485996 -0.03304214 -0.14423335 0.08994828 0.14899436
00000000: 0a75 0b3e 74af 25bf 5f75 0abc f015 f93b
00000010: 9be9 c43c a33c a1be b7d2 31be 8db7 70be
00000020: 528a febd e0f6 bfbc 5592 cb3d 441a bdbe
00000030: c220 fabd f4be 89bd a398 d2bd 2224 dcbd
00000040: 2d42 5c3e aedc 343e 0a1f 12bd aeeb ddbd
00000050: 5f48 58bd 8528 f63d f8d2 8dbe 1576 2f3e
00000060: de5f dcbb 0f89 33be 8734 823d 7149 36be
00000070: 9ed5 d5bd bbf0 abbe 3cc9 e13d 7070 f1be
00000080: b033 cbbe 5877 11be faa0 86bd 044b 27be
00000090: b72e 943d bfc8 63bd 6dac b03e bb10 c33e
000000a0: e9a9 ecbe 3ed8 45be 57a9 07bf 5ea3 103e
000000b0: 501d 353e d7fd 22be 4fab 373e 434f 78be
000000c0: 17bd 50be ea06 4b3d b3b6 8e3d 0506 b33d
000000d0: 1d0a f0bb 888d 30bd 5415 1fbc 18cd f3bd
000000e0: ad32 96bc 5a0e d23c 929b 913d 4620 30be
000000f0: b3c9 e5bc 126c e33c 1d35 42bd 5713 dfbc
00000100: 1f76 8cbe 2164 723e 82d3 28be a665 13bd
00000110: d5ac 4bbe f6c1 e43d 5756 8abd 82c6 31be
00000120: 1bf6 9e3e 7611 8a3e 577a 1ebd 09cf adbd
00000130: fe45 34bd 814c a23d 2d96 0bbd 8e9b f23c
00000140: 29b4 543e ef75 473e 09a0 a9bd 2681 cabd
00000150: ebae 383e 1524 77bc 864f 893b 3fd5 3dbd
00000160: 8364 febd ddaa 18be 9505 85bd aed2 15bc
00000170: 937d ab3e 6c76 3c3e a760 483e decc 5a3d
00000180: ca27 a2bc f4fd e43d db63 123e 0630 e53c
00000190: ca32 be3e 4ee7 123a 8343 343e cdd8 013e
000001a0: 4f09 06be 4844 e9bc eb7d f8bd b49f 153d
000001b0: b9f7 4a3e e2d3 a7bd d019 9c3d 20c3 e8bd
000001c0: ac4d 8cbc 1058 903d 7338 5e3f 35cc 803d
000001d0: d861 993d 0dec babd 50ee d5bc 1150 943e
000001e0: 3f24 b1be e8b8 b0be ca55 8bbc e791 53bd
000001f0: c7e7 d4be f12a cfbd 2ef6 683d 2038 1abe
00000200: 6832 28be bfba 433e 992d 7ebc 4941 88be
00000210: 38dd ddbb c998 e23e 26ac 01be b660 913e
00000220: c5b6 533d 1a41 e53b 50a6 0e3d ec97 9abd
00000230: 5a55 0d3e 7abc 903e 4f70 d43c 35a4 303e
00000240: 878c 173d b568 9d3d 14d3 93bc 58fd 5dbe
00000250: 0b63 18be 7767 fb3d fb99 94be 5779 c43e
00000260: db59 bcbc 4c5d d93c 9313 91be 5205 72bd
00000270: cddb 01be c735 d0bd fff2 30bc cfd5 c5bd
00000280: 761c e63d 09fa 393d c1f4 e23d 3f5e b5be
00000290: 060c 153e 6c8c 043e 36e4 303d 335c df3c
000002a0: 0517 2c3e d2d1 a0be 0042 d4bd a07f 41bf
000002b0: 07e1 783e 72d4 9bbd 0941 3ebe ed88 d13d
000002c0: 8559 a8be ac33 a73e 96cc ca3d 8d82 4d3e
000002d0: 8c03 13bd 1704 d33d 253e 403c 5269 00be
000002e0: aba0 e53e c357 49be 8efa 763e ebb3 86be
000002f0: a08d e63c ddb8 f5be 98bb 11bf 5486 0cbe
00000300: 774a 0cbe 76ad e23c ff87 913e bfaf 5fbd
00000310: f6cc bc3c 3512 db3d de94 e8bc 3813 383e
00000320: 94cb 12bd e056 8abe 9523 563d ed06 13be
00000330: 3510 2cbe 865c 083e d002 abbe 5d31 0bbf
00000340: bdc5 c13d 6929 8bbe 7ba0 28be feea c3ba
00000350: f96c 2fbe f33d 5c3e dc54 493e 6137 4ebe
00000360: bdaf e03d 4001 9cbe 2424 2cbe 65ec c23d
00000370: 0b94 96be d410 dfbc 56fa 0ebd ced6 d63d
00000380: 25c3 a4bd 2ec5 76bd 95a4 e03d ae82 42be
00000390: 3741 2c3e bdc6 bcbc d563 b3bc 1e1f cbbd
000003a0: eec8 2bbd 0633 03be 4bba 273e c049 a4bd
000003b0: d0d6 91bd f380 64bc 8a6f 0dbe d84e f6be
000003c0: 09fb 69be 953a 14be 7161 d63d a5d6 103e
000003d0: ac04 643e 5b8d 883d ff14 4c3d a4ea 39be
000003e0: b63f 543d 71e3 08be f0bc 183d 9c93 1e3e
000003f0: 3257 07bd e8b1 13be ce36 b83d fa91 183e

fc1.bias f4 [64]
0.124517016 0.24591406 -0.012537437 0.030696176 0.2449973 0.150825 0.09570692 0.22155048
0.27470934 0.08746192 0.25114918 0.26299536 0.0036718529 0.20780736 0.21791616 0.1348239
0.08712868 0.34659287 0.030099727 0.32016057 0.13504359 0.105415 0.08433842 0.16100462
-0.070140295 0.01724971 0.06849469 -0.05445114 -0.061390255 0.10251555 -0.1432763 0.11959454
0.038005445 0.115620345 -0.06526509 0.1767655 0.30831778 0.16979733 0.20786458 0.1659437
-0.074384786 0.24043186 0.07125172 0.32664603 0.121740736 0.20249988 0.0558173 0.07350464
0.31022266 0.09807288 0.15729804 0.2030417 0.27546307 0.10788257 0.17796229 0.11547438
0.0067598443 0.018415567 0.26926076 -0.08814432 0.080433756 0.14701986 0.094678484 0.31622398
00000000: c702 ff3d e5d0 7b3e d269 4dbc 8c76 fb3c
00000010: 92e0 7a3e de71 1a3e fd01 c43d 21de 623e
00000020: b4a6 8c3e 3c1f b33d a096 803e 54a7 863e
00000030: 78a3 703b 74cb 543e 6a25 5f3e 470f 0a3e
00000040: 8570 b23d 9f74 b13e b493 f63c 16ec a33e
00000050: de48 0a3e d2e3 d73d 9fb9 ac3d 65de 243e
00000060: b7a5 8fbd 444f 8d3c f246 8c3d 2908 5fbd
00000070: 5974 7bbd acf3 d13d 06b7 12be fbed f43d
00000080: 99ab 1b3d 5cca ec3d b4a9 85bd 0402 353e
00000090: d4db 9d3e 5adf 2d3e 74da 543e 25ed 293e
000000a0: 0d57 98bd c533 763e 6cec 913d 263e a73e
000000b0: 3553 f93d 215c 4f3e aea0 643d 9a89 963d
000000c0: 81d5 9e3e 6fda c83d bd12 213e 2aea 4f3e
000000d0: 7f09 8d3e 89f1 dc3d bf3b 363e d57d ec3d
000000e0: af81 dd3b 3edc 963c 8cdc 893e 0285 b4bd
000000f0: 74ba a43d 608c 163e cbe6 c13d 1ce8 a13e

fc2.weight f4 [2, 64]
0.052770585 -0.15812081 -0.18465556 -0.34357005 -0.18128294 -0.29303524 0.04489978 -0.13232473
-0.15183638 0.036673848 -0.23442195 -0.08441315 0.074093886 -0.16577494 -0.17256232 -0.3165299
0.1086606 -0.114454105 -0.20140229 -0.09969951 -0.216366 0.081664264 0.036839504 -0.31129965
-0.04408895 0.038506515 0.05377726 -0.092216626 -0.12031656 0.07044418 0.06477876 0.05877425
0.020397149 0.04719883 -0.014968366 -0.22754858 -0.13563626 -0.18831064 -0.14977746 -0.2211537
0.21470505 -0.10102238 0.04925832 -0.12970108 0.07713041 -0.18710266 0.07561782 0.028325
-0.10660601 0.05647943 -0.2549619 -0.19669081 -0.11042675 -0.00086628087 -0.21592288 0.10730153
0.0796447 0.06597453 -0.16296344 0.031343456 0.044514216 0.048809655 0.03691281 -0.1766504
0.06924641 -0.052128196 -0.09611303 -0.2241907 -0.22607632 -0.0630931 0.078161694 -0.11283909
-0.12297579 0.07159848 -0.1953031 -0.11965644 0.124995515 -0.13845837 -0.10708209 -0.19773069
0.0972464 -0.16427718 0.14895684 -0.16340363 -0.1585466 0.098017246 0.08043625 -0.1989428
0.12080744 0.0764006 0.06996299 0.18898232 0.09489703 0.07836625 0.08193451 0.04767474
0.0988078 0.060521934 -0.07001467 -0.18996367 -0.07863267 -0.18020187 -0.2452156 -0.2085169
-0.032077834 -0.11167814 0.07162828 -0.11389624 0.05209859 -0.09684722 0.12692665 0.10429403
-0.099387534 0.07743559 -0.19538538 -0.19108029 -0.15035707 -0.64187443 -0.076870725 -0.009114119
0.12063132 -0.61560893 -0.074812636 -0.22614577 0.058094494 0.06836538 0.06708573 -0.06521905
00000000: f825 583d 6cea 21be 5916 3dbe 6ae8 afbe
00000010: 3ca2 39be b708 96be d5e8 373d 2280 07be
00000020: ff7a 1bbe 5137 163d 4f0c 70be cde0 acbd
00000030: 89be 973d e8c0 29be 2db4 30be 3510 a2be
00000040: 7389 de3d ea66 eabd 673c 4ebe 422f ccbd
00000050: 0c8f 5dbe 983f a73d 05e5 163d ab62 9fbe
00000060: 9d96 34bd 02b9 1d3d 8b45 5c3d 12dc bcbd
00000070: 8768 f6bd 0a45 903d baaa 843d 45bd 703d
00000080: ec17 a73c 8f53 413d e13d 75bc 7f02 69be
00000090: 3be4 0abe 81d4 40be 435f 19be 1e76 62be
000000a0: a4db 5b3e d2e4 cebd 18c3 493d 5cd0 04be
000000b0: 8cf6 9d3d d797 3fbe 84dd 9a3d d509 e83c
000000c0: 4054 dabd fa56 673d 5e8a 82be 5169 49be
000000d0: 6b27 e2bd 2017 63ba e31a 5dbe e8c0 db3d
000000e0: c31c a33d a81d 873d e3df 26be ff61 003d
000000f0: 8a54 363d a2ec 473d e331 173d d8e3 34be
00000100: 10d1 8d3d 6084 55bd e9d6 c4bd 3f92 65be
00000110: 8d80 67be f536 81bd 3d13 a03d 2e18 e7bd
00000120: bbda fbbd 39a2 923d 89fd 47be 700e f5bd
00000130: a6fd ff3d 08c8 0dbe db4d dbbd ea79 4abe
00000140: 1f29 c73d 4738 28be 2488 183e 4853 27be
00000150: 0a5a 22be 44bd c83d c3bb a43d a9b7 4bbe
00000160: e469 f73d eb77 9c3d c248 8f3d 9584 413e
00000170: 6059 c23d 7c7e a03d 48cd a73d 9746 433d
00000180: be5b ca3d d9e5 773d da63 8fbd d685 42be
00000190: 2a0a a1bd d786 38be cc19 7bbe 7485 55be
000001a0: 0c64 03bd 82b7 e4bd d9b1 923d 6f42 e9bd
000001b0: 5565 553d d657 c6bd 0ff9 013e 1c98 d53d
000001c0: b18b cbbd 8d96 9e3d 1b13 48be 8daa 43be
000001d0: 34f7 19be e251 24bf 666e 9dbd 6353 15bc
000001e0: 8e0d f73d 8c98 1dbf 5e37 99bd c292 67be
000001f0: 7ef4 6d3d 2603 8c3d 3e64 893d 9191 85bd

fc2.bias f4 [2]
0.42515618 -0.15896478
00000000: 12ae d93e aac7 22be
