assignment-5/models/best_model_24.6.pth (torch, 110560 bytes, 8 tensors)

conv1.weight f4 [4, 4, 8, 8]
000000 36 ed f0 3c f2 91 15 3c 8c 88 90 bd 80 2c 2e 3c
       0.029409986 0.009129034 -0.07057294 0.010630727
000010 d8 f2 ef 3d af 72 a9 bd 00 83 9d 3c ee ae 2e 3d
       0.11716241 -0.08273827 0.019227505 0.042647295
000020 ff 6d e9 bd 25 6e d2 bc 3a 4d 39 3b d9 88 88 bc
       -0.11397933 -0.025687287 0.002827479 -0.016666817
000030 d4 9b 1d ba 86 36 f6 bb 11 eb 94 bd 26 3d 76 be
       -0.0006012295 -0.007513824 -0.07271398 -0.24046764
000040 1c e1 14 be da a6 bf bc 2e ed 92 3c bb bf 56 bd
       -0.14538997 -0.02339499 0.017935362 -0.052428942
000050 04 f1 8c bd 59 ca bf bc 1d f1 6c bd cb 66 1c be
       -0.068819076 -0.023411917 -0.05784713 -0.15273587
000060 bf 1a 0b 3d 5d 81 8d 3d f9 57 95 3d f6 3b 61 3d
       0.033961054 0.0690944 0.0729217 0.054988824
000070 dc 45 2e 3c 8f ab 49 3c 2d 0b ba 3b 8c bd 2a be
       0.010636773 0.012308969 0.005677602 -0.16673869
000080 86 93 39 3e 9f c3 a5 3c 35 2f f6 bc 34 26 e8 3d
       0.18122682 0.020234881 -0.030051807 0.11335412
000090 95 df 2d 3d ee a3 96 bc cf 19 04 be dc e5 61 3d
       0.042449553 -0.018388715 -0.1290047 0.05515085
0000a0 a2 12 11 bd 39 a8 89 bd 6c 05 0b 3d 6b 01 0d 3e
       -0.03541816 -0.06721539 0.033940718 0.13770072
0000b0 dc ed 84 3c 76 ef 09 be 35 1f 8c 3d 2f f1 e5 bc
       0.016226701 -0.13470253 0.0684189 -0.028069107
0000c0 fd 95 ba 3d ca 25 44 3e 42 48 5b 3d a9 cc c2 3d
       0.09110639 0.1915504 0.053535707 0.09511692
0000d0 cb 39 51 3e b6 80 f1 3c e2 ae ee bc b0 9d e9 bc
       0.20432203 0.02948032 -0.029136125 -0.028517574
0000e0 41 2a 6c bd 07 a6 f6 3c 69 90 c1 3d 81 38 44 bd
       -0.057657484 0.030108465 0.09451372 -0.04790545
0000f0 5f c3 a3 bd de 16 df 3d 50 af 2f bd 61 05 21 3e
       -0.079962485 0.108930334 -0.0428918 0.15724708
000100 c8 28 2c bd 0c 3b ec bc 59 b7 5b 3d 64 e2 09 3c
       -0.04203108 -0.02883675 0.05364165 0.008415792
000110 a0 67 0b 3e 0c ae a9 3d 96 ce 97 3d c2 c5 80 3d
       0.13613749 0.0828515 0.0741245 0.06287719
000120 34 bf 7e 3c 6f 0c 1c bd 9a f6 9b bc 9b 0b b9 bd
       0.015548516 -0.038097795 -0.019038487 -0.09035417
000130 39 2f 94 3c 7e d8 2d 3d cd e8 f2 3d aa a2 8c be
       0.018088924 0.04244279 0.118608095 -0.27467853
000140 52 c5 15 be cf 96 be 3d ab 8c fa bd c8 89 ec 3c
       -0.14626053 0.09306108 -0.122338615 0.028874293
000150 d5 63 f5 3c 24 85 1e 3d c4 99 97 bd 34 3e ee bb
       0.02995483 0.03870119 -0.07402375 -0.007270599
000160 23 32 9e bc a3 9f e4 3d 12 3c 3b bd cd 5d ba 3d
       -0.019311016 0.11163261 -0.045711584 0.09099922
000170 75 51 ae bd 3d 62 68 be 8d 57 55 3e c0 20 72 be
       -0.085116304 -0.22693725 0.20834179 -0.23645306
000180 eb c6 6e 3d 57 f2 8b 3c ba 9b 5c 3d 40 4f 94 3c
       0.05829517 0.01708333 0.05385945 0.018104196
000190 f8 ab 95 bd 1e 89 9a 3d 02 3f 38 be 39 b2 b4 bd
       -0.07308191 0.07545684 -0.17992786 -0.08823056
0001a0 e1 1f 40 bc 58 97 ce 3c 5a 0a 00 3d cd 95 c7 bd
       -0.0117263505 0.02521865 0.031259872 -0.09745369
0001b0 2e 42 9f 3c 80 7d 0d bc 22 e1 c0 3d 3a 49 4e be
       0.019440737 -0.008635879 0.09417941 -0.20145121
0001c0 ec 15 5a 3c 1f 76 e0 bd 60 29 bc 3d 13 a2 98 3c
       0.013310891 -0.1096003 0.09187579 0.01863197
0001d0 e8 d9 2e 3e bb ad 81 bd b6 51 e3 bb 02 88 c8 bc
       0.17075312 -0.063319646 -0.006937231 -0.024478916
0001e0 f1 10 9d bc 41 76 39 3e 04 dd a6 3d 9a 4d c1 3d
       -0.019173117 0.18111517 0.08147624 0.094386294
0001f0 bd dc 93 3c 9a 46 f6 bd d9 b8 9b bc b0 03 2a bd
       0.018049592 -0.12025185 -0.01900904 -0.041507423
000200 bb 11 6a bd 1f 1c c6 3c 88 8b cb 3c 40 00 3b bd
       -0.057145815 0.024183331 0.024846807 -0.045654535
000210 0f ee 8d 3d b9 8f 35 3e 17 0b 08 3e 55 2d 4a 3e
       0.06930172 0.17730607 0.1328548 0.19743855
000220 ac e5 85 3d 09 41 40 be ec e8 e9 3d 59 93 cf bc
       0.06537947 -0.18774809 0.114213794 -0.025338816
000230 3d 3d 88 bb a0 95 62 3d e4 27 0c 3e d3 c0 39 bd
       -0.004157691 0.055318475 0.13687092 -0.045349907
000240 6f 04 0b 3d f9 73 fa bc a8 70 81 bd 9d 32 40 bc
       0.033939775 -0.030572878 -0.063203156 -0.011730817
000250 ff 6d eb bd 16 77 a3 bd 5d 1d e2 3d 36 bc 21 3e
       -0.114955895 -0.07981698 0.11040757 0.15794453
000260 4f 79 7c 3d e1 9f e7 bd a8 75 24 be 39 35 83 bc
       0.061639126 -0.11309791 -0.16060507 -0.01601659
000270 06 aa 41 bd 8d c7 86 be 59 7c ab bd d4 d2 3e be
       -0.047281288 -0.2632412 -0.08373327 -0.18635112
000280 0f 3a f5 3d 4f 80 45 be 40 84 1d 3c 6d df 41 be
       0.119739644 -0.19287227 0.00961405 -0.18932886
000290 ae bc ec bd af 16 e1 bd 86 83 3e bd 4b 33 97 3c
       -0.11559425 -0.10990655 -0.04651215 0.018457076
0002a0 71 13 1f bc 40 ce 89 bc e0 3b 36 be 3f c7 c2 bd
       -0.009709225 -0.01682198 -0.17796278 -0.095106594
0002b0 b6 ac 97 bd 08 2a 93 bd 52 bb 0f be e4 f3 92 bd
       -0.07405989 -0.07185751 -0.14036301 -0.07175425
0002c0 9d e2 12 bd 85 36 78 bd b6 35 0b 3e 65 58 84 3d
       -0.035860647 -0.06059887 0.13594708 0.064621724
0002d0 ca e0 88 3d 17 3c c0 bd 4c 65 80 bd e9 fb cb 3c
       0.066835 -0.09386461 -0.06269321 0.024900394
0002e0 7c 2a 58 3d 55 0a 03 3b 77 03 c2 3d 95 8a 67 bc
       0.05277489 0.0019995172 0.09473317 -0.014132162
0002f0 ee 1b 05 3d da 10 87 3d f6 22 ef 3c cb cf 54 bd
       0.03249734 0.06595011 0.029191475 -0.05195598
000300 95 fc 13 bc 4d c2 ab bb da ec 70 3d 06 40 49 bd
       -0.009032388 -0.0052416683 0.05881963 -0.049133323
000310 9f 7c b5 3d 98 62 ff 3d db 66 25 3e d3 80 72 3d
       0.0886166 0.12469977 0.16152517 0.059204888
000320 b9 ae a4 bc 10 93 4b 3e 87 8e 2a bd fa 2b a9 3c
       -0.020102846 0.19880319 -0.04163983 0.020650852
000330 ea 7d c1 3d 47 96 67 3e fc 64 d6 bc 33 12 a9 3d
       0.09447844 0.2261592 -0.0261712 0.08255424
000340 09 85 03 3e e3 ae ec 3c e1 97 c7 bd c6 f5 a8 3e
       0.12843718 0.028891986 -0.097457655 0.3300001
000350 44 44 e3 3e 12 36 a8 3e 70 bb 80 3e 7d 3f 6a 3e
       0.4438802 0.32853752 0.25143003 0.22875781
000360 c1 f6 6d 3e fc 3f e2 bd 55 ca dc 3b 32 6a 69 3e
       0.2323866 -0.1104736 0.006737987 0.22794417
000370 ec ff bb 3e 1b fa 47 3e 56 3f 22 3e c1 f9 06 3e
       0.3671869 0.19529001 0.15844473 0.13181211
000380 86 32 ab 3d 49 1c 25 bd 2d d0 9f bd 85 43 48 3e
       0.08359246 -0.040310178 -0.07803378 0.19557007
000390 d8 cb 69 3e da c0 77 3e cf 18 37 3e 37 0b e9 3e
       0.22831666 0.24194661 0.17880557 0.4551637
0003a0 68 50 3d 3e 97 38 c0 3b 64 28 c3 bd ac bd 07 be
       0.18487704 0.005866121 -0.09529188 -0.13255948
0003b0 01 fd 70 3d 53 db a0 3d 7d 81 4f bd 65 41 79 3e
       0.058835033 0.07854333 -0.0506606 0.24341352
0003c0 82 79 9d 3d ea 72 9a bd 90 16 3a 3d 4b 16 b1 3c
       0.076891914 -0.07541449 0.045431674 0.021617075
0003d0 0a 62 7f bc 97 3e 12 bd 3d cc 54 3d 44 82 b1 3d
       -0.015587339 -0.03570422 0.05195259 0.08667424
0003e0 aa 73 e7 bd 69 ae 0b be 96 30 4e 3e 48 86 8d 3d
       -0.11301358 -0.13640751 0.20135722 0.06910378
0003f0 ec d9 51 3d 2a 57 05 bc 47 55 f2 bd 6a af 89 bc
       0.051233217 -0.008138457 -0.118326716 -0.016807277

conv1.bias f4 [4]
000000 e0 ec 21 be 66 d6 5a bc 61 57 17 bc 40 e7 0a 3d
       -0.15813017 -0.013356781 -0.009237141 0.033911943

conv2.weight f4 [8, 4, 4, 4]
000000 17 36 32 be 34 ca 73 3e a8 1d b7 bd 6c ba 6d be
       -0.17403446 0.23807603 -0.08941203 -0.23215646
000010 89 c6 d2 3c 78 00 5d 3d a8 82 f3 3d 86 f0 a6 3d
       0.025729435 0.053955525 0.11890155 0.08151345
000020 fb 9b ae be e2 e4 bf bc cc 61 a6 be b3 3e 33 be
       -0.3410338 -0.02342457 -0.32496488 -0.17504387
000030 5f 51 20 bf 64 d7 b2 be 9c 22 41 3d be a9 14 be
       -0.6262416 -0.34929955 0.047152147 -0.14517877
000040 d0 62 06 3e 19 82 93 3d 15 2d 79 3e ae f4 47 3e
       0.13123631 0.072025485 0.24333604 0.19526932
000050 47 0d 95 3e e8 95 ea 3d 66 cc d8 be af 05 95 3e
       0.29111692 0.114543736 -0.42343444 0.291059
000060 e5 43 66 3e e8 a2 49 be 46 0d a0 3d 22 12 6c be
       0.22486837 -0.1969105 0.07815032 -0.23053792
000070 7b e2 83 3d 47 da ff be 09 45 02 3e 6c 87 62 bc
       0.06439682 -0.4997122 0.12721647 -0.013826232
000080 62 f1 33 3d e1 2c 97 3d c7 01 13 3f 2b 0e 05 bf
       0.043931372 0.07381607 0.57424587 -0.51974744
000090 d9 57 8c 3e 9c 6e 84 3d 6b 26 99 3e 1b cc 4c 3d
       0.27410772 0.064664096 0.29912123 0.049999338
0000a0 cb 27 16 be 1d 84 ef 3d a1 84 82 bd de 21 12 3d
       -0.14663617 0.116951205 -0.06372953 0.03567683
0000b0 e9 e5 ea be 5b 3c b0 3c 59 2b e1 bd e5 76 31 be
       -0.45878533 0.021513155 -0.10994596 -0.17330511
0000c0 1e a6 24 3d 6a a8 34 be 90 d0 bf be d7 68 0f be
       0.040197484 -0.1764237 -0.37463808 -0.14004837
0000d0 e4 78 bb bc 04 40 68 3e b5 e2 1e 3e e3 8d 3b bf
       -0.022884794 0.2268067 0.1551617 -0.73263377
0000e0 4f 0a a1 3e f8 8f dc 3e 50 7a 54 3e dc f8 df be
       0.31453177 0.4307859 0.20749784 -0.43744552
0000f0 ae 4e 81 bc ae 7a e4 3e 7e 97 bd 3b 12 51 b6 be
       -0.015784588 0.44624847 0.0057858815 -0.35608727
000100 1d 6e f0 be f6 88 c7 3d 97 3c a1 3d a2 44 80 3d
       -0.4695901 0.0974292 0.07872885 0.06263091
000110 fc 58 ab be 61 67 3b be ae 09 b0 bd 30 d9 af bc
       -0.33466327 -0.18301155 -0.08595596 -0.021465868
000120 b5 d3 73 be 0e bb 09 bd 3f 19 02 be c2 83 e6 bc
       -0.23811229 -0.033625655 -0.12704943 -0.028138999
000130 89 bf 5a bd fd e6 8f 3c 9d 96 3b bc 71 61 e9 3c
       -0.05340532 0.017566198 -0.011449483 0.028488846
000140 11 c0 00 3e c3 40 4b 3d 87 24 09 3d d6 5f d7 3d
       0.12573268 0.04962231 0.0334821 0.10516326
000150 c1 e9 a7 be 18 b1 3f 3e 4d 45 ad bc c8 96 80 be
       -0.32795528 0.187199 -0.02115121 -0.25115037
000160 f3 dc a0 bb 50 fe b2 3e d4 31 11 3e 82 03 45 3c
       -0.0049091517 0.3495965 0.14179164 0.012024762
000170 05 72 c1 3c c2 91 47 3e ce 65 f4 3d 7d fe 2d 3d
       0.023613939 0.19489196 0.1193348 0.042479027
000180 70 0a 45 3d 39 a8 da 3d 52 e7 c2 bc 39 07 6b 3d
       0.048105657 0.10676617 -0.023791943 0.057379935
000190 e4 ec 03 3e 80 ca eb 3d 8a 6b 4b 3a ba 97 ae 3d
       0.12883335 0.11513233 0.000775986 0.08525033
0001a0 3d ab 83 bd 71 a7 da bd 65 1a 14 be a4 65 2a be
       -0.064291455 -0.10676468 -0.14463194 -0.16640335
0001b0 88 ff a6 3d 42 be 6f 3c 44 ee 34 3e de f5 e4 bd
       0.081542075 0.014632763 0.17669016 -0.11179708
0001c0 7f dd 22 bd 0f db 4b 3e a8 2a 96 3d c1 15 9c be
       -0.039762016 0.19907783 0.07332355 -0.30485347
0001d0 0d ea 2d 3e 7d 0c 1b 3e 25 d8 20 3a 4c f9 93 be
       0.16983815 0.15141483 0.00061357237 -0.28901136
0001e0 bb 25 ae 3e ae 98 a0 3e a6 0b 15 3e c0 17 ca be
       0.3401316 0.31366485 0.14555225 -0.39471245
0001f0 3a 82 d5 3c c6 cd d3 3d f2 98 4e 3e 46 73 de be
       0.026063073 0.103419825 0.20175532 -0.43447322
000200 94 29 83 bd 0b 91 ce bd f2 41 95 be a7 03 28 bb
       -0.06404415 -0.100862585 -0.29151875 -0.0025636943
000210 36 f9 0f bd 90 f7 0b 3c b4 6f b7 3c 9a 7a 4b bd
       -0.035149775 0.00854291 0.022392131 -0.04967747
000220 13 17 05 bd d1 f9 c8 bb 82 ab 05 3e a3 89 10 be
       -0.03249271 -0.006133296 0.13053706 -0.14115004
000230 8c 38 aa bd 9c d7 c3 3d 60 e7 81 bd ae 24 b8 be
       -0.08311567 0.095626086 -0.063429594 -0.35965484
000240 57 2a 7f 3b ab 64 4a 3e 08 df d6 3c c7 ef b6 be
       0.0038935149 0.19764964 0.026229396 -0.3572981
000250 ff 1a ae bd c0 e3 1e 3e 40 93 55 3e b9 e4 dc be
       -0.08501243 0.15516567 0.20856953 -0.43143252
000260 41 be 5d be b8 3d f2 3d 60 a7 d5 bd 1f b4 09 bc
       -0.21654607 0.11828178 -0.10432315 -0.008404761
000270 34 77 bf 3d 51 22 a1 3e 86 9f 92 3c 19 38 18 bc
       0.09348908 0.31471494 0.017898332 -0.0092907185
000280 86 27 0b 3f e2 20 b5 be 8e 58 c5 3e 01 01 07 3d
       0.5435718 -0.3537665 0.38544124 0.03295994
000290 a6 3c ca 3e 30 2c 1b 3e 6c 13 be 3e 30 23 29 bd
       0.39499396 0.15153575 0.37124193 -0.041293323
0002a0 8c 40 37 be 29 60 5a 3e 1d 57 ee 3e 47 eb 68 3d
       -0.17895716 0.21325745 0.46550837 0.056865003
0002b0 3b 66 2c bd 54 67 9c 3e 90 49 9f 3e b9 fd e9 bc
       -0.042089682 0.30547583 0.3111081 -0.028563367
0002c0 b7 5e 13 3e 3a 75 98 3d af 30 2e 3e 80 8d 8a be
       0.143916 0.07444234 0.17010759 -0.2706108
0002d0 1a b7 84 3e 09 47 d3 be 95 12 17 be ba d6 04 3d
       0.25920945 -0.41265133 -0.14753182 0.03243134
0002e0 bb a9 82 be 3f e8 c8 be 50 b2 f4 be 70 9a 34 bf
       -0.2552012 -0.3923969 -0.47792292 -0.7054815
0002f0 68 f6 6d bd 80 2a 9e be 1e 73 72 bd e6 12 f5 be
       -0.05809632 -0.308918 -0.059191816 -0.4786598
000300 5d ed 6b bd ed 1e 45 be 88 85 ed bc e7 4e 04 3c
       -0.057599414 -0.19250078 -0.028994337 0.008075452
000310 e6 b5 8c bd d7 7c 33 3d 66 f9 8d bd 30 96 05 3e
       -0.06870632 0.04382023 -0.069323346 0.13045573
000320 4e ae 84 3e ba b3 5e 3d 64 07 77 be a4 d3 97 be
       0.25914234 0.05437062 -0.24123913 -0.29653656
000330 2d 6a 83 be 55 db 69 bd f6 ec aa bd e7 04 0f be
       -0.25666943 -0.057093937 -0.08345978 -0.13966714
000340 5b b5 0a 3d 8d f9 e2 3d 91 63 9a 3e 0d 0c ff 3d
       0.03386436 0.11082754 0.30154088 0.124534704
000350 01 4b 50 3e 6c b5 0f be 2b a0 33 be 86 6f 02 be
       0.20341112 -0.1403405 -0.17541568 -0.12737855
000360 9a 6a cb 3c 28 57 22 be 10 cd f3 3c 12 9e 58 3b
       0.024831105 -0.1585356 0.029760867 0.0033053202
000370 f6 08 93 bb f8 d1 f6 3a 17 b5 06 be 95 12 c9 3c
       -0.004487152 0.0018830886 -0.13155018 0.024544993
000380 c0 ac b8 3e 3e 7c 21 3d c5 6c 0c 3d d8 ae f5 3d
       0.36069298 0.039425127 0.03428342 0.119962394
000390 2a e7 49 3e e9 6e 21 be b5 8c 2e 3e 7e da 2e 3e
       0.19717088 -0.15764965 0.17045863 0.17075536
0003a0 a0 cd d7 3d 35 b0 15 3c 13 dd 09 3e 2f f9 2e be
       0.10537267 0.009136249 0.1346324 -0.17087243
0003b0 2d 31 2e be c4 5d 6c 3e 63 59 68 3e bd 82 9f be
       -0.17010947 0.23082644 0.22690348 -0.31154433
0003c0 16 9a ef 3d d7 c5 af 3e b0 86 8a bd c6 df 3a be
       0.116993114 0.34330627 -0.06763971 -0.18249425
0003d0 fd d2 bd bd 60 22 45 3e 12 b9 47 3e 42 5a d0 be
       -0.092687584 0.19251394 0.19504192 -0.4069386
0003e0 bb dc 2e 3d 04 39 b7 3e 02 bd 11 bd a7 a1 b5 be
       0.042690974 0.35785687 -0.035580643 -0.35474893
0003f0 d4 d4 76 be 24 a6 18 be 1c d0 15 bd e2 aa 42 3e
       -0.24104625 -0.14907128 -0.03657542 0.19010499

conv2.bias f4 [8]
000000 cf 33 ae bb 00 b8 db bc 0e 33 62 3d 8f 48 b9 bc
       -0.0053162347 -0.026821136 0.05522447 -0.022617606
000010 a6 46 ae 3c 39 8c 4c 3e e9 e7 96 3b 9b 5c 8a bd
       0.021273922 0.19975366 0.0046052826 -0.06755944

fc1.weight f4 [64, 392]
000000 5e 92 29 bf f6 f7 e3 3c ea b3 ea bd 62 dc 90 bd
       -0.66238964 0.027828198 -0.11460097 -0.07073285
000010 73 1c 72 bc 13 08 41 be 9a bf 4e bd cd 09 ae be
       -0.014777291 -0.18850736 -0.050475694 -0.33991852
000020 31 76 01 3e 40 38 f4 3d a8 2c 81 3d 0a 59 dd bd
       0.12642743 0.11924791 0.06307346 -0.108079985
000030 ec 14 83 bc 93 14 30 bc 02 8a 5f 3d 3c f7 4e 3d
       -0.016001187 -0.010747093 0.054574974 0.05052875
000040 61 19 6b 3d 62 21 8c bc 60 27 44 3d ad 6a e7 bb
       0.05739725 -0.017105762 0.047889113 -0.0070622773
000050 03 8a ce bd 22 5c b4 bd 9b c8 26 bf 44 73 f0 3c
       -0.100849174 -0.088066354 -0.6514985 0.029351838
000060 bc e7 5f 3e 90 b8 53 3e 0c 4a 2e 3e 2f 7b de 3c
       0.21865743 0.20675874 0.17020434 0.027158348
000070 28 f7 9c be 3d cf 2f 3d ef 55 2b 3b cc 78 f4 bd
       -0.30657315 0.042922247 0.002614375 -0.11937103
000080 e9 34 6e be 1d 7e b1 bd 7a 12 01 be fe e9 c9 3d
       -0.23262371 -0.08666632 -0.12604704 0.098590836
000090 db 72 16 bd 1d ff 1e 3d 0c 19 52 bd 84 bf 69 3d
       -0.03673063 0.038817514 -0.051293418 0.05706741
0000a0 88 fe 1e bd e5 09 7c 3e 5a b8 14 3d 79 2a 0c be
       -0.03881696 0.2461315 0.036308624 -0.13688077
0000b0 74 ad 84 bd 88 1d aa 3d bf 65 6f bd b3 86 7a bc
       -0.06478396 0.08306414 -0.058446642 -0.015290904
0000c0 29 8d 02 3d 33 40 ab be e7 69 f2 3c 08 3d 73 bc
       0.031872902 -0.33447418 0.029591514 -0.014846094
0000d0 38 c3 82 bd 2c c0 69 bc 0c 65 36 be 46 8f 25 3d
       -0.06384891 -0.014267009 -0.17811984 0.04041984
0000e0 cd 46 a6 be b6 ea d9 bd 36 5e 59 3d e4 ec 2a 3d
       -0.32475892 -0.10640471 0.053068362 0.041729823
0000f0 b0 db 62 bd 22 2f ec 3d ae 89 a7 3d e7 b1 c6 bd
       -0.05538529 0.11532427 0.08180557 -0.09701901
000100 b5 82 5f be ad 9c e5 bc d3 1d a8 bd 69 2e 42 3d
       -0.21827205 -0.02802881 -0.082088135 0.04740754
000110 fa b6 cf b8 9f 37 85 bd 9a a9 2d 3d 25 91 91 be
       -9.904611e-05 -0.065047495 0.042398073 -0.2843105
000120 04 8b 1e 3e 50 1d c2 3d b6 e6 3b 3d f1 c0 1d 3c
       0.15482718 0.09478247 0.04587432 0.00962852
000130 16 12 cb 3d 8f 9d cf be 15 ad 53 be 90 06 d1 3d
       0.09915559 -0.40549895 -0.20671494 0.1020633
000140 59 0b ad bd 28 21 5d 3d 2a 15 0c 3e 34 21 a3 3c
       -0.0844943 0.0539867 0.13679948 0.019913293
000150 52 bd 0d be 3f 27 07 bf eb 02 96 bd f7 5f 9f bc
       -0.13841751 -0.5279426 -0.07324775 -0.01945494
000160 4a ec 9b bd 4a 50 ae bd 05 de eb 3c ae ae a5 3e
       -0.07613428 -0.08511408 0.02879239 0.32359833
000170 04 fb 03 bf 5d b1 fe 3c 52 cf df bc e7 dc a8 bc
       -0.51554894 0.031090433 -0.027320538 -0.020613147
000180 be 8b f3 3c 15 1e 9b bd 6e 4c 6b be 61 0f 05 bf
       0.02972972 -0.07574097 -0.22978374 -0.5197659
000190 d1 95 0d bb 86 9d 4e 3e 5b c1 62 3c 72 07 ae bc
       -0.002160419 0.20177278 0.013840045 -0.021243785
0001a0 4f 68 21 bd ea 55 22 bd 4f cb 06 bf bd b7 5a bd
       -0.039406117 -0.039632715 -0.52653974 -0.053397883
0001b0 4b a2 13 bb 59 25 ff 3d f1 4b 9e 3d aa 07 40 3e
       -0.0022527154 0.124582954 0.077293284 0.18752924
0001c0 9c 82 8e bd 3e 9f 03 3d 9c 84 75 be 06 15 06 3d
       -0.069585055 0.032134287 -0.23976368 0.032734893
0001d0 46 22 9c 3d 9b ab ee 3b b2 62 02 3c bf f6 8b 3d
       0.07623725 0.0072836406 0.007958101 0.068341725
0001e0 72 9e df be dc c5 60 3d 25 de 5d 3b 48 fd 3d 3d
       -0.43675572 0.054876193 0.0033854332 0.046384126
0001f0 2e 3d c6 3d 03 b7 06 3c 31 ba 83 be 4a 66 aa be
       0.09679638 0.008222344 -0.2572799 -0.33281165
000200 41 1a 99 3c f1 36 79 bc 52 8b a0 3d 43 0a 72 3c
       0.018689277 -0.015210853 0.07839073 0.014772954
000210 5a ed cf bd 1f bb 90 3e 33 e8 d6 be f8 d0 3a 3e
       -0.10152693 0.28267762 -0.4197403 0.18243778
000220 9c c8 51 bd e3 7a 56 39 b4 92 3e 3c 53 32 a7 3e
       -0.051216707 0.00020454409 0.011631656 0.32655582
000230 7a be df 3d ad f8 7c be b7 dd 1a 3d 6d 98 73 be
       0.109250024 -0.24704237 0.0378091 -0.23788615
000240 c5 a8 f1 3d ac 39 df 3d df 54 50 3d 22 d7 49 be
       0.11799768 0.10899672 0.05086219 -0.19710973
000250 00 b8 af 3c 57 f3 5b be a8 e8 91 3d 10 7d 20 3c
       0.021450043 -0.21479546 0.07124454 0.009795442
000260 7b e6 ac bb a0 78 a3 3d f7 10 18 bf 81 13 4c 3c
       -0.005276499 0.07981992 -0.59400886 0.012455822
000270 0c 39 0e bd 77 6f d1 bd d0 6a b3 bd 54 6b 14 3d
       -0.034722373 -0.10226338 -0.08760607 0.03623517
000280 44 57 b0 3d 06 1e 94 be 96 b7 3e bd 00 0c 85 bd
       0.086103946 -0.28929156 -0.0465618 -0.064964294
000290 a6 47 71 3d cf ef 7a 3e 27 7a ee bd 7a 35 ab bd
       0.05890622 0.24505542 -0.116443925 -0.08359809
0002a0 1e d2 40 3e d4 97 6f 3e 62 93 d1 3c 1f 47 a1 3d
       0.18830153 0.23397762 0.025582973 0.078748934
0002b0 46 e0 31 ba 1f cd 37 3d ad c7 31 3e 7b c1 3b be
       -0.00067854335 0.044873353 0.17361327 -0.18335526
0002c0 3c ca 8a 3d f5 6e 1f 3c bb 07 4c bd b6 9e a0 39
       0.067768544 0.009731044 -0.04981206 0.00030635827
0002d0 b4 8f 5e 3b 2c 67 12 3c a0 4f 48 3e d7 d1 09 be
       0.0033960165 0.008935731 0.19561625 -0.13458954
0002e0 2a 0c c5 bc a0 c9 2c 3e a1 e7 7a bd 6f b1 15 be
       -0.024053652 0.16873789 -0.061256055 -0.14618467
0002f0 3d 94 65 3d 30 20 65 3d 8c 39 82 3e 65 b8 82 3d
       0.056049574 0.0559389 0.2543453 0.06382827
000300 3a 7c 1a 3e df 25 7e 3d 77 40 82 3e 78 cb 6d bd
       0.15086451 0.062047835 0.25439808 -0.05805537
000310 63 84 c2 3d 37 21 b7 be 4e 83 1d 3e 62 87 a6 3c
       0.09497907 -0.35767528 0.1538212 0.020328227
000320 a9 26 ee 3c 0f 2c 16 3c d4 29 80 be 29 75 19 3d
       0.029071169 0.009165778 -0.25031912 0.03746525
000330 dd 50 1c bf a8 91 40 bd 29 e8 17 3e 32 fc 44 bd
       -0.6106089 -0.04701391 0.14834656 -0.048092075
000340 06 6f a3 bd 67 e4 9d bd b0 ed 13 3e c0 4d 3e bf
       -0.079801604 -0.0770958 0.1444614 -0.7433739
000350 a9 4c 59 3d 4d 52 32 be da 24 2d 3e 8c 8e 3e 3e
       0.053051624 -0.17414208 0.16908589 0.18609065
000360 82 09 55 3b 3e 5d 40 3e 79 9c 59 bf 07 b5 84 3e
       0.0032506888 0.18785569 -0.85004383 0.25919363
000370 87 fc 94 3c e4 8b cd 3d 1f c2 2b 3d 86 04 b9 3d
       0.01818682 0.10036448 0.041933175 0.09034066
000380 05 81 51 bd 26 dd 0e bf 93 0c 15 3e fd d6 74 3d
       -0.051148433 -0.55806196 0.14555578 0.05977534
000390 82 b8 53 bd fa 22 15 bc ca 43 62 bc 9b e6 0e bd
       -0.051689632 -0.009102577 -0.0138101075 -0.03488789
0003a0 ae a5 de be 6f e3 8a 3d d5 fd 9a 3d 52 ce 01 be
       -0.4348578 0.06781661 0.07567946 -0.12676361
0003b0 35 54 16 3e d2 b4 f4 3d 8b 8a a7 3e 27 a7 7e be
       0.1468056 0.11948551 0.32722887 -0.24868451
0003c0 04 a6 97 bd 2f 12 eb bd ca 8a cc 3d 13 93 b6 bd
       -0.07404712 -0.114780776 0.099874094 -0.08914771
0003d0 72 7e 0c be b6 82 d1 3e 6d b4 87 3e 4d 48 2d 3e
       -0.1372011 0.40920037 0.2650484 0.16922112
0003e0 21 b7 ac 3d a7 63 52 be ef 88 9d bc b1 98 df bc
       0.084333666 -0.20545827 -0.019230334 -0.027294489
0003f0 9e e4 2d 3e 0b 60 a8 3d ad d3 39 3e bf e2 66 3d
       0.16981742 0.08221444 0.18147154 0.056368586

fc1.bias f4 [64]
000000 2b 8f 7f 3e 66 f0 83 3e 74 6d 6b 3e c6 c9 b6 3d
       0.24956958 0.25769347 0.22990972 0.08925204
000010 17 c9 0c bc d3 60 a8 bd f7 54 62 3e e7 83 08 3d
       -0.008592865 -0.08221593 0.22102724 0.033328917
000020 d3 ee 47 3d 18 f3 78 3e 75 6f 84 3e e4 b9 54 3e
       0.048811745 0.24311483 0.25866285 0.20774037
000030 af 71 ae 3d 77 1d 14 3d f8 ca 1a 3d ac 9a 9a 3d
       0.08517777 0.036160912 0.037791222 0.075490326
000040 42 dc 4a 3e fd 94 2d 3e b5 cd 8d bd 1c 5e 71 3c
       0.19810584 0.16951366 -0.06924001 0.01473191
000050 e0 d9 8a 3d f8 44 89 3e 07 4c 7f 3e 51 ed 91 3e
       0.067798376 0.2681043 0.24931346 0.2850137
000060 94 7c 27 3d 38 44 49 3d f3 ee a7 3d 93 a2 85 3d
       0.04089029 0.049137324 0.08199873 0.06525149
000070 4c e0 94 3e 16 cd 33 3d 9c 0d 48 3e be 6c f4 3c
       0.29077375 0.043896757 0.19536442 0.029837009
000080 c3 b5 78 bd 0a 66 7a 3e da ea 39 3d b3 75 a4 3d
       -0.060720216 0.24452987 0.045389988 0.08030262
000090 93 69 67 3e c7 fc 6d 3e c5 26 8c 3e 07 94 51 3d
       0.22598867 0.23240958 0.2737333 0.05116656
0000a0 43 72 5e 3e 61 f7 4d bd 77 15 94 3c c4 72 4b 3e
       0.21723275 -0.050284747 0.018076641 0.19867998
0000b0 6b c2 20 3e ab 24 94 3d e6 41 79 3e 6c a0 68 3e
       0.15699165 0.07233556 0.24341545 0.22717446
0000c0 93 2d cc 3d 46 28 8d 3d fb a1 aa 3d 39 1e f0 3d
       0.0996963 0.06892447 0.083316766 0.117245145
0000d0 60 13 76 3e aa 13 45 3d ea d4 a0 bd 1b b5 7d 3e
       0.24030828 0.048114456 -0.0785311 0.24776118
0000e0 c6 b4 15 3c 36 1d a8 bd 17 af 6f 3e 7e 41 a3 3d
       0.009137338 -0.082086965 0.23406635 0.07971476
0000f0 98 b6 15 3e 65 62 6c 3e f8 0a d4 3c c6 57 77 3e
       0.14620435 0.2308441 0.025884137 0.24154577

fc2.weight f4 [2, 64]
000000 39 a2 27 be 7b 97 54 be ee 06 47 be 4c b9 b3 3d
       -0.16370477 -0.2076091 -0.19436237 0.08775577
000010 ed dc 6c 3d 66 25 1a bd 96 2b 5c be 1a 12 38 3d
       0.05782788 -0.037633322 -0.21501002 0.044939138
000020 0d 20 3b 3d 2d 8e 50 be 9f 9b 33 be 8f 8f 69 be
       0.045684863 -0.20366736 -0.17539833 -0.2280867
000030 7d d6 de 3d 2a 52 37 3d d4 fc 10 3d b9 c8 8a 3c
       0.10880754 0.044756092 0.035397366 0.016941415
000040 eb 0c bb be a4 38 56 be 7e 8f 43 be 23 62 8d 3d
       -0.36533293 -0.20920044 -0.19097707 0.06903484
000050 f2 21 34 3d a0 bf ec bd 19 d6 2f be 50 f2 3b be
       0.043977685 -0.11559987 -0.17171516 -0.18354154
000060 13 6c 24 3d 1b 60 a8 3d c3 45 b3 3d 81 34 3d 3d
       0.04014213 0.08221456 0.0875354 0.04619265
000070 fa 8e 43 be e5 d9 83 3d 9d 9e 8d be d8 89 78 3d
       -0.1909751 0.064380445 -0.27660075 0.060678333
000080 50 9e c4 bc 98 eb 30 be 3d 40 4c 3d f9 bc be 3d
       -0.02400127 -0.17277372 0.04986595 0.093133874
000090 11 31 33 be 89 d8 35 be 49 36 1c be 05 3c 6d 3c
       -0.17499186 -0.17758383 -0.15255083 0.014479642
0000a0 af 83 56 be ad 96 31 bd 9c 55 24 3d 0f 6d 52 be
       -0.20948671 -0.043356586 0.040120706 -0.20549415
0000b0 9c 6c 46 bf a1 2e e2 3d 60 97 64 be 03 38 21 be
       -0.77509475 0.1104405 -0.2232337 -0.15744023
0000c0 a3 41 bf be a2 c0 c6 3d c8 22 70 3d b4 75 87 3d
       -0.37354764 0.097047105 0.05862692 0.06614247
0000d0 cd 0e 6a be 20 fc 07 3d 51 c9 13 be b9 5f 82 be
       -0.22857209 0.03319943 -0.14432265 -0.25463656
0000e0 df 39 73 3d 59 ab a9 be 3f 6d 3e be 5b 4c 45 3d
       0.059381362 -0.3313854 -0.18596362 0.04816852
0000f0 6c 1c d1 be 7a 73 36 be 01 51 49 3d 76 3b 2c be
       -0.40841997 -0.17817488 0.049149517 -0.16819558
000100 18 4f 4c be cc c9 2c be 4c 07 3d be 5b c7 58 3e
       -0.19952047 -0.16873854 -0.18459815 0.21169798
000110 ff 9c aa 3d f9 34 d6 3c d5 7e 24 be 98 61 78 3d
       0.08330726 0.026148306 -0.16064008 0.060639948
000120 5b 4c 63 3d 75 49 35 be 25 7b 04 be 31 c9 4e be
       0.05549274 -0.17703803 -0.12937601 -0.20193936
000130 9f da b2 3d 14 9c 5d 3d bd c1 6d 3d da d1 31 bf
       0.08733105 0.054103926 0.05804609 -0.69460833
000140 7b 5a 75 be 98 a5 71 be 43 84 93 3e 31 c0 93 3d
       -0.23960297 -0.23598325 0.28811845 0.07214392
000150 31 80 83 3d df 62 36 be 88 0c 0c be 7f 8e 37 be
       0.06420935 -0.17811154 -0.13676655 -0.17925452
000160 8f 25 88 3d ff 2e 04 3e cc 1d cc 3d c1 6d 93 3d
       0.06647789 0.12908553 0.09966621 0.07198668
000170 9e 5b 1a be ad 30 a6 3d 8c d1 46 be b3 d9 45 3d
       -0.15074012 0.08114753 -0.19415873 0.048303317
000180 0a d0 ef bd 7e aa 25 be 6f 8f 13 3d 1c 47 d0 3d
       -0.11709602 -0.16178319 0.03602546 0.10169813
000190 4f 70 26 be 41 4a 1a be 3b 68 25 be 56 08 14 3e
       -0.1625378 -0.15067388 -0.16153042 0.14456305
0001a0 c8 79 49 be 16 fe 91 bd 3b 0f bb 3d b8 98 44 be
       -0.19675362 -0.07128541 0.09133764 -0.19198883
0001b0 4b 92 41 bf 19 3d 32 3e a0 a7 f2 bd ef ee 35 be
       -0.7561385 0.1740612 -0.11848378 -0.17766927
0001c0 15 68 17 3e f6 7d 30 3e 53 02 b4 3d 42 15 fb be
       0.14785798 0.1723555 0.08789506 -0.49039656
0001d0 21 14 fb bd b6 d1 aa 3d b2 c3 0e 3e d9 9e 4e be
       -0.12259699 0.083407804 0.1394184 -0.20177783
0001e0 df 55 97 3d a4 f1 8c 3e 31 b0 4d be 2b b1 a9 3d
       0.073894255 0.27528107 -0.20086743 0.08285745
0001f0 30 98 a9 be 22 0f 53 be 76 32 81 3d 76 cc 2b be
       -0.33123922 -0.20611241 0.06308453 -0.16777214

fc2.bias f4 [2]
000000 3f 81 2d 3f 9d 4a 6d 3e
       0.6777534 0.23172994
