assignment-5/models/best_model_90.2.pth (torch, 110560 bytes, 8 tensors)

conv1.weight f4 [4, 4, 8, 8]
00000000: 1906 e4be a85e 0dbf 908d a5bd 5d62 813e
00000010: 569f 13bf 11ba a6be 702e 35be 0619 27be
00000020: a65f 0cbe e9fd 0ebf a3e0 cf3e f154 1dbf
00000030: f4e7 41bf edea fbbc 5e52 45bd 784c ef3d
00000040: 69f8 2dbe 2efc 34be e79a edbe 36fb 2ebc
00000050: 491a bb3d ebe7 93be 95a8 af3e 77b8 a9bd
00000060: 5fea c93d ba62 13bf d875 87be 1bbd 0fbe
00000070: c3cf f63d a009 903d b4e6 37be b8cd 1abe
00000080: 7901 7cbe c120 653e 414a fc3a 0c2b 42bf
00000090: 69a8 febe 7185 e2bd aa23 26bf 6e1b 1dbf
000000a0: 03a0 2c3e 1684 8e3e 9070 b83e c8f5 7fbe
000000b0: f47e 69be c6af 15be ebca 09bf 2aec b5be
000000c0: 324f 17be 08d8 8cbd 9648 613e 49a4 f9bd
000000d0: eebe 86be fe70 4fbf d975 ecbd dce7 93bd
000000e0: 329a bebe 6b4d c4be fa56 d8be fbbd 25bf
000000f0: ab7f cabe 8f3b 62bf 09c8 f8be cc50 70be
00000100: 1490 04bf 23c6 d9bd 5111 023f 2589 42bf
00000110: 72e5 d6bd fdb7 af3d 32e8 00be a9a0 903d
00000120: c0df 9f3d b099 0bbe a56a e43e e409 94be
00000130: 962d 32be e70c 553e 590f d93e 817d 1cbe
00000140: 39be 45be fbae 13bf 8433 64bf 3b57 8fbf
00000150: b95c 1fbf a8de 23bf e48d 9dbe 726e 4fbf
00000160: 4f22 60be eae0 12bc fbc3 68bf 6a68 bebe
00000170: 25c1 69be cb07 81be 6b51 6abe 013b 3bbf
00000180: 1a8a 79be 773c 4b3c 4876 b4be cec4 a6be
00000190: fa34 a0bd dee7 98be 71fb 8ebc edab cebc
000001a0: 9b74 0a3f 9e68 ad3d 5b5b 213f f9d5 bfbe
000001b0: 474f dabd 64d7 00bf c56c dfbd 66f9 31bf
000001c0: 592e eebe eb6c bcbe f223 08be eb1d df3b
000001d0: 69ce 23bf 2a1a f5be 0fbd d8be c663 77bf
000001e0: 245e 9fbd 9d17 20bf 2dcf 613d 641b d5be
000001f0: ee2d 42bf c666 a5be f1d3 93bf 0fcd 0ebf
00000200: fdae a33f 036c 073f e441 59be a434 d73e
00000210: 9221 143f feb9 703f 2c50 f43e 91d2 733d
00000220: 140b 7ebe f2b9 d83e 5e06 6cbe f429 083f
00000230: f406 933b ff42 fabd 7e11 453f 9fd7 a4be
00000240: 0560 1ebf b7f2 b1be ef6f 8dbf 157a 17bf
00000250: 3817 adbe 774f d13e 142e 673e 55fb 9e3d
00000260: 0e88 923e 9632 bcbe 57b7 f9be e0f0 95be
00000270: 0e08 91be 4e4f b0be 4fa8 e7be 72c7 37be
00000280: 289c 1d3e 90a2 c63b 942d 00bf ed86 113d
00000290: 2371 da3c fbcf c33d a3ea 773d 51c1 7bbf
000002a0: 0398 133f 7f32 773f c898 27be c6af d3be
000002b0: 69ec 7bbd 9f57 dcbc 3a71 0d3e c754 d7be
000002c0: 03a3 a73e b81c 503f 60c9 843e ef9b 81bd
000002d0: 6f51 e1be eaa5 94be dae4 0abe e023 44bf
000002e0: 6d68 eabd db4b 813e b8e2 533e d2d0 8dbe
000002f0: ebdc 11bb e1f2 14be bb7a 8abf e732 e9bb
00000300: f6d9 8abd eef7 c1be 328b a3be 4b19 4c3e
00000310: 95d8 57bf 6e6c ebbf b83a d8be 2e02 40bf
00000320: 3c85 1dbd fd43 83bf 7991 40bf 7740 4e3f
00000330: fd3c 2dbf 863c 5dbf c6b6 213f 0836 8abf
00000340: 567e 57bf 94ea 1fbe 5d3d 8fbe 1615 febe
00000350: 4555 b4be 28f7 5ebe f3b3 a0be fe71 c1be
00000360: b0f3 11bf a213 d2be 53e5 3cbd 26d7 d4be
00000370: 490b 11bf d40d e1be 23ed d9be e39b b6ba
00000380: 794a 7abf 2669 16bf 740c 0abd ff75 c43c
00000390: 936d ba3d d2a9 d6bd 7d27 9dbe 0ace 85bf
000003a0: 55ce c1be 81c2 03bf 008d 5f3e a04c 3d3e
000003b0: 2603 d0be 6c3d 033f 9b85 bbbe 1aa5 473e
000003c0: c961 93be 42c4 6a3d 378c c83e 1852 a2be
000003d0: b0af d2be c2ed 05bf aa72 373e 0b18 c2bd
000003e0: e151 a7be 88b4 1b3f 24a4 943d a8a5 72be
000003f0: bcb4 c5be bf13 89bf 7d5d fd3d 8f57 94be
-0.44535902 -0.5522256 -0.080836415 0.25270358 -0.57665 -0.32563832 -0.17693496 -0.1631814
-0.13708362 -0.55856186 0.40601072 -0.61457735 -0.7574456 -0.03075167 -0.048174255 0.11684507
-0.16989292 -0.17674324 -0.46407244 -0.010680011 0.09135873 -0.28887877 0.34308305 -0.08287137
0.09859156 -0.5757252 -0.26457095 -0.14036982 0.12051346 0.07033086 -0.179591 -0.15117538
-0.24609937 0.22375776 0.0019248204 -0.75846934 -0.49737862 -0.11060608 -0.6489817 -0.6136998
0.16857915 0.2783515 0.36023378 -0.24996102 -0.22802335 -0.14617833 -0.53825253 -0.3553174
-0.14776304 -0.06877142 0.22000346 -0.12189538 -0.26317543 -0.8103179 -0.11545915 -0.07221958
-0.37227017 -0.38340315 -0.42253858 -0.6474301 -0.39550528 -0.8837213 -0.48590115 -0.23468322
-0.51782346 -0.10633495 0.5080767 -0.75990516 -0.10492982 0.08580015 -0.12588575 0.070618935
0.07806349 -0.13632846 0.44612613 -0.28913796 -0.17400202 0.20805703 0.42394522 -0.15282251
-0.19310845 -0.57688874 -0.89141107 -1.1198496 -0.6225086 -0.6401162 -0.30772316 -0.810279
-0.21888088 -0.0089647565 -0.9092404 -0.37189037 -0.22827585 -0.25201258 -0.22882621 -0.7313691
-0.24369088 0.012404553 -0.3524649 -0.32572025 -0.078226045 -0.298644 -0.017453881 -0.025228465
0.54084176 0.0846722 0.6303002 -0.37467936 -0.10659652 -0.5032866 -0.10909418 -0.69521177
-0.46519735 -0.36801848 -0.13294962 0.0068089864 -0.6398683 -0.47871524 -0.4233174 -0.9663662
-0.07781628 -0.6253603 0.05512922 -0.4162246 -0.75851333 -0.32304972 -1.1549054 -0.55781645
1.2787777 0.5289919 -0.21216542 0.4203235 0.57863724 0.940338 0.47717416 0.059526984
-0.24808913 0.42329365 -0.23049304 0.53189015 0.004486913 -0.1221981 0.76979816 -0.32195756
-0.61865264 -0.3475549 -1.1049784 -0.5917066 -0.33806777 0.4088094 0.22576171 0.077627815
0.28619426 -0.36757344 -0.4877269 -0.29285336 -0.28326458 -0.34435505 -0.45245597 -0.17947176
0.153916 0.0060618594 -0.50069547 0.035529066 0.026665276 0.095611535 0.0605265 -0.9834185
0.57653826 0.96561426 -0.16366875 -0.41345042 -0.061504755 -0.02689725 0.13812724 -0.42056867
0.32741556 0.8129382 0.25934887 -0.0632857 -0.4400744 -0.29032832 -0.13563862 -0.7661724
-0.11445699 0.25253186 0.20691955 -0.2769838 -0.0022256922 -0.14545776 -1.0818704 -0.0071166637
-0.06779854 -0.37884468 -0.31942135 0.19931524 -0.8431485 -1.8392465 -0.422323 -0.75003326
-0.03845714 -1.0255123 -0.75221974 0.80567116 -0.67671186 -0.86420476 0.63169515 -1.0797739
-0.8417715 -0.15616828 -0.27976504 -0.49625462 -0.35221305 -0.2177397 -0.3138729 -0.37782282
-0.5701246 -0.41030604 -0.046117138 -0.41570395 -0.56657845 -0.43955863 -0.42563733 -0.0013931956
-0.97769886 -0.58754194 -0.033703282 0.023982046 0.09102931 -0.104816094 -0.3069419 -1.0453503
-0.3785273 -0.51468664 0.21831131 0.18486261 -0.40627402 0.512656 -0.3662537 0.19496575
-0.28785542 0.057316072 0.39169475 -0.31703258 -0.41149664 -0.52315915 0.17914835 -0.09477242
-0.32679656 0.60822344 0.0725787 -0.23696005 -0.38614452 -1.0709151 0.12371347 -0.28973052

conv1.bias f4 [4]
00000000: 5cb9 353e 0a87 01bd 0005 0bbf 285e 953d
0.1774649 -0.031622924 -0.54304504 0.072933495

conv2.weight f4 [8, 4, 4, 4]
00000000: 96b2 9b3e ef44 713e 2266 3d3e 67ce 7f3e
00000010: 2f58 d33e afbf b03c c98c 04be c002 5bbe
00000020: 82b3 e0bd ae8f 1f3e 372b 3fbe b463 9abe
00000030: c2ea 0ebd 0520 94bd 0702 8ebf 0987 19be
00000040: 0ca4 673e 05a6 bfbe c4bd 4f3d 05d5 483c
00000050: 69d2 1e3e dd3d d4be e054 b73e 2d76 40be
00000060: 9dc4 12be e2c3 01be ca7c dd3e 48c0 bdbd
00000070: 2520 81bd 18bf d03c 51d4 4b3e 5dc8 48bd
00000080: a65b 4cbf fc2a 713e 2d3e 86be fc04 14bd
00000090: a31e 40bf f32e a5be 1b2d 22be 3d1f 9cbd
000000a0: d434 f5be db38 6bbd 84e7 cf3d 4803 413c
000000b0: 73cf 97be b7a8 1abe 1eaf 283e 7040 82bc
000000c0: e4ca 4bbe d685 913d 8c1d cebd 129c 96be
000000d0: 121d 51be 2ed1 1c3e 419d c7bd 2365 63bd
000000e0: 9b48 163d 4ff9 9a3e 9166 b7be aae4 debd
000000f0: 8310 233e c87a 653e a53f 1c3e c4bd 6fbf
00000100: 727c 79be cc28 ce3e d73a 15bf da49 163f
00000110: 914e 0abf fe79 d9be 030b 37bf 9b4f df3e
00000120: 35f7 60be fa01 a83e 0e40 a3be 179b 11bb
00000130: 9a66 66bf 3797 303f c411 4c3e aa80 8c3d
00000140: 9ce3 cc3e 0fe0 71bd 3fcb 0e3d df08 893e
00000150: aa9c d53e 5863 a43e 57e5 813e 8b31 873e
00000160: bb5f 53be 9f0c 753e 1ef3 fa3e 3eaf 223e
00000170: ed10 25be 7b35 b2bd f15b 9b3e b003 32bd
00000180: 083d 15be 4167 c8bd eec1 c5bd 90b5 97be
00000190: 43db 83bf df38 0abe a80d 053e f75c edbd
000001a0: 23f1 b5be 0174 673d d91d 9d3d aa21 b2be
000001b0: 9d98 a43c ff66 35bd 28e6 a83d 0fd8 71bd
000001c0: a1ed 043e 5411 2e3e 95cd dc3d 3063 3d3e
000001d0: a9e8 e0bd 04df a83e a452 6abc a70d fbbe
000001e0: d465 3d3f 0f78 e93e 1e32 a5be d434 6abf
000001f0: e2ac acbd de09 833e 9ae2 8cbe c313 15bf
00000200: 1a69 9b3c 4d13 5fbe 5086 10bf d904 3cbe
00000210: 3da2 b3bd abef dfbe f39b 94be 1856 9dba
00000220: 71d9 d23e 51d4 02bf f982 e1be fcc9 f8be
00000230: d753 b3bc 1aa6 bcbe 262b b5be dbe3 d2be
00000240: 517a 503e 806b c23d 2e68 91be b139 aabe
00000250: ee95 f53d 15f3 103f 7d35 2bbf 2aea f3be
00000260: 06ed a73d 3f3d c63e 5fa3 a3be e0c9 0ebf
00000270: 9983 b33d d440 143e 4f07 04bf 576a dbbc
00000280: 2644 5ebd 0f97 9abc 5804 5fbc bb51 00be
00000290: 39ef 65bf 6356 fb3d a04b 463d 21d5 dabf
000002a0: ce99 bcbd 9354 8cbd 5b05 293e dc41 6bbf
000002b0: 13d6 b5bd d316 1abf 9f1f 733e aa93 bbbe
000002c0: 8bc2 fa3d 1631 f3be 9f7d b63d 8086 92be
000002d0: 8ec5 e0be deca 76bf 15c5 c63d d74c c439
000002e0: df19 583e f6b9 2ebf ed4b 15be 8bd2 ec3d
000002f0: a8d8 813e 0b3a 6abe 0f80 31bd cb72 b33e
00000300: de93 42be 5dd2 c9be c50d 4abf e3bf b8bf
00000310: 8d13 f23c 463a 783d a771 92bd 005b 6fbf
00000320: 5098 d63d ba0c 6a3e 00ea 313e ded3 f63e
00000330: 979d f3bd f771 98be ca85 0e3d fdb0 763e
00000340: 74b6 1bbe f7ad 8d3d 7aaa b3bc a0f5 293e
00000350: 2e74 e03e 8889 08bd 22f3 9c3e cbf9 a73e
00000360: 08b4 abbd 85c6 e0bc 996a ee3e b1cc 123e
00000370: 007f f2bb 6c8d eabe 3eec 3abe 8c88 37be
00000380: bfae 743c 8e08 d03c ac0c babd c086 873d
00000390: 0cb8 d03b 4c1a 02be dbc1 35be c6d9 3a3e
000003a0: 0a03 86be 80c7 3b3d 5134 13be 31f0 f5be
000003b0: afbe 8cbd d29a adbe 3ff7 27be ec09 8dbe
000003c0: 2df6 75bc d875 90bd bd0c dbbe e631 d4be
000003d0: ddf1 96bd 570b 113f fcaa a83c 669f 62be
000003e0: e80f 673e 7c17 683e 4b8b cbbc c576 7cbd
000003f0: a3a9 7abe d8cc 223d dd98 c93d 16f0 ac3c
0.30409688 0.23561452 0.18495992 0.2498108 0.41278216 0.021575777 -0.1294433 -0.21387768
-0.109717384 0.15582153 -0.18668829 -0.30154192 -0.03489185 -0.0723267 -1.1094369 -0.14992918
0.22621173 -0.3743135 0.050718084 0.012257819 0.15509953 -0.41453448 0.35806942 -0.1879508
-0.14332815 -0.1267238 0.4325927 -0.0926519 -0.06304959 0.025481746 0.19905211 -0.049019206
-0.79827344 0.23551553 -0.2621931 -0.036137566 -0.7504675 -0.32262382 -0.15837519 -0.07623146
-0.47891867 -0.05742727 0.1015158 0.0117805675 -0.2965046 -0.15103422 0.16473052 -0.015899867
-0.19901615 0.07105605 -0.10064229 -0.29415947 -0.20421246 0.1531417 -0.09746791 -0.055516373
0.036690336 0.30268332 -0.3582044 -0.10883458 0.15924267 0.22410119 0.15258653 -0.93648934
-0.24363878 0.402655 -0.5829291 0.5870644 -0.5402613 -0.42475885 -0.7150118 0.43615422
-0.21969302 0.32814008 -0.31884807 -0.0022217685 -0.9000031 0.68980736 0.19928652 0.06860478
0.40017402 -0.05905157 0.0348618 0.2676458 0.41721088 0.32107043 0.25370285 0.26404986
-0.20641987 0.23930596 0.4901361 0.15887162 -0.16119738 -0.08701607 0.30343583 -0.043460548
-0.14574063 -0.09785319 -0.0965613 -0.2963071 -1.0301288 -0.13498257 0.1299349 -0.11589997
-0.35535535 0.056507114 0.076717086 -0.3479131 0.020092303 -0.044287678 0.08247024 -0.05904394
0.12981273 0.16998798 0.10781399 0.18494868 -0.109818764 0.32982647 -0.01430193 -0.49033853
0.739835 0.4559941 -0.322648 -0.9148686 -0.08431412 0.25593466 -0.27516633 -0.5823328
0.018971015 -0.21784706 -0.56454945 -0.18361224 -0.08771179 -0.4373754 -0.2902523 -0.0012003807
0.4118152 -0.5110522 -0.44045237 -0.48591602 -0.021890564 -0.36845475 -0.35384482 -0.41189465
0.2035916 0.0949316 -0.28399795 -0.3324714 0.119914874 0.56620914 -0.6687849 -0.4763959
0.081995055 0.38718602 -0.3196058 -0.55776787 0.08765335 0.14477855 -0.5157365 -0.026784105
-0.05426421 -0.018870858 -0.0136118755 -0.12531178 -0.8981815 0.12272336 0.048411965 -1.7096292
-0.092090234 -0.06852069 0.16505949 -0.9189737 -0.08878722 -0.60191077 0.23742531 -0.36636096
0.122441374 -0.47498387 0.08910679 -0.2861824 -0.43900722 -0.964033 0.09705559 0.00037441283
0.21103619 -0.68252504 -0.14579745 0.115635954 0.25360608 -0.22873704 -0.043335017 0.35048518
-0.1900172 -0.39418307 -0.7892726 -1.4433559 0.029550338 0.06060245 -0.07150584 -0.9349823
0.1047827 0.22856417 0.1737442 0.48208517 -0.11895292 -0.29774448 0.03479556 0.24090953
-0.15206319 0.06917947 -0.021931875 0.16597605 0.43838638 -0.033334285 0.30654246 0.32807764
-0.083839476 -0.027438411 0.46565703 0.14335896 -0.0074003935 -0.4581102 -0.18254182 -0.17923182
0.014934241 0.025394704 -0.09084448 0.066174984 0.0063695963 -0.12705344 -0.17749731 0.18247136
-0.26174194 0.045844555 -0.14375426 -0.48034814 -0.068723075 -0.3390718 -0.1640291 -0.27546632
-0.015012306 -0.07053727 -0.42783156 -0.4144432 -0.073703505 0.5665793 0.020589344 -0.22131118
0.22564662 0.22665209 -0.024846694 -0.061636705 -0.24478774 0.039746135 0.098436095 0.021110576

conv2.bias f4 [8]
00000000: 04e1 bc3d 21e4 90bc 48f6 5e3f 50f8 7b3e
00000010: ae48 0a3f 25d8 883d 3359 453e 479a 9bbb
0.09222606 -0.017686905 0.87094545 0.24606442 0.5401715 0.06681851 0.19272308 -0.004748616

fc1.weight f4 [64, 392]
00000000: 23cb c9bd 7155 fcbe c9b2 a43e db06 653e
00000010: 584f 87be 48df cdbb 60f1 f4be 479e 203e
00000020: 4fec 7dbf f2ff 4bbe e27c 0d3e 7f9d 88bd
00000030: de51 113f 2d9c 7bbe da77 f93a e2f1 f7bd
00000040: 9adb 11bf c4ab 803e 2111 3fbf c28e 943e
00000050: 5ead 9c3d 5aa9 8ebe a1e1 fa3d 064e 4bbf
00000060: a5b4 14bf f0e2 ad3b 09a9 ac3d 6ec5 913d
00000070: 0969 8e3e 513c 0dbc fe95 86bf a341 a0bf
00000080: ea15 78be 6bc7 8abd 6347 433e 0e87 cfbd
00000090: b781 89be 6108 4cbf 105f 37bf dab5 2b3e
000000a0: c488 5abc 3722 de3e f150 393f 64be 02bf
000000b0: b645 98bd 4552 55be 0d77 513e ba6b be3d
000000c0: cbf3 f23e bfe7 44bf bd71 d43e 6d24 ad3e
000000d0: 30f5 ccbe b545 b0be aa42 d13e 8497 81be
000000e0: 791d 23bf d5f2 0bbf 8caf 043e 1407 afbd
000000f0: 00c1 8fbe 62e2 37be a2b4 4b3e c3a7 13bf
00000100: 2287 0fbd 46a0 873e 6ddf 70be 19d7 edbe
00000110: 4e09 953e 58bf 4c3e 896a 05be c67d 2a3e
00000120: ce7b d5bd d137 3bbe 4bfe 43be 7138 e63d
00000130: 9a18 953e 90c5 09be 7aae efbd 6519 c6bd
00000140: 8a29 9fbe 35c8 223e c069 ccbd 08ec 26be
00000150: 41fa 2a3f 073c 6b3d 70ea 53bf 759a 7fbe
00000160: 1c95 41bf 7c1a 89be 36fd 42be 93f6 5dbf
00000170: 93aa dcbc 92c7 45be 3141 e6bd 83ce 853e
00000180: f08f d1be e915 563d 22f9 6c3d 69bb 66bf
00000190: 9e52 173f a376 2a3f 80a3 abbe 226b 2fbf
000001a0: 30f9 78be 3b6f f03c 4392 aabf 9474 d8bd
000001b0: ed44 fcbd 8eb7 793e 6cc5 dcbd 245a c5bd
000001c0: 13f8 5d3f c311 c4bf e59b 493e eaaf a9be
000001d0: 9722 7f3e 4178 a5be 1d90 813e cdea 3c3f
000001e0: e465 d3bf 11ab a23e 41ce cb3d 8622 eebd
000001f0: e559 3abd 92a7 88be d724 84be 2e6f 95be
00000200: 1ed2 0abf f0ed 2cbe 8546 003d 5d85 833e
00000210: 9e40 43be 3676 c3be 1aa5 d1bf ad1c dd3d
00000220: 81fd b23d a357 f0bc be3c 84bd 7c4b 09be
00000230: 8a16 813e 3d55 84bf 108a 8bbe 52ca 6d3d
00000240: 9ab6 b7bc bf4c b6be 13a7 6bbe dcd9 8ebf
00000250: e302 513c 2f43 a7be 4e88 553d d4bc d73c
00000260: 3138 a63e 6137 56bd 124d 57bd a075 943e
00000270: 269e 383e 339a a23e 041a 9bbe 7ad9 7d3c
00000280: 6be4 04bf 85e8 4b3c 7903 123e 26cc a4bf
00000290: db58 8fbd 3292 5fbd 4d09 f03c ebe0 e3bd
000002a0: fc02 85be 7e7e 933e c72e 16bf 8505 58bf
000002b0: f80b 38be ac75 96be 1dac a03c 8d0d 60bf
000002c0: 3a08 d93e 59ca 29bf d75e 2b3a 0491 a23e
000002d0: 88b1 92be b898 5c3e c104 ac3d b74b 67bf
000002e0: 397e 693e 7bdb ba3d 1f0a 2dbe 8012 fabe
000002f0: 117e ba3e a3e4 8bbe fb0c 22bf 6be9 613d
00000300: c1ab 8c3d 2b88 763e 4d47 92be bf26 9dbe
00000310: 8733 0ebf ced3 d2bf c80c a83e 5033 de3e
00000320: 969d bd3c 799d f5be 1f00 83bf 80f0 8cbf
00000330: ec23 0fc0 d0cd 96be 68b6 d7be 5122 673e
00000340: d3ad a1be ed25 8fbd 053c b93e 1062 c6bf
00000350: a2cc 2dbf 1a91 a7be ae11 85bf 20ed bcbe
00000360: 91b3 8f3e 6b9f 95be 2c7b 2dbf 2ed4 4d3b
00000370: 21e0 133e a5f7 a7be 0962 dd3d 0d7b ac3e
00000380: f478 4a3e 244a 3cbf f40d a4be 5399 56be
00000390: 01a0 bbbc f30f 973e 2fd9 a53d 2e95 37bf
000003a0: 2fed 77bd 29b6 43be ef0f 9a3e 866d 97be
000003b0: 7114 7dbf 4b9d cfbe 041e a03e a08f 91bf
000003c0: a362 eabe 76b8 803e c19b 6e3e 2463 debe
000003d0: 5bf9 4fbf 752d 00bf 664c 91bd 4bda 51bf
000003e0: 3be2 103e eea0 45bd a250 bdbc f8a4 d6be
000003f0: 0608 18be 6576 3e3e 4a49 17bf ca3f 2fbe
-0.098531984 -0.49283937 0.32167652 0.22365896 -0.26427722 -0.0062827207 -0.47840405 0.15685378
-0.99188703 -0.19921854 0.1381717 -0.06670665 0.56765544 -0.24571295 0.0019032911 -0.12106682
-0.5697571 0.25131047 -0.7463551 0.29015166 0.07650255 -0.2786358 0.122500665 -0.7941593
-0.5808814 0.005306594 0.084306784 0.07117735 0.2781451 -0.008620338 -1.0514524 -1.2520031
-0.2422711 -0.06776317 0.190702 -0.101331815 -0.26856777 -0.79700285 -0.7162943 0.1676859
-0.0133382715 0.4338548 0.7238913 -0.51071763 -0.07435171 -0.20832165 0.2045557 0.09297891
0.47451624 -0.76916116 0.41493025 0.33816853 -0.40030813 -0.34428182 0.40871173 -0.2531091
-0.63716847 -0.5466741 0.12957591 -0.08546272 -0.28076935 -0.17957452 0.19893125 -0.5767786
-0.035040982 0.26489466 -0.2352273 -0.4645317 0.2910866 0.19994867 -0.13028921 0.16649541
-0.104240045 -0.18283011 -0.19139974 0.11241234 0.29120332 -0.1345427 -0.11703201 -0.09672812
-0.3108638 0.15896685 -0.09981108 -0.16300976 0.6678811 0.057430293 -0.827796 -0.24961264
-0.7561815 -0.26778018 -0.19041905 -0.8670437 -0.026936805 -0.19314411 -0.11242903 0.26134118
-0.40930128 0.05226699 0.05785478 -0.90129715 0.5911044 0.66587275 -0.33523178 -0.68522847
-0.24313807 0.029349914 -1.3325886 -0.105691105 -0.12317834 0.24386427 -0.10779843 -0.096363336
0.86706656 -1.531792 0.19688375 -0.33142024 0.24915539 -0.3231831 0.25305262 0.7379578
-1.651547 0.31771138 0.09951449 -0.116276786 -0.045495886 -0.26690346 -0.25809357 -0.29186386
-0.54226863 -0.16887641 0.031317253 0.25687686 -0.19067618 -0.38176125 -1.637851 0.10796485
0.08739758 -0.029338663 -0.06456898 -0.13407701 0.25212508 -1.0338513 -0.2725377 0.058054276
-0.022425938 -0.35605428 -0.23012953 -1.1160235 0.012757036 -0.32668445 0.052131943 0.026335157
0.32464746 -0.052298907 -0.052563734 0.2899599 0.18029079 0.3175827 -0.30293286 0.015493745
-0.5191104 0.012445574 0.14259137 -1.2874801 -0.0699937 -0.054582782 0.02930131 -0.11126884
-0.2597884 0.28807443 -0.58665127 -0.8438342 -0.17973316 -0.29386652 0.01961332 -0.87520677
0.4238909 -0.66324383 0.00065372646 0.31751263 -0.2865107 0.21542633 0.08399344 -0.90349907
0.22802056 0.09123894 -0.16898392 -0.4884224 0.36424306 -0.27322873 -0.63301057 0.055154245
0.06868697 0.24075381 -0.28570023 -0.30693623 -0.55547374 -1.6470888 0.3282225 0.43398523
0.023146432 -0.47971705 -1.0234412 -1.1010895 -2.2365675 -0.29453897 -0.42131352 0.22571684
-0.3157793 -0.06989656 0.36178604 -1.5498676 -0.6789037 -0.3272789 -1.039602 -0.36899662
0.28066686 -0.2922319 -0.6776607 0.0031406987 0.14440967 -0.32806125 0.10809714 0.3368763
0.19772702 -0.7355063 -0.32041895 -0.20956926 -0.022903444 0.29504356 0.08098065 -0.71712005
-0.06052893 -0.19112457 0.3009028 -0.29575747 -0.98859316 -0.40549693 0.312729 -1.1371956
-0.4577838 0.25140733 0.23301603 -0.43435013 -0.8123986 -0.5006936 -0.0709465 -0.81973714
0.141488 -0.048249178 -0.023109738 -0.41922736 -0.1484681 0.18599851 -0.59096205 -0.17114177

fc1.bias f4 [64]
00000000: 5790 173f 4368 d03e b9cd af3e dbbb 303f
00000010: 9c91 e2bd 96e0 a93e eaeb 4b3e f1ec 973e
00000020: a575 d33e 2516 9d3e 0b9d 3c3e a1d6 d1bd
00000030: 39e4 793f ad34 0c3f 6905 153f 47d3 603e
00000040: 4350 2f3f e1e2 193e 4e44 603e f853 063f
00000050: 6b75 6a3e 5035 373e 6d2b 1b3d 5279 393f
00000060: 8b82 ddbd 5881 1bbd 7486 243e 7076 a93d
00000070: 42d2 3a3f 0fab 893e 0e3b 473f 0249 663f
00000080: f5fc 1c3f 0988 8e3e c452 7a3e 96ed b03e
00000090: 9c44 233f 6c14 723f eea0 e13e 634b ce3e
000000a0: 1f06 bb3e dcd4 ee3e 340a 073f e1a9 ed3e
000000b0: 5394 1a3e f0c4 5d3f 4ccd b43e 6d93 ae3e
000000c0: 51a5 4d3e 9614 eb3e f38d 8a3e 984a 993e
000000d0: 28f4 943e d28b c53e 0a03 263e 52dd 953e
000000e0: 456f 543f 425c 703f ecd4 593e d7f1 603e
000000f0: edcf a53e df99 863e 19ae 8e3e 089f 03bd
0.5920462 0.40704545 0.3433664 0.69036645 -0.11062929 0.33179158 0.19914213 0.2967296
0.41300693 0.30680957 0.18419282 -0.10246015 0.97613865 0.54767877 0.5821138 0.21955596
0.68481845 0.15027954 0.21901056 0.52471876 0.22896354 0.17891431 0.03788321 0.72450745
-0.10815915 -0.03796515 0.16066915 0.08274543 0.7297708 0.2688832 0.77824485 0.8995515
0.6132348 0.27838162 0.24445635 0.34556264 0.63776565 0.9456241 0.44068092 0.4029189
0.36528108 0.46646774 0.52749944 0.4641867 0.15095644 0.8662863 0.3531288 0.34096852
0.20082594 0.45914143 0.27061424 0.29939723 0.29092526 0.38583237 0.16212097 0.29270416
0.82982284 0.93890774 0.2127263 0.21967255 0.32385197 0.2628927 0.278672 -0.032134086

fc2.weight f4 [2, 64]
00000000: 27d9 e4be 39a3 a0bb b59d 92be e864 78be
00000010: 6c3c 2c3e 73f7 eebe 3978 273d b3b1 213d
00000020: 1027 83be 361c d53c 6c5f 143d 08a5 803e
00000030: 6ca7 3bbe f286 95be 36f0 93be 557a 1c3d
00000040: 35fa d4bd 4b68 673d acf5 15be 8500 ccbe
00000050: badf 233d 4e3d 113d b944 8c3d 4ce0 0dbe
00000060: 5c6b 0b3d 8c0a 1a3d 11d5 0d3d 1a6a 3f3d
00000070: 7416 fcbd fb58 66be d517 08be 6730 12be
00000080: ec01 9bbe 5de8 4b3d 6d60 27bf 4816 503c
00000090: cac1 ffbe 1615 02be d2b1 40be 8b23 0a3b
000000a0: 20c7 04be aeed 32bb d496 82be 1129 35be
000000b0: fb73 c23c 97c5 c8bd eef1 a13c db74 84be
000000c0: bad2 9f3c 866b 0cbf 9f20 a03d 3e9e 1c3d
000000d0: 59ac 92bc a53f 21bf 2d72 d3bd 1fe9 d43c
000000e0: 8a9f 09be cf28 0ebe 7145 3f3d 1288 113d
000000f0: 9d9a c8be d848 9e3d 9262 eb3c 134b d13c
00000100: 9975 283d 6410 c9be c8de 90be 3dd1 f8bd
00000110: 908a 2ebf 354a 00bd e0a2 a4be c727 983c
00000120: 126e a3be f9ed 4ebe 4e15 8b3d 9b3a fabd
00000130: bceb f7bd ae92 85be 563f 41bd 2c38 dd3c
00000140: 849c 04be 40ed 733d a502 bebd f456 ffbe
00000150: 1ac7 2e3d bc08 8d3d 280f 44be 560d d9bd
00000160: 55a3 ab3d 22cc 7d3d 2b4e c03d 0bb6 133d
00000170: c0a3 cfbd b754 63be 160b b9bd f51a d2bd
00000180: 775d 46be ce29 b5be f5e3 6f3d ac1d 58be
00000190: 0855 25be c88b a7bd 13ff 8bbe 644e 54be
000001a0: 65b7 f8bd 3112 85be bd58 13be c36f bdbe
000001b0: b6a6 3a3d c014 06be 2ba5 a93d 2f55 a7be
000001c0: 9e22 693d c4bd cd3c 71eb b63d bab9 993d
000001d0: fd2e 3c3d 1be3 6a3d d7b2 2fbf 0651 83be
000001e0: e55f f8bd a694 0fbe db06 b93d 0193 243d
000001f0: 2cd3 353d a0a3 983d f984 703d fca1 06bf
-0.44696924 -0.00490227 -0.28635946 -0.24257243 0.16819924 -0.46673164 0.040886138 0.039476108
-0.2561574 0.026014429 0.036223814 0.2512591 -0.18325585 -0.29204518 -0.28894204 0.038202602
-0.10399286 0.056495946 -0.14644498 -0.39844146 0.040008284 0.035458855 0.06849045 -0.13855094
0.034037933 0.037607715 0.034627024 0.046732046 -0.1230897 -0.22494881 -0.13290341 -0.14276277
-0.30274904 0.049782146 -0.6538151 0.012700625 -0.49952537 -0.12703356 -0.18817833 0.0021078314
-0.12966585 -0.0027302313 -0.25505698 -0.17691447 0.023736944 -0.09803312 0.019768681 -0.25870404
0.019509662 -0.5485157 0.07818722 0.03823685 -0.017904447 -0.6298774 -0.10324512 0.025990067
-0.13439766 -0.13882755 0.046697084 0.035530157 -0.3918046 0.077287376 0.028733525 0.025548493
0.041127775 -0.39270318 -0.2829497 -0.12149284 -0.6818018 -0.03132077 -0.32155514 0.018573655
-0.31919914 -0.20207967 0.06791173 -0.12218209 -0.1210551 -0.2608847 -0.047179542 0.027004324
-0.12950331 0.05955243 -0.09277848 -0.49871027 0.042670347 0.068864316 -0.19146407 -0.10598247
0.083807625 0.061962254 0.09389909 0.03606228 -0.10138655 -0.22200285 -0.090353176 -0.10259048
-0.19371592 -0.35383457 0.058567006 -0.21105069 -0.16145718 -0.08180958 -0.27343044 -0.20733029
-0.12144355 -0.2599044 -0.1438932 -0.3699933 0.045569144 -0.13093853 0.082834564 -0.32682177
0.05691778 0.025114901 0.08931626 0.07506128 0.04594325 0.05734549 -0.6863226 -0.25647753
-0.121276654 -0.14021549 0.09034511 0.040179256 0.044390842 0.07453084 0.058720563 -0.5259092

fc2.bias f4 [2]
00000000: f1bc fb3f 39a3 ea3f
1.9667035 1.8331062
