assignment-5/models/best_model_6.9.pth (torch, 110548 bytes, 8 tensors)

conv1.weight f4 [4, 4, 8, 8]
-0.058095712 -0.07475947 -0.077661365 -0.058239922 -0.13348968 0.0012443379 -0.0360656 -0.014381552
-0.07775886 -0.045734726 -0.1209578 0.11499006 0.029115038 0.031299826 -0.022562051 -0.01535443
-0.15582964 0.06640385 -0.08313232 0.10835838 -0.01993433 -0.04833141 -0.0018460127 -0.0009030304
-0.0908666 0.08123541 -0.0394059 -0.019558366 -0.079227604 0.04517359 0.05082678 0.03232628
0.0011947191 0.06403881 0.065596856 0.06664441 0.043012705 0.029354576 -0.074782126 -0.112256266
0.030831184 0.08064196 0.11483802 -0.0646431 0.018106423 -0.046518207 -0.044167005 -0.059750978
0.08278327 0.038645215 0.06710433 0.100851044 -0.0358008 0.011527129 -0.04486094 -0.08249097
0.038244177 0.17565954 0.092603765 -0.021221265 0.06824071 0.014576025 0.052249208 0.086855724
0.08040717 -0.028390799 0.09441749 -0.021628102 -0.0633429 -0.115579456 -0.027228203 -0.08656402
0.035398383 0.015591813 -0.023140648 0.16185243 -0.014691298 0.0028961154 -0.088003576 0.05040942
0.027006252 -0.004072224 0.10383446 -0.072022215 0.019018056 -0.0121232 0.0078065335 -0.06606336
0.013722823 0.113398485 0.013723413 0.08008507 -0.14878428 -0.07100394 -0.051680498 0.059713602
0.06755781 0.113637574 0.063214615 0.09361726 0.009776755 -0.055521317 -0.047540437 -0.03676589
0.120870836 0.03519843 -0.068338364 0.056416087 -0.023699973 -0.0059387884 0.08575169 -0.013764464
0.15828562 -0.024002446 -0.014229771 -0.02424613 0.0018694263 -0.1477375 -0.14131577 -0.0066191237
-0.093464434 -0.0012462836 -0.009318026 -0.07157709 -0.04324704 -0.0037898675 0.02434714 -0.015033559
-0.07129731 -0.12061808 0.025193075 -0.0643251 -0.09287415 -0.07233301 0.07716049 -0.060443573
-0.057908934 -0.10414333 0.06351897 0.18456745 -0.0033108294 -0.022866981 0.13187267 -0.010798295
0.18148373 0.17325859 -0.0016456513 -0.005823018 0.04870507 0.18456325 0.1322516 0.028873604
0.022551518 0.075278185 0.06458795 0.0030825227 0.07285542 0.009360405 -0.053997423 0.15521133
0.0698696 -0.056319974 0.10158126 0.19342348 -0.06684068 0.0071095973 0.06187751 0.03106202
0.0001108699 -0.0692125 -0.107460186 -0.0027131925 -0.08696251 -0.09625812 0.084042676 0.20435072
0.08858161 0.04761228 0.025485555 0.025380464 -0.14999984 -0.07978157 0.045132715 0.03487048
-0.041916244 -0.00064001157 -0.11724956 -0.061079077 0.12833753 0.06907034 0.036617655 0.056649458
-0.14829196 -0.20282888 -0.33599904 -0.14927232 -0.17895745 -0.16857347 0.06716276 0.15121283
-0.17474708 -0.13333765 -0.3503981 -0.05316505 -0.0664568 -0.02191701 0.058321945 0.17350833
-0.18032345 -0.010214586 -0.27599227 -0.08051489 0.0630072 0.0892666 0.025217723 0.30904526
-0.028739227 0.11166452 -0.18978536 0.1475917 0.078796834 -0.0111914 -0.06793709 0.31251922
0.072029136 0.107451096 -0.120791666 0.043891363 0.13386844 0.2664075 0.17056027 0.22264096
0.025516024 0.06898068 -0.05688114 0.07950718 0.23558427 0.14707547 0.08995699 0.14106777
0.072063096 0.043224055 -0.06648726 0.14332002 0.19782677 0.08554447 -0.022042649 0.28051415
-0.0055682333 0.04364233 -0.09960115 -0.11397188 0.15235634 0.23835656 0.1885469 0.20019095
00000000: c5f5 6dbd 7e1b 99bd ec0c 9fbd fc8c 6ebd
00000010: 85b1 08be 0d19 a33a 86b9 13bd 9aa0 6bbc
00000020: 0a40 9fbd 5654 3bbd b9b8 f7bd e97f eb3d
00000030: a982 ee3c 3f34 003d 0dd4 b8bc 2691 7bbc
00000040: ce91 1fbe befe 873d 4741 aabd 00eb dd3d
00000050: 524d a3bc 28f7 45bd e8f5 f1ba 58b9 6cba
00000060: 4518 babd c05e a63d 1568 21bd de38 a0bc
00000070: 1542 a2bd f107 393d be2f 503d 9068 043d
00000080: 1f98 9c3a c826 833d a557 863d dd7c 883d
00000090: 172e 303d 0279 f03c 5f27 99bd 9de6 e5bd
000000a0: ae91 fc3c 9d27 a53d 3230 eb3d 9a63 84bd
000000b0: ec53 943c e089 3ebd 76e8 34bd 71bd 74bd
000000c0: 468a a93d 724a 1e3d ff6d 893d fe8a ce3d
000000d0: dca3 12bd 49dc 3c3c 1bc0 37bd 07f1 a8bd
000000e0: eda5 1c3d 18e0 333e 0ba7 bd3d 38d8 adbc
000000f0: c9c1 8b3d 48d0 6e3c 4403 563d 6ae1 b13d
00000100: 84ac a43d d293 e8bc f55d c13d 6b2d b1bc
00000110: ecb9 81bd ecb4 ecbd ae0d dfbc 7a48 b1bd
00000120: e5fd 103d ce74 7f3c 7591 bdbc a5bc 253e
00000130: c5b3 70bc c1cc 3d3b 383b b4bd 1c7a 4e3d
00000140: 373c dd3c 4a70 85bb 29a7 d43d 6280 93bd
00000150: c1cb 9b3c 63a0 46bc f3cd ff3b 3a4c 87bd
00000160: b1d5 603c 773d e83d 2bd8 603c a403 a43d
00000170: e85a 18be 846a 91bd eeae 53bd 4096 743d
00000180: c05b 8a3d d1ba e83d aa76 813d 68ba bf3d
00000190: af2e 203c 526a 63bd c3b9 42bd d497 16bd
000001a0: 218b f73d 3b2c 103d fcf4 8bbd 8e14 673d
000001b0: 7226 c2bc 2b9a c2bb 959e af3d 5984 61bc
000001c0: a015 223e c7a0 c4bc fc23 69bc d29f c6bc
000001d0: 8a07 f53a 8048 17be 15b5 10be 3ce5 d8bb
000001e0: 486a bfbd 575a a3ba a2aa 18bc 0297 92bd
000001f0: cf23 31bd 6d5f 78bb a773 c73c 514f 76bc
00000200: 5304 92bd 9d06 f7bd b561 ce3c e1bc 83bd
00000210: cd34 bebd 5423 94bd 5206 9e3d ae93 77bd
00000220: eb31 6dbd 1949 d5bd 3c16 823d 40ff 3c3e
00000230: 80fa 58bb 8953 bbbc a109 073e 55eb 30bc
00000240: dfd6 393e b36a 313e e5b2 d7ba 04cf bebb
00000250: f87e 473d 26fe 3c3e f76c 073e 5688 ec3c
00000260: f6bd b83c 732b 9a3d b046 843d 2604 4a3b
00000270: 3935 953d 625c 193c 672c 5dbd b8ef 1e3e
00000280: cb17 8f3d c6af 66bd d609 d03d ce10 463e
00000290: c4e3 88bd a0f7 e83b 4673 7d3d c775 fe3c
000002a0: d382 e838 48bf 8dbd 1614 dcbd d1cf 31bb
000002b0: 6719 b2bd fa22 c5bd 911e ac3d 5141 513e
000002c0: 466a b53d 1805 433d 15c7 d03c b1ea cf3c
000002d0: 8f99 19be 8564 a3bd 15dd 383d 59d4 0e3d
000002e0: 5eb0 2bbd 73c6 27ba 8a20 f0bd 0e2e 7abd
000002f0: ea6a 033e c074 8d3d 65fc 153d 4309 683d
00000300: d9d9 17be 60b2 4fbe 1108 acbe d8da 18be
00000310: 9f40 37be 869e 2cbe a18c 893d 89d7 1a3e
00000320: e6f0 32be aa89 08be 6167 b3be 98c3 59bd
00000330: 811a 88bd 4d8b b3bc fee2 6e3d 2bac 313e
00000340: b6a6 38be 145b 27bc dc4e 8dbe fee4 a4bd
00000350: eb09 813d 68d1 b63d 6695 ce3c 2e3b 9e3e
00000360: 876e ebbc 5eb0 e43d 1857 42be 4722 173e
00000370: 3c60 a13d 225c 37bc 9a22 8bbd 8502 a03e
00000380: 0384 933d 520f dc3d 9f61 f7bd 6ec7 333d
00000390: cf14 093e 9066 883e 5aa7 2e3e fefb 633e
000003a0: fb06 d13c be45 8d3d 33fc 68bd a9d4 a23d
000003b0: 013d 713e f49a 163e 5f3b b83d 1274 103e
000003c0: d195 933d b50b 313d 792a 88bd 7cc2 123e
000003d0: 1a93 4a3e f031 af3d c992 b4bc 8d9f 8f3e
000003e0: ba75 b6bb 4dc2 323d b0fb cbbd 176a e9bd
000003f0: 4d03 1c3e be13 743e 7012 413e dbfe 4c3e

conv1.bias f4 [4]
-0.014698219 -0.011981431 0.015816875 -0.010145199
00000000: ccd0 70bc c44d 44bc 6492 813c 0c38 26bc

conv2.weight f4 [8, 4, 4, 4]
0.14472817 0.061589636 -0.28665212 -0.19231404 0.13508783 0.071182646 -0.16032137 -0.34889534
-0.07285993 -0.06888017 -0.41314083 -0.20870298 -0.10603719 -0.07099032 -0.14090498 -0.0021553815
0.18360022 0.15709008 -0.57637495 0.13294935 -0.24868943 0.22142458 -0.52475524 0.13793926
0.0800597 0.14300837 -0.17562635 0.27450228 0.24402577 0.11065527 0.026196579 0.0913792
-0.004362127 -0.3197345 0.21616946 0.1423022 0.022981897 -0.06402956 0.36087173 0.0644038
0.2209901 -0.13871674 0.024381798 0.270118 0.40637544 -0.12500401 0.07032819 -0.19152738
0.39818642 0.13616093 -0.054223165 -0.04773095 0.46642712 0.033383418 0.032429844 -0.22988589
0.06399405 0.11060556 -0.17080061 0.027759133 0.0061492193 0.13721664 -0.20242226 -0.16945529
-0.011690096 -0.13528375 -0.07301578 -0.5514998 0.18922865 -0.004452508 -0.11524049 -0.21826504
-0.072022215 0.0109882 0.08059939 -0.07895424 -0.12426812 -0.11277159 -0.42398554 -0.12879595
-0.36538628 0.15330896 -0.0005850835 0.030111441 0.04526334 -0.016308162 0.2726336 -0.16772413
-0.07353831 -0.21693386 0.17434305 -0.019555157 -0.39387912 -0.28892204 -0.0919054 -0.2851642
-0.11849694 -0.17576335 -0.22763193 -0.056725234 -0.08156972 -0.060934216 -0.03482415 0.06493549
-0.02251965 -0.06961928 0.07302081 -0.13209353 0.21573402 -0.014939721 -0.07147588 0.022379952
0.14194016 0.0060593584 -0.09414713 -0.35312453 -0.009946828 -0.07158083 -0.07729289 -0.05890382
0.06978919 -0.19496794 -0.051095117 -0.06516418 -0.116111785 0.1894744 -0.25122947 -0.22939155
-0.22283399 -0.12293085 0.017378213 -0.13300171 -0.56179786 -0.13439797 -0.19379981 -0.037329663
-0.23488775 0.058174253 -0.17952746 0.072620116 -0.010816289 -0.019218937 -0.13530153 0.05275442
-0.051883 0.0740391 -0.121862456 0.114647456 -0.31218168 0.22664554 0.141423 0.0028258897
0.13755009 0.10583922 0.088924915 0.271112 0.50379735 -0.078198925 0.094998114 0.30779237
-0.011000617 -0.0138113815 0.045283537 0.24037772 -0.22334775 0.32514825 0.16800217 -0.1887956
0.09070719 -0.06900829 0.12802802 -0.5031513 0.05384909 -0.07120115 -0.13351603 -0.6151276
-0.57948846 -0.3881825 0.27987906 -0.09112438 -0.46648538 -0.04246991 0.12235627 0.035510253
-0.27043673 -0.7249547 -0.07299147 0.010437934 -0.21703582 -0.26522171 0.09390341 0.062316027
-0.07633388 -0.054125868 -0.05919809 0.085933104 -0.122453555 -0.24126488 -0.19072758 0.113640666
0.20580277 0.106965475 -0.1584953 -0.21726695 0.10296136 -0.044937752 0.04906395 -0.08093697
-0.21632136 0.0405111 0.46768072 0.14953616 0.075229794 0.10242546 -0.12560844 0.06498948
-0.25744903 0.17324938 0.08747597 0.19818218 0.33910304 0.015694669 -0.19705059 -0.019767465
-0.11752192 0.18056467 -0.18225628 -0.24054542 0.00046629374 0.07883498 -0.13529524 -0.04956661
-0.07194792 0.35327187 -0.010804728 -0.09536345 -0.21991654 0.0074970783 -0.12522627 -0.041254476
0.11306741 -0.17932428 0.08896854 -0.15577681 0.115675725 -0.5308888 0.055579796 -0.0507708
-0.13314337 -0.118635304 0.10374772 -0.09166205 0.14115097 0.017423842 0.16585758 0.1660403
00000000: 9f33 143e 6a45 7c3d 11c4 92be f9ed 44be
00000010: 7754 0a3e 35c8 913d 492b 24be 69a2 b2be
00000020: 9637 95bd 0c11 8dbd 3287 d3be 3cb6 55be
00000030: 072a d9bd 5f63 91bd 6549 10be 4d41 0dbb
00000040: b201 3c3e 39dc 203e 4f8d 13bf e023 083e
00000050: 71a8 7ebe 20bd 623e 5c56 06bf f33f 0d3e
00000060: 57f6 a33d c970 123e 65d7 33be 908b 8c3e
00000070: e4e1 793e 3b9f e23d 359a d63c 0525 bb3d
00000080: 2cf0 8ebb 3eb4 a3be 875b 5d3e abb7 113e
00000090: 8844 bc3c ee21 83bd 2ec4 b83e 24e6 833d
000000a0: 3b4b 623e c30b 0ebe 56bc c73c e84c 8a3e
000000b0: 7110 d03e 0d01 00be 3a08 903d c11f 44be
000000c0: 17df cb3e c56d 0b3e 1c19 5ebd 8781 43bd
000000d0: 89cf ee3e 0dbd 083d 28d5 043d 3567 6bbe
000000e0: 500f 833d 2b85 e23d 5be6 2ebe 1f67 e33c
000000f0: 647f c93b 8582 0c3e c847 4fbe b085 2dbe
00000100: d187 3fbc d387 0abe 4c89 95bd 172f 0dbf
00000110: 28c5 413e 58e6 91bb 3503 ecbd df80 5fbe
00000120: 6280 93bd da07 343c 4b11 a53d c3b2 a1bd
00000130: 4980 febd cbf4 e6bd a214 d9be 16e3 03be
00000140: e913 bbbe 06fd 1c3e 4a60 19ba 45ac f63c
00000150: 0d66 393d b298 85bc a296 8b3e e0bf 2bbe
00000160: 419b 96bd e923 5ebe fc86 323e 2332 a0bc
00000170: 86aa c9be 97ed 93be e638 bcbd 0b01 92be
00000180: 86ae f2bd 4ffb 33be 5818 69be b858 68bd
00000190: 060e a7bd 2896 79bd c5a3 0ebd e6fc 843d
000001a0: 217b b8bc 8e94 8ebd ef8b 953d 8743 07be
000001b0: 61e9 5c3e bbc5 74bc f261 92bd 2956 b73c
000001c0: c358 113e 958d c63b 36d0 c0bd bdcc b4be
000001d0: 05f8 22bc f898 92bd bc4b 9ebd 2245 71bd
000001e0: a3ed 8e3d ada5 47be 1d49 51bd cc74 85bd
000001f0: 04cc edbd 9405 423e 26a1 80be 9ee5 6abe
00000200: 982e 64be 2bc3 fbbd c15c 8e3c 9a31 08be
00000210: fcd1 0fbf 9f9f 09be 7573 46be fde6 18bd
00000220: 6a86 70be 2048 6e3d 0cd6 37be dbb9 943d
00000230: ce36 31bc 0871 9dbc 7c8c 0abe 0515 583d
00000240: 4583 54bd d0a1 973d 0693 f9bd 49cc ea3d
00000250: 47d6 9fbe c515 683e 31d1 103e 9032 393b
00000260: eed9 0c3e 3cc2 d83d 441e b63d 31cf 8a3e
00000270: ddf8 003f c226 a0bd 5f8e c23d f696 9d3e
00000280: ef3b 34bc 2249 62bc 3b7b 393d 9425 763e
00000290: 46b5 64be d579 a63e c308 2c3e a253 41be
000002a0: b1c4 b93d 3854 8dbd c719 033e 86ce 00bf
000002b0: dd90 5c3d e9d1 91bd 6db8 08be 0179 1dbf
000002c0: 5b59 14bf dbbf c6be 4f4c 8f3e 6b9f babd
000002d0: 2cd7 eebe eef4 2dbd ed95 fa3d 3373 113d
000002e0: af76 8abe a296 39bf 8d7c 95bd de03 2b3c
000002f0: a33e 5ebe 24cb 87be 6e50 c03d 173f 7f3d
00000300: f054 9cbd 16b3 5dbd b279 72bd b2fd af3d
00000310: eec8 fabd 240e 77be 174e 43be 70bc e83d
00000320: f6bd 523e b710 db3d 984c 22be 3a7b 5ebe
00000330: 68dd d23d a610 38bd 48f7 483d 48c2 a5bd
00000340: 5983 5dbe f8ee 253d d973 ef3e 0220 193e
00000350: 1412 9a3d 71c4 d13d 809f 00be 3419 853d
00000360: 5cd0 83be 4968 313e 9a26 b33d 45f0 4a3e
00000370: ea9e ad3e 1b92 803c a1c7 49be 61ef a1bc
00000380: 55af f0bd f2e5 383e 64a1 3abe 8a51 76be
00000390: e378 f439 3c74 a13d d68a 0abe 5c06 4bbd
000003a0: 6e59 93bd 0de0 b43e 5006 31bc ea4d c3bd
000003b0: cd31 61be 0daa f53b 513b 00be 74fa 28bd
000003c0: e38f e73d c9a0 37be 2335 b63d f583 1fbe
000003d0: 65e7 ec3d 54e8 07bf a4a7 633d 0bf5 4fbd
000003e0: bc56 08be 11f7 f2bd af79 d43d 50b9 bbbd
000003f0: e189 103e 72bc 8e3c 92d6 293e 7806 2a3e

conv2.bias f4 [8]
-0.034918003 0.13781321 0.017288268 -0.009465472 -0.0070309294 0.03095174 -0.022295913 0.15043648
00000000: 2e06 0fbd e81e 0d3e 20a0 8d3c 1115 1bbc
00000010: b663 e6bb 818e fd3c eba5 b6bc 050c 1a3e

fc1.weight f4 [64, 392]
-0.05056054 -0.28904685 -0.051047247 -0.14225496 -0.037085112 -0.016225543 0.082549416 -0.022784064
-0.009385386 -0.045136083 0.019941844 -0.2977571 -0.10413854 -0.0571902 0.118185036 -0.12783748
0.10918953 0.034457825 -0.21419384 -0.039806504 -0.10752588 -0.025440108 0.02477236 0.08572265
-0.07993249 -0.118268825 0.056817975 -0.15488926 0.087954886 -0.0038378336 0.055037376 -0.027045712
-0.085464716 0.043620702 -0.07361415 0.040471867 0.047193404 -0.0031201444 0.04603183 0.15550677
-0.19249514 -0.051723346 -0.098692745 -0.004191839 0.19778115 -0.0035701706 -0.10583671 -0.20535341
-0.008892704 0.12571658 0.21900365 0.17886227 -0.06778779 -0.012703529 0.110372595 0.11494921
0.04108339 0.028695952 0.02962403 -0.087186866 0.05453114 0.08412213 0.045896992 -0.06348769
-0.11919361 0.00904186 -0.03078074 0.0022461307 -0.08702019 0.1680514 -0.10746165 -0.11022941
0.13551533 0.15119512 -0.002969767 -0.029444711 -0.05647255 0.096158855 -0.044978045 0.050520834
0.26485577 0.0606723 0.048870336 0.055577274 0.13915165 0.019541759 0.153983 -0.02998941
0.004673783 0.04413895 -0.038100224 0.026089758 0.24171391 0.20547889 0.18041685 0.13029662
0.1982239 -0.008711519 0.1292098 -0.27816135 0.111260295 0.034933265 0.05063333 0.17063479
0.044426154 -0.09545412 0.043733057 0.22895482 0.22532077 0.12704077 -0.05475051 -0.036979124
-0.04079752 0.11786902 0.0926318 0.006412382 0.054663684 -0.028133916 0.1607227 0.15640232
0.04118221 -0.35658655 0.05429383 -0.084117 -0.20658089 -0.030497728 0.041994438 -0.13770984
-0.071200565 0.08004147 -0.05509849 -0.12160735 0.052076615 0.21846643 -0.15798546 -0.08467409
-0.024499005 0.06857836 -0.008612805 -0.03025054 -0.08687818 0.017682854 -0.112366416 0.0378184
-0.14366907 0.0543229 0.06180884 -0.30146137 0.20658378 -0.08935535 -0.20453675 0.11373674
-0.05198125 -0.01720921 -0.21518165 -0.05518438 -0.04197085 0.010185494 -0.035529617 0.05191013
-0.09116722 0.054848444 0.17788713 -0.27280256 0.09187254 -0.1151396 0.0351858 0.030972056
0.11147202 0.06251586 -0.11179542 -0.333456 0.009452532 0.11582708 -0.07074812 0.035773803
-0.14059365 0.13199107 -0.01159546 0.034857385 -0.021997545 0.07882741 0.0031963577 0.013961894
0.25749496 -0.27595887 0.33456185 -0.047860183 -0.006084824 -0.26237008 -0.28535032 -0.011198911
-0.13931593 0.16354567 0.07195061 0.14212307 0.04312586 0.1808191 0.04204706 0.18029033
0.16377853 -0.013676046 0.12930912 0.03177289 -0.050742928 -0.09783998 0.08893943 -0.18362631
-0.034561697 -0.23511824 0.039743073 0.01293485 0.10559176 0.22366531 -0.018089863 0.035509877
0.07402744 -0.13157259 -0.13453123 0.05354374 -0.60488486 0.015888164 -0.056306724 0.10238226
-0.09226026 0.05611734 0.08426762 -0.064787075 -0.010140253 0.14252175 -0.065247215 -0.066582344
-0.16981235 -0.10253472 0.026765253 0.15160196 -0.051933825 0.07551355 -0.14956929 -0.058710992
-0.21197484 -0.08639524 0.20224224 0.42957157 0.12788297 0.14750947 -0.33690017 -0.17433393
0.1875084 0.12671587 0.18552189 0.14643121 -0.12123725 -0.27549064 0.14351094 0.18086115
00000000: 9218 4fbd f3fd 93be eb16 51bd 49ab 11be
00000010: 8fe6 17bd 6eeb 84bc ab0f a93d a5a5 babc
00000020: 29c5 19bc 9de0 38bd 145d a33c 9e73 98be
00000030: 9646 d5bd 4540 6abd ff0a f23d d4e7 02be
00000040: c39e df3d a623 0d3d a155 5bbe 250c 23bd
00000050: 8736 dcbd c667 d0bc 68ef ca3c 5b8f af3d
00000060: a5b3 a3bd ed36 f2bd f7b9 683d 4a9b 1ebe
00000070: b121 b43d 2a84 7bbb df6e 613d f88e ddbc
00000080: 2008 afbd 9fab 323d 04c3 96bd d4c5 253d
00000090: df4d 413d 567b 4cbb df8b 3c3d 2b3d 1f3e
000000a0: 721d 45be dcdb 53bd 6c1f cabd b25b 89bb
000000b0: 2487 4a3e 86f9 69bb ebc0 d8bd 2a48 52be
000000c0: b4b2 11bc d9bb 003e 7e42 603e ac27 373e
000000d0: 53d4 8abd 7622 50bc 070b e23d 7e6a eb3d
000000e0: 0f47 283d c613 eb3c 18ae f23c 078f b2bd
000000f0: 0b5c 5f3d 3948 ac3d 7cfe 3b3d d605 82bd
00000100: c81b f4bd 4f24 143c e427 fcbc d233 133b
00000110: a437 b2bd ab15 2c3e db14 dcbd f5bf e1bd
00000120: 88c4 0a3e e5d2 1a3e 6ca0 42bb 0936 f1bc
00000130: c34f 67bd efee c43d e63a 38bd efee 4e3d
00000140: 2d9b 873e 8583 783d 432c 483d ffa4 633d
00000150: c57d 0e3e 0a16 a03c b8ad 1d3e 5aac f5bc
00000160: 8926 993b 0bcb 343d fb0e 1cbd 30ba d53c
00000170: da83 773e 0f69 523e 32bf 383e 7a6c 053e
00000180: 35fb 4a3e c2ba 0ebc 934f 043e 2a6b 8ebe
00000190: 70dc e33d 2f16 0f3d e564 4f3d e3ba 2e3e
000001a0: 33f8 353d 737d c3bd 6f21 333d 2273 6a3e
000001b0: 7dba 663e fa16 023e 1242 60bd 6c77 17bd
000001c0: 4d1b 27bd 5065 f13d beb5 bd3d f51e d23b
000001d0: 07e7 5f3d 1979 e6bc 7e94 243e ee27 203e
000001e0: adae 283d 8392 b6be 3563 5e3d 8945 acbd
000001f0: f189 53be 5fd6 f9bc 5c02 2c3d cf03 0dbe
00000200: 9ad1 91bd c8ec a33d f4ae 61bd 460d f9bd
00000210: 4a4e 553d aab5 5f3e f1c6 21be 9c69 adbd
00000220: 23b2 c8bc d072 8c3d b91c 0dbc fbcf f7bc
00000230: 30ed b1bd a2db 903c 5d20 e6bd 77e7 1a3d
00000240: fc1d 13be b081 5e3d 442b 7d3d 2559 9abe
00000250: b38a 533e f0ff b6bd 1572 51be cfee e83d
00000260: 4bea 54bd 54fa 8cbc 9458 5cbe 0409 62bd
00000270: a0e9 2bbd 0fe1 263c 8187 11bd b79f 543d
00000280: e1b5 babd c3a8 603d 0b28 363e c7ac 8bbe
00000290: ac27 bc3d 50ce ebbd fc1e 103d 1cb9 fd3c
000002a0: 714b e43d 5108 803d fff4 e4bd bfba aabe
000002b0: cbde 1a3c c036 ed3d 64e4 90bd 8d87 123d
000002c0: c8f7 0fbe ab28 073e e2fa 3dbc 9ec6 0e3d
000002d0: 3234 b4bc 4470 a13d fc79 513b 6ec0 643c
000002e0: 61d6 833e 7b4a 8dbe b14b ab3e 0a09 44bd
000002f0: 3463 c7bb 5f55 86be 7019 92be a37b 37bc
00000300: d6a8 0ebe 8478 273e d75a 933d b688 113e
00000310: bea4 303d a428 393e 8a39 2c3d 079e 383e
00000320: 8fb5 273e 7f11 60bc 9c69 043e 4a24 023d
00000330: d1d7 4fbd 5460 c8bd e025 b63d 8908 3cbe
00000340: 9190 0dbd d6c2 70be a2c9 223d b1ec 533c
00000350: 7e40 d83d 8508 653e 3131 94bc ce72 113d
00000360: b39b 973d f7ba 06be 8ec2 09be ae50 5b3d
00000370: bcd9 1abf e527 823c e1a1 66bd caad d13d
00000380: f2f2 bcbd 4cdb 653d 8194 ac3d 16af 84bd
00000390: 4e23 26bc 39f1 113e 55a0 85bd 535c 88bd
000003a0: 4ae3 2dbe b9fd d1bd ce42 db3c 8b3d 1b3e
000003b0: 90b8 54bd d9a6 9a3d b128 19be f07a 70bd
000003c0: ef0f 59be fdef b0bd 9718 4f3e cef0 db3e
000003d0: c1f3 023e b90c 173e 2e7e acbe 9884 32be
000003e0: 3402 403e cec1 013e 73f9 3d3e 10f2 153e
000003f0: 3c4b f8bd 1c0d 8dbe 88f4 123e aa33 393e

fc1.bias f4 [64]
0.10028365 0.12587762 -0.020296687 0.001105071 0.13489793 -0.0257073 0.09102356 0.15339686
0.13057303 0.06770142 0.11613952 0.17361122 0.10504883 0.118349046 0.11875694 0.08793187
0.09474195 0.19994232 -0.03417409 0.18067208 0.11795132 0.074995704 0.07313034 0.11530456
-0.070140295 0.06913051 0.07962575 -0.05445114 -0.02970663 0.0945819 -0.096845545 0.07235285
0.04963836 0.06713023 -0.06526509 0.12427668 0.16646752 0.07866954 0.12860991 0.13844128
-0.074384786 0.15983383 0.08073225 0.16643819 0.0798734 0.07310489 0.0628209 0.070969
0.18596394 0.09083935 0.111949496 0.11969842 0.17465888 0.115101226 0.035794776 0.08574556
-0.0292736 -0.016236426 0.14750186 -0.056380745 0.0822198 0.08433281 0.07604863 0.13558462
00000000: 8461 cd3d 10e6 003e 3d45 a6bc 08d8 903a
00000010: af22 0a3e 1e98 d2bc 8f6a ba3d 1114 1d3e
00000020: f0b4 053e 0ba7 8a3d 8fda ed3d 24c7 313e
00000030: d723 d73d fc60 f23d d736 f33d a015 b43d
00000040: 1108 c23d aebd 4c3e 21fa 0bbd 1a02 393e
00000050: 7690 f13d 5997 993d 5cc5 953d cc24 ec3d
00000060: b7a5 8fbd 4c94 8d3d d312 a33d 2908 5fbd
00000070: 525b f3bc 28b4 c13d f556 c6bd bb2d 943d
00000080: 9851 4b3d 937b 893d b4a9 85bd c684 fe3d
00000090: 7676 2a3e 7f1d a13d 51b2 033e 8dc3 0d3e
000000a0: 0d57 98bd 7bab 233e f356 a53d c66e 2a3e
000000b0: aa94 a33d 04b8 953d 3ea8 803d 3258 913d
000000c0: 556d 3e3e fb09 ba3d c745 e53d 7224 f53d
000000d0: c7d9 323e 31ba eb3d 8b9d 123d 5e9b af3d
000000e0: 30cf efbc 4102 85bc ba0a 173e 7fef 66bd
000000f0: db62 a83d aeb6 ac3d 62bf 9b3d b2d6 0a3e

fc2.weight f4 [2, 64]
0.08528701 -0.22072263 -0.2382035 -0.40832964 -0.13607875 -0.17791826 0.09349383 -0.116944805
-0.18174285 0.079011224 -0.2833402 -0.0934788 0.07547775 -0.23028114 -0.21044978 -0.45191127
0.07307275 -0.136094 -0.1395953 -0.09960708 -0.24851345 0.10731048 0.06854895 -0.3998463
-0.04408895 0.07437535 0.07321366 -0.092216626 -0.12031656 0.090845995 0.27197558 0.063304015
0.06698267 0.07231782 -0.014968366 -0.2525218 -0.13253023 -0.26583683 -0.15094426 -0.1738056
0.21470505 -0.13250913 0.104970194 -0.121641114 0.07116079 -0.19224422 0.08830016 0.06200513
-0.07491096 0.07493906 -0.3115629 -0.21881072 -0.15656032 -0.010864761 -0.28360063 0.084102936
0.16554657 0.42184153 -0.15602651 0.06309777 0.09181816 0.090719216 0.068239264 -0.20258754
0.098306894 -0.052160207 -0.023693383 -0.26518133 -0.25986725 0.1195703 0.068615355 -0.13669637
-0.13879932 0.09431486 -0.16116835 -0.1303871 0.101740666 -0.2021644 -0.14729922 -0.21741699
0.08066689 -0.13579586 0.22540653 -0.15905774 -0.15366113 0.15304321 0.082587 -0.27495787
0.12080744 0.07881643 0.07499291 0.18898232 0.12659433 0.07684621 0.25943157 0.08024961
0.108186014 0.092487775 -0.07001467 -0.26758605 -0.05962416 -0.22855577 -0.27823412 -0.3258222
-0.032077834 -0.12783025 0.07885233 -0.14144613 0.060777318 -0.15080042 0.13536227 0.13917361
-0.16429652 0.07553195 -0.2591635 -0.17307149 -0.13611497 -0.3336227 -0.07244404 0.06838522
0.218212 -0.13684167 -0.15491956 -0.22614577 0.0768557 0.11795354 0.086487524 -0.078521974
00000000: f5aa ae3d 1d05 62be 9eeb 73be 9510 d1be
00000010: 3a58 0bbe 3430 36be b179 bf3d c280 efbd
00000020: cc1a 3abe a3d0 a13d f711 91be d071 bfbd
00000030: 1494 9a3d d2ce 6bbe 2680 57be ea60 e7be
00000040: 2aa7 953d 3a5c 0bbe 12f2 0ebe ccfe cbbd
00000050: 4f7a 7ebe 99c5 db3d 6463 8c3d a7b8 ccbe
00000060: 9d96 34bd 1a52 983d 0bf1 953d 12dc bcbd
00000070: 8768 f6bd 770d ba3d 6240 8b3e 89a5 813d
00000080: 362e 893d 5d1b 943d e13d 75bc 8a4a 81be
00000090: 01b6 07be c41b 88be 2291 1abe 18fa 31be
000000a0: a4db 5b3e 79b0 07be 9dfa d63d fa1e f9bd
000000b0: c0bc 913d abdb 44be b7d6 b43d 17f9 7d3d
000000c0: eb6a 99bd a679 993d 2c85 9fbe eb0f 60be
000000d0: 5951 20be 1c02 32bc 1a34 91be 293e ac3d
000000e0: 0a85 293e 9dfb d73e 6ac5 1fbe 6739 813d
000000f0: 290b bc3d ffca b93d 07c1 8b3d 1c73 4fbe
00000100: 2055 c93d f1a5 55bd a018 c2bc d9c5 87be
00000110: 520d 85be 46e1 f43d 3586 8c3d 22fa 0bbe
00000120: 6921 0ebe 2628 c13d 5109 25be 3284 05be
00000130: 695d d03d 2f04 4fbe 9bd5 16be 8fa2 5ebe
00000140: af34 a53d 120e 0bbe f8d0 663e 08e0 22be
00000150: 5859 1dbe 5cb7 1c3e 6023 a93d 47c7 8cbe
00000160: e469 f73d 826a a13d e295 993d 9584 413e
00000170: f2a1 013e 8c61 9d3d 37d4 843e e859 a43d
00000180: a190 dd3d 3b6a bd3d da63 8fbd 0a01 89be
00000190: 7738 74bd 860a 6abe b474 8ebe 2bd2 a6be
000001a0: 0c64 03bd efe5 02be 557d a13d 41d7 10be
000001b0: a3f1 783d 6d6b 1abe 689c 0a3e 8783 0e3e
000001c0: 593d 28be 7fb0 9a3d 14b1 84be a739 31be
000001d0: b961 0bbe 98d0 aabe 8a5d 94bd 8d0d 8c3d
000001e0: f772 5f3e 3920 0cbe 3ca3 1ebe c292 67be
000001f0: 8566 9d3d a091 f13d 5f20 b13d 21d0 a0bd

fc2.bias f4 [2]
-0.5935504 -0.8571362
00000000: ebf2 17bf 476d 5bbf
