assignment-5/models/best_model_2.7.pth (torch, 110548 bytes, 8 tensors)

conv1.weight f4 [4, 4, 8, 8]
-0.022156723 -0.14386304 -0.07791199 -0.09963443 -0.10524664 0.012571104 -0.06400133 0.057031635
-0.04606312 -0.06683328 -0.08415934 0.03243243 0.08962857 0.04378651 0.0007885595 0.020247074
-0.10885141 0.071953215 -0.027538108 0.033446174 -0.038996607 -0.053374182 -0.019573659 -0.01795296
-0.036910906 0.061206564 0.00096707913 0.028403072 -0.031992447 0.04986776 0.047674794 0.032702643
0.077192925 0.05167438 0.031677093 0.006227752 0.07223903 0.067412786 -0.0073749176 -0.035872433
0.050854396 0.08046311 0.05728876 -0.07402952 0.06050583 -0.010285483 0.058491103 -0.043955915
0.06930514 0.009115249 -0.010358457 0.09338511 0.021242155 0.057967175 0.030381411 -0.016547477
0.00078448694 0.10476554 0.022556528 -0.053881556 -0.018136077 0.03737002 0.04744014 0.056857914
0.042039216 -0.04470324 0.03259663 0.0035345426 -0.075420626 -0.080682404 -0.029071147 -0.07299073
0.03475817 0.085564256 -0.047241356 -0.014857852 -0.0409092 0.02175665 -0.023726577 0.09008393
0.056966856 0.02014763 0.058234174 -0.028486785 0.06883041 -0.02332332 0.012955731 -0.02086873
-0.041332062 0.117603056 0.010445772 0.035166115 -0.058450244 -0.09747138 0.026164977 -0.035898715
0.007327656 0.04858054 0.040807083 0.10446662 -0.014065051 0.023110297 0.04846856 -0.015210066
0.055927973 0.012342394 -0.13923594 0.028983943 -0.06773764 0.022801004 0.09476502 0.0059724124
0.06582111 -0.044558838 -0.0064486326 -0.047980927 0.021005174 -0.043139637 0.0037746676 0.028250417
-0.07442262 0.024464682 -0.042219248 -0.043978646 -0.0173727 0.10016557 0.015756572 0.022679897
-0.02544679 -0.12550263 0.006842277 0.038640328 -0.089453705 -0.003884772 0.11396725 -0.06146681
-0.05293383 -0.07310005 -0.04296651 0.103825435 -0.07068272 -0.017355114 0.1477216 -0.08793288
0.13131003 0.02916565 -0.14682509 -0.014632798 -0.017682597 0.06370954 0.101972245 -0.028939689
-0.01398691 0.096694894 0.05094436 -0.04024858 0.061661568 0.023854945 -0.01347521 0.1651703
0.08977125 -0.012399337 0.028406974 0.19483326 0.037562188 0.11721919 0.025911126 0.02301741
0.0659671 -0.03952772 -0.08825187 0.009181748 -0.07330853 -0.015979981 0.01013111 0.117924266
0.09249719 0.1509426 0.113254346 0.049117357 -0.07352105 -0.03582029 0.14726563 0.015361659
0.0015663338 0.10698335 -0.001952699 0.03353537 0.13665725 0.029244738 -0.0039526047 0.056153607
-0.059533402 -0.18973829 -0.14352942 -0.0551663 -0.058588915 -0.12607363 0.061869614 0.09002645
-0.09551979 -0.050382603 -0.09866161 -0.032931384 0.014139782 0.059118245 0.07162928 0.10057015
-0.08902186 -0.00984546 -0.10206542 -0.06722462 0.116717555 0.112088695 0.06626375 0.1221544
0.11873777 0.14193624 -0.010472167 0.11239392 0.10192467 -0.0018161136 0.004746989 0.11823371
0.12933028 0.1067292 9.897107e-06 0.024183689 0.15946862 0.1422348 0.019059852 0.06719901
-0.012988399 0.040617194 -0.020422762 0.03944046 0.017282723 0.031050412 -0.011400843 0.020127052
0.026385723 0.0043453127 -0.040661138 0.053407084 0.12535483 0.08701482 0.024694972 0.15302071
-0.021778861 0.017287105 -0.04685027 -0.1243543 0.09448313 0.08197329 0.056440704 0.104898974
00000000: 0482 b5bc d550 13be 5290 9fbd 230d ccbd
00000010: 8d8b d7bd 08f7 4d3c 2113 83bd 019a 693d
00000020: afac 3cbd e3df 88bd bb5b acbd ded7 043d
00000030: 2f8f b73d 7c59 333d 55b7 4e3a 31dd a53c
00000040: 7ded debd 355c 933d 9997 e1bc dbfe 083d
00000050: e8ba 1fbd e39e 5abd f058 a0bc 1612 93bc
00000060: e42f 17bd bcb3 7a3d 9583 7d3a 8fad e83c
00000070: 830a 03bd 2342 4c3d a546 433d 35f3 053d
00000080: 5317 9e3d 84a8 533d d7bf 013d 2c12 cc3b
00000090: 0ef2 933d b70f 8a3d 4ba9 f1bb f9ee 12bd
000000a0: b34c 503d d8c9 a43d 9ea7 6a3d ca9c 97bd
000000b0: f6d4 773d 7184 28bc 5e94 6f3d 1e0b 34bd
000000c0: daef 8d3d 2058 153c 85b6 29bc b140 bf3d
000000d0: 0704 ae3c fd6e 6d3d 70e2 f83c 938e 87bc
000000e0: 07a6 4d3a 518f d63d 78c8 b83c e8b2 5cbd
000000f0: 1c92 94bc 4e11 193d 9850 423d d8e3 683d
00000100: 5031 2c3d bf1a 37bd 0b84 053d c9a3 673b
00000110: 2176 9abd d13c a5bd 9d26 eebc 2a7c 95bd
00000120: 955e 0e3d 503c af3d 2780 41bd 596e 73bc
00000130: 6890 27bd 013b b23c 3d5e c2bc ec7d b83d
00000140: 1456 693d a40c a53c f586 6e3d 1e5d e9bc
00000150: f5f6 8c3d 8c10 bfbc 4644 543c e6f4 aabc
00000160: cf4b 29bd dfd9 f03d be24 2b3c 580a 103d
00000170: 8669 6fbd 139f c7bd ef57 d63c 880a 13bd
00000180: d51c f03b 63fc 463d 5425 273d 98f2 d53d
00000190: 1a71 66bc ce51 bd3c f886 463d a433 79bc
000001a0: bb14 653d c137 4a3c de93 0ebe bc6f ed3c
000001b0: 08ba 8abd 2cc9 ba3c 2a14 c23d 3ab4 c33b
000001c0: 38cd 863d 5483 36bd 0d4f d3bb a687 44bd
000001d0: 0b13 ac3c 30b3 30bd 6a60 773b 6b6d e73c
000001e0: e36a 98bd 286a c83c 17ee 2cbd f422 34bd
000001f0: 3151 8ebc 9b23 cd3d ed13 813c 31cb b93c
00000200: c975 d0bc c383 00be 2e35 e03b 5245 1e3d
00000210: 8133 b7bd a997 7ebb a967 e93d 9fc4 7bbd
00000220: 25d1 58bd 7bb5 95bd a7fd 2fbd 6ea2 d43d
00000230: 1ac2 90bd 502c 8ebc 5544 173e 2716 b4bd
00000240: 2376 063e cdec ee3c 5159 16be 67be 6fbc
00000250: 18db 90bc 267a 823d d3d6 d03d ed12 edbc
00000260: 5a29 65bc f907 c63d 09ab 503d b2db 24bd
00000270: d790 7c3d 726b c33c 21c7 5cbc 6722 293e
00000280: fdd9 b73d 9726 4bbc beb5 e83c 5f82 473e
00000290: cfda 193d 9d10 f03d 9243 d43c 028f bc3c
000002a0: c219 873d d2e7 21bd 65bd b4bd 0b6f 163c
000002b0: c822 96bd 73e8 82bc f5fc 253c 4782 f13d
000002c0: 2b6f bd3d b290 1a3e e5f1 e73d 482f 493d
000002d0: 3492 96bd 4cb8 12bd cdcc 163e 78af 7b3c
000002e0: 714d cd3a 161a db3d b5f1 ffba 625c 093d
000002f0: e1ef 0b3e a992 ef3c da84 81bb 5301 663d
00000300: 4cd9 73bd c14a 42be 60f9 12be 0ff6 61bd
00000310: eefa 6fbd 7219 01be fe6a 7d3d ca5f b83d
00000320: e19f c3bd fd5d 4ebd 190f cabd 0fe3 06bd
00000330: 8baa 673c f925 723d 5fb2 923d b9f7 cd3d
00000340: 1851 b6bd da4e 21bc ad07 d1bd 10ad 89bd
00000350: 9d09 ef3d c28e e53d 4ab5 873d 162c fa3d
00000360: ca2c f33d bc57 113e 7493 2bbc c92e e63d
00000370: e2bd d03d a90a eeba a18c 9b3b 8424 f23d
00000380: 286f 043e d794 da3d c00b 2637 df1c c63c
00000390: be4b 233e 00a6 113e 6823 9c3c a29f 893d
000003a0: 4bcd 54bc 375e 263d a34d a7bc 528c 213d
000003b0: 7f94 8d3c 6f5d fe3c 9aca 3abc 7de1 a43c
000003c0: df26 d83c 2063 8e3b 4b8c 26bd 63c1 5a3d
000003d0: 045d 003e d334 b23d 1c4d ca3c 76b1 1c3e
000003e0: 9569 b2bc b09d 8d3c 12e6 3fbd 78ad febd
000003f0: 5f80 c13d 9de1 a73d 5e2e 673d 46d5 d63d

conv1.bias f4 [4]
-0.010485091 -0.00883097 0.026020857 -0.008500391
00000000: a9c9 2bbc c6af 10bc b129 d53c 3945 0bbc

conv2.weight f4 [8, 4, 4, 4]
0.16134235 0.056456547 -0.28883845 -0.05352436 0.12926494 0.057501532 -0.2141641 -0.20419493
-0.25542083 -0.015379726 -0.42307898 -0.007957609 -0.07551102 -0.055058505 -0.56401336 -0.03679957
0.10236497 0.14280161 -0.45147574 0.029467937 -0.035635237 0.035133686 -0.39016312 0.0061713452
0.03022031 0.08002322 -0.28781408 0.1328311 0.21970513 0.14084947 -0.1720994 0.08959222
0.059051372 -0.2713128 0.19931075 0.15890129 0.1457946 0.025020517 0.18093623 -0.038894616
0.20802748 -0.10237586 -0.092288956 0.09172988 0.14477016 -0.09139183 0.056127436 -0.21864273
0.29524195 0.20930278 -0.1403036 0.032200072 0.39340168 0.121319585 -0.039222874 -0.20295763
0.10987872 0.19409212 -0.2271646 -0.11622458 -0.02136181 0.040952235 -0.033181597 -0.29495722
0.006947268 0.016012667 -0.09190293 -0.35011536 0.15934378 -0.024474118 -0.15185301 -0.18328714
-0.1405562 0.02756585 0.03995985 -0.22130513 -0.07063579 -0.092465155 -0.41088942 -0.17851196
-0.19375533 0.15240623 0.011269312 0.031063331 -0.030204205 0.03200138 0.21200296 -0.10953644
0.13214822 -0.07357823 0.1301231 -0.14947622 -0.08356583 -0.21709317 0.09206103 -0.16129982
-0.02826488 -0.107041016 -0.09139758 -0.043097906 -0.07438999 -0.05034733 0.046449713 0.10537065
0.09840944 -0.091549315 0.14251147 -0.08632906 0.12027675 -0.008624579 0.0029402678 0.05896374
0.06648043 0.09784508 -0.11263773 -0.18545426 -0.06270486 0.011982219 -0.06654548 -0.11264389
0.02856096 -0.16091464 0.044669863 -0.08566592 -0.09768393 0.28230605 -0.045969542 -0.08611457
-0.13329054 -0.1390563 0.019548547 -0.09132031 -0.10800109 -0.07538593 -0.062400952 -0.0063277697
-0.09309264 -0.05077252 -0.10578689 0.044960078 0.0033920966 -0.015339863 -0.16562866 0.012730984
-0.077671714 0.07434147 -0.12639473 -0.038562633 0.0047813132 0.2224713 0.107431784 0.042462405
0.028433504 0.15365297 0.19580856 0.13478208 0.16370974 -0.11397278 0.011472219 0.1446393
-0.018609364 -0.11753006 0.025849553 0.23934397 -0.07930696 0.04965393 0.13880499 0.01513725
0.07098978 0.057278745 0.14353108 -0.375181 0.083647884 0.034288473 -0.11406575 -0.3989107
-0.27710417 -0.48088044 0.18261327 -0.12708521 -0.11644787 0.0189042 0.03958909 -0.027170302
-0.21730578 -0.4147718 0.09647619 0.02772933 -0.049374107 -0.22880705 -0.11686605 -0.0026287911
-0.08839577 -0.016869444 -0.09949404 0.0934438 -0.076914184 -0.21572456 -0.082684055 0.13947757
0.15182859 -0.016059818 -0.27343094 -0.23701999 0.072532535 0.02307049 0.05210238 -0.047284327
-0.17599319 -0.017228933 0.11395285 0.058186512 -0.034321185 -0.10402622 -0.18678191 0.08811186
-0.13573962 -0.066506766 0.058409136 0.19193213 0.1274929 0.12394659 -0.27087155 -0.04273097
-0.12769635 -0.07056846 -0.12464606 -0.18355544 0.052403335 -0.0052798786 -0.14310096 -0.0941292
-0.1318297 0.11050321 -0.024777293 -0.0058045 -0.23848549 0.0451092 -0.027453767 0.09138653
-0.044548605 -0.3583089 0.09534257 -0.16242334 0.17896886 -0.1589644 0.19239856 -0.029718503
0.0121527705 -0.06859206 -0.037243523 0.017585551 0.086204186 -0.098168455 0.09075431 0.16638003
00000000: ee36 253e fb3e 673d a2e2 93be 5c3c 5bbd
00000010: 075e 043e ba86 6b3d d54d 5bbe 7a18 51be
00000020: 85c6 82be 3ffb 7bbc cf9d d8be a260 02bc
00000030: 86a5 9abd 0785 61bd 2e63 10bf 25bb 16bd
00000040: baa4 d13d 963a 123e d427 e7be be66 f13c
00000050: 41f6 11bd 57e8 0f3d 76c3 c7be ff38 ca3b
00000060: 9590 f73c 37e3 a33d 5e5c 93be e004 083e
00000070: 62fa 603e d83a 103e d33a 30be 207c b73d
00000080: dadf 713d 83e9 8abe 1e18 4c3e 05b7 223e
00000090: 2e4b 153e d4f7 cc3c 5947 393e f64f 1fbd
000000a0: 2805 553e 6faa d1bd fe01 bdbd e0dc bb3d
000000b0: a13e 143e a42b bbbd e2e5 653d e1e3 5fbe
000000c0: f429 973e 7853 563e bfab 0fbe 39e4 033d
000000d0: f26b c93e 6776 f83d 2aa8 20bd 20d4 4fbe
000000e0: 1808 e13d 16c0 463e d69d 68be 2707 eebd
000000f0: f6fe aebc 88bd 273d 6de9 07bd a204 97be
00000100: e8a5 e33b ff2c 833c 9a37 bcbd 5242 b3be
00000110: 042b 233e f27d c8bc 5b7f 1bbe a0af 3bbe
00000120: f7ed 0fbe c7d1 e13c f1ac 233d d09d 62be
00000130: 7fa9 90bd 5f5e bdbd 1960 d2be d7cb 36be
00000140: cc67 46be 6110 1c3e eca2 383c 8778 fe3c
00000150: cf6e f7bc e113 033d 4e17 593e a454 e0bd
00000160: dd51 073e 2fb0 96bd fd3e 053e 4b10 19be
00000170: 9024 abbd ac4d 5ebe 7e8a bc3d c82b 25be
00000180: c08b e7bc 5238 dbbd a82e bbbd 6e87 30bd
00000190: c759 98bd 0039 4ebd 0e42 3e3d 91cc d73d
000001a0: e38a c93d 357e bbbd 87ee 113e 4acd b0bd
000001b0: a853 f63d 1b4e 0dbc 82b1 403b f683 713d
000001c0: e426 883d 0063 c83d 9cae e6bd b9e7 3dbe
000001d0: 686b 80bd 1251 443c ff48 88bd d7b1 e6bd
000001e0: adf8 e93c cfc6 24be bff7 363d 9d71 afbd
000001f0: 830e c8bd 6b8a 903e 8f4a 3cbd d65c b0bd
00000200: 517d 08be c664 0ebe 4624 a03c 2506 bbbd
00000210: ad2f ddbd f063 9abd 2498 7fbd 2e59 cfbb
00000220: 5ba7 bebd d9f6 4fbd cca6 d8bd 0f28 383d
00000230: f04d 5e3b 0c54 7bbc 8f9a 29be 9e95 503c
00000240: 5912 9fbd 5740 983d 9f6d 01be daf3 1dbd
00000250: 90ac 9c3b 84cf 633e 3205 dc3d 0fed 2d3d
00000260: 61ed e83c 3457 1d3e 0a82 483e 5004 0a3e
00000270: 87a3 273e 906a e9bd f9f5 3b3c 531c 143e
00000280: aa72 98bc 9ab3 f0bd 71c2 d33c 9616 753e
00000290: b06b a2bd eb61 4b3d e522 0e3e 3a02 783c
000002a0: 1763 913d 1e9d 6a3d d0f9 123e b917 c0be
000002b0: 954f ab3d 1272 0c3d 4e9b e9bd 063e ccbe
000002c0: 99e0 8dbe f635 f6be f9fe 3a3e a022 02be
000002d0: 397c eebd fbdc 9a3c 2b28 223d 4194 debc
000002e0: 6885 5ebe f85c d4be 4f95 c53d 9f28 e33c
000002f0: 813c 4abd 654c 6abe 7857 efbd cc47 2cbb
00000300: d708 b5bd ca31 8abc 88c3 cbbd 775f bf3d
00000310: 2f85 9dbd e6e6 5cbe 4256 a9bd 35d3 0e3e
00000320: f478 1b3e e18f 83bc 24ff 8bbe 5eb5 72be
00000330: f08b 943d 53fe bc3c 4e69 553d 36ad 41bd
00000340: 8f37 34be b123 8dbc 1d60 e93d fb54 6e3d
00000350: 5f94 0cbd b30b d5bd c243 3fbe fe73 b43d
00000360: 54ff 0abe b334 88bd 6b3e 6f3d db89 443e
00000370: 808d 023e b6d7 fd3d adaf 8abe ab06 2fbd
00000380: d5c2 02be 3286 90bd 6f46 ffbd f5f5 3bbe
00000390: e1a4 563d d502 adbb 0f89 12be cfc6 c0bd
000003a0: 5dfe 06be 824f e23d c0f9 cabc ad33 bebb
000003b0: 8a35 74be 6dc4 383d b9e6 e0bc dc28 bb3d
000003c0: 9978 36bd 4474 b7be f742 c33d 4e52 26be
000003d0: 9d43 373e 90c7 22be 2104 453e 3874 f3bc
000003e0: 6a1c 473c fe79 8cbd aa8c 18bd 930f 903c
000003f0: d28b b03d 8b0c c9bd 65dd b93d 875f 2a3e

conv2.bias f4 [8]
-0.0200214 0.12480769 0.016960932 -0.0029325099 0.024556661 0.019795902 -0.0011243991 0.12727481
00000000: eb03 a4bc 2d9b ff3d a7f1 8a3c 5a2f 40bb
00000010: 0d2b c93c 042b a23c 9360 93ba 5454 023e

fc1.weight f4 [64, 392]
-0.12096642 0.01480097 -0.061011426 0.07024278 -0.06820964 0.011552412 -0.08763621 -0.05128178
-0.014683191 -0.23499398 0.041521054 -0.13849653 -0.12556294 -0.08547478 -0.08073745 -0.19768767
0.07825793 -0.05374087 -0.020986617 -0.02104294 -0.094195664 0.04271748 -0.018879224 0.038112525
-0.081368044 -0.06435549 0.021095503 -0.08649756 0.018000852 0.035167366 0.07502163 -0.07505667
-0.06920858 0.07675093 -0.0012837602 0.02121095 0.057270456 0.028018624 -0.016249383 0.037891347
-0.032921385 -0.07388135 0.12655926 -0.025130883 0.17401537 0.05344279 0.1398658 -0.07476402
-0.0054033613 0.06899167 0.13407774 0.11452425 -0.08972124 -0.029099349 0.11547236 0.0570588
0.023064123 0.05893833 0.06882382 -0.044336785 0.07075122 0.1329111 0.005194015 -0.008087913
-0.03938347 -0.029713085 -0.010652061 0.008641383 -0.10735709 0.06479931 -0.08704386 -0.14304715
0.07202453 0.0441161 -0.00012738991 -0.013912504 -0.035176136 0.057579644 -0.09910169 0.046485193
0.22729665 0.08629964 0.071744524 0.003496449 0.057526242 -0.022248272 0.029499512 -0.010030568
0.04190605 0.10042545 0.0033902586 -0.022632506 0.10023122 0.100387596 0.13577953 0.12747607
0.18372145 0.031963672 0.015463257 -0.13430749 0.16640702 -0.0464725 0.0298886 0.09104961
0.045615755 -0.102356665 0.06957787 -0.09454647 0.108289376 0.04022403 0.016938526 -0.033652797
-0.021026077 0.09191168 -0.05791925 0.071159236 -0.10111308 0.038826853 0.06657625 0.1520301
0.014970665 -0.07890471 -0.06775314 -0.05281572 -0.13406679 0.10239536 0.079569876 -0.03853129
-0.06476225 -0.020038707 -0.019182548 -0.03635459 0.08290874 0.13909492 -0.055883344 -0.063884184
-0.08544119 0.11193086 -0.0077018994 -0.03872256 0.0056900666 0.0052520256 -0.013665856 -0.02236517
-0.11789519 0.08870028 0.110005036 -0.050352816 -0.019305019 0.080869 -0.2588707 0.1771847
-0.013837439 -0.0018210564 -0.17302468 0.19455048 0.019497184 -0.09521363 -0.04338237 0.14988878
-0.035152115 0.09044594 -0.08044354 -0.06774103 0.07180561 -0.049890358 0.121270925 0.07333988
0.03877968 0.09258785 0.09409188 -0.27722874 -0.07860451 0.08694489 -0.18614304 0.018872658
-0.08607542 0.1288988 -0.14081673 -0.0076702014 -0.20897849 0.11116383 -0.032211915 0.057579104
0.06939612 -0.15258454 0.17293186 -0.07231498 0.084311396 -0.2207516 -0.15205993 -0.02106866
-0.06802326 -0.006234949 0.06754598 -0.051674362 -0.09785889 -0.018725932 0.04742176 0.016383663
0.07821098 -0.06184206 0.047420524 -0.046910014 -0.059327096 0.04578633 0.027841425 -0.012227544
-0.15393795 -0.19970381 0.03544925 0.014634636 0.04425517 -0.01057109 -0.10430597 0.026394628
0.03579553 -0.059624046 -0.09497006 -0.17259286 -0.18538652 -0.09023733 -0.06781469 0.11297991
0.034780916 0.010092541 0.03983056 0.018343704 0.026778275 0.055893905 0.002449295 -0.042568427
0.02139277 -0.011716691 -0.045883432 -0.04016624 0.0031405916 0.050661657 -0.1150146 0.12928057
-0.2200651 -0.0061631533 0.097255096 0.12665296 0.0877848 0.040445775 0.012785373 -0.22592185
-0.008469839 -0.10193481 0.029409522 0.059163786 -0.089894004 -0.006203384 0.13341437 -0.10200559
00000000: 3ebd f7bd c57f 723c 1ee7 79bd 72db 8f3d
00000010: 7fb1 8bbd 5446 3d3c 9d7a b3bd d80c 52bd
00000020: c491 70bc 43a2 70be fb11 2a3d 09d2 0dbe
00000030: 9293 00be 670d afbd ad59 a5bd a36e 4abe
00000040: b245 a03d 631f 5cbd 20ec abbc 3e62 acbc
00000050: a8e9 c0bd 86f8 2e3d 9aa8 9abc e11b 1c3d
00000060: 4aa4 a6bd d0cc 83bd 7ad0 ac3c a225 b1bd
00000070: 8676 933c a80b 103d f1a4 993d 50b7 99bd
00000080: 3abd 8dbd 972f 9d3d d843 a8ba 96c2 ad3c
00000090: 6d94 6a3d 5087 e53c 6d1d 85bc f533 1b3d
000000a0: 93d8 06bd 1b4f 97bd c098 013e 48df cdbc
000000b0: 1631 323e d4e6 5a3d fb38 0f3e e11d 99bd
000000c0: ae0e b1bb 814b 8d3d ad4b 093e b18b ea3d
000000d0: c5bf b7bd c261 eebc c67c ec3d 7db6 693d
000000e0: f9f0 bc3c 5169 713d 81f3 8c3d 7d9a 35bd
000000f0: 04e6 903d d919 083e 8e32 aa3b 2a83 04bc
00000100: 9050 21bd db68 f3bc fb85 2ebc 9694 0d3c
00000110: 09de dbbd 80b5 843d 0d44 b2bd f47a 12be
00000120: 9981 933d 15b3 343d f893 05b9 45f1 63bc
00000130: da14 10bd a2d8 6b3d d4f5 cabd 4267 3e3d
00000140: 74c0 683e debd b03d cbee 923d ae24 653b
00000150: a3a0 6b3d 0242 b6bc f6a8 f13c 4057 24bc
00000160: aea5 2b3d dcab cd3d 1a2f 5e3b ce67 b9bc
00000170: 0746 cd3d 0398 cd3d ca09 0b3e 1689 023e
00000180: 7a21 3c3e 57ec 023d 9a59 7d3c e787 09be
00000190: 9a66 2a3e f359 3ebd f0d8 f43c 3878 ba3d
000001a0: 96d7 3a3d 5fa0 d1bd d87e 8e3d 94a1 c1bd
000001b0: d2c6 dd3d f4c1 243d aac2 8a3c 84d7 09bd
000001c0: e13e acbc 313c bc3d bc3c 6dbd efbb 913d
000001d0: 6014 cfbd e808 1f3d 2159 883d c7ad 1b3e
000001e0: 8547 753c cb98 a1bd 29c2 8abd 4c55 58bd
000001f0: ce48 09be a9b4 d13d 88f5 a23d fcd2 1dbd
00000200: 12a2 84bd 3728 a4bc b824 9dbc 8de8 14bd
00000210: 0fcc a93d e66e 0e3e efe5 64bd b6d5 82bd
00000220: cafb aebd 023c e53d 3760 fcbb 8c9b 1ebd
00000230: bd73 ba3b 2f19 ac3b c1e6 5fbc 2937 b7bc
00000240: 0973 f1bd 7ea8 b53d 524a e13d c13e 4ebd
00000250: 8f25 9ebc a59e a53d b38a 84be e86f 353e
00000260: 6db6 62bc 83b0 eeba 622d 31be 3e38 473e
00000270: 8fb8 9f3c 5dff c2bd b6b1 31bd 727c 193e
00000280: aafb 0fbd b93b b93d 95bf a4bd cfbb 8abd
00000290: d20e 933d d559 4cbd e45c f83d 3833 963d
000002a0: 71d7 1e3d b39e bd3d 3eb3 c03d edf0 8dbe
000002b0: 67fb a0bd 2a10 b23d 489c 3ebe d59a 9a3c
000002c0: 4f48 b0bd 0cfe 033e 4332 10be 5056 fbbb
000002d0: 75fe 55be dda9 e33d a4f0 03bd 11d8 6b3d
000002e0: 8e1f 8e3d 1f3f 1cbe 0d15 313e e019 94bd
000002f0: 74ab ac3d b50c 62be 99b5 1bbe 2f98 acbc
00000300: c74f 8bbd 8b4e ccbb 8c55 8a3d 7fa8 53bd
00000310: 3e6a c8bd 2067 99bc 523d 423d 0837 863c
00000320: 142d a03d 1a4e 7dbd 063c 423d b724 40bd
00000330: f800 73bd 728a 3b3d b313 e43c 0956 48bc
00000340: e9a1 1dbe 287f 4cbe 3c33 113d 1dc6 6f3c
00000350: e944 353d 5d32 2dbc 5e9e d5bd 8c39 d83c
00000360: 559e 123d 5838 74bd aa7f c2bd 2fbc 30be
00000370: f7d5 3dbe 59ce b8bd 6ee2 8abd 0362 e73d
00000380: 6f76 0e3d 2f5b 253c 5f25 233d 8945 963c
00000390: 1d5e db3c 02f1 643d 5a84 203b 3b5c 2ebd
000003a0: e43f af3c 5df7 3fbc 44f0 3bbd 5b85 24bd
000003b0: 62d2 4d3b 9982 4f3d c68c ebbd 2062 043e
000003c0: bf58 61be 47f4 c9bb ae2d c73d 50b1 013e
000003d0: 84c8 b33d 78aa 253d be79 513c 0f58 67be
000003e0: 14c5 0abc 33c3 d0bd 3dec f03c ba55 723d
000003f0: 591a b8bd c245 cbbb c79d 083e 4fe8 d0bd

fc1.bias f4 [64]
0.06668689 0.11693709 -0.006499187 -0.021891749 0.10717492 -0.023005608 0.060200114 0.11294523
0.11733376 0.061346017 0.09864449 0.12937303 0.06035942 0.104487 0.09918446 0.081633456
0.050041743 0.15473244 -0.023017215 0.11976824 0.12198168 0.06345407 0.061186094 0.10374774
-0.040358644 0.036542654 0.05911134 -0.0297384 -0.02970663 0.06990737 -0.043430377 0.05972008
0.035238147 0.06017209 -0.03376818 0.10469623 0.13637792 0.052960154 0.118363336 0.105851956
-0.043118354 0.09941863 0.047430158 0.12907475 0.03636749 0.034628604 0.040434472 0.07134016
0.12620865 0.07438688 0.096079506 0.12225685 0.14500122 0.08217185 -0.029347517 0.067768194
-0.046356834 -0.013160603 0.113745585 -0.02961699 0.04972309 0.07166274 0.08050743 0.11115526
00000000: 2393 883d b77c ef3d 22f7 d4bb 5356 b3bc
00000010: 867e db3d 4276 bcbc 6594 763d d44f e73d
00000020: af4c f03d f645 7b3d 1f06 ca3d 5d7a 043e
00000030: 703b 773d 48fd d53d 3921 cb3d 712f a73d
00000040: 92f8 4c3d 2e72 1e3e 998e bcbc 0d49 f53d
00000050: 88d1 f93d 35f4 813d 459e 7a3d b279 d43d
00000060: 1b4f 25bd c0ad 153d bc1e 723d f29d f3bc
00000070: 525b f3bc 982b 8f3d 0de4 31bd 0b9d 743d
00000080: e055 103d 0277 763d 8150 0abd fa6a d63d
00000090: a7a6 0b3e bfec 583d 7a68 f23d e9c8 d83d
000000a0: df9c 30bd ff9b cb3d 2046 423d 2c2c 043e
000000b0: 14f6 143d b9d6 0d3d 9e9e 253d ca1a 923d
000000c0: d73c 013e 2658 983d 55c5 c43d cd61 fa3d
000000d0: 337b 143e b749 a83d 346a f0bc 0dca 8a3d
000000e0: aae0 3dbd 929f 57bc 72f3 e83d 549f f2bc
000000f0: 70aa 4b3d eac3 923d 14e1 a43d 5ea5 e33d

fc2.weight f4 [2, 64]
0.11893754 -0.16908823 -0.2382035 -0.09526244 -0.16865513 -0.11424712 0.09381988 -0.10810355
-0.14733666 0.09866805 -0.20930871 -0.091726996 0.11663224 -0.20559531 -0.16261284 -0.36219954
0.09018842 -0.097808756 -0.093381934 -0.09788435 -0.15021329 0.13057803 0.096613996 -0.33446857
-0.04408895 0.06876022 0.09243254 -0.092216626 -0.12031656 0.07225551 0.18757546 0.09109211
0.060099967 0.069430195 -0.014968366 -0.1945221 -0.12036244 -0.1971416 -0.17556489 -0.18506132
0.24233742 -0.11977739 0.13895537 -0.13919044 0.08905054 -0.11128703 0.15856624 0.09755488
-0.088443145 0.0640158 -0.25192857 -0.12616652 -0.14114583 -0.07083726 -0.17515871 0.10731674
0.06026323 0.18771704 -0.12887628 0.06309777 0.079732485 0.07150984 0.06312586 -0.15754418
0.11735414 -0.11861712 0.007993001 0.22752738 -0.22935553 0.18482251 0.10481131 -0.10013539
-0.13733648 0.105327316 -0.13888133 -0.10233493 0.09936067 -0.15924682 -0.15455614 -0.2906726
0.08134736 -0.12799165 0.29995242 -0.166918 -0.1318952 0.1457991 0.10646693 -0.30402315
0.13447201 0.06934262 0.080788806 0.19721034 0.12659433 0.07193899 -0.037530195 0.0969605
0.06656852 0.058992345 -0.09987558 -0.19838361 -0.11042055 -0.14626062 -0.21304561 -0.2269461
-0.032077834 -0.12832256 0.1279169 -0.12806351 0.07395181 -0.06576386 0.14297016 0.08980457
-0.13673823 0.06660181 -0.19901411 -0.122083284 -0.15293908 -0.15550673 0.038736444 0.08555985
-0.01621339 -0.11889918 -0.15713397 -0.22668806 0.094891235 0.081226856 0.07422891 -0.12643303
00000000: 8695 f33d 7725 2dbe 9eeb 73be f418 c3bd
00000010: eeb3 2cbe 65fa e9bd a324 c03d 6565 ddbd
00000020: 6cdf 16be 7912 ca3d 0655 56be 5ddb bbbd
00000030: e2dc ee3d 9487 52be fb83 26be 3872 b9be
00000040: b5b4 b83d f54f c8bd 073f bfbd 9777 c8bd
00000050: 83d1 19be 3fb6 053e 8fdd c53d 773f abbe
00000060: 9d96 34bd 29d2 8c3d 464d bd3d 12dc bcbd
00000070: 8768 f6bd b2fa 933d c813 403e 808e ba3d
00000080: 622b 763d 6b31 8e3d e13d 75bc cd30 47be
00000090: 9580 f6bd 7ddf 49be 48c7 33be b780 3dbe
000000a0: 4d27 783e d94d f5bd 514a 0e3e f087 0ebe
000000b0: 2160 b63d 74ea e3bd 305f 223e daca c73d
000000c0: ae21 b5bd b71a 833d c8fc 80be cc31 01be
000000d0: 8888 10be 2013 91bd ce5c 33be e1c8 db3d
000000e0: 94d6 763d e538 403e 25f8 03be 6739 813d
000000f0: c94a a33d c073 923d 2248 813d 4353 21be
00000100: 5e57 f03d 88ed f2bd 13f5 023c f0fc 683e
00000110: 2ddc 6abe 1d42 3d3e 50a7 d63d c913 cdbd
00000120: efa1 0cbe d9b5 d73d e836 0ebe fa94 d1bd
00000130: 9b7d cb3d 9911 23be f743 1ebe 0ad3 94be
00000140: 7299 a63d 3e10 03be 5d93 993e 8dec 2abe
00000150: 890f 07be 5c4c 153e 550b da3d eca8 9bbe
00000160: 08b3 093e 8103 8e3d 9a74 a53d 82f1 493e
00000170: f2a1 013e c054 933d 43b9 19bd 3a93 c63d
00000180: 1455 883d f5a1 713d 918b ccbd 1325 4bbe
00000190: 2b24 e2bd 58c5 15be a128 5abe 8f64 68be
000001a0: 0c64 03bd fd66 03be a6fc 023e 1523 03be
000001b0: 0c74 973d 34af 86bd c566 123e 75eb b73d
000001c0: 1b05 0cbe 8866 883d 5bca 4bbe cd06 fabd
000001d0: 109c 1cbe 283d 1fbe 1baa 1e3d 013a af3d
000001e0: f1d1 84bc 6a81 f3bd bae7 20be ea20 68be
000001f0: 5656 c23d 445a a63d 5405 983d a977 01be

fc2.bias f4 [2]
-0.5965818 -0.660407
00000000: 96b9 18bf 6f10 29bf
