assignment-5/models/best_model_19.6.pth (torch, 110560 bytes, 8 tensors)

conv1.weight f4 [4, 4, 8, 8]
000000 f1 33 e1 bd a4 19 9b 3c 89 f4 09 be 44 f1 42 3b
       -0.10996235 0.018933125 -0.13472189 0.0029745856
000010 f4 c9 87 bc 45 dd e3 3d 83 b7 ec bc d0 0a 00 3d
       -0.016575791 0.11126188 -0.028896099 0.03126031
000020 a7 12 cc bc 68 0d 02 be 72 6c 6d be c8 10 b9 3d
       -0.024911238 -0.12700427 -0.231859 0.09036404
000030 e5 10 c0 bb ab 08 d0 3d ef cb 1e be e0 7e b4 bd
       -0.005861389 0.10157903 -0.15507482 -0.08813262
000040 23 3e b4 bd 10 e1 19 3d 40 07 82 be 2f 0e 01 bd
       -0.08800914 0.037568152 -0.25396156 -0.031507667
000050 cb 94 93 3d 6c b1 50 3e c3 6d e3 bd 4b 8a 16 bd
       0.072061144 0.20380181 -0.1110492 -0.03675298
000060 e0 d6 35 3d af ee 7c 3d 8d 6c 32 be 2f 31 04 be
       0.044394374 0.061751064 -0.17424221 -0.12909387
000070 3e 83 f2 bd c9 01 8a 3d f7 60 83 bd 1f a6 87 bd
       -0.11841439 0.06738622 -0.06414979 -0.06623482
000080 7a 0a c2 bd 01 f2 b3 bb fc 9f 1b 3c fb d9 c1 3d
       -0.094746545 -0.0054914956 0.0094985925 0.094654046
000090 32 01 fa 3c e0 c7 5d 3d 81 02 d4 bd 7d a4 76 be
       0.030518148 0.054145694 -0.1035204 -0.24086185
0000a0 b1 46 cf 3b 95 46 82 bd 2e bb 5e bd f6 54 d1 bd
       0.0063255657 -0.06361119 -0.054377727 -0.10221283
0000b0 40 41 16 be 79 88 0e bd c8 db 16 be 5d e5 c6 bc
       -0.14673328 -0.03479812 -0.14732277 -0.02427929
0000c0 88 a2 d7 3d 4e ae 80 bd d2 b6 9f 3d d4 f6 48 3e
       0.10529047 -0.06283246 0.07798542 0.19625407
0000d0 ec d3 0f be a7 ae ad 3d dc c9 01 be a3 9d 03 be
       -0.14045686 0.08480578 -0.1267466 -0.12853102
0000e0 b6 b3 d8 3d fb aa c9 3d 78 2f 1f 3e e8 95 4f 3d
       0.10581152 0.09847065 0.15545452 0.05068007
0000f0 b5 00 bc 3c c1 66 e2 3b ab f7 19 be b9 d4 cb bd
       0.022949556 0.006909222 -0.15035884 -0.09952683
000100 56 cf 8b 3d 05 a0 34 bc 3c 51 ae 3d ab 2f 20 3d
       0.068266556 -0.01102448 0.08511588 0.03910796
000110 b5 21 81 bc 6d f0 8d bd 30 e7 0d 3d 11 90 0d bd
       -0.015763143 -0.06930623 0.034644306 -0.03456122
000120 5c 79 cd 3d 10 3c d7 3d c8 eb 23 bd 89 68 57 3e
       0.10032913 0.10509503 -0.04001978 0.21035971
000130 37 d7 72 3e f0 f4 3f be 47 a5 3c be ca de 6b bb
       0.2371491 -0.1874578 -0.18422423 -0.0035990947
000140 a8 a3 81 3d ed 99 37 3e 65 df 96 bd 59 b5 12 3e
       0.06330043 0.17929812 -0.07366828 0.14326991
000150 36 29 f8 3d 04 de c9 bb 77 e5 fb bb 74 32 d1 3c
       0.12117235 -0.0061604995 -0.0076872665 0.025536753
000160 41 87 a7 3c 03 63 59 3d cf db 3e 3e b3 6e b1 bc
       0.020450236 0.05307294 0.18638538 -0.02165923
000170 aa 99 67 bd c7 68 88 bd 7d 8b 3a bc 48 bc ff 3d
       -0.05654303 -0.0666061 -0.011385796 0.12487084
000180 4a 08 8d bc 77 ad 7d 3e e6 b3 da 3c 31 9d 96 3d
       -0.017215867 0.24773203 0.02669711 0.07354201
000190 32 25 11 3e fb 92 90 bc 5b f8 cc bd ce 69 f8 bd
       0.14174345 -0.01764821 -0.100083075 -0.12129556
0001a0 86 0a 84 3d d5 51 02 3d 92 bc 8b 3a 05 72 a0 bd
       0.0644732 0.031816322 0.0010661057 -0.078342475
0001b0 21 97 3d bc 04 bd 7d 3d 1b 80 3a 3e d2 57 2a be
       -0.0115716765 0.061947837 0.18212931 -0.16635063
0001c0 de 28 41 3e c2 7f 47 bd 1b 50 9f 3d 54 ae 3e 3e
       0.18863246 -0.048705824 0.07778951 0.18621188
0001d0 1f 79 09 3e 9a 89 2a bd 02 fb 1a be 46 1a fe bd
       0.1342511 -0.041635133 -0.15134814 -0.12407355
0001e0 c2 bb 76 3c 87 a7 3f 3d 69 3c da 3d 67 54 c3 bd
       0.015059413 0.046790626 0.106560536 -0.09537583
0001f0 e5 bf bf 3d 0d 56 24 bd 0c 17 33 be f5 21 98 be
       0.09362773 -0.040121127 -0.1748926 -0.29713407
000200 77 ac 14 be d1 86 35 be a4 74 88 3e eb 5b 30 be
       -0.14518915 -0.1772721 0.2665149 -0.17222564
000210 7c c1 3b be 23 1c eb 3b 26 70 36 3e 0e 86 db bd
       -0.18335527 0.007174985 0.17816219 -0.10718928
000220 04 ea 2a 3b dd 4d 45 3b 41 fa 07 bd 9e 89 34 3e
       0.0026079426 0.0030106225 -0.033197645 0.17630622
000230 75 93 94 3b 81 09 4e bd 0b c7 6e 3d 30 b5 8a bd
       0.00453418 -0.050302032 0.05829529 -0.0677284
000240 76 02 bf 3e 66 25 b7 3e 25 0b 55 3c 79 07 81 3e
       0.37306565 0.3577072 0.013003145 0.25201014
000250 88 47 5b 3e 8d 13 a8 3e ba 9b 38 3e df 9c b5 3d
       0.21414006 0.32827416 0.18028155 0.088678114
000260 9c 11 28 3e 43 bc 84 3e 5b 13 41 3e 1e b3 52 3e
       0.16412967 0.25924882 0.1885504 0.2057614
000270 d0 13 a8 3c f3 a3 92 3e eb 31 30 3d cc 80 48 3e
       0.02051726 0.28640708 0.043016355 0.19580382
000280 aa 7f 51 3e 15 7a eb 3d 92 e7 70 3e 56 52 2e 3e
       0.20458856 0.11497895 0.23525837 0.17023596
000290 b1 be 22 3e da 4b 91 3d ec 40 b1 3d 12 d7 76 3d
       0.15893055 0.07094546 0.08654961 0.0602637
0002a0 9a 72 d6 3d 08 0c ab 3d 0d 1c 86 3d 16 18 33 3d
       0.10471077 0.08351904 0.06548319 0.043724142
0002b0 77 c4 bb 3d 61 64 06 3e b5 3a 4b 3e 3d 4a a0 3e
       0.09168332 0.13124229 0.19846614 0.3130664
0002c0 d8 34 62 3d b2 58 6a bd 5d 4b be 3d 93 a3 bc 3d
       0.055226177 -0.057213493 0.09291718 0.09210887
0002d0 b2 a6 08 be 97 57 b5 bd 31 83 10 be 26 0c 8f 3d
       -0.13344839 -0.08854597 -0.14112546 0.06984739
0002e0 c6 ce 4b be db b4 78 be e9 71 7c 3c 70 70 70 bd
       -0.19903097 -0.24287741 0.015408018 -0.05870098
0002f0 8e 89 1c 3e 42 ad 38 3c 63 91 c2 3c bd 9c 09 be
       0.15286848 0.011271777 0.023750966 -0.13438697
000300 09 1e 6d be a5 95 a3 be 68 ba d9 be 74 15 68 be
       -0.23155989 -0.31950107 -0.4252503 -0.22664434
000310 ee 24 81 be 63 79 0e be f7 85 4a 3e 73 81 8a bb
       -0.25223488 -0.13913493 0.19777666 -0.0042268573
000320 79 d9 85 be 97 23 83 be 8d 0b 64 bf 87 39 21 be
       -0.2614248 -0.2561309 -0.89080125 -0.15744601
000330 f8 70 5d be cb b5 86 be 77 fa da 3d b6 d7 00 3e
       -0.21625125 -0.26310572 0.10692304 0.12582287
000340 b4 e2 83 be a0 63 3e be be 4d ef be e8 de 74 be
       -0.25758898 -0.18592691 -0.46739 -0.23913157
000350 60 a4 1b bd fd 87 ed bc ed 61 87 3d fa 3f f0 3e
       -0.037998557 -0.028995508 0.06610475 0.4692381
000360 1e 45 65 be ff aa 14 be 8d 5f e4 be 77 60 a0 bd
       -0.22389647 -0.14518355 -0.4460415 -0.07830899
000370 b4 ca ae bd f8 f5 d8 bd 75 77 94 be 6c 8a ba 3e
       -0.08534756 -0.1059379 -0.28997388 0.36433733
000380 f8 2d f9 3d 4d 51 0b 3e 47 9f a2 bd 26 7a 9e 3d
       0.12166971 0.13605233 -0.07940536 0.07738142
000390 f5 bf 96 bd 45 28 6f 3e c5 c5 61 3d 9f e3 a1 3e
       -0.07360832 0.23355205 0.05512025 0.31618974
0003a0 a6 14 e4 bd dd fb 2d 3e 5f 77 00 be 53 ac 3f 3e
       -0.11136751 0.1699061 -0.12545536 0.1871808
0003b0 36 7a 9d 3e d3 f2 9b 3e 8c 34 26 3e 9b 31 82 3e
       0.30757302 0.30458698 0.16230983 0.2542847
0003c0 aa c6 f6 3d 11 e9 12 bc 2d e1 94 bd 29 6d cf 3e
       0.12049611 -0.0089667 -0.07269511 0.4051297
0003d0 7e ea b8 3e 51 2c 8f 3e 47 96 1f bd 33 09 5c 3e
       0.36116403 0.27963498 -0.038961675 0.21487884
0003e0 b1 6b 8e bd 18 72 a7 3d 92 c8 51 be d5 63 39 bd
       -0.06954134 0.081760585 -0.20486668 -0.045261223
0003f0 21 b6 64 3e c3 7a bd 3e 84 88 28 3e 02 f6 67 3e
       0.22335102 0.37007722 0.16458327 0.22652438

conv1.bias f4 [4]
000000 6e 84 e7 bc ef 6e 8b bb 9d e5 9d bd eb 7d ba bc
       -0.02826139 -0.0042551677 -0.07709811 -0.02276512

conv2.weight f4 [8, 4, 4, 4]
000000 0e 84 79 3e 69 eb 02 3e 31 73 a1 be 1a d4 cb be
       0.24366781 0.12785114 -0.31533197 -0.39810258
000010 b0 c1 74 3d 62 88 ad 3d ab 37 b8 be 97 e6 81 bf
       0.059755027 0.084732786 -0.3597997 -1.0148495
000020 dd aa 95 bd c2 d0 9c bd bc eb 76 be f3 8e e8 be
       -0.0730798 -0.07657005 -0.24113363 -0.45421562
000030 73 c3 c4 bd 74 84 bc bc 61 f7 b4 3c ca 7a 4d bd
       -0.096075915 -0.023012377 0.022090616 -0.05016593
000040 84 ab ed 3d 87 8a 84 3e 1e cc 12 bf e5 f7 f6 3d
       0.1160498 0.25886938 -0.5734271 0.12059001
000050 7f ed 85 be 9d cd b9 3e ad a0 76 bf 15 a0 67 3e
       -0.26157758 0.36289683 -0.9633892 0.2261966
000060 23 9e ca be e6 98 5b 3e e3 7e 8e be 7a 28 c7 3e
       -0.39573774 0.21445045 -0.27831182 0.3889807
000070 e7 81 15 3e eb 37 66 3c 47 d6 c4 3d 47 88 e0 3d
       0.14600335 0.014051418 0.09611183 0.10963493
000080 ba 50 25 be e5 cb 90 be f0 3d 4e 3e 38 f4 19 3e
       -0.16144076 -0.2828056 0.20140815 0.15034568
000090 40 18 59 3c 53 7f 62 be ba 5f c2 3e 33 4a e4 bc
       0.013250411 -0.22118883 0.3796366 -0.027867412
0000a0 0f 78 ac 3e e1 fc 35 be 0c b8 9a 3e 20 fb dd 3e
       0.33685347 -0.17772247 0.30218542 0.43355656
0000b0 85 c3 f9 3e 74 f5 81 bd 23 89 93 3e 08 6d 92 3c
       0.48781982 -0.063456446 0.28815565 0.017874256
0000c0 90 46 bb 3e b8 13 8f 3e f4 43 7f 3d 7c 3c 0c be
       0.36577272 0.27944732 0.062320665 -0.13694948
0000d0 7b 16 f7 3e 01 55 ed 3c cb b9 23 be 64 f3 2d be
       0.4825934 0.028971197 -0.15988843 -0.16987377
0000e0 c7 09 21 3e db 0c 43 3d cd bf 14 3e 2c 37 29 bd
       0.15726386 0.04761968 0.14526291 -0.04131238
0000f0 c6 35 64 3e c2 21 49 bd 4b 9e 4f 3e fe 4e ef bd
       0.22286138 -0.04910446 0.20275228 -0.116849884
000100 14 56 0b be ac 66 96 be 0c 52 2b bd a5 8b 15 bf
       -0.13607055 -0.29375207 -0.041826293 -0.58416206
000110 b6 75 70 3e 63 7f 44 3d 60 28 82 bd e5 be e4 be
       0.23482403 0.047973048 -0.06355357 -0.4467689
000120 1c b9 91 3d 50 14 91 bd 86 e5 fe be 5a f7 1a be
       0.07115385 -0.070839524 -0.49784487 -0.1513342
000130 6f 1e c2 bd 07 8f c5 bd cf 5e 97 be d7 86 da bc
       -0.09478461 -0.09646421 -0.2956452 -0.026675625
000140 e9 6d 19 be 26 cb 00 3e 8b 83 cf be 74 9d b9 3d
       -0.14983334 0.12577495 -0.40530047 0.09063235
000150 a8 38 3b 3e 43 f4 b8 3d df 0e 74 bd 44 3c 76 bd
       0.18283331 0.09030964 -0.059584495 -0.060116068
000160 74 11 84 be 26 e1 1a be a9 7b 47 be 16 35 4c 3b
       -0.25794566 -0.1512495 -0.19480766 0.0031159571
000170 fa ba 26 bf d3 67 47 bf e7 92 0e bf eb 54 a4 be
       -0.65129054 -0.778928 -0.55692905 -0.32096037
000180 5e 3a 42 bc b8 1c 9f 3c d8 b3 65 be ff c8 eb 3d
       -0.011854736 0.019422874 -0.22431886 0.11512946
000190 0e 9e cb bc 54 97 a9 be 09 91 10 bf 33 6d e0 bd
       -0.02485564 -0.33123267 -0.56471306 -0.10958328
0001a0 b3 e7 f6 bd 61 c1 6b be 5b d9 17 3e 5c 1c 2a be
       -0.12055912 -0.23022987 0.14829008 -0.1661238
0001b0 73 a8 e4 3e 2f a9 ba be d3 64 79 be b2 26 cb 3d
       0.44659767 -0.36457202 -0.24354868 0.0991949
0001c0 77 fd 11 3e f5 c2 04 3e 7b 22 f0 bd 73 c6 a1 be
       0.14256845 0.12964995 -0.11725327 -0.31596717
0001d0 ae 1c 1a bd 21 7c 0e be f5 90 bb be b9 ec e6 bc
       -0.037625007 -0.13914539 -0.3663403 -0.02818905
0001e0 cc ae 79 3e ed f0 91 be 3b a9 bf 3d f5 a3 e8 3d
       0.24383086 -0.28504124 0.0935845 0.11359397
0001f0 ab 2b fb bc 70 ab 27 3e af 16 8b bd f3 86 16 3e
       -0.030660471 0.16373992 -0.06791436 0.14699917
000200 46 86 d5 bd f1 36 12 be c4 03 c3 bd 43 41 8e be
       -0.10426001 -0.14278771 -0.095222026 -0.27784166
000210 1b 02 7e be 60 04 e6 bd d1 7b ea be 71 f7 93 3c
       -0.2480549 -0.11231303 -0.4579759 0.018062325
000220 5a 71 f5 3c 68 31 2e 3d b8 10 73 be 4b 27 93 3d
       0.029961277 0.042527586 -0.23736846 0.07185229
000230 56 66 81 be 04 82 05 be 7e 98 ac bd bd c3 8a 3d
       -0.2527339 -0.13037878 -0.08427523 0.06775615
000240 5e 35 a6 be 2c 52 9e 3d a5 d4 9b 3c 49 41 e4 3d
       -0.3246259 0.07730517 0.019022295 0.11145265
000250 1f dc 70 bf c7 fa 8a 3e 38 d7 9d 3e 45 92 a2 3d
       -0.9408588 0.27144453 0.3082826 0.07938055
000260 f8 30 37 bd ef 0d 41 3c 31 34 62 3d 45 fe 9a 3e
       -0.044724435 0.011783107 0.055225555 0.30272117
000270 13 8a a7 3e 41 4a 8c bd ec 03 fd bc ca c4 a9 3e
       0.3272253 -0.068501 -0.03088566 0.3315795
000280 f1 cc dc bd df 96 3b be 94 6c 74 be ca fc b3 3e
       -0.10781277 -0.18319272 -0.23869544 0.351538
000290 11 f0 4a bd 7b e2 3b 3d 90 5e 88 3e 2b 2d 51 be
       -0.04954535 0.045870285 0.26634645 -0.20427386
0002a0 0c 90 68 be 6e 85 18 be bc d9 8b 3e 67 64 a3 be
       -0.227112 -0.1489465 0.27314556 -0.31912538
0002b0 fc 91 63 be 23 14 e5 be 8e 8c 68 bd ad ee 11 bf
       -0.22223657 -0.44741926 -0.05677467 -0.57004815
0002c0 29 09 fd be cc 28 ca bd 58 b1 31 3e e9 6b cb bc
       -0.4942105 -0.09871063 0.17352808 -0.024831729
0002d0 e7 2f 91 be fe 69 4a bf af 66 81 3e 31 5b 83 bd
       -0.2835686 -0.7906798 0.25273654 -0.06413878
0002e0 8e e6 8b bd eb 00 a6 be 83 34 dc 3d 16 f4 5f 3d
       -0.06831084 -0.32422575 0.10752203 0.054676138
0002f0 24 65 77 bd 27 d2 09 3d f4 b3 f7 3e 8a e7 37 3d
       -0.06039919 0.033647683 0.4837948 0.044898547
000300 8a e9 8c bd 8c 20 41 be d3 c2 a3 be 0b 9d 90 bd
       -0.068804815 -0.18860072 -0.31984577 -0.070612036
000310 d3 51 38 be 58 7e 37 be b6 ad 0b be d5 43 07 be
       -0.17999963 -0.1791929 -0.13640484 -0.1320947
000320 dd a9 0a 3e 34 37 dd 3d 8c 8a e3 bc bf 14 94 be
       0.1354136 0.10801545 -0.027776025 -0.28922078
000330 53 e4 0e 3e 6d ce 05 3c 32 6e 00 3d be 40 31 bd
       0.13954286 0.0081668915 0.03135509 -0.043274634
000340 aa 2e 08 bf 18 6b 6a bd 40 bb 00 3f 41 cc 3e 3e
       -0.53196204 -0.05723104 0.5028572 0.18632604
000350 39 d5 68 bc 06 83 6f 3e 14 9d 4e 3e 74 69 37 3d
       -0.0142109925 0.23389825 0.20177108 0.044778302
000360 2c 5b 53 3d a2 fc 88 3e 9b f3 5e bd e9 4e b6 3e
       0.05160062 0.26755244 -0.05443154 0.3560708
000370 de 32 fd 3e 0f 95 9a bd 70 04 8f be 0d 87 1a 3d
       0.4945287 -0.07547962 -0.27933073 0.03772645
000380 ba d8 10 bf 49 52 99 3e 35 13 4d be e2 e6 b3 be
       -0.565807 0.2994559 -0.20026858 -0.35137087
000390 d4 e9 f4 be 52 b1 a9 3e e7 10 96 bd 14 7e 96 3e
       -0.47834647 0.33143097 -0.073274426 0.29393065
0003a0 a3 01 56 3c 49 7c 0c 3f e0 77 03 bf 3c 5a 99 be
       0.013061914 0.54877144 -0.5135479 -0.29951656
0003b0 d6 95 f0 39 1f 9c 5c 3e 27 ef 30 be ef a4 48 bd
       0.00045888004 0.2154393 -0.1727873 -0.048985418
0003c0 be 62 af 3d 7f 29 d9 bd 12 76 2f be 99 63 0b be
       0.085637555 -0.10603618 -0.17134884 -0.13612212
0003d0 35 f9 ec 3d 8a 46 7a bf 4f b1 d6 bc 99 b5 e0 bc
       0.1157097 -0.97763884 -0.026207594 -0.027430343
0003e0 ad 99 1e 3d 2d 02 97 3c 24 24 34 3e 7a 5d 28 3e
       0.038720775 0.018433655 0.17591912 0.16441908
0003f0 0a bf 28 3e f4 1b c7 3d 99 2e a4 3d e7 3d 4c 3e
       0.16479126 0.097221285 0.080167 0.19945489

conv2.bias f4 [8]
000000 b2 34 ad bd c2 fb fb 3d e7 87 c3 3c 36 12 ce bc
       -0.084573165 0.12303878 0.023868514 -0.025155168
000010 77 2d 5f bd 75 97 c9 3b 3a de 79 bc c3 3a 3b 3e
       -0.054486718 0.0061520883 -0.015250737 0.18284135

fc1.weight f4 [64, 392]
000000 22 66 32 3e 2f f5 2e bf bf cb 99 bd a8 f8 fc b7
       0.17421773 -0.6834287 -0.075095646 -3.015653e-05
000010 21 e6 26 bd 7c 22 90 be 31 75 15 be 79 52 96 be
       -0.04074681 -0.2815131 -0.14595486 -0.29359797
000020 c5 13 38 be 9c ef d0 bc 91 ab 69 3d e9 47 c0 be
       -0.17976291 -0.02550488 0.057048384 -0.37554863
000030 96 86 2d be 18 70 13 bd 7a de db bc bd be ea bd
       -0.16945872 -0.035995573 -0.026839484 -0.11462162
000040 96 db 4e 3e d1 35 3b 3e e5 82 41 bd da 4b d7 bd
       0.20200953 0.18282248 -0.04724397 -0.105125144
000050 61 a3 f8 bc fd 39 f9 3d 74 35 88 be 71 59 25 3e
       -0.030351343 0.121692635 -0.26603281 0.161474
000060 54 43 e5 3b 5a a6 32 be 9b 19 aa 3c ce fa 48 be
       0.0069965515 -0.1744627 0.020764163 -0.19626924
000070 39 0e 4a bd f0 97 ae be 0d 45 dd 3d 1d 93 fb be
       -0.04932997 -0.34100294 0.10804186 -0.49135676
000080 27 24 f2 be d9 10 35 be eb f9 7e bd 7c d7 14 be
       -0.47293207 -0.17682208 -0.06225006 -0.14535326
000090 5b 67 d0 3d 32 84 69 bd ba b5 9f 3e 42 e3 c7 3e
       0.101759635 -0.057010837 0.31193334 0.3904057
0000a0 fb de e9 be 69 4a 1f be 37 e0 02 bf 74 e7 12 3e
       -0.45677933 -0.15555729 -0.51123375 0.14346105
0000b0 e2 0a 34 3e 52 68 6a be 76 d9 49 3e f1 65 53 be
       0.17582276 -0.22891358 0.19711861 -0.20644356
0000c0 c6 72 7a be cb ca b9 3d 2a 2f ab 3d 36 b5 9f 3d
       -0.24457845 0.09071883 0.08358605 0.07798235
0000d0 08 0d 30 bc d7 ce 03 bd 44 36 d6 3c 4c f7 04 be
       -0.010745294 -0.03217968 0.026148923 -0.12984961
0000e0 5b d2 92 3c 21 6a e7 3c 0b 24 69 3d 0c 18 1f be
       0.01792257 0.028248848 0.05691914 -0.15536517
0000f0 7e 35 8a bc 83 58 b1 3d c9 a7 ed 3c e4 d1 9d bc
       -0.01687121 0.086594604 0.02901067 -0.019265123
000100 a6 01 87 be ed 86 81 3e 9d d9 08 be 99 bd 21 bd
       -0.26368445 0.25298253 -0.13364263 -0.039487455
000110 7b cc 39 be 95 87 bb 3d a7 52 8b bd eb b4 56 be
       -0.1814441 0.091567196 -0.06802874 -0.20967452
000120 f0 42 b3 3e 3c 08 99 3e 66 44 ec bc c5 36 a9 bd
       0.35012007 0.29889095 -0.028841209 -0.082623996
000130 b8 4b 21 bd 96 92 90 3d f9 f6 8e bd 8a 22 87 3d
       -0.03937885 0.07059209 -0.069807 0.06598385
000140 c8 22 89 3e e7 10 44 3e d4 b2 84 bd ef 8a a7 bd
       0.26784348 0.19147073 -0.06479421 -0.08180796
000150 23 7d 55 3e 5c d5 b9 3b 58 d2 57 bb 5c 96 2d bd
       0.20848517 0.0056711864 -0.003293177 -0.042379722
000160 bb 62 fd bd a0 15 e1 bd 32 4a 7d bd 67 3e b0 3a
       -0.12372347 -0.10990453 -0.061838336 0.0013446332
000170 6e 1e ad 3e a6 7d 3f 3e 6d de 35 3e ed e1 52 3d
       0.33812279 0.18700275 0.1776063 0.05148499
000180 5a 49 90 3b 84 fb 00 3e f5 d1 e6 3d 6f 5c 23 3d
       0.0044032754 0.12595946 0.11270515 0.039883073
000190 97 22 bc 3e 64 7f 06 bd 6c 56 2d 3e 16 43 14 3e
       0.3674514 -0.032836333 0.16927499 0.14478716
0001a0 4e 3f 1e be 11 af c8 bc 5f 4a dc bd a5 34 05 3d
       -0.15453836 -0.02449754 -0.10756373 0.03252091
0001b0 2e 11 24 3e 0c ad e9 bd be 6e b8 3d b6 31 ec bd
       0.16022179 -0.11409959 0.090054974 -0.11532919
0001c0 d3 f1 57 bc e4 7f e9 3d 84 50 58 3f c7 03 86 3d
       -0.013180214 0.11401346 0.8449786 0.06543689
0001d0 99 fc 2c 3e 90 da 0e be 31 06 84 bd f3 18 9a 3e
       0.16893233 -0.13950562 -0.064464934 0.3009716
0001e0 84 73 c5 be 85 14 a8 be e7 2b 0f bd ac 5d e8 bd
       -0.38564694 -0.32828155 -0.034953978 -0.113459915
0001f0 f5 95 db be b0 64 43 bd d0 2d a9 3d 78 3a fe bd
       -0.42887846 -0.047703445 0.08260691 -0.12413496
000200 48 14 1b be 1a 1d 45 3e bc 66 d7 bc 15 3c 96 be
       -0.15144455 0.19249383 -0.026294105 -0.29342714
000210 ee 92 3e 3c 78 47 e9 3e 9d 28 08 be 6f df 92 3e
       0.01163171 0.4556234 -0.13296743 0.2868609
000220 03 35 52 3c e7 6f be ba 3b e5 ff 3c d4 03 be bd
       0.012830022 -0.0014529199 0.031237235 -0.09278074
000230 40 be f9 3d 9d 24 9a 3e 2f 67 7e 3d 76 40 31 3e
       0.121944904 0.3010606 0.062110122 0.17309746
000240 bf f4 a9 3d 45 33 dd 3d 3d a6 45 bd 64 cd 09 be
       0.08298635 0.108007945 -0.04825424 -0.13457257
000250 ba 24 0b be 56 41 fd 3d a3 85 a4 be d2 c3 dd 3e
       -0.13588229 0.123659775 -0.32133207 0.43313462
000260 33 bd 7e bd df c7 31 3d 74 25 9a be 0f 7b 88 bd
       -0.062192153 0.043403503 -0.301067 -0.066640966
000270 a4 29 91 bd 78 1c 03 be 8f 48 dc bc 78 ff 3c bd
       -0.070880204 -0.12803829 -0.026890067 -0.04614207
000280 f0 ac f5 3d d1 58 4b 3d eb 26 ea 3d 7d 21 b4 be
       0.11995876 0.04964525 0.11433204 -0.351818
000290 89 ba 4d 3e 70 00 5f 3e f4 35 fa 3c 94 35 3d 3d
       0.20090689 0.2177751 0.030543305 0.046193674
0002a0 5c e4 0d 3e 0b fc bd be d1 77 c5 bd 83 81 43 bf
       0.13856643 -0.37106356 -0.09641994 -0.76369494
0002b0 5d ee 53 3e 4b b0 90 bd 7a 15 32 be 67 7a 18 3e
       0.20696397 -0.07064875 -0.17391005 0.14890443
0002c0 da 3a c6 be d7 70 80 3e b9 07 de 3d f1 03 6d 3e
       -0.38716775 0.2508609 0.10841317 0.23146035
0002d0 c9 ca 73 bd fe c3 bd 3d 30 14 c3 3d 40 37 be bd
       -0.059519563 0.09265898 0.09525335 -0.09287882
0002e0 e3 7c cf 3e 05 8a 69 be d2 54 8c 3e fe 75 aa be
       0.40524969 -0.22806557 0.27408463 -0.33293146
0002f0 53 ed 25 bd 1d 2a ec be 92 7f 02 bf d8 63 e1 bd
       -0.040509533 -0.4612588 -0.50975907 -0.11005372
000300 8e 7a 12 be 43 9e 7e 3d 03 6b b8 3e 35 c4 51 bd
       -0.14304563 0.06216265 0.36019143 -0.05121251
000310 0f be 88 bc e1 c6 99 3d 4c 48 b8 bd 1f ba 0e 3e
       -0.01669219 0.07508636 -0.089981645 0.13938187
000320 a1 9c a8 bd 4b ca 89 be 1d 06 08 3d ba eb 27 be
       -0.082329996 -0.2691215 0.033208955 -0.16398516
000330 76 95 2e be a8 74 bd 3d e5 de 96 be a8 6e 10 bf
       -0.17049202 0.09250766 -0.2946693 -0.5641885
000340 17 39 d1 3d 18 82 22 be 13 53 18 be ac 0d 5f bd
       0.10215967 -0.1586994 -0.1487544 -0.054456398
000350 65 81 60 be ae e1 70 3e 26 ef 79 3e 52 31 6d be
       -0.2192436 0.2352359 0.24407634 -0.23163345
000360 ae 3d 1e 3e 10 97 95 be 4d 0e f4 bd 7d 0a b6 3d
       0.15453216 -0.29216814 -0.1191679 0.08888719
000370 30 cf aa be 7e 1a 89 bc 71 2a 6f bd af c5 a9 3d
       -0.33361197 -0.016736265 -0.058390085 0.08289658
000380 8b 66 98 bd de 47 5f bd 64 a3 30 3e 21 1d 64 be
       -0.074414335 -0.054511897 0.17249829 -0.22276737
000390 8c 66 1c 3e 76 34 48 bd d9 9c ca bc 95 f7 87 bd
       0.15273494 -0.048878156 -0.024732994 -0.066390194
0003a0 ab bf b8 bd cf 74 ce bd f5 63 46 3e 0b 8b ff bd
       -0.09020933 -0.10080873 0.19374068 -0.12477692
0003b0 b9 a8 c2 bd 03 ad b4 bc 54 6e 09 be 46 c4 d4 be
       -0.095048375 -0.022055155 -0.13420993 -0.41555995
0003c0 e4 44 8c be 03 61 58 be d2 69 0f 3d d3 fa 7a 3d
       -0.2739631 -0.21130757 0.035013027 0.06127436
0003d0 09 1e 56 3e 7a 56 46 3d 0f 29 e2 3d 61 6d 40 be
       0.20909895 0.048422314 0.110429876 -0.18791725
0003e0 ee a2 d6 bc 00 d6 3f be 4c 51 cb 3c 96 f5 4d 3e
       -0.026200738 -0.18733978 0.024819039 0.20113215
0003f0 f8 83 06 bd e6 51 f6 bd fd 0b b5 3d bb 7a ef 3d
       -0.0328407 -0.1202734 0.08840177 0.11693331

fc1.bias f4 [64]
000000 60 56 fd 3d 89 b0 81 3e 71 a9 04 bc 7f ca 17 3d
       0.1236999 0.25329998 -0.008097039 0.03705835
000010 19 fe 7f 3e 32 03 24 3e ba d8 c4 3d 23 a1 63 3e
       0.24999274 0.16016844 0.0961165 0.22229438
000020 fa 2b 8b 3e a1 2a b9 3d 79 3b 86 3e c9 06 8e 3e
       0.2718199 0.09041334 0.2621725 0.27739552
000030 eb f3 2a bc 44 9c 68 3e af 24 63 3e 61 5e 16 3e
       -0.010434131 0.2271586 0.22181962 0.1468444
000040 2b 12 b8 3d df eb b3 3e 90 39 94 3c bd fa a3 3e
       0.0898784 0.35140893 0.018093854 0.32027236
000050 3d 10 25 3e 62 41 d7 3d b7 46 b7 3d 59 54 27 3e
       0.16119476 0.10510518 0.08949035 0.1634077
000060 b7 a5 8f bd 6a 7b a5 3c d1 65 64 3d 29 08 5f bd
       -0.070140295 0.02020045 0.055761162 -0.05445114
000070 59 74 7b bd c1 bc bf 3d c1 5b f9 bd 53 bc 01 3e
       -0.061390255 0.09362174 -0.12175704 0.12669496
000080 04 5d 25 3d a7 22 e3 3d b4 a9 85 bd 35 ee 44 3e
       0.04037191 0.11090594 -0.06526509 0.19231494
000090 dc ac a3 3e aa 37 36 3e 71 25 4c 3e 3e 28 34 3e
       0.3196782 0.17794672 0.19936158 0.17593476
0000a0 0d 57 98 bd 1a 05 88 3e 36 4e af 3d 79 b9 ac 3e
       -0.074384786 0.26566392 0.085598394 0.33735254
0000b0 37 75 ef 3d 35 c2 50 3e c2 d1 6c 3d 19 8f 87 3d
       0.11692279 0.20386584 0.05781723 0.066190906
0000c0 b8 5e a0 3e 32 bd c4 3d 85 d5 3c 3e fe ee 4d 3e
       0.31322265 0.09606399 0.18440826 0.201107
0000d0 e2 66 9b 3e 9e 58 d3 3d 43 4b 40 3e 4a 51 04 3e
       0.3035193 0.10319637 0.1877871 0.12921634
0000e0 f1 a6 14 3b 48 41 c7 3c 2f e0 8e 3e 02 85 b4 bd
       0.0022682513 0.02432312 0.27905414 -0.08814432
0000f0 39 39 97 3d 03 3c 0b 3e 24 28 c8 3d d2 10 9e 3e
       0.07383961 0.13597111 0.09773281 0.30872208

fc2.weight f4 [2, 64]
000000 39 8b 6b 3d bf d5 15 be 7d ea 3f be af f4 bb be
       0.05750582 -0.14632319 -0.18741794 -0.36710116
000010 d5 b0 40 be 26 fd 8e be d9 64 42 3d 79 1f ec bd
       -0.18817456 -0.27927512 0.047459457 -0.115294404
000020 0c dc 2b be 2f 04 1e 3d b1 05 4d be a9 7f ca bd
       -0.1678316 0.03857821 -0.20021702 -0.098876305
000030 5f b2 87 3d d5 bc 2b be 1f c4 3c be 17 70 99 be
       0.066258185 -0.16771252 -0.1843419 -0.2996833
000040 a8 67 c3 3d 5a 5e d8 bd be 5c 53 be d8 5a b9 bd
       0.09541255 -0.10564871 -0.20640847 -0.0905053
000050 b5 a0 2f be 1f b8 92 3d 4a b5 0b 3d ce 17 9a be
       -0.17151149 0.071640246 0.034108438 -0.30096287
000060 9d 96 34 bd 8c c4 11 3d 26 c5 3e 3d 12 dc bc bd
       -0.04408895 0.035587832 0.046574734 -0.092216626
000070 87 68 f6 bd 4f 61 a1 3d 78 1d 33 3d 84 82 42 3d
       -0.12031656 0.07879888 0.043729275 0.04748775
000080 97 47 dc 3c 63 ae 2c 3d e1 3d 75 bc 76 4d 62 be
       0.026889605 0.042158496 -0.014968366 -0.22099862
000090 3b 73 09 be 53 05 34 be ab af d3 bd f0 58 59 be
       -0.13422863 -0.17580156 -0.103362404 -0.21225333
0000a0 a4 db 5b 3e 06 fb f1 bd 18 ac 3d 3d 59 01 0b be
       0.21470505 -0.11815457 0.0463067 -0.13574733
0000b0 67 fb 86 3d f0 e2 37 be a8 11 8d 3d e3 f7 26 3d
       0.0659092 -0.17957664 0.06888133 0.040763747
0000c0 04 36 ca bd 90 f6 5b 3d d2 0c 81 be 66 03 42 be
       -0.09873584 0.053701937 -0.25205094 -0.18946609
0000d0 51 db f6 bd 99 a1 8a bb f7 14 48 be 60 d1 ae 3d
       -0.1205355 -0.0042306897 -0.19539247 0.08536029
0000e0 ff 0f b5 3d 65 25 50 3d bd 9c 2f be ff 61 00 3d
       0.08840942 0.050816912 -0.17149635 0.031343456
0000f0 60 4a 24 3d d2 11 3a 3d 60 5a 14 3d b4 0d 22 be
       0.040109992 0.04542715 0.036219 -0.1582554
000100 93 09 9c 3d d3 a2 3b bd 1b e6 1f be 7d 05 57 be
       0.07619014 -0.04580958 -0.15615122 -0.20998187
000110 4a 3f 61 be ec 5c a4 bd 82 27 8f 3d 60 bb 09 be
       -0.21996799 -0.08025536 0.069899574 -0.13450384
000120 42 2a 05 be 1f b2 86 3d 68 b9 4c be 13 8e d8 bd
       -0.13004401 0.06576943 -0.19992602 -0.105739735
000130 72 35 02 3e 22 52 29 be 73 30 ca bd 26 0b 45 be
       0.127157 -0.16535237 -0.09872522 -0.19242534
000140 9f 2b b5 3d f7 ce 0a be 46 e4 08 3e 3c 08 24 be
       0.08846211 -0.13555513 0.1336833 -0.16018766
000150 d0 4e 51 be 07 38 cd 3d 07 26 ad 3d 16 cd 45 be
       -0.20440221 0.10020452 0.08454519 -0.19316515
000160 e4 69 f7 3d b6 4d 91 3d 26 51 84 3d 95 84 41 3e
       0.12080744 0.070949 0.0646079 0.18898232
000170 60 59 c2 3d 52 52 9a 3d ab 02 77 3d b4 98 82 3d
       0.09489703 0.075352326 0.06030528 0.06376782
000180 fd ad d4 3d fe bf 6c 3d da 63 8f bd 43 3f 43 be
       0.10384748 0.057800286 -0.07001467 -0.19067101
000190 16 42 40 bd f6 1d 2d be af 86 83 be 57 5d 4e be
       -0.046938024 -0.1690596 -0.25688693 -0.20152794
0001a0 0c 64 03 bd b3 c6 d5 bd 4d bd 80 3d 34 87 de bd
       -0.032077834 -0.104382895 0.06286106 -0.10865632
0001b0 aa 2a 78 3d 15 74 bb bd 98 40 07 3e 60 f2 ad 3d
       0.060587563 -0.09153 0.13208234 0.08493495
0001c0 dd 5a e5 bd dd be 63 3d d7 00 52 be 68 4f 3c be
       -0.111989714 0.055601943 -0.20508133 -0.18389666
0001d0 be e6 0f be 60 79 21 bf bd 5a a5 bd ad 8b f0 bd
       -0.14052865 -0.6307583 -0.080739476 -0.11745391
0001e0 a0 6e e7 3d 58 19 14 bf d2 ae ac bd c2 92 67 be
       0.11300397 -0.5785117 -0.08431782 -0.22614577
0001f0 c8 2a 6f 3d 24 c4 88 3d af ed 90 3d a5 08 50 bd
       0.05839041 0.06678036 0.070765845 -0.050789494

fc2.bias f4 [2]
000000 7a 49 db 3e 19 06 13 be
       0.42829496 -0.14357795
