assignment-5/models/best_model_4.4.pth (torch, 110548 bytes, 8 tensors)

conv1.weight f4 [4, 4, 8, 8]
000000 81 e9 17 3e 46 83 ac 3d fd 65 98 bd 09 9d e6 3c
       0.14835168 0.08423476 -0.07441328 0.028151052
000010 ca 24 0c 3d 08 36 a9 bc 1e a5 1f 3c b4 79 bc bd
       0.034214772 -0.020655647 0.009743957 -0.092029005
000020 e1 9e d2 3b 10 db a5 bb 24 16 2a 3d be e8 ab bc
       0.0064276312 -0.0050615147 0.04152502 -0.020985004
000030 cd ab c0 bd f1 84 aa 3d 20 66 1a 3c 11 c1 b3 3d
       -0.094077684 0.08326138 0.009423763 0.08777059
000040 f1 c2 8d 3c 5f 83 78 3d 08 c6 7e bd ca dc 05 be
       0.01730487 0.06067216 -0.062200576 -0.13072506
000050 03 81 1f bd e9 56 50 3d b3 6b 91 3c 94 f1 e8 bd
       -0.038941395 0.050864134 0.01775155 -0.11374202
000060 d4 c6 cf 3c 25 c9 48 be e4 6b 0f be 93 5e b3 bd
       0.025363363 -0.1960798 -0.14006001 -0.08758273
000070 7e 68 9b 3d 09 e4 b1 3c 6c be b4 38 5c 8c 1e bd
       0.0758829 0.021715181 8.618538e-05 -0.038708076
000080 1d 08 86 bc cd d7 4c bd fa d8 f1 bd cb cb 28 3c
       -0.01636129 -0.05001049 -0.11808963 0.010302494
000090 34 cc a0 3d 5d 19 87 bb 1a e9 06 39 18 ea 82 ba
       0.07851449 -0.0041228966 0.00012866073 -0.0009987978
0000a0 dc d2 5b 3b e0 41 36 bd 0a 8d ef bc 37 07 44 bd
       0.003354243 -0.044496417 -0.029242057 -0.047858443
0000b0 67 31 90 3d 6a ac c1 3c c5 2c 27 3d 72 a1 7b bc
       0.07040673 0.023641784 0.04081418 -0.015358316
0000c0 c9 9e ab 3d 2f 85 c9 3d 0e e5 ba 3c 03 a5 6e bc
       0.08379895 0.09839856 0.0228143 -0.014565709
0000d0 6d f9 b7 3d ad c4 f6 3d b8 8c ae 3d ed 07 56 bc
       0.08983121 0.12049232 0.08522934 -0.013063413
0000e0 59 0b d8 3c 9e 26 b0 3d 1c 69 cc 3d 0b 2e 0b 3e
       0.026372598 0.08601116 0.099809855 0.13591783
0000f0 93 5a 02 3e c6 89 54 3d 57 d9 fd 3d 85 57 a6 3d
       0.12729864 0.051889203 0.1239497 0.08122162
000100 2d f7 62 3d 0d c4 84 3d 15 b4 85 bd 1b 06 05 be
       0.055411506 0.06482706 -0.065284885 -0.1299061
000110 c0 89 98 bd ad 1a 85 bc a3 ca c0 bc 69 63 4c bd
       -0.07448149 -0.016248072 -0.023534125 -0.049899492
000120 ab bc 00 3d 03 d4 f2 bc e8 77 40 be a7 b6 a2 bd
       0.031429928 -0.02964211 -0.1879574 -0.079449944
000130 6c ff 3f 3b 48 59 d5 3d a5 76 21 bd b2 0c df 3c
       0.002929653 0.1041742 -0.03941979 0.027227733
000140 76 26 88 3c e1 8b 22 bd 83 da df bd e5 ef 33 3c
       0.016619902 -0.03968418 -0.1093035 0.010982488
000150 bb 70 34 3d db 07 79 3c d9 5a 08 3d 2c 61 13 3d
       0.04405282 0.015199627 0.033289764 0.035981342
000160 18 53 65 bd 37 8b 73 bd a7 c9 1d be 15 f1 b5 bd
       -0.055987448 -0.059458937 -0.15408956 -0.088838734
000170 75 fe a2 bc ad 57 1d 3d ae 72 49 3b ae a1 0b ba
       -0.019896725 0.038413692 0.003073852 -0.00053265214
000180 cc a2 9c 3c 8e 8c 4f bd a2 c9 6d 3d ee 61 bd bd
       0.019120596 -0.050671153 0.05805362 -0.09247194
000190 ed 6b 32 3e ec 9f 08 3e 04 03 b1 bd b0 5a fe 3d
       0.17423983 0.13342255 -0.08643153 0.12419641
0001a0 86 20 11 3d 6e 9e f3 3d 4c dc 8e 3d af 99 3f bd
       0.035431407 0.118954524 0.06975612 -0.046777423
0001b0 e0 68 18 3d aa 92 89 bc 29 1d 9b 3d 60 ee 14 3e
       0.03720939 -0.016793568 0.07573921 0.14544058
0001c0 04 3a 56 3d 70 c0 cb 3d 32 47 a5 3d c1 8b 5d bd
       0.05230142 0.09948814 0.0807022 -0.054088358
0001d0 79 59 8b bb 06 0c 94 3d 37 f6 22 3d 1e f3 42 3d
       -0.0042526093 0.07228856 0.03978559 0.047595136
0001e0 72 90 13 bd cf 46 0b 3d fe e8 51 3d 7d 14 bf bd
       -0.036026426 0.034003075 0.05124759 -0.0933008
0001f0 d2 cc 06 3e 03 bd ed 3d 54 78 01 bd 08 4f 57 3d
       0.1316407 0.11608317 -0.031608894 0.052565604
000200 96 7b 97 3d b4 c9 0e 3c e6 ca d6 bd 39 77 81 bb
       0.07396619 0.008715082 -0.104879186 -0.00395098
000210 ba 57 2a 3e 9e a2 fc 3d 32 88 ef 3d 79 c5 8f 3d
       0.16635028 0.12335704 0.11695899 0.07020087
000220 e5 f6 b2 bd fd 83 db bd b5 ff 9e bd 34 41 ff bd
       -0.08738498 -0.10718534 -0.07763616 -0.124636084
000230 63 7e fb 3c 60 8b 24 3d dc 07 02 bd fb 5c 82 3c
       0.030699914 0.04017198 -0.031745777 0.015913477
000240 f1 af e9 3c 40 a0 dc 3c 57 99 a3 bd 6f 76 00 bb
       0.028526278 0.026931882 -0.07988232 -0.0019601842
000250 5c 8e d1 3d b5 dc a3 3d 79 45 2c 3d 40 b9 f9 3c
       0.10232231 0.08001081 0.04205844 0.030483842
000260 e4 e3 23 bc d9 d0 9a bd f8 69 d5 ba 8b 31 fc bd
       -0.010003064 -0.07559366 -0.0016282192 -0.12314137
000270 22 96 ba 3d 44 4a e8 bd 6a 02 ba bc 03 9e dc 3d
       0.09110667 -0.1134229 -0.02270623 0.10772326
000280 1a 07 d9 3d 17 44 d0 bd 22 f4 f8 bd 72 28 36 bd
       0.10597058 -0.10169237 -0.1215594 -0.044472165
000290 61 c0 89 3d 85 27 bf 3c f8 01 34 3d 34 ad 96 bb
       0.067261465 0.023334274 0.04394719 -0.004598284
0002a0 a7 5d 44 bd 7e e4 75 3c 09 77 58 bd 61 19 0e be
       -0.047940876 0.01500809 -0.052847896 -0.13876869
0002b0 66 33 83 bd d6 72 ab bd 37 6f 83 ba 33 4e e2 bd
       -0.06406288 -0.083715126 -0.0010027651 -0.110500716
0002c0 ae 4b cd 3d fe a6 62 3c 48 d5 a5 bd 07 f6 57 bd
       0.100242004 0.013833759 -0.08097321 -0.052724864
0002d0 2a 3b 94 3d 5f 34 28 bd 14 54 a6 3c bb e6 7a 3b
       0.07237847 -0.04106557 0.020303763 0.0038284499
0002e0 40 5c 30 3e ef 18 e9 bc 74 30 94 bd 98 45 2f be
       0.1722269 -0.028454272 -0.07235804 -0.17116392
0002f0 38 e3 44 bd 81 52 6b bd d2 04 27 be 64 70 ff bd
       -0.048068255 -0.05745173 -0.16310433 -0.12472609
000300 bb e6 a4 3c a4 20 8f bd 64 42 a3 bd 18 5c 49 3c
       0.020129552 -0.069886476 -0.079716474 0.012290023
000310 b6 7e 17 3e 6e 1b 07 3e aa 19 e6 3d 02 26 19 3e
       0.1479443 0.13194057 0.11235364 0.14955905
000320 31 7a 44 bd ae fd 45 be f8 e2 26 be 4b 52 8c bd
       -0.047968093 -0.19335052 -0.16297519 -0.06851634
000330 7e a3 2a 3d ac ea a0 3c 24 ed 05 3d 03 95 f6 3d
       0.041659825 0.01964315 0.032696858 0.120401405
000340 bb 69 e3 3b 00 d3 bc bb e2 91 26 be 3f fc 61 be
       0.0069400943 -0.005762458 -0.16266587 -0.2206888
000350 4c 7b b1 bd 3f 24 de 3c cc 8a 2e be ca 15 16 3e
       -0.08666095 0.027116893 -0.17045134 0.1465675
000360 4b 22 c1 bd cc b0 00 be 74 2e 31 be b6 fd 48 be
       -0.09430369 -0.12567443 -0.17302877 -0.19628033
000370 a4 66 21 be a0 93 1a be c7 68 9b bb f1 57 af bd
       -0.1576181 -0.15095377 -0.004742715 -0.08561695
000380 b3 74 fa 3b 08 37 0a bd 10 80 6a be 58 33 f5 bd
       0.007643306 -0.03374389 -0.22900414 -0.11972684
000390 84 c0 36 3d da cc db bc a2 56 de bd 1d dc 13 be
       0.04461719 -0.02683108 -0.10856368 -0.14439435
0003a0 68 cc ac 3d de 7e 9f 3d d2 74 4d be 4d 49 69 be
       0.08437425 0.0778787 -0.20064095 -0.22781868
0003b0 52 ef 3b bd b3 0b 77 be 0a 3f 07 be e6 08 b5 be
       -0.04588253 -0.24125557 -0.13207641 -0.3535835
0003c0 6a 09 24 3e 52 a4 ca 3d e1 a9 47 bd cc 87 c2 bd
       0.16019216 0.09894623 -0.048745994 -0.094985574
0003d0 c9 30 c1 bd 18 ac 10 be 9e 4a 8e be 07 00 9d bd
       -0.09433133 -0.14128149 -0.27791303 -0.07666021
0003e0 9a b6 29 3e 95 01 4b 3d 99 b0 97 bd 77 77 4b be
       0.16573563 0.049562056 -0.0740673 -0.19869791
0003f0 36 88 13 be 8f af 41 bd b6 38 6a bd b0 37 e6 3c
       -0.14407429 -0.047286566 -0.05718299 0.028102726

conv1.bias f4 [4]
000000 f0 e9 33 bc 99 00 83 3d 00 85 cf ba c9 6d 4c bb
       -0.010981068 0.06396598 -0.0015832484 -0.0031193367

conv2.weight f4 [8, 4, 4, 4]
000000 6f b6 cb bd 24 cc 1b 3e a7 75 99 be 34 b6 69 bc
       -0.09946906 0.15214592 -0.29972574 -0.014264632
000010 f8 3c 1a 3d 4b 1e 48 3e de 82 1c 3e 4b 81 26 bd
       0.0376558 0.19542806 0.15284297 -0.040650647
000020 12 12 d8 3c 89 19 97 3e cb 39 24 be 56 a8 14 bd
       0.026375804 0.2951167 -0.16037671 -0.03629335
000030 4d 10 8e bc d1 a3 d2 3c b4 f8 4f 3d 82 a8 29 3d
       -0.017341757 0.02571288 0.05077429 0.041420467
000040 24 ef d6 bd 2a fa a6 be 21 20 03 3d a2 e7 44 bc
       -0.10494831 -0.32612735 0.032013062 -0.012018116
000050 76 06 21 be 35 0b 10 bd 8d 81 f3 3d e3 fb 44 be
       -0.15725121 -0.035166938 0.11889944 -0.19236712
000060 23 a0 4d be a1 f3 4c 3d 4b 6e e9 3c 73 9d e0 bd
       -0.20080619 0.05003703 0.028494975 -0.10967531
000070 46 68 b4 3d 3c 16 de 3c ea 5d 06 be 09 1a a1 bd
       0.08808951 0.027110212 -0.13121763 -0.07866294
000080 c8 ef 07 be 56 85 ef 3d 9d bc ac bc b2 82 60 3d
       -0.13275063 0.11695354 -0.021086032 0.05481214
000090 97 4f ae bc 08 d6 c7 3c 03 bd f0 3d 8f 04 cb 3d
       -0.021278186 0.02439405 0.11754801 0.09912979
0000a0 14 cf db bd 0f 41 4f 3d b6 eb 0f be 6b ba 99 bd
       -0.107328564 0.050599154 -0.1405476 -0.075062595
0000b0 09 5e 8a be 88 29 31 be 7c d3 92 bd 73 0f 00 3d
       -0.27024868 -0.17300999 -0.07169244 0.031264734
0000c0 0f ce e2 3d 7c e6 5f bd 69 51 49 bd 0f 4d 98 3e
       0.11074459 -0.054663166 -0.049149904 0.2974629
0000d0 a9 ff 0a be 93 06 23 bd a6 61 36 3e ac a9 39 3e
       -0.13574089 -0.03980119 0.17810687 0.18131131
0000e0 0f 9c 9c 3c 03 af e9 bc 54 77 96 3d 79 b0 bf 3d
       0.019117383 -0.028525835 0.07346979 0.09359831
0000f0 fb e3 e6 bc 9e 99 4c be 83 a5 81 bd 02 e4 74 be
       -0.028184881 -0.19980475 -0.06330397 -0.23915103
000100 73 fa 14 3e e6 76 e7 bd f7 9f c9 3d f3 5b 10 bd
       0.14548664 -0.11301975 0.09844964 -0.03524394
000110 e2 f2 c6 3c 2a a0 9e bd 78 ad ed 3d 4c a5 24 3d
       0.024285737 -0.077453926 0.11605352 0.040196702
000120 05 70 59 be 2a 62 54 3e a8 32 ac 3d 93 ad d7 bc
       -0.21234138 0.20740572 0.084080994 -0.026327884
000130 82 91 0a be bf 33 37 be e6 4b f6 3c 86 8f 2b 3d
       -0.1353207 -0.17890833 0.030065488 0.04188492
000140 58 e1 ee bd a5 2d 85 3d 99 99 37 bd 41 e4 b7 3d
       -0.11664075 0.06502847 -0.044824217 0.08979083
000150 65 ff 37 be b9 6f 04 bd e5 41 19 bd 87 c4 e5 bd
       -0.17968519 -0.03233311 -0.037416358 -0.11219125
000160 a4 99 a7 bd d4 29 ec bd b1 0e 15 be f5 44 ef 3d
       -0.081836015 -0.115314156 -0.14556386 0.116830744
000170 97 88 da 3d 8e bf 20 bd 7d 5b 61 bd 32 4b 42 3d
       0.10670584 -0.03924518 -0.05501889 0.047434993
000180 59 b6 39 3c 5b d0 3b 3e c1 ad 07 3d df 5d 8c bd
       0.011334979 0.183412 0.03312469 -0.06853842
000190 9d c8 09 be b8 7d 83 3c 8d 35 7f 3d 8b d4 8b 3d
       -0.13455434 0.016051158 0.06230693 0.06827649
0001a0 5b 89 69 3b 2f 7b b6 be 0d a4 90 bd 22 6c 58 3d
       0.0035634849 -0.35640857 -0.0706254 0.0528375
0001b0 8d f5 63 be 1e 8c 08 3e 77 82 44 be 14 00 f2 bd
       -0.22261639 0.133347 -0.19190393 -0.11816421
0001c0 24 5f 11 be a3 89 d9 bd 7d 77 ff bc 77 32 c2 3e
       -0.1419645 -0.10621955 -0.031184906 0.37929127
0001d0 cc 26 a7 3d 0a 04 c1 3d fe 54 a5 3d 0b 3e 53 bd
       0.08161697 0.094245985 0.080728516 -0.05157284
0001e0 ea 24 88 be cc 48 ad bd 18 da a4 3b be af 8a 3e
       -0.26590663 -0.084611505 0.0050308816 0.27087206
0001f0 02 a7 3f 3d 9c d8 d0 bc db 9a 8d bd 33 b2 1c 3c
       0.04679013 -0.025493912 -0.06914302 0.00956397
000200 54 6a 23 be 30 6a d6 3d 92 f1 23 bd 68 55 d3 3c
       -0.1595853 0.104694724 -0.0400253 0.02579756
000210 04 76 27 3d 51 d2 51 be a6 17 21 3b e8 21 20 bd
       0.040884033 -0.20490386 0.0024580746 -0.039094836
000220 49 f8 89 3d a1 37 1e bb 9d ed 62 bc bb 77 8f bd
       0.0673681 -0.0024142044 -0.013850597 -0.07005259
000230 e5 72 a6 3d 90 bd 33 bd 9a a3 dd 3d 6d 62 3a be
       0.08127383 -0.043881953 0.1082222 -0.18201609
000240 d9 25 b2 3d 4d d5 46 3d 6e b3 4b 3e 22 92 2c 3e
       0.08698625 0.048543263 0.19892666 0.1685262
000250 35 05 03 3d b9 e1 96 bc 57 70 86 3d 29 82 cf 3d
       0.031987388 -0.01841818 0.06564396 0.10132248
000260 aa 64 2f 3e d1 9d a0 3d 88 a2 3a 3e 57 56 9e bd
       0.17128244 0.07842601 0.18226063 -0.07731312
000270 6e 8b b1 3d e3 16 f6 3c 1a a4 0c 3e e8 d7 b6 bd
       0.08669172 0.03004021 0.13734475 -0.089278996
000280 bc 11 91 bd e2 20 75 bd 98 4b 31 be 12 e1 63 be
       -0.07083461 -0.059845813 -0.17313993 -0.22253826
000290 18 c1 ac 3d 75 76 8a 3c 15 97 84 bd c0 41 20 be
       0.08435267 0.016902188 -0.06474129 -0.15650082
0002a0 91 a1 d1 3d bf 3b ff 3c 30 6b c2 bd 6b 82 0c bd
       0.102358945 0.031156419 -0.09493101 -0.034304064
0002b0 6d a0 76 bd 1c 1e 5c be 28 6b 45 be 2e 0f 13 be
       -0.060211588 -0.21495861 -0.19279158 -0.1436126
0002c0 af ef 51 bd 71 91 e6 bd 0e 9c c4 3d 2f d3 5c be
       -0.05125397 -0.112582095 0.096000776 -0.21564935
0002d0 94 1e 23 3e 87 8b 7b bd f6 5b ec 3c 10 65 8e be
       0.15929633 -0.06141236 0.028852444 -0.2781148
0002e0 b0 28 06 bd 89 5a a0 3d d7 86 c8 bd 6d d2 57 3c
       -0.032753646 0.07829768 -0.09791344 0.013172728
0002f0 82 09 1f be 4a 99 1c bd ed 1c b1 3d 24 e3 f9 bc
       -0.1553097 -0.038232125 0.08648095 -0.030503817
000300 f7 7a 1c be 35 f6 ec bd ca f4 00 be e8 25 8a 3d
       -0.15281282 -0.11570398 -0.1259338 0.06745511
000310 2d 4c 48 be d2 32 22 3e 76 8f d6 bc 85 0f 78 3d
       -0.19560309 0.15839699 -0.026191454 0.060561676
000320 8e 62 96 bc d2 3d dd 3d 33 55 f7 3d a2 6a 49 be
       -0.018357541 0.10802807 0.12076797 -0.19669583
000330 cf ed 14 be df a4 47 3e 37 d1 5f 3c 48 e3 7a bd
       -0.14543842 0.19496487 0.013660721 -0.06125191
000340 af 2e a1 bd 21 9c 06 bd c8 3a 37 3c a9 e8 46 bb
       -0.07870232 -0.03286374 0.011183448 -0.0030351079
000350 9a 7f b2 3d d1 12 d4 bd ac 77 07 be 84 97 16 3d
       0.08715744 -0.103551514 -0.13229245 0.03676559
000360 23 a4 51 bd 9f 73 1e 3d e6 4c 1f 3e 1e 42 fa bb
       -0.051181924 0.038684484 0.15556678 -0.0076372763
000370 42 83 29 be 29 40 08 3e 77 93 35 3e 57 93 9e bc
       -0.16553977 0.13305725 0.17732035 -0.019357366
000380 97 2e d9 bd 9c 10 83 be 79 73 ae 3c 5b cb 62 be
       -0.106045894 -0.2559861 0.021295296 -0.22147886
000390 4c 18 12 be 29 49 82 3d 49 66 86 3e 76 70 6c 3d
       -0.14267081 0.063616104 0.26249912 0.05772444
0003a0 5e 8f 2b 3d 44 b3 c8 bd 88 9b 12 3e 86 ed b0 bd
       0.041884772 -0.09799817 0.14317143 -0.08639054
0003b0 fc b1 e7 bd e9 5d 18 be 86 27 4e be 9d 22 5c bd
       -0.11313245 -0.14879574 -0.20132264 -0.053743947
0003c0 9e 9b 9f 3c 2b 64 6b 3e 11 9f 66 3c a1 df 82 3e
       0.019483384 0.2298743 0.01407601 0.2556124
0003d0 89 9c 0d be bf 0b 15 bd 9f b5 50 3d ab 8b c5 3e
       -0.13829245 -0.036388155 0.050954457 0.3858312
0003e0 c8 bc 0d bd b6 59 13 be 81 f7 d4 3e ba 68 83 3e
       -0.034603864 -0.14389691 0.4159508 0.25665838
0003f0 9d f5 56 bd aa 3e 06 be ce 2c 4e bd a3 92 c4 3c
       -0.05248033 -0.13109842 -0.050335698 0.023995703

conv2.bias f4 [8]
000000 b6 bb a5 3c c6 c4 80 3c bd 01 fb 3d 71 d8 76 3c
       0.02023111 0.015718829 0.12256191 0.015066252
000010 de 76 4d 3c ce 87 92 3b fb 8a 84 3c da fb f7 bc
       0.012540547 0.0044717556 0.016179552 -0.03027146

fc1.weight f4 [64, 392]
000000 2d 41 60 bd 03 77 98 be 62 5b 24 be 4d 75 ea bc
       -0.054749656 -0.297783 -0.16050485 -0.028620386
000010 94 35 c6 bc 1f 35 82 bd 50 97 32 3e 42 54 17 bc
       -0.02419547 -0.06357788 0.17440534 -0.009236397
000020 92 37 0c be d2 0d 26 bd 75 46 80 3d a5 7c cd bd
       -0.13693073 -0.040540524 0.062634386 -0.1003354
000030 15 6b 03 bd d0 15 b5 3c 71 e2 2a be 93 38 0e 3d
       -0.032084543 0.022105128 -0.16687943 0.034721922
000040 e7 15 90 be 7c 09 a2 bc 1b b5 52 3d a5 c8 c0 bc
       -0.2814171 -0.019779913 0.051442247 -0.023533175
000050 ff 86 b1 3b 5e 14 12 bd 72 64 2f bd e2 27 35 bc
       0.005417704 -0.035663955 -0.0428204 -0.011056872
000060 48 7c c3 bd dc 5c 38 3d e1 b8 35 be 72 4d 8b bd
       -0.09545189 0.045010433 -0.17746307 -0.06801881
000070 13 ab a4 bd a7 5c 80 3c e0 1b 58 bb 06 8e 2d 3c
       -0.08040442 0.01566918 -0.00329756 0.010592943
000080 cb 20 06 bd 05 b9 b4 bd 59 b0 a6 3c 2d 90 e4 3c
       -0.032746118 -0.08824352 0.020347761 0.02790078
000090 0b ce 30 3e bc 9e e2 3d 67 3f fd bd 81 44 09 3d
       0.17266099 0.110654324 -0.12365609 0.033512596
0000a0 7e 11 51 3d e1 38 f2 bc 4b 53 06 bb f2 26 6b 3d
       0.051042072 -0.029568138 -0.0020496424 0.057410188
0000b0 8a 8a ba bd 80 6d 50 bd f3 d7 df 3d fa ff 0e bd
       -0.091084555 -0.050885677 0.10929861 -0.034912087
0000c0 96 21 40 3e 0a ce 3d be 56 39 e4 bd 83 83 89 3d
       0.18762812 -0.18535629 -0.111437485 0.06714537
0000d0 0e 20 85 3d 21 d0 ae 3d 88 dd 55 bd 5d 6f 52 bd
       0.065002546 0.08535791 -0.05221322 -0.051375736
0000e0 00 d4 f5 3d 8a 36 22 be e5 e2 ff bd 76 f0 d4 3b
       0.120033264 -0.15841118 -0.124944486 0.0064983917
0000f0 cb 74 11 bd b1 83 f8 bd 6c 54 9b 3d d4 76 a7 3d
       -0.035511773 -0.12134493 0.075844616 0.081769615
000100 e6 31 d2 3d 6c 92 50 bc 06 5c e8 bd 88 bc 4a be
       0.102634236 -0.012730222 -0.11345677 -0.19798481
000110 55 07 9d bd e7 94 0d 3d 0b 50 8c bd 5c 33 a5 3d
       -0.07667414 0.034565832 -0.068512045 0.08066437
000120 de 1a 5a 3d 43 51 65 bd da 6a 2b be 29 72 7c bd
       0.05324828 -0.0559857 -0.1673998 -0.06163231
000130 ed cd 0a bd d7 ed 03 3e d0 98 65 bd 7e ba ac bc
       -0.033887792 0.12883697 -0.056053936 -0.02108502
000140 98 18 bc 3d 53 3c 91 3d df 76 f7 ba 36 d0 36 be
       0.091843784 0.07091584 -0.0018880031 -0.17852864
000150 5c 47 38 3d 76 8f 0e 3d ea ce 85 bd a4 1b 91 3d
       0.04498993 0.034804784 -0.06533606 0.0708535
000160 5e 0a 62 bc 61 64 07 3e fc 29 d7 bc e2 17 03 3e
       -0.013796417 0.13221885 -0.026265137 0.1280208
000170 24 07 88 3e 2c 42 1d 3e 4e a7 47 3e 39 d3 6e bd
       0.26567948 0.15357274 0.19497415 -0.058306906
000180 df 3b 03 3c f3 23 34 bd 41 af 84 3d 9c 3d 93 3d
       0.00800988 -0.043979596 0.064787395 0.071894854
000190 8c 6b 30 3d 82 a9 63 3e 59 53 2d 3e bc 2d b4 b8
       0.043071315 0.22232631 0.16926326 -8.5915875e-05
0001a0 80 0a 9e 3c e2 ac d0 3c 53 02 d2 3c 14 b6 0d 3d
       0.019292116 0.025473062 0.025635874 0.03459747
0001b0 81 3e 4a 3e b7 ca 07 3e b1 b1 b9 3d 41 62 d9 3d
       0.19750406 0.13260923 0.09067095 0.106144436
0001c0 ef 85 e3 bd cd 6e a4 bc bf d0 c2 3d 7c c3 e0 3d
       -0.1110953 -0.020072365 0.095124714 0.10974786
0001d0 00 19 f3 3d 77 ba ae 3d e2 a4 d4 bd 4a c7 a0 bd
       0.11870003 0.08531659 -0.103830114 -0.07850511
0001e0 62 8a 75 3d 26 07 ef bd f3 da d3 3d 1c 84 04 3e
       0.059946425 -0.11671285 0.103444956 0.1294102
0001f0 9e d1 e8 3d 7e 09 f9 3d 34 bc d6 3d 8d e6 37 bd
       0.11368106 0.121600136 0.10485116 -0.044897605
000200 a4 5f aa 3d 58 3d 34 3e cc f1 a9 3d 88 e5 02 3d
       0.08319023 0.17601526 0.08298072 0.03195718
000210 f5 28 2e 3d 06 d2 43 3e c4 47 93 bc a0 b2 a6 3c
       0.04251953 0.19123086 -0.017978556 0.020348847
000220 d6 b1 a2 3d 74 32 20 3d af 97 42 3d 24 e1 9e bd
       0.07944076 0.039110616 0.047507938 -0.07757786
000230 36 9a c6 3d a6 4a 89 3d 84 72 62 3d 12 ee 5f 3e
       0.09697382 0.06703691 0.05528499 0.2186816
000240 5f e0 f4 3c c9 39 6d 3d 9d 60 8e bc 44 b8 bc bd
       0.029892145 0.057916436 -0.017380053 -0.092148334
000250 23 ce 67 be c5 c8 53 3d b3 4f 37 bd 9b 85 92 3c
       -0.22637229 0.05170514 -0.04475374 0.017885974
000260 f2 4b 9a bd 09 60 61 bc b7 24 6a be b2 c5 4c 3d
       -0.07534017 -0.013755807 -0.22865568 0.049993224
000270 3a f6 bf 3c 99 13 db 3d 39 a6 ec 3b 12 f2 db 3d
       0.02343284 0.10697097 0.0072219637 0.107395306
000280 50 52 86 3d ce 86 28 3e 69 5f 2a 3d cc cb 4e 3d
       0.065586686 0.16457674 0.041594896 0.050487325
000290 c0 d9 23 bd bc 41 d6 bc 74 6d ab 3d 1f dd ba bd
       -0.040002584 -0.026154391 0.08370486 -0.09124207
0002a0 55 af 0f 3d 30 41 14 3e b6 a4 9a 3d c6 07 94 bc
       0.03507932 0.14477992 0.07550947 -0.018070113
0002b0 35 ec de 3d 55 9a 9e 3c 94 e0 31 3e b0 dd d1 bc
       0.10884897 0.0193607 0.17370826 -0.025618404
0002c0 22 f4 34 bd c6 32 30 bd 01 a1 f7 bc e3 10 e2 bd
       -0.044178136 -0.04301717 -0.03022814 -0.11038377
0002d0 dd 0a b0 3c 3d 78 31 be 0b 0d 9b 3d 8a af 59 bd
       0.021489555 -0.17331024 0.07570847 -0.053145923
0002e0 94 26 23 bc e6 63 91 3d 14 30 17 3d 37 93 12 3d
       -0.009957928 0.07099132 0.036911085 0.035784926
0002f0 5b 95 37 bd ea 7d 3e 3d 3e 01 3b 3d 34 70 07 be
       -0.04482017 0.0465068 0.04565548 -0.13226396
000300 7c b3 8e 3d 0c 3f 52 3d 5f 7f ad bd b4 96 78 3d
       0.06967828 0.051329657 -0.0847156 0.060690597
000310 2c 16 5b be f9 cc a2 be 99 50 a8 bd 63 d8 21 3a
       -0.21395177 -0.31797007 -0.08218498 0.0006173907
000320 4d da a6 bd d7 90 10 3d 12 69 7b 3d e3 01 f9 bd
       -0.08147106 0.03529438 0.0613795 -0.12158563
000330 46 a3 ab 3c 58 ee da 3c 7a fe ce bd d1 54 9e bd
       0.020951878 0.02672498 -0.10107131 -0.07731021
000340 46 b9 a5 3d fd 62 28 3b f2 31 90 3d d0 fa 55 3d
       0.08091979 0.0025693767 0.07040776 0.052241147
000350 c4 52 47 3e 7a 84 4a be c6 9b 96 bd 6c 32 db 3d
       0.19465166 -0.19777098 -0.0735393 0.107029766
000360 a7 94 56 bc 22 3c 49 3a e3 de 13 3d 81 6e 46 be
       -0.013096965 0.0007676502 0.036101233 -0.19378091
000370 ed a5 98 bd 7e 63 53 bd 75 06 8d bd 63 61 0e 3c
       -0.07453523 -0.051608555 -0.06885997 0.008690211
000380 bd 4a 47 bc 48 6d b3 3c 41 ae d9 bd d7 ad e6 bc
       -0.012163815 0.021902695 -0.106289394 -0.028159065
000390 48 d3 6f 3d 48 dd dd 3b 6d bf aa bd c9 73 b3 bc
       0.058551103 0.0067707635 -0.08337293 -0.021905797
0003a0 7b e4 e2 3d d7 88 f7 bd df e8 eb bc 9c 82 bd bd
       0.110787354 -0.12086647 -0.028797565 -0.092534274
0003b0 d4 0b c8 3c b5 ea 0f bd 1c c6 a3 3d b0 ae 5c ba
       0.024419703 -0.035135943 0.07996771 -0.00084183645
0003c0 8f 3c 42 bd f6 1a 2b bd ee 7d cb bb 8f 71 3d bd
       -0.047421034 -0.04177376 -0.0062100803 -0.046250876
0003d0 14 86 34 3d c2 7b b9 3c 1c 94 06 be 5d 35 04 be
       0.04407318 0.02264202 -0.13142437 -0.12910981
0003e0 ad 1a 5e bc 4e 9b 81 bd 16 54 b9 3d 65 b0 7d 3c
       -0.013556165 -0.0632845 0.09049241 0.01548395
0003f0 9f dc c6 3b 7b 62 52 be 7f 7a 51 be be ca b2 bc
       0.0060687806 -0.2054538 -0.20456885 -0.02182519

fc1.bias f4 [64]
000000 79 a5 cf 3d bc 54 f0 bc 87 56 95 3d 3a a2 cf 3d
       0.10138983 -0.02933728 0.072918944 0.10138364
000010 96 d9 96 3d f8 95 a5 3d 28 16 c0 3d 37 be 16 3e
       0.0736572 0.08085245 0.09379226 0.14720999
000020 f1 ad 04 3e 83 37 ce bb 9a 18 d8 3d 4e 0b fb 3d
       0.12956978 -0.0062932386 0.105515674 0.122580156
000030 46 3a de 3d dc 29 aa 3d 2b 90 02 3e 74 8d 0b 3e
       0.108509585 0.08308765 0.12750308 0.13628179
000040 e9 4c 0b 3e 8f 03 ad 3d 9c b1 7b 3d 78 9e 17 bd
       0.13603558 0.084479444 0.06144868 -0.037016362
000050 3c d3 85 3d 55 a2 04 bd fe 64 c7 3d fd d6 f2 3d
       0.065344304 -0.032381374 0.097360596 0.11857412
000060 a0 0d 89 3d 7c 29 ca 3d 2a 18 38 3d 95 f4 1e 3e
       0.06692052 0.09871194 0.04494492 0.15522988
000070 59 6f 8e 3d 26 2c df 3d 20 00 b4 3d e4 f4 f4 3d
       0.06954832 0.108970925 0.08789086 0.11960772
000080 9e 03 1c 3e 24 ec cc 3d 4f 49 8d 3d 3d 0d a1 bc
       0.15235755 0.10005978 0.06898748 -0.019659633
000090 46 e5 4c 3d b9 33 02 3e 9b 41 a6 3d a5 d5 92 3d
       0.05002334 0.12715043 0.08117982 0.07169656
0000a0 be 68 f2 3d e0 c5 b6 3d 2f 00 53 b9 ff 7b c7 3d
       0.11836384 0.089244604 -0.00020122596 0.09740447
0000b0 ae 22 f3 3d 0e ae 05 bc 43 e5 b9 bc 3d d8 e2 3d
       0.11871849 -0.008159174 -0.022692328 0.110764004
0000c0 0b bf f2 3d 96 28 b4 3d f0 f1 b7 3d d6 a5 d6 3d
       0.11852845 0.08796804 0.08981693 0.104808494
0000d0 b1 b1 d8 3d 67 32 4b 3d 2b 3f 18 3e 53 43 ed 3d
       0.10580767 0.049608614 0.14867847 0.11585107
0000e0 ed 79 c7 3d e4 c5 e4 bc 74 8d 16 3e 81 71 97 bb
       0.09740052 -0.027926393 0.14702398 -0.004621685
0000f0 c4 71 dd 3d 2e 67 e1 3d 32 9f 3d bb 68 da ad bc
       0.10812715 0.11006008 -0.0028934 -0.021222308

fc2.weight f4 [2, 64]
000000 c1 cf 98 3d 14 9b 24 bd 83 90 18 3e 4e 54 3b be
       0.07461501 -0.040186957 0.14898877 -0.18293878
000010 b7 e3 cd 3d e6 5e b6 3d 09 a5 3d be d1 51 c1 bd
       0.10053199 0.08904819 -0.18519987 -0.09439433
000020 30 08 22 be 18 9f 7f be 3b 09 dc bd 97 85 c3 bd
       -0.15823436 -0.24963033 -0.10743948 -0.095469646
000030 71 7e 69 be 34 9a b9 3d 7b ee ef bd a1 10 17 be
       -0.2280214 0.09062615 -0.117154084 -0.14752437
000040 87 67 c1 bd b8 e7 96 3d 30 47 e2 3d 66 21 71 be
       -0.094435744 0.073684156 0.11048734 -0.23547897
000050 bb 62 d2 3d c3 5a d5 ba 0d be 5d be 17 20 39 be
       0.102727376 -0.001627766 -0.2165453 -0.18078648
000060 fd b2 af 3d 23 22 85 3d d8 19 9e 3d 97 6b a4 bd
       0.08579061 0.06500652 0.07719773 -0.08028334
000070 1c 4f cf 3d 9a 48 24 be 36 7d 99 3d 3a cf 10 be
       0.10122511 -0.1604332 0.07494585 -0.1414155
000080 75 10 e7 bd cd 73 40 be b5 80 e9 3d d2 1d 32 3e
       -0.11282436 -0.18794174 0.11401502 0.17394188
000090 be 74 be 3d 3a ad d1 bd 4b 8b e5 3d a5 e2 a5 3d
       0.092996106 -0.102381185 0.11208209 0.0809987
0000a0 26 4b 2f be ea 7a af 3d 48 45 81 bd fb 7b 5d be
       -0.1711851 0.08568366 -0.063120425 -0.21629326
0000b0 a0 89 fc bd 86 d0 95 3e 11 04 d2 3d 1f f7 04 be
       -0.123309374 0.29260653 0.10254682 -0.12984894
0000c0 c9 6f 23 be a3 89 b0 3d 90 c9 83 3d 93 32 59 be
       -0.15960611 0.08620002 0.06434929 -0.21210699
0000d0 4c 1b 50 be d3 b1 ab 3d fd 8e b4 bd 36 7a 25 be
       -0.20322913 0.08383527 -0.08816335 -0.16159901
0000e0 c5 72 35 be 63 71 ee bd af be af bd 3e 93 a4 bd
       -0.17719562 -0.116427206 -0.08581292 -0.08035897
0000f0 65 ea 49 be 4a d5 42 be 0f 2b 70 bc 26 44 2b be
       -0.1971832 -0.19026676 -0.0146587035 -0.16725215
000100 6a 72 a9 3d 7d b0 83 3d 24 da 1f 3e 4f 55 33 be
       0.08273776 0.06430147 0.15610558 -0.17513011
000110 98 ea d9 3d 7e ec a2 3d 71 44 23 be af b4 f8 bd
       0.10640448 0.079552636 -0.15944077 -0.12143838
000120 a3 8a e8 bd d5 7e 0d be c0 5e 1a be cf 51 d2 bd
       -0.11354568 -0.13817914 -0.15075207 -0.1026951
000130 21 11 2e be 5e 69 b1 3d 7d 03 03 be 5e 8a 0c be
       -0.16998722 0.08662675 -0.127943 -0.13724658
000140 a8 af d1 bd 9c 22 a9 3d d0 f9 fb 3d 27 f5 89 3e
       -0.10238582 0.08258554 0.12303507 0.2694485
000150 9b cf a9 3d 14 c3 ce 3d bf 58 54 be 2a 0f 3d be
       0.08291551 0.10095802 -0.20736979 -0.18462816
000160 54 13 c4 3d 1e 57 88 3d ac 40 ad 3d 9a 3d cf bd
       0.09573999 0.06657241 0.08459601 -0.101191714
000170 ee ea c2 3d 98 55 0f be f7 93 61 3d 49 83 1c be
       0.095174655 -0.13997495 0.05507275 -0.15284456
000180 ad 1a da bd f3 7a 42 be 4e ed 00 3e 3e 80 b9 bc
       -0.10649619 -0.18992214 0.12590525 -0.022644158
000190 f6 e0 84 3d e4 50 be bd f6 b0 ec 3d df a4 ab 3d
       0.064882204 -0.092927724 0.1155719 0.08381056
0001a0 03 ea 24 be 26 31 af 3d 61 24 81 3e 4b 73 87 be
       -0.16104893 0.08554296 0.25223067 -0.2645515
0001b0 6d 4b 11 be e3 6a 08 3e d0 a6 f4 3d 63 2e e7 bd
       -0.14188929 0.13322024 0.119458795 -0.112881444
0001c0 ae ff 1f be 8e ab 98 3d 68 ee a7 3d 81 18 3e be
       -0.15624878 0.074545965 0.08199769 -0.18564035
0001d0 48 3c 7a be ce 19 a3 3d 86 ca da bd d6 e3 25 be
       -0.24437058 0.07963906 -0.106831595 -0.16200194
0001e0 01 97 5d be 06 98 6d 3e 2a 19 e8 bd 66 46 2f bd
       -0.21639635 0.23202524 -0.11332925 -0.042791747
0001f0 92 82 3e be dc e9 51 be 55 66 05 3d 52 65 b4 3d
       -0.18604496 -0.20499367 0.032568295 0.08808388

fc2.bias f4 [2]
000000 ee da bc be 89 14 bf be
       -0.3688578 -0.37320355
