assignment-5/models/best_model_6.5.pth (torch, 110548 bytes, 8 tensors)

conv1.weight f4 [4, 4, 8, 8]
0	0xbd7bd925	-0.061486382
1	0xbde772dd	-0.11301205
2	0xbdbb8931	-0.091570266
3	0xbd68f54b	-0.056874555
4	0xbded2851	-0.11579955
5	0x3cbf2c9f	0.023336707
6	0xbd215760	-0.039389968
7	0x3c370c2e	0.011172337
8	0xbdd7c630	-0.10535848
9	0xbd910cb1	-0.07082499
10	0xbdcb04eb	-0.099130474
11	0x3e057fe0	0.13037062
12	0x3d1eec75	0.03879972
13	0x3d06bbba	0.032893874
14	0xbca07887	-0.019588722
15	0xbc42972d	-0.011876863
16	0xbe099bd3	-0.13438348
17	0x3d72bdf6	0.059263192
18	0xbd8516e0	-0.06498504
19	0x3da12cbd	0.07869861
20	0xbd0379ae	-0.032098465
21	0xbd8f2128	-0.06988746
22	0xbafac747	-0.0019132876
23	0x3beccbf1	0.00722646
24	0xbd3ef368	-0.04661885
25	0x3db8b17a	0.09018226
26	0xbd5c5748	-0.053794175
27	0x3ca1d2a2	0.019753758
28	0xbcbc86ff	-0.02301359
29	0x3d934162	0.07190205
30	0x3d821620	0.06351876
31	0x3d774816	0.06037148
32	0x3d3921bb	0.045198184
33	0x3dae03d7	0.08496826
34	0x3d922f0c	0.0713788
35	0x3d885237	0.06656306
36	0x3da1a7c6	0.07893328
37	0x3d8572b4	0.065160185
38	0xbd989cc3	-0.07451775
39	0xbdb0e20b	-0.08636864
40	0x3d40f15f	0.04710519
41	0x3dd5dbca	0.10442312
42	0x3de8f7b6	0.11375372
43	0xbd8803ac	-0.06641325
44	0x3ca3fce4	0.020018049
45	0xbd6fad7e	-0.058515064
46	0xbcab3918	-0.020901248
47	0xbd2e507c	-0.042557225
48	0x3db292bb	0.08719393
49	0x3ce9e60c	0.028552078
50	0x3d59889a	0.05310879
51	0x3e053589	0.13008703
52	0xbcef5f61	-0.029220285
53	0xbc9e4e16	-0.019324344
54	0xbd2493aa	-0.040179886
55	0xbd7a45d6	-0.061101757
56	0x3bc4e0c8	0.0060082413
57	0x3e2094f8	0.15681827
58	0x3d8bb5a4	0.068217546
59	0xbd13d467	-0.036091235
60	0x3cfef933	0.031124687
61	0x3b88b2eb	0.0041717193
62	0x3d9094b4	0.07059613
63	0x3da7be81	0.081906326
64	0x3d7a788a	0.06115011
65	0xbd96dde4	-0.07366541
66	0x3d9579eb	0.07298645
67	0xbc9f0ce9	-0.019415336
68	0xbd0f0094	-0.03491266
69	0xbdf27426	-0.1183856
70	0xbcbbe4ff	-0.022936342
71	0xbdbe35ab	-0.0928758
72	0x3ca21b9f	0.019788561
73	0x3cd12f4f	0.025535254
74	0xbd0da1c4	-0.0345781
75	0x3d96d29a	0.07364388
76	0xbd199b2e	-0.037501507
77	0x3b9be462	0.00475745
78	0xbd9b8f83	-0.07595732
79	0x3d2ccd18	0.04218778
80	0x3c69cdfb	0.014270301
81	0x3a551884	0.0008128958
82	0x3e0ab4d8	0.13545549
83	0xbda1cd23	-0.07900455
84	0x3c6c648c	0.014428269
85	0xbc334a48	-0.010943003
86	0x3baf4396	0.005348633
87	0xbd7fa534	-0.06241341
88	0xbb82ad36	-0.0039879335
89	0x3d8290b2	0.06375255
90	0x3c6227b5	0.013803412
91	0x3d5e0279	0.054201577
92	0xbded793e	-0.11595391
93	0xbd9c1ef9	-0.07623095
94	0x3b34264d	0.002748865
95	0x3d1934ae	0.037403755
96	0x3d2b236f	0.04178184
97	0x3d800f12	0.062528744
98	0x3d668950	0.056283295
99	0x3dcf3b62	0.10118748
100	0xbcf89ed8	-0.03034918
101	0xbd2a6526	-0.04160037
102	0xbcb3d843	-0.021953708
103	0xbd281d69	-0.041043673
104	0x3dcd0ea2	0.100125566
105	0x3c8bc5f8	0.017062172
106	0xbdd183e0	-0.10230231
107	0x3d26ee7c	0.04075478
108	0xbc814d3b	-0.015783897
109	0xbc8143bf	-0.015779374
110	0x3dd1113a	0.10208364
111	0xbc8f5188	-0.017494932
112	0x3df66cef	0.12032496
113	0xbcc92621	-0.024554314
114	0xbc726f6c	-0.014797073
115	0xbd624186	-0.05523827
116	0xbbd2614e	-0.006420291
117	0xbdcfef20	-0.10153031
118	0xbdb91554	-0.09037271
119	0xbc03a927	-0.0080359345
120	0xbdcadcc2	-0.099053875
121	0xbc860a39	-0.016362296
122	0xbca632e3	-0.020287937
123	0xbdc3229e	-0.09528087
124	0xbc807a42	-0.015683297
125	0x3d170dcb	0.03687839
126	0x3d798ae9	0.06092349
127	0x3ca3411f	0.019928513
128	0xbd9cecbd	-0.07662342
129	0xbded8960	-0.11598468
130	0x3bd94644	0.006630691
131	0xbd15d438	-0.03657934
132	0xbde17fe8	-0.11010724
133	0xbd3a07ad	-0.045417476
134	0x3db52187	0.088442855
135	0xbda40ea2	-0.080106035
136	0xbd7475b0	-0.059682548
137	0xbdb629db	-0.08894702
138	0x3b791ff5	0.0038013433
139	0x3e2299e6	0.1587902
140	0xbd2ff6ea	-0.042960085
141	0xbd1a6354	-0.037692383
142	0x3e085638	0.1331414
143	0xbcacd549	-0.021097796
144	0x3e17b523	0.14815192
145	0x3dccc26e	0.09998022
146	0xbdcf94d0	-0.101358056
147	0xbd647230	-0.05577296
148	0x3a76767d	0.00094018114
149	0x3e1c5222	0.15265706
150	0x3e11a9a3	0.14224868
151	0x3cac85f2	0.021059964
152	0xbd0e13fe	-0.034687035
153	0x3d916476	0.070992395
154	0x3d2801cc	0.04101734
155	0xbd11724f	-0.035509404
156	0x3d969cf4	0.07354155
157	0x3cb00510	0.021486789
158	0xbd3f45d2	-0.046697445
159	0x3e24a921	0.16080143
160	0x3d1d1d4b	0.038358014
161	0xbd689977	-0.05678698
162	0x3d5be26f	0.05368274
163	0x3e46532e	0.19367668
164	0xbd52a27f	-0.0514245
165	0x3cef9eeb	0.029250583
166	0x3d5f6f21	0.05454934
167	0xbbd86206	-0.006603482
168	0xbaba9815	-0.0014235998
169	0xbda5c00a	-0.08093269
170	0xbdda237f	-0.106513016
171	0x3ba617e8	0.005068768
172	0xbdbd5931	-0.092455275
173	0xbd81fe5a	-0.06347342
174	0x3d5f7bec	0.05456154
175	0x3e1fcea3	0.1560617
176	0x3d9f78e0	0.07786727
177	0x3da3c72a	0.07996972
178	0x3d1c85d8	0.03821358
179	0x3cf12f5f	0.029441534
180	0xbde59608	-0.11210257
181	0xbd3f8c93	-0.04676492
182	0x3dd826a7	0.10554247
183	0x3d6f0d61	0.05836237
184	0xbce90042	-0.028442506
185	0x3d830626	0.06397657
186	0xbdb4055c	-0.08790085
187	0xbd0cadc5	-0.034345407
188	0x3e00e49c	0.12587208
189	0x3dd01008	0.10159308
190	0x3d0c5f20	0.034270406
191	0x3d4ec7f0	0.050483644
192	0xbdf86a45	-0.12129644
193	0xbe5a3538	-0.21309364
194	0xbe9ef329	-0.3104489
195	0xbe168e26	-0.14702663
196	0xbe2a673d	-0.16640945
197	0xbe15f494	-0.1464408
198	0x3d6a6974	0.057229474
199	0x3e2d21dc	0.16907448
200	0xbe20fa4c	-0.1572048
201	0xbe048ff4	-0.12945539
202	0xbe915fa1	-0.28393272
203	0xbd72695e	-0.059182517
204	0xbd578616	-0.05261811
205	0x3c1b2989	0.009470352
206	0x3d9027ca	0.07038839
207	0x3e2f13d4	0.17097408
208	0xbe19ce0b	-0.15020005
209	0xbcf91801	-0.030406954
210	0xbe7220af	-0.2364528
211	0xbda92c79	-0.082604356
212	0x3dcc9a4d	0.09990368
213	0x3dafa329	0.08576042
214	0x3c940b88	0.018071905
215	0x3e8e97d9	0.27850226
216	0x3bd15d55	0.0063893
217	0x3e059b26	0.13047466
218	0xbe145b8f	-0.14488052
219	0x3e32c45d	0.17457719
220	0x3da6835a	0.08130522
221	0x3c3e03fa	0.011597628
222	0xbd297ca3	-0.04137863
223	0x3e90e62c	0.28300607
224	0x3db5e7ee	0.08882128
225	0x3dc07a8b	0.09398373
226	0xbde6cd63	-0.11269643
227	0x3cd6aeec	0.026206456
228	0x3e1b1b9f	0.15147255
229	0x3e670906	0.22562036
230	0x3dc819be	0.09770535
231	0x3e31e953	0.17374162
232	0x3d3785e9	0.04480544
233	0x3d959d79	0.07305426
234	0xbd2e3534	-0.042531207
235	0x3d7c2461	0.06155813
236	0x3e4b3021	0.19842578
237	0x3e052b71	0.13004853
238	0x3d444fd1	0.04792768
239	0x3dc85896	0.097825214
240	0x3d8c5580	0.06852245
241	0x3d4e60fa	0.050385453
242	0xbd60eb44	-0.054911867
243	0x3de904df	0.11377882
244	0x3e33c4d2	0.1755555
245	0x3de4f2f4	0.11179152
246	0xb9d6a42d	-0.0004093958
247	0x3e99c67d	0.30034247
248	0xbcd93492	-0.026514325
249	0x3c7e001f	0.015502959
250	0xbda61934	-0.08110276
251	0xbdf9e485	-0.1220179
252	0x3e17369d	0.14766927
253	0x3e42a6a7	0.19008885
254	0x3e16615e	0.1468558
255	0x3e3f01f6	0.18653092

conv1.bias f4 [4]
0	0xbbe4708a	-0.0069714235
1	0xbc961eed	-0.018325293
2	0x3c9bb761	0.01900834
3	0xbc2fee33	-0.010737943

conv2.weight f4 [8, 4, 4, 4]
0	0x3e0e9737	0.13924871
1	0x3d75c7d3	0.06000502
2	0xbe8f3a10	-0.27973986
3	0xbe35b7ac	-0.17745847
4	0x3e00b154	0.12567645
5	0x3da93dd2	0.082637444
6	0xbe3dc85a	-0.1853346
7	0xbe9f2c50	-0.31088495
8	0xbdfc7c7b	-0.1232843
9	0xbda18f40	-0.07888651
10	0xbeb372e9	-0.35048607
11	0xbe3668e1	-0.17813446
12	0xbda154e0	-0.07877517
13	0xbda024f7	-0.078195505
14	0xbdfcd91e	-0.12346099
15	0xbcd3ff2a	-0.025878508
16	0x3e268f86	0.16265687
17	0x3e0fb681	0.14034463
18	0xbf122125	-0.57081825
19	0x3e0b06ef	0.13576864
20	0xbe11273c	-0.14175123
21	0x3e20eb39	0.1571473
22	0xbef866ba	-0.48515874
23	0x3e09f441	0.13472082
24	0x3d91a851	0.07112182
25	0x3df0476a	0.11732371
26	0xbe5563ff	-0.20838927
27	0x3e7e79b9	0.24851121
28	0x3e8c4801	0.27398685
29	0x3e175ea8	0.14782202
30	0xbda00401	-0.07813264
31	0x3d954586	0.07288651
32	0x3cf51641	0.029917838
33	0xbe7e41cc	-0.24829787
34	0x3e5886af	0.21145128
35	0x3e24fb5a	0.16111508
36	0x3d8578c8	0.06517178
37	0xbc1b6e87	-0.009486801
38	0x3ead2906	0.3382036
39	0x3dfe8f56	0.12429683
40	0x3e84358f	0.25822112
41	0xbd43c1a3	-0.04779209
42	0xbd803a69	-0.06261141
43	0x3e5160e4	0.20447117
44	0x3ee35877	0.4440343
45	0xbcde7ac4	-0.027158149
46	0x3d6d213e	0.05789303
47	0xbe63037d	-0.221693
48	0x3ebfc014	0.3745123
49	0x3e1bdeda	0.1522173
50	0xbda0ad7c	-0.078455895
51	0xbd8ed7c2	-0.06974746
52	0x3ee6bd6c	0.45066392
53	0x3d0a7364	0.03380145
54	0x3cec8753	0.028873121
55	0xbe5a04cc	-0.21290892
56	0x3d8a2686	0.06745629
57	0x3e183206	0.14862832
58	0xbe33c461	-0.17555381
59	0x3da05ebc	0.07830569
60	0x3ca9744b	0.020685336
61	0x3e240401	0.16017152
62	0xbe8098af	-0.25116488
63	0xbe6e17d3	-0.23251276
64	0x3bed5425	0.007242697
65	0xbda4507f	-0.08023166
66	0xbdcda158	-0.100405395
67	0xbf028198	-0.50978994
68	0x3e35b350	0.17744184
69	0x3cf16c31	0.029470535
70	0xbe1bb0d7	-0.15204178
71	0xbe83931e	-0.2569818
72	0xbdebceef	-0.11514079
73	0x3d075754	0.033042267
74	0x3d7a783b	0.061149817
75	0xbe82cc05	-0.2554628
76	0xbdbc7fa6	-0.092040345
77	0xbda3140e	-0.079628095
78	0xbedebb8f	-0.4350247
79	0xbe24c719	-0.16091575
80	0xbe9e5c46	-0.30929774
81	0x3e1ab9aa	0.15109888
82	0xbcc71030	-0.024299711
83	0x3d150b7c	0.036387905
84	0x3ac84d03	0.001528174
85	0x3b535e84	0.003225238
86	0x3e36dbc5	0.17857273
87	0xbe1db01a	-0.15399209
88	0xbcd5b9ea	-0.026089627
89	0xbe3d1d65	-0.18468244
90	0x3e2b3f6f	0.16723417
91	0xbd2bd84b	-0.04195432
92	0xbe86b6b6	-0.26311272
93	0xbe770331	-0.24122311
94	0xbd660cc4	-0.056164518
95	0xbe865fa5	-0.26244846
96	0xbdf24346	-0.11829238
97	0xbe0f0331	-0.13966061
98	0xbe47c9dc	-0.19510597
99	0xbd5e1852	-0.054222412
100	0xbdec4caf	-0.11538064
101	0xbd936e26	-0.071987435
102	0x39dfc511	0.000426807
103	0x3d9cd318	0.076574504
104	0x3a83ce77	0.0010056038
105	0xbdbebe53	-0.09313645
106	0x3db47b37	0.08812564
107	0xbdf44a8a	-0.1192828
108	0x3e239ffd	0.15979
109	0xbc49f538	-0.012326531
110	0xbd55da76	-0.052210294
111	0x3cdc098d	0.026860023
112	0x3e16ba70	0.14719558
113	0x3cb9ced6	0.022681635
114	0xbe011c81	-0.1260853
115	0xbe9ef0e4	-0.3104316
116	0xbd16ab5a	-0.036784507
117	0xbd301f8a	-0.042998828
118	0xbe0f6e2e	-0.14006874
119	0xbdf85f25	-0.121275224
120	0x3d8e3776	0.06944172
121	0xbe58f5a7	-0.21187459
122	0xbd5a8e7f	-0.05335855
123	0xbdf798c3	-0.12089684
124	0xbe0073e2	-0.12544206
125	0x3e76d500	0.2410469
126	0xbe4220a7	-0.18957768
127	0xbe707c98	-0.23485029
128	0xbe7152bd	-0.23566718
129	0xbdf6bf68	-0.120482266
130	0x3cd22f15	0.025657216
131	0xbdf52b5f	-0.11971163
132	0xbefd33a1	-0.49453452
133	0xbe0a8be7	-0.13529931
134	0xbe223a67	-0.15842591
135	0xbd05717c	-0.03257893
136	0xbe7ae4b5	-0.24501307
137	0x3ca25bc9	0.019819157
138	0xbe1eb434	-0.1549843
139	0x3da3c9de	0.079974875
140	0xbcabe438	-0.020982847
141	0xbd109a7e	-0.035303585
142	0xbe453d07	-0.19261561
143	0x3d0def50	0.034652054
144	0xbd83ba46	-0.06432013
145	0x3d921adb	0.071340285
146	0xbdbe377b	-0.09287926
147	0x3d90d5d6	0.07072036
148	0xbe74298c	-0.23843974
149	0x3e5d52a4	0.21613556
150	0x3ddf5724	0.10905293
151	0xbd008e06	-0.031385444
152	0x3e0c2fdb	0.1369013
153	0x3e00473b	0.12527172
154	0xbbb240b6	-0.005439843
155	0x3e5efd12	0.21776226
156	0x3eed4ad1	0.46346143
157	0xbd84b987	-0.06480699
158	0x3db8bbef	0.090202205
159	0x3e9c6eb3	0.30553207
160	0xbd361c6c	-0.0444607
161	0xbd44ec32	-0.048076816
162	0x3d55d46b	0.05220453
163	0x3e83b16c	0.257213
164	0xbe73c875	-0.23806937
165	0x3e6e1970	0.23251891
166	0x3e1ed556	0.15511069
167	0xbdeb7629	-0.11497147
168	0x3dc4ffe2	0.09619118
169	0xbd150176	-0.036378346
170	0x3df4be8f	0.11950409
171	0xbf04865b	-0.5176751
172	0x3db50cc1	0.08840323
173	0xbd2c4f6d	-0.042067934
174	0xbe0c7824	-0.13717705
175	0xbf1466af	-0.5796918
176	0xbef87753	-0.48528537
177	0xbecd71df	-0.4012594
178	0x3e86729b	0.26259312
179	0xbd9ae898	-0.07563895
180	0xbebe3885	-0.37152496
181	0x3d3f6854	0.046730354
182	0x3d887d9d	0.06664584
183	0x3c9faad4	0.019490637
184	0xbe2c07ce	-0.16799852
185	0xbf12862d	-0.57235986
186	0xbc98f0f6	-0.018669587
187	0x3d34f109	0.04417518
188	0xbe708813	-0.23489408
189	0xbe9bf510	-0.30460405
190	0x3d3ec3be	0.046573393
191	0x3da28eaf	0.07937371
192	0xbd7db5a3	-0.0619408
193	0xbc6bf983	-0.01440275
194	0xbc2b87ae	-0.01046936
195	0x3d808118	0.06274623
196	0xbe282b70	-0.1642282
197	0xbe93a853	-0.2883936
198	0xbe1cb8d4	-0.15304881
199	0x3e0dfce3	0.13866
200	0x3e4572c2	0.19282058
201	0x3d8313e9	0.06400282
202	0xbe1734da	-0.14766255
203	0xbe61d626	-0.22054347
204	0x3da148ad	0.0787519
205	0xbcec0d3a	-0.0288149
206	0x3c9d3b49	0.019193308
207	0xbdff4514	-0.124643475
208	0xbe81842e	-0.25296158
209	0x3d91dce6	0.07122211
210	0x3eccc906	0.3999712
211	0x3e1b992e	0.15195152
212	0x3d09be10	0.033628523
213	0x3d75661c	0.059911832
214	0xbe4b2587	-0.19838534
215	0x3d99acbb	0.07503649
216	0xbe689266	-0.22712097
217	0x3e438d26	0.19096813
218	0xbb6c3037	-0.003603948
219	0x3e5151f4	0.20441419
220	0x3e900f50	0.28136683
221	0x3d08599d	0.033288587
222	0xbe8af6fb	-0.27141556
223	0xbc470943	-0.012148204
224	0xbdc8d44e	-0.09806119
225	0x3e18700d	0.14886494
226	0xbe15c95c	-0.14627594
227	0xbe3b9fd5	-0.1832269
228	0x3cae221e	0.021256503
229	0x3dff063b	0.1245236
230	0xbdf6f419	-0.12058277
231	0xbcde70fa	-0.02715348
232	0xbcc05a1c	-0.023480467
233	0x3eac9432	0.33706814
234	0x3cb69bf2	0.022291157
235	0xbddc53f7	-0.107582025
236	0xbe6273cb	-0.22114484
237	0xbcce1db1	-0.025160642
238	0xbdab916f	-0.08377349
239	0xbac0be96	-0.0014705237
240	0x3d583f58	0.052794784
241	0xbe2d76b8	-0.16939819
242	0x3e5532f3	0.20820217
243	0xbdf8c624	-0.12147167
244	0x3e3f906e	0.1870744
245	0xbec0d08b	-0.37659106
246	0x3deaefa2	0.114714876
247	0xbc3a3064	-0.011364076
248	0xbd8b236d	-0.06793866
249	0xbe42caf4	-0.19022733
250	0x3df3f5fb	0.119121514
251	0xbd525d52	-0.05135853
252	0x3d8bc195	0.06824032
253	0x3d3742e5	0.04474153
254	0x3e2a515d	0.166326
255	0x3e466804	0.19375616

conv2.bias f4 [8]
0	0xbcf51aa7	-0.029919935
1	0x3e0e11cb	0.13873975
2	0x3cc44ed0	0.023963362
3	0xbb111faa	-0.0022144117
4	0x3c1bb69a	0.009503985
5	0x3c764b98	0.015032671
6	0xbc84cc9d	-0.016210848
7	0x3e10057a	0.14064589

fc1.weight f4 [64, 392]
0	0x3d1c8001	0.03820801
1	0xbe302f03	-0.17205434
2	0xbc7c1724	-0.0153863765
3	0xbdbd7446	-0.09250693
4	0xbc7ac3d9	-0.015305483
5	0xbc2b5d10	-0.0104592
6	0x3d8eb610	0.069683194
7	0xbd6f8212	-0.058473654
8	0x3ded6cac	0.11592993
9	0xbd39b903	-0.045342457
10	0x3d085fcf	0.033294495
11	0xbe25346d	-0.1613328
12	0xbe2b73e5	-0.16743429
13	0xbdfa9277	-0.12234967
14	0xbd60e025	-0.05490126
15	0xbd14e621	-0.03635228
16	0x3d58ca40	0.052927256
17	0x3c038942	0.00802833
18	0xbe1d77d4	-0.15377742
19	0x3bf921e4	0.007602917
20	0xbd936913	-0.07197776
21	0x3c884023	0.016632145
22	0xbc6625b1	-0.014047072
23	0x3d8d0c46	0.068871066
24	0x3d23f3c4	0.040027395
25	0xbe46a9bb	-0.19400685
26	0xbd42bc2f	-0.047542747
27	0xbe5693d5	-0.20954831
28	0x3d5345ea	0.051580347
29	0x3d1eaf05	0.03874113
30	0x3d12c8c9	0.035836015
31	0xbd7123cb	-0.058872025
32	0x3c6a1f86	0.014289742
33	0x3d5146bc	0.05109285
34	0xbdc5a163	-0.09649923
35	0x3e1ab5f3	0.1510847
36	0x3cf18213	0.02948097
37	0x3bfd2d81	0.0077263718
38	0x3d8eb572	0.06968202
39	0x3dbb9eb8	0.091611326
40	0xbdfc6863	-0.12324598
41	0xbdb0e98f	-0.08638298
42	0xbb840b51	-0.0040296693
43	0xbd281c87	-0.04104283
44	0x3e624ee7	0.22100411
45	0xbd797b53	-0.060908627
46	0x3dcaad7e	0.09896372
47	0xbe073279	-0.13202848
48	0xbd9f69a3	-0.077838205
49	0x3ddc13d5	0.1074597
50	0x3e36de02	0.17858127
51	0x3e3bee14	0.18352538
52	0xbd8586ea	-0.065198734
53	0x3b6aa080	0.0035801232
54	0x3db2aff0	0.08724964
55	0x3d9bdf79	0.076109834
56	0x3d290d91	0.041272704
57	0x3d815553	0.063151024
58	0x3d951d3a	0.07280965
59	0xbd140849	-0.036140714
60	0x3d9add3d	0.07561729
61	0x3db0ec8c	0.08638868
62	0x3d812369	0.06305582
63	0xbc0b13f2	-0.008488642
64	0xbd56c09c	-0.05242978
65	0xba8ea5b6	-0.0010883126
66	0x3cdd06cc	0.02698078
67	0x3ca68e64	0.020331569
68	0xbe1a069f	-0.15041588
69	0x3d35870f	0.044318255
70	0xbd3d1b90	-0.046168864
71	0xbd9e2f3f	-0.07723855
72	0x3e0103c7	0.12599097
73	0x3e0c20a6	0.1368433
74	0x3c0477e7	0.008085228
75	0xbd41d0dc	-0.047318324
76	0xbd929e73	-0.07159128
77	0x3de5db78	0.11223501
78	0xbd84bc2c	-0.064812034
79	0x3d33697f	0.04380178
80	0x3e83bb7c	0.25728977
81	0x3db00743	0.08595135
82	0x3d08a350	0.033358872
83	0x3bc39725	0.0059689456
84	0x3e01db6f	0.12681364
85	0xbc841678	-0.016123995
86	0x3dba472f	0.090956084
87	0x3ce4e30d	0.027940297
88	0x3c93aa9e	0.018025693
89	0x3da1694a	0.078814104
90	0xbd617e47	-0.055052068
91	0x3bd49b8b	0.0064882687
92	0x3e44c035	0.19213946
93	0x3e310f6c	0.17291039
94	0x3e46a07b	0.19397156
95	0x3e197699	0.14986648
96	0x3e351012	0.17681912
97	0x3c90b377	0.0176637
98	0x3e03c5db	0.12868445
99	0xbe8784cf	-0.26468512
100	0x3d17db79	0.03707454
101	0x3d709563	0.058736216
102	0xbcebc8c5	-0.028782258
103	0x3e5c44eb	0.21510665
104	0x3d88db92	0.06682505
105	0xbd5673e7	-0.052356627
106	0x3d44355b	0.047902446
107	0x3e274a27	0.1633688
108	0x3e71f645	0.236291
109	0x3db3de5d	0.08782647
110	0x3c9b0a01	0.018925669
111	0xbca63aee	-0.020291772
112	0xbcae8894	-0.02130536
113	0x3e163041	0.14666845
114	0xbddc0312	-0.10742773
115	0x3cdb44d2	0.026766215
116	0x3c84a29a	0.016190816
117	0x3c318086	0.010833865
118	0x3e1f90b4	0.15582544
119	0x3e1b4a05	0.15164955
120	0x3cac1f9b	0.021011164
121	0xbea7b66f	-0.32756373
122	0xbdfa93c0	-0.12235212
123	0xbdb94a22	-0.09047343
124	0xbe1f0b87	-0.15531741
125	0xbc69c1eb	-0.014267425
126	0x3d200dd7	0.0390757
127	0xbd91b745	-0.07115034
128	0xbbcb5d9f	-0.006206229
129	0xbceafe6e	-0.028685775
130	0xbd5936ef	-0.053030904
131	0xbd942426	-0.07233457
132	0x3da5da2b	0.08098253
133	0x3e3b4b5d	0.18290468
134	0xbdbf603e	-0.093445286
135	0xbdb7cc69	-0.08974535
136	0xbcaaf916	-0.020870727
137	0xbc450196	-0.012024304
138	0xbc989a77	-0.018628342
139	0x3bf5fcc5	0.007506939
140	0xbdf1e57d	-0.118113495
141	0x3bbd6052	0.0057793045
142	0xbdf0d2b4	-0.117589384
143	0x3db84b9b	0.089987956
144	0xbe716559	-0.23573817
145	0x3d9fc3f3	0.07801046
146	0x3dcba23d	0.09943054
147	0xbe572207	-0.21009074
148	0x3df4b097	0.11947744
149	0xbd1490c1	-0.03627086
150	0xbe802d5c	-0.25034606
151	0x3e7d39d2	0.24729088
152	0xbdb2e529	-0.08735115
153	0xbdb8e636	-0.09028284
154	0xbe32e3c7	-0.17469703
155	0xbd96ebb6	-0.07369177
156	0x3d3759c4	0.04476334
157	0xbdc0910c	-0.094026655
158	0xbc175ee1	-0.0092389295
159	0x3de5550e	0.111978635
160	0xbdb3bd79	-0.087763734
161	0x3d9a0c2a	0.07521851
162	0x3d5f3a82	0.054499157
163	0xbdfbedb7	-0.123012
164	0x3cffc650	0.031222492
165	0xbdeece11	-0.11660398
166	0x3e0592cf	0.13044284
167	0x3ceaf517	0.028681321
168	0x3d74eb59	0.059794758
169	0x3e023c7e	0.12718388
170	0xbe0c2810	-0.13687158
171	0xbe845b88	-0.25851083
172	0xbdfc2d72	-0.123133555
173	0x3de00151	0.10937751
174	0xbdcfd87d	-0.10148714
175	0x3cc7ef92	0.024406228
176	0xbdfd9560	-0.12382007
177	0x3dc81acf	0.09770738
178	0xbd5dc1df	-0.054139968
179	0xbc90cf00	-0.01767683
180	0xbd38758e	-0.045033984
181	0x3db9c196	0.09070127
182	0xbcd59074	-0.026069857
183	0x3e0c1e55	0.13683446
184	0x3e7338ed	0.23752184
185	0xbe5f2eb1	-0.21795155
186	0x3e990ed6	0.2989413
187	0x3c60c407	0.013718612
188	0xbc35371d	-0.011060503
189	0xbe660c48	-0.22465622
190	0xbe0f6379	-0.1400279
191	0xbc2963a5	-0.0103386985
192	0xbe615a4b	-0.220071
193	0x3e2fd53e	0.17171189
194	0x3da3526e	0.079747066
195	0x3d332420	0.043735623
196	0x3d4cc4d3	0.049992394
197	0x3dee377f	0.11631679
198	0x3dbd774b	0.09251269
199	0x3e0b9114	0.13629562
200	0x3dfe93b3	0.12430515
201	0x3e12b50d	0.14326878
202	0x3d8cd8e8	0.06877309
203	0x3d31afde	0.04338061
204	0xbd3db3e3	-0.04631413
205	0xbdd354f8	-0.10318941
206	0x3e0edc53	0.13951235
207	0xbe152ec1	-0.14568616
208	0xbd11cdf5	-0.035596807
209	0xbe974220	-0.29542637
210	0x3d99c646	0.07508521
211	0x3c0e47a4	0.008684073
212	0x3dc2e666	0.09516601
213	0x3e1fc11e	0.15601012
214	0xbddaae0f	-0.1067773
215	0x3c83e39a	0.01609974
216	0x3dc8db2d	0.098074295
217	0xbd768113	-0.06018169
218	0xbdfa8106	-0.122316405
219	0xbcbb6ecd	-0.022879982
220	0xbedbc9aa	-0.42927295
221	0xbe128160	-0.14307165
222	0xbd680666	-0.056646727
223	0x3e065633	0.1311882
224	0xbd4c7770	-0.049918592
225	0xbcc48f96	-0.023994248
226	0x3bdc18e5	0.006716835
227	0x3b0cf0e2	0.0021505882
228	0xbc109d6c	-0.008826595
229	0x3e581af0	0.21104026
230	0xbc978e7e	-0.018500563
231	0x3a8597ec	0.0010192371
232	0xbd44d5c2	-0.048055418
233	0xbdc6e855	-0.097122826
234	0x3d5d8a8d	0.05408721
235	0x3dd6a3fc	0.10480496
236	0xbda47042	-0.08029224
237	0x3bc1d195	0.0059148767
238	0xbddc5ad9	-0.10759515
239	0x3d50bcb2	0.050961204
240	0xbdd2e838	-0.102981985
241	0x3c3d2c71	0.01154624
242	0x3e398331	0.18116452
243	0x3e169b11	0.1470759
244	0x3d3ccee9	0.046095762
245	0x3e41e34f	0.18934368
246	0xbe1b0c59	-0.15141429
247	0xbe16146a	-0.14656225
248	0x3dcca48c	0.09992322
249	0x3db2cce4	0.08730486
250	0x3e61f954	0.22067767
251	0x3dd82142	0.105532184
252	0xbd915904	-0.070970565
253	0xbe6274e6	-0.22114906
254	0x3e932e91	0.28746465
255	0x3e044728	0.12917769

fc1.bias f4 [64]
0	0x3dd0cab5	0.10194913
1	0x3df22ad7	0.11824577
2	0xbca6453d	-0.020296687
3	0xbce6d873	-0.028179383
4	0x3e079fcf	0.13244556
5	0xbd3aa3b3	-0.045566272
6	0x3daa6c4a	0.08321436
7	0x3e115f60	0.14196539
8	0x3e13155c	0.14363617
9	0x3d88d2b5	0.06680814
10	0x3dfa9e63	0.12237241
11	0x3e20fb1a	0.15720788
12	0x3dc24de4	0.09487513
13	0x3de8c49b	0.113656245
14	0x3ddb62ba	0.1071219
15	0x3da60f77	0.081084184
16	0x3dbce0f9	0.09222598
17	0x3e408f34	0.18804628
18	0xbcd55fbd	-0.026046628
19	0x3e29154e	0.16512033
20	0x3dfd0dc7	0.123561434
21	0x3d8877f7	0.066635065
22	0x3d9bd09e	0.0760815
23	0x3ddf26d7	0.1089608
24	0xbd8fa5b7	-0.070140295
25	0x3d5b08e4	0.053475276
26	0x3d91896a	0.07106288
27	0xbd5f0829	-0.05445114
28	0xbcf35b52	-0.02970663
29	0x3db4369f	0.08799481
30	0xbd7b2df5	-0.061323125
31	0x3d960c42	0.07326557
32	0x3d30c9b0	0.043161094
33	0x3da0a965	0.078448094
34	0xbd85a9b4	-0.06526509
35	0x3de8824e	0.11352979
36	0x3e2c2833	0.1681221
37	0x3da75359	0.08170194
38	0x3e07bf29	0.13256516
39	0x3df7c289	0.120976515
40	0xbd309cdf	-0.043118354
41	0x3e1ab613	0.15108518
42	0x3d83de6e	0.064389095
43	0x3e1667d8	0.14688051
44	0x3dae414a	0.08508547
45	0x3daf53a8	0.08560878
46	0x3d7cfdf5	0.06176563
47	0x3da54601	0.08069993
48	0x3e3d3327	0.18476544
49	0x3dba97ab	0.091109596
50	0x3de6885d	0.11256478
51	0x3e04374b	0.12911718
52	0x3e36e6ba	0.17861453
53	0x3df61d23	0.12017276
54	0x3cf73f91	0.030181678
55	0x3daee94c	0.085405916
56	0xbd8291f6	-0.06375496
57	0xbc42a806	-0.01188088
58	0x3e0955e4	0.13411671
59	0xbd66ef7f	-0.056380745
60	0x3d94936b	0.0725468
61	0x3d9cec3b	0.07662245
62	0x3da9c7fa	0.082900956
63	0x3e0c65fd	0.1371078

fc2.weight f4 [2, 64]
0	0x3db7e1c6	0.0897861
1	0xbe667e7b	-0.22509186
2	0xbe73eb9e	-0.2382035
3	0xbec1b3ab	-0.37832388
4	0xbe0bb5f8	-0.13643634
5	0xbde9fa65	-0.11424712
6	0x3dccd9fa	0.10002513
7	0xbde9b0da	-0.11410685
8	0xbe277837	-0.16354452
9	0x3db3b4b5	0.087747015
10	0xbe893fa1	-0.26806358
11	0xbdc79298	-0.097447574
12	0x3dc17373	0.09445848
13	0xbe7cebd3	-0.24699335
14	0xbe6741ff	-0.2258377
15	0xbee2af1c	-0.44274223
16	0x3d96c123	0.07361057
17	0xbde6ce03	-0.11269762
18	0xbdbd6d43	-0.09249356
19	0xbdcebc42	-0.10094501
20	0xbe7eeedc	-0.24895805
21	0x3df2a75e	0.11848329
22	0x3d8e9c78	0.06963438
23	0xbed3f91b	-0.4140099
24	0xbd34969d	-0.04408895
25	0x3d9ec5b8	0.077525556
26	0x3da6b3bd	0.08139751
27	0xbdbcdc12	-0.092216626
28	0xbdf66887	-0.12031656
29	0x3d993198	0.074801624
30	0x3e8fc36a	0.28078777
31	0x3d8d570f	0.06901371
32	0x3d919041	0.071075924
33	0x3d8f78b0	0.07005441
34	0xbc753de1	-0.014968366
35	0xbe6684f4	-0.22511655
36	0xbe071c24	-0.13194329
37	0xbe65fe74	-0.22460347
38	0xbe246b02	-0.16056445
39	0xbe41aab2	-0.18912771
40	0x3e78274d	0.24233742
41	0xbe06bb28	-0.13157332
42	0x3ddb4897	0.10707205
43	0xbe06aff8	-0.13153064
44	0x3d95dbb6	0.07317297
45	0xbe3b10ff	-0.18268202
46	0x3df42441	0.119209774
47	0x3d94a793	0.07258525
48	0xbd9f6ee5	-0.07784823
49	0x3da03f44	0.07824567
50	0xbe9e60ac	-0.3093313
51	0xbe524918	-0.20535696
52	0xbe2b68a8	-0.16739142
53	0xbd00af58	-0.03141722
54	0xbe905285	-0.28187957
55	0x3da439d6	0.08018844
56	0x3db54ab0	0.08852136
57	0x3ec49cec	0.38400972
58	0xbe207888	-0.15670979
59	0x3d813967	0.06309777
60	0x3dbce7f0	0.09223926
61	0x3dbf5563	0.09342458
62	0x3d8ccfc9	0.068755694
63	0xbe2cc270	-0.16871047
64	0x3dcdabd0	0.10042536
65	0xbd87b01c	-0.06625387
66	0xbcc218a0	-0.023693383
67	0x3d2434bb	0.04008935
68	0xbe873c4f	-0.264132
69	0x3e2a0e37	0.16606985
70	0x3da3935b	0.0798709
71	0xbde6c0c5	-0.112672366
72	0xbe0cf8bd	-0.13766761
73	0x3dda6440	0.106636524
74	0xbe35c3eb	-0.17750518
75	0xbdc7f030	-0.09762609
76	0x3dc4f659	0.096172996
77	0xbe438314	-0.19092971
78	0xbe1c0492	-0.15236118
79	0xbe72d082	-0.23712352
80	0x3d94fe36	0.072750494
81	0xbe149cfd	-0.14513011
82	0x3e99935d	0.29995242
83	0xbe25b93b	-0.16183941
84	0xbe13d24b	-0.14435689
85	0x3dfe22b7	0.12408965
86	0x3dae1f12	0.0850202
87	0xbe8f4382	-0.27981192
88	0x3df769e4	0.12080744
89	0x3da2a548	0.07941681
90	0x3db0345a	0.08603735
91	0x3e418495	0.18898232
92	0x3e01a1f2	0.12659433
93	0x3d912eb7	0.07088988
94	0x3e4c112c	0.19928426
95	0x3d943d5a	0.072382644
96	0x3dc2023e	0.09473084
97	0x3db3a6b1	0.08772028
98	0xbd8f63da	-0.07001467
99	0xbe892f31	-0.26793817
100	0xbda9cf7c	-0.08291528
101	0xbe47173f	-0.19442461
102	0xbe9a87f0	-0.30181837
103	0xbe90e3b4	-0.28298724
104	0xbd03640c	-0.032077834
105	0xbe090efe	-0.13384625
106	0x3dc9a39b	0.098456584
107	0xbdcdd319	-0.10050029
108	0x3d8b196b	0.067919575
109	0xbe265a42	-0.16245368
110	0x3e25d717	0.16195332
111	0x3e058eb4	0.13042718
112	0xbe27771b	-0.16354029
113	0x3d9be18f	0.07611381
114	0xbe8519b4	-0.25996172
115	0xbe3cbfb6	-0.18432507
116	0xbe172757	-0.147611
117	0xbe92b566	-0.2865402
118	0xbe2dd47a	-0.16975585
119	0x3da7cb27	0.08193045
120	0x3e8b6000	0.2722168
121	0xbdc0d193	-0.09414973
122	0xbe299412	-0.1656039
123	0xbe6792c2	-0.22614577
124	0x3da2df79	0.0795278
125	0x3de29fb6	0.11065619
126	0x3ddcbed3	0.10778584
127	0xbdbd3585	-0.09238724

fc2.bias f4 [2]
0	0xbf22cd2d	-0.63594323
1	0xbf567713	-0.8377544
