assignment-5/models/best_model_8.8.pth (torch, 110548 bytes, 8 tensors)

conv1.weight f4 [4, 4, 8, 8]
0.05148903 0.018107964 -0.016531078 -0.012066841 0.049027503 -0.0023012566 0.03175046 0.009800763
-0.10318166 -0.012063421 0.07016537 0.032907613 0.032240123 -0.022715915 -0.048728805 -0.12030154
-0.035743125 0.105580725 0.10192889 -0.08091959 -0.03554088 0.010246125 0.008421584 -0.040782493
-0.007773971 0.036648348 -0.038732037 0.009453283 -0.0142232245 0.028837526 -0.020684393 0.009263222
0.095463805 -0.037378155 -0.058204524 0.02524096 0.045977365 -0.012510785 -0.04508671 0.052913085
0.029521365 -0.025151856 -0.12068456 0.005338788 0.010407057 -0.05242052 -0.021836147 0.008735682
-0.02401764 0.15486223 0.052174706 0.08250011 0.12366822 0.051943623 0.016699448 0.021035545
-0.07012458 0.022172917 0.1216455 -0.05841197 0.040517677 0.14014123 -0.03820272 0.054901887
-0.056000944 -0.0025869291 0.001272678 -0.012326531 -0.01914319 0.006190811 0.030527474 0.1277024
-0.043066774 0.0019774858 0.014696041 -0.063516505 0.039702 0.015197538 0.09034077 0.032123454
-0.092566386 0.0365561 -0.005910094 -0.004671667 0.04299768 0.12424267 0.041273285 0.019284705
-0.0062871203 0.0364275 -0.10946008 -0.03468237 -0.021458086 -0.038054015 0.07240105 -0.066369034
0.12995629 0.0030144772 -0.002211082 0.01617778 0.010019205 0.041872203 -0.03203835 -0.03334746
0.035809528 -0.057060864 0.06999257 -0.053153854 0.066508725 0.05278127 0.028325262 -0.10268067
0.047453325 -0.16421646 0.12251171 0.036816653 0.10277588 0.01868523 0.08410097 0.0708381
0.037613608 0.13470203 -0.022434404 0.022155497 0.10107255 -0.031010523 -0.018491227 0.0595187
-0.0047761514 0.05331127 -0.009174804 -0.024097892 0.0042618425 0.035092663 0.049184177 0.12215181
0.042974625 -0.18832503 0.069363475 0.04073077 0.066728376 0.080357246 0.024001976 -0.022125665
0.09127507 0.0035272543 -0.102822974 0.0116318455 -0.06594402 -0.030111758 0.121606074 0.10685303
0.036505025 -0.083887525 -0.050063208 0.07297047 -0.076211825 0.039258633 -0.083902925 0.011759067
-0.015584845 -0.096479796 0.042428844 -0.039925557 -0.011452599 -0.022902632 0.06859094 0.048780035
-0.049278498 0.0754095 -0.09684484 -0.00061543164 -0.03578883 0.008428732 -0.080954514 0.102522336
-0.06994036 0.011443607 -0.0024140691 0.022436649 0.12414501 -0.020910311 -0.10570775 -0.03147761
0.011710704 -0.032329846 0.06064466 -0.01694991 0.04917449 0.039752144 0.024363818 0.03649846
0.031936534 -0.035058014 0.055434193 0.09285567 0.049463138 -0.018634608 0.030667445 -0.08973697
-0.026499787 0.14827877 -0.022390917 -0.017813036 0.040516917 0.06044799 -0.016919062 0.013226549
0.118419945 0.16631338 -0.059823573 0.09744276 0.157362 0.070499115 0.1434903 0.107903056
0.102344945 -0.08252264 0.05677238 0.0051526986 0.0830223 0.089919515 0.094241016 -0.09109903
-0.007881006 -0.023243386 -0.091504276 0.06459123 0.053095806 0.08004353 -0.014948452 0.18268254
0.07720937 0.04500749 -0.007232494 -0.05484657 -0.016411217 -0.008154967 0.07668491 0.24319771
0.0977551 0.037746295 -0.012718454 0.01961439 -0.06724276 -0.011675183 -0.038126554 0.025039408
-0.038153294 -0.05716963 -0.03533958 -0.018648757 -0.04940178 0.06216263 -0.047109775 -0.01195036
00000000: 29e6 523d 2757 943c 2f6c 87bc 00b4 45bc
00000010: 10d1 483d aed0 16bb c50c 023d 6193 203c
00000020: e850 d3bd a8a5 45bc ddb2 8f3d 22ca 063d
00000030: 380e 043d ba16 babc db97 47bd a760 f6bd
00000040: 6267 12bd b53a d83d 18c0 d03d 2cb9 a5bd
00000050: 5093 11bd 5ddf 273c affa 093c 8b0b 27bd
00000060: ccbc febb 941c 163d 7ca5 1ebd f1e1 1a3c
00000070: 8708 69bc ad3c ec3c 5172 a9bc c5c4 173c
00000080: 8782 c33d d619 19bd de67 6ebd 21c6 ce3c
00000090: c352 3c3d 09fa 4cbc d8ac 38bd 64bb 583d
000000a0: cad6 f13c 440b cebc 7729 f7bd 00f1 ae3b
000000b0: 5c82 2a3c e6b6 56bd b8e1 b2bc 1b20 0f3c
000000c0: a4c0 c4bc 3494 1e3e 25b5 553d d1f5 a83d
000000d0: c445 fd3d d6c2 543d 48cd 883c bc52 ac3c
000000e0: 7a9d 8fbd faa3 b53c 4721 f93d 6441 6fbd
000000f0: ddf5 253d 2f81 0f3e 757a 1cbd cde0 603d
00000100: 3f61 65bd 7889 29bb fdcf a63a 38f5 49bc
00000110: 2ed2 9cbc 49dc ca3b c114 fa3c 6bc4 023e
00000120: c966 30bd b598 013b aac7 703c f114 82bd
00000130: 909e 223d 18ff 783c 9504 b93d e293 033d
00000140: 7293 bdbd d9bb 153d 76a9 c1bb c814 99bb
00000150: 561e 303d f172 fe3d 2d0e 293d f5fa 9d3c
00000160: 3004 cebb 0135 153d 9b2c e0bd 1a0f 0ebd
00000170: dec8 afbc 87de 1bbd 0047 943d 7dec 87bd
00000180: 4313 053e 898e 453b cde7 10bb 4487 843c
00000190: 9727 243c 3082 2b3d a53a 03bd 5997 08bd
000001a0: 03ad 123d a7b8 69bd 4458 8f3d dbb7 59bd
000001b0: ba35 883d 2c31 583d 610a e83c 3e4a d2bd
000001c0: 6b5e 423d 5c28 28be 6be7 fa3d 0fcd 163d
000001d0: 297c d23d c411 993c 213d ac3d 9113 913d
000001e0: ba10 1a3d 54ef 093e 5bc8 b7bc 727f b53c
000001f0: 20ff ce3d c809 febc ea7a 97bc e1c9 733d
00000200: 4381 9cbb eb5c 5a3d eb51 16bc f168 c5bc
00000210: eda6 8b3b 53bd 0f3d 5975 493d ba2a fa3d
00000220: 2906 303d 47d8 40be 700e 8e3d 4fd5 263d
00000230: e3a8 883d 5792 a43d cb9f c43c e240 b5bc
00000240: 6dee ba3d 8229 673b da94 d2bd 7f93 3e3c
00000250: a90d 87bd efac f6bc 9b0c f93d c3d5 da3d
00000260: 4b86 153d 39cd abbd 140f 4dbd 8b71 953d
00000270: f214 9cbd a9cd 203d 4cd5 abbd 1aa9 403c
00000280: 9457 7fbc 3397 c5bd dec9 2d3d fb88 23bd
00000290: afa3 3bbc 4d9e bbbc 6879 8c3d 93cd 473d
000002a0: 40d8 49bd 4c70 9a3d 9656 c6bd eb54 21ba
000002b0: 4f97 12bd aa18 0a3c 7bcb a5bd 3bf7 d13d
000002c0: e43c 8fbd f77d 3b3c 5c35 1ebb 10cd b73c
000002d0: bd3f fe3d 1a4c abbc 4e7d d8bd abee 00bd
000002e0: 41de 3f3c 4d6c 04bd 8966 783d 8ada 8abc
000002f0: 316b 493d 25d3 223d a196 c73c 697f 153d
00000300: e2cf 023d fe98 0fbd f70e 633d 1d2b be3d
00000310: dc99 4a3d 9ba7 98bc 4b3a fb3c 04c8 b7bd
00000320: 1516 d9bc 64d6 173e 286d b7bc a5ec 91bc
00000330: 11f5 253d 5098 773d d899 8abc 2bb4 583c
00000340: 2886 f23d 0e4e 2a3e 9009 75bd 1290 c73d
00000350: 8123 213e d761 903d 1fef 123e 47fc dc3d
00000360: 3a9a d13d a101 a9bd 288a 683d f8d7 a83b
00000370: 9807 aa3d b927 b83d 6f01 c13d 2192 babd
00000380: 561f 01bc ea68 bebc 9866 bbbd 6848 843d
00000390: fd7a 593d dded a33d 5aea 74bc 2211 3b3e
000003a0: f21f 9e3d c659 383d 8ffe ecbb cca6 60bd
000003b0: d170 86bc 699c 05bc fa0c 9d3d d208 793e
000003c0: d333 c83d dc9b 1a3d 1061 50bc 5bae a03c
000003d0: 92b6 89bd 4449 3fbc 972a 1cbd 721f cd3c
000003e0: a146 1cbd b42a 6abd 3cc0 10bd 47c5 98bc
000003f0: 8559 4abd 3e9e 7e3d 2ef6 40bd 71cb 43bc

conv1.bias f4 [4]
-0.008717058 -0.0037233902 -0.00093275437 0.05978732
00000000: fed1 0ebc 1f04 74bb 1684 74ba 8de3 743d

conv2.weight f4 [8, 4, 4, 4]
-0.1420719 0.22624126 -0.17190301 -0.17797235 0.014348181 0.042378835 0.06980302 0.07049795
-0.1471009 0.14284371 -0.11967172 -0.12132553 -0.24798667 -0.14900462 -0.08318397 -0.16304241
-0.08929423 0.12427454 0.09683215 0.17484967 0.06849748 0.12224704 -0.045058846 0.2618915
0.25250754 -0.15234658 -0.045897193 0.032045294 -0.060996775 -0.1481925 0.11433717 -0.11065848
-0.11047713 0.11038224 0.19307429 -0.24599841 0.08528144 0.058668904 0.038778666 0.03337998
-0.06617405 0.20987895 0.069318876 -0.026855337 -0.05431659 -0.19324823 0.010715196 0.13871947
0.046273444 -0.16734014 -0.17989299 -0.027972853 -0.026580596 0.1724091 0.21567534 -0.28954056
0.013829273 0.28963104 0.1306376 -0.34805065 0.061031148 0.250356 -0.014087602 -0.27600655
-0.11809107 0.12162308 0.09482517 0.07967838 0.07321972 -0.13222955 -0.02711653 0.032421503
-0.104532234 0.009528053 -0.07320534 0.024840405 -0.043008935 0.0008413099 -0.061047923 0.018073397
0.008478548 -0.0047233435 0.04876234 0.09482843 -0.16592799 0.12441922 0.048939053 -0.15854435
-0.0024037631 0.15998317 0.007121214 -0.046342302 0.0308859 0.35001734 0.05870299 0.0038704954
0.014252985 0.12255153 -0.008783574 0.0982941 0.0028293475 0.075548805 -0.09539411 0.02532755
-0.18892513 0.056127198 -0.06207814 -0.22265546 0.021740802 0.11604595 0.18688792 -0.10571269
-0.14587155 0.15318322 -0.15720679 -0.17934461 0.13859911 0.039939124 -0.06079914 -0.2614093
0.22704509 0.10743888 -0.1448329 -0.25270495 0.053575102 0.15248723 0.05336821 -0.07635729
-0.032861784 -0.022530034 -0.1493303 -0.08840339 -0.074578516 0.059264865 0.110080905 0.016764374
-0.004664705 0.048971508 0.0776462 -0.015836794 -0.099843666 0.05448409 -0.1635113 -0.16078347
0.0024792869 0.18763761 0.038130693 -0.10189548 0.011857009 0.049445435 0.20094745 -0.25018317
-0.102635674 0.16941296 0.10501944 0.09075225 0.21240747 0.313305 -0.16156694 0.048147216
0.10461774 -0.33823574 0.32628602 -0.00070624414 0.2160522 0.07054332 0.26115716 -0.3375539
-0.012668797 0.15843761 0.1991296 0.06325287 -0.09468771 0.3985027 0.28713253 -0.11171976
0.16273262 0.04049009 0.21678866 -0.11250482 -0.07262666 -0.30700603 -0.05199443 -0.103597194
-0.15298261 -0.2770354 -0.23225173 -0.2400846 -0.018974353 -0.11384572 0.04942643 -0.09995824
-0.02859285 -0.25167295 0.056873992 -0.008475256 -0.03410721 0.03985146 -0.007348795 0.090708524
0.13285658 -0.010890442 -0.18103702 -0.2621913 -0.12833615 0.021066293 -0.0423358 -0.1785808
-0.031248106 0.024759376 0.13792652 0.1354817 0.20323753 -0.023512596 -0.0818694 -0.07011109
0.008603856 -0.11183695 0.048052043 0.06836348 -0.05880071 -0.0066759917 -0.004560174 -0.036825985
0.046534188 0.039614055 0.120333865 0.10378127 0.15910007 -0.09500488 0.101323254 0.1932372
0.123648226 0.042572413 -0.024432575 -0.051025122 -0.20111151 -0.09247325 -0.019780189 -0.16358556
0.108722515 0.36522952 -0.16113782 -0.1857104 -0.062410038 -0.044440113 0.12891254 -0.3086853
-0.055377867 0.24316287 -0.005172552 -0.09910976 -0.09436448 -0.0625928 -0.06574464 0.20551887
00000000: 4c7b 11be caab 673e 5807 30be 623e 36be
00000010: a214 6b3c 6e95 2d3d e3f4 8e3d 3b61 903d
00000020: 9ea1 16be 9f45 123e 7216 f5bd 8579 f8bd
00000030: 38f0 7dbe ab94 18be 5b5c aabd 97f4 26be
00000040: e5df b6bd a683 fe3d ef4f c63d cb0b 333e
00000050: 6848 8c3d a85c fa3d a08f 38bd a516 863e
00000060: ab48 813e be00 1cbe b2fe 3bbd ed41 033d
00000070: c1d7 79bd c6bf 17be 9b29 ea3d eaa0 e2bd
00000080: d541 e2bd 1510 e23d 44b5 453e 02e7 7bbe
00000090: 09a8 ae3d ce4e 703d 61d6 1e3d 72b9 083d
000000a0: 4386 87bd 82ea 563e 0ef7 8d3d b9ff dbbc
000000b0: 137b 5ebd dde2 45be ca8e 2f3c 7a0c 0e3e
000000c0: 3989 3d3d 375b 2bbe de35 38be 5327 e5bc
000000d0: 8dbf d9bc 038c 303e ffd9 5c3e a93e 94be
000000e0: 2d94 623c 854a 943e ddc5 053e b233 b2be
000000f0: ccfb 793d a92e 803e afcf 66bc bb50 8dbe
00000100: bbd9 f1bd 8515 f93d b333 c23d 6b2e a33d
00000110: 38f4 953d 2f67 07be 7c23 debc 69cc 043d
00000120: ff14 d6bd 8d1b 1c3c aeec 95bd 1b7e cb3c
00000130: 232a 30bd 5a8b 5c3a 630d 7abd a90e 943c
00000140: 9ce9 0a3c 47c6 9abb 05bb 473d 6835 c23d
00000150: 07e9 29be 81cf fe3d 5174 483d 7359 22be
00000160: 7488 1dbb a1d2 233e 1359 e93b 6dd1 3dbd
00000170: 6d04 fd3c 7935 b33e 8c72 703d 23a8 7d3b
00000180: 5a85 693c 4cfc fa3d fbe8 0fbc 6b4e c93d
00000190: 936c 393b 55b9 9a3d fd5d c3bd b97b cf3c
000001a0: 9775 41be a2e5 653d a645 7ebd cbff 63be
000001b0: c419 b23c 80a9 ed3d 8c5f 3f3e e57f d8bd
000001c0: 5a5f 15be 10dc 1c3e d1fa 20be 1da6 37be
000001d0: edec 0d3e 3597 233d 8508 79bd 71d7 85be
000001e0: 827e 683e ea08 dc3d 134f 14be 8b62 81be
000001f0: 9171 5b3d 9d25 1c3e a098 5a3d 3661 9cbd
00000200: 149a 06bd e890 b8bc 0bea 18be d60c b5bd
00000210: 9fbc 98bd b7bf 723d 1972 e13d 7155 893c
00000220: 62da 98bb 5996 483d f904 9f3d 2abc 81bc
00000230: d67a ccbd b62a 5f3d 826f 27be 6ca4 24be
00000240: 887b 223b 1324 403e ee2e 1c3d 94ae d0bd
00000250: e643 423c 4c87 4a3d 2bc5 4d3e 0218 80be
00000260: a732 d2bd 977a 2d3e 6f14 d73d 51dc b93d
00000270: 5881 593e 8369 a03e ce71 25be 0436 453d
00000280: d341 d63d 3c2d adbe f60e a73e 3e23 39ba
00000290: ca3c 5d3e 0479 903d 64b6 853e ddd3 acbe
000002a0: c990 4fbc 783d 223e a1e8 4b3e b98a 813d
000002b0: a1eb c1bd 8c08 cc3e 0903 933e 54cd e4bd
000002c0: 61a3 263e f0d8 253d d9fd 5d3e ed68 e6bd
000002d0: 49bd 94bd e52f 9dbe 1df8 54bd c42a d4bd
000002e0: 79a7 1cbe 95d7 8dbe 66d3 6dbe bdd8 75be
000002f0: 1a70 9bbc f227 e9bd 5e73 4a3d e8b6 ccbd
00000300: 8d3b eabc 47db 80be b4f4 683d cddb 0abc
00000310: 00b4 0bbd 493b 233d 29ce f0bb 64c5 b93d
00000320: 8e0b 083e d36d 32bc c561 39be f03d 86be
00000330: 8d6a 03be 3893 ac3c 4e68 2dbd e3dd 36be
00000340: 07fc ffbc 2dd4 ca3c 9c3c 0d3e b7bb 0a3e
00000350: 801d 503e 7d9d c0bc 25ab a7bd 6796 8fbd
00000360: 30f7 0c3c c50a e5bd 38d2 443d 2702 8c3d
00000370: 03d9 70bd 47c2 dabb 836d 95bb d8d6 16bd
00000380: a29a 3e3d 5942 223d 9a71 f63d 468b d43d
00000390: 21eb 223e eb91 c2bd 9182 cf3d f9df 453e
000003a0: 483b fd3d 6960 2e3d d326 c8bc b8ff 50bd
000003b0: 2df0 4dbe 9e62 bdbd 100a a2bc f982 27be
000003c0: e9a9 de3d 5dff ba3e 5001 25be de2a 3ebe
000003d0: aba1 7fbd d606 36bd a601 043e 000c 9ebe
000003e0: e7d3 62bd b0ff 783e 837e a9bb 0ffa cabd
000003f0: 2a42 c1bd a730 80bd 20a5 86bd 8a73 523e

conv2.bias f4 [8]
-0.031380534 0.012421694 0.07148106 0.00020491253 0.031445716 0.14964765 -0.016364118 0.02425099
00000000: e088 00bd 5c84 4b3c a964 923d cadd 5639
00000010: 39cd 003d 3c3d 193e 0b0e 86bc 03aa c63c

fc1.weight f4 [64, 392]
-0.32653594 0.09774242 -0.18677817 0.035960343 0.058226317 -0.047127545 -0.078244016 -0.026085993
0.10061619 -0.024562994 0.113843605 0.04590887 0.0004108571 -0.029666336 -0.022698231 -0.20397507
0.1956642 -0.0042635608 0.06093895 0.030751372 0.05582206 0.077211075 -0.28011703 0.11185359
0.08808103 0.03980897 0.07641023 -0.03197706 0.05038218 0.015010068 -0.048458714 0.05698709
0.020670446 -0.1342829 -0.1824946 0.092262305 -0.1481421 0.08889435 0.007403305 0.11607953
-0.020040374 0.24553415 0.11154137 -0.12408418 -0.04793737 0.06944558 0.07055952 0.075248666
0.0772193 -0.41176587 0.015968073 -0.020727625 -0.025157152 0.07455113 0.0086214235 0.006561178
-0.30495557 -0.20542374 0.011913826 0.043396976 -0.02896387 0.06291126 0.04676849 0.17676339
-0.22214818 -0.022449521 -0.08951934 -0.0030448027 0.08715474 -0.041847255 0.048394583 -0.3021717
-0.06397506 0.08231589 0.091621004 -0.08035047 -0.027494026 0.078439325 -0.24772072 -0.07539995
-0.035842557 0.087255195 -0.006824679 -0.092393905 0.09842964 -0.30469853 -0.07839283 0.05297596
-0.026774827 0.11364167 0.020201314 0.31866813 -0.37544525 0.07376711 0.028465921 0.053480703
-0.09467164 -0.063715145 0.017458797 -0.31574905 -0.0062366636 0.05270208 0.046615243 -0.04809761
0.004903548 -0.02631239 -0.21275412 0.0131675815 -0.123540275 0.06943554 0.09779918 -0.021782683
0.10260376 -0.074342676 -0.1867831 0.036185447 0.054824233 -0.13343364 0.019718627 -0.06915877
-0.19668762 -0.013947237 -0.0031467027 0.034406133 0.1197568 -0.012113801 -0.05436071 -0.12390565
-0.07239342 0.016537318 0.08319475 0.07774734 -0.14946716 0.12018636 -0.29832172 -0.06831803
-0.0031186664 -0.02965436 0.056721717 0.14289191 -0.0007996498 -0.048233766 -0.005115605 -0.101116456
0.026332857 -0.030027306 0.06813817 -0.25140026 -0.060512774 -0.09146891 -0.049160164 -0.04488924
0.096638136 0.01903222 -0.53511226 0.11807841 -0.014028007 0.1324808 -0.06668364 0.10615699
-0.043499105 -0.010187207 -0.032237407 0.016954105 0.00080656033 0.24126478 0.09732077 -0.07166838
0.013603635 0.06480469 -0.103890285 0.034250684 -0.15531646 -0.052695464 0.09823608 0.14459918
0.011618762 -0.112324506 0.13036832 0.07126676 -0.073010504 0.087614715 0.13452639 -0.16922078
-0.016269697 0.085656874 -0.028815161 -0.05147495 0.10887847 -0.060848616 -0.09476711 -0.008185152
0.14637361 -0.014542018 0.017781328 0.020237977 -0.023449037 -0.3455861 0.04782105 0.023056481
0.017874282 0.08133305 -0.20271185 0.04412613 -0.42902002 0.04674534 0.027480785 0.09299639
0.0540321 0.011969116 0.08564931 -0.36255842 0.07188379 -0.030921383 0.09277077 0.092078425
-0.00080953375 0.027378533 -0.2326659 0.031622898 0.0056015467 0.05404219 0.051272802 -0.19000877
0.0126552945 -0.14686286 0.060108617 0.021349825 0.001308468 0.050290007 -0.038990315 0.044911873
-0.28782436 -0.053947486 0.12210387 -0.10272583 0.08539294 -0.024210807 0.21566413 -0.20024814
-0.08772833 -0.11722105 0.14319846 -0.12014129 -0.18741164 0.28942588 0.22604959 0.11194902
0.045137085 -0.29317525 -0.04515143 0.02043033 0.18793087 0.066125974 0.120310515 -0.005913512
00000000: b82f a7be 2e2d c83d c742 3fbe 274b 133d
00000010: b87e 6e3d d008 41bd 663e a0bd 4bb2 d5bc
00000020: dc0f ce3d 5538 c9bc d626 e93d f00a 3c3d
00000030: 4e68 d739 d106 f3bc a4f1 b9bc d7de 50be
00000040: 325c 483e 57b5 8bbb 1f9b 793d 4dea fb3c
00000050: aca5 643d d720 9e3d 806b 8fbe 7f13 e53d
00000060: d463 b43d bb0e 233d f77c 9c3d 61fa 02bd
00000070: 8b5d 4e3d caec 753c a57c 46bd 4b6b 693d
00000080: 1155 a93c 7581 09be dddf 3abe 05f4 bc3d
00000090: 90b2 17be 3e0e b63d 6c97 f23b 1bbb ed3d
000000a0: b62b a4bc 4e6d 7b3e cd6f e43d d91f febd
000000b0: fa59 44bd 7c39 8e3d 8281 903d f91b 9a3d
000000c0: 2725 9e3d fad2 d2be 7acf 823c fbcc a9bc
000000d0: 5f16 cebc 43ae 983d df40 0d3c 26ff d63b
000000e0: 2323 9cbe 9a5a 52be 3532 433c 07c1 313d
000000f0: a345 edbc 9ed7 803d 5190 3f3d 7601 353e
00000100: d07a 63be 0fe8 b7bc ea55 b7bd 508b 47bb
00000110: 2f7e b23d 0768 2bbd 6639 463d 40b6 9abe
00000120: 5b05 83bd 3c95 a83d cba3 bb3d ca8e a4bd
00000130: 273b e1bc cca4 a03d 80aa 7dbe 4a6b 9abd
00000140: a5cf 12bd dab2 b23d 8fa1 dfbb 0439 bdbd
00000150: 7b95 c93d 7201 9cbe 6c8c a0bd 52fd 583d
00000160: e256 dbbc f7bc e83d 3a7d a53c 7828 a33e
00000170: 5c3a c0be 3613 973d 5d31 e93c 950e 5b3d
00000180: 34e3 c1bd 167d 82bd c005 8f3c dca9 a1be
00000190: ed5c ccbb 23de 573d a0ef 3e3d 0002 45bd
000001a0: f1ad a03b 158d d7bc 37dc 59be d7bc 573c
000001b0: af02 fdbd 3834 8e3d f04a c83d 9971 b2bc
000001c0: ec21 d23d f940 98bd 1244 3fbe 3137 143d
000001d0: 608f 603d d4a2 08be f588 a13c 1da3 8dbd
000001e0: 7b68 49be f482 64bc e938 4ebb 72ed 0c3d
000001f0: 0e43 f53d f778 46bc 56a9 5ebd 3fc2 fdbd
00000200: 0043 94bd 4579 873c 0262 aa3d ff39 9f3d
00000210: eb0d 19be 4424 f63d a0bd 98be 53ea 8bbd
00000220: 8a62 4cbb b3ed f2bc 0855 683d 4252 123e
00000230: 979f 51ba c590 45bd cea0 a7bb 2516 cfbd
00000240: 01b8 d73c d3fb f5bc 068c 8b3d 89b7 80be
00000250: 3edc 77bd 0d54 bbbd 2b5c 49bd c8dd 37bd
00000260: 37ea c53d 75e9 9b3c 1efd 08bf 18d3 f13d
00000270: bad5 65bc 0ca9 073e 6f91 88bd d668 d93d
00000280: 1e2c 32bd 3ee8 26bc 5f0b 04bd 56e3 8a3c
00000290: 596f 533a 1d0e 773e 1d50 c73d dfc6 92bd
000002a0: c8e1 5e3c 52b8 843d 6ec4 d4bd 724a 0c3d
000002b0: 470b 1fbe 33d7 57bd ff2f c93d cf11 143e
000002c0: 9f5c 3e3c 640a e6bd 467f 053e 4ff4 913d
000002d0: 8886 95bd 586f b33d 49c1 093e 3648 2dbe
000002e0: 0748 85bc df6c af3d c60d ecbc 66d7 52bd
000002f0: adfb de3d 663c 79bd 4215 c2bd 041b 06bc
00000300: f7e2 153e a541 6ebc 26aa 913c 1dca a53c
00000310: 3218 c0bc a9f0 b0be 01e0 433d f2e0 bc3c
00000320: 166d 923c f191 a63d b293 4fbe 9abd 343d
00000330: 83a8 dbbe 0b78 3f3d 621f e13c e474 be3d
00000340: c350 5d3d 1c1a 443c e868 af3d 42a1 b9be
00000350: cf37 933d d74e fdbc 9afe bd3d 9d93 bc3d
00000360: e436 54ba f248 e03c f83f 6ebe 0387 013d
00000370: 2e8d b73b 585b 5d3d 6e03 523d a991 42be
00000380: 2758 4f3c 3863 16be 7434 763d d4e5 ae3c
00000390: e780 ab3a e5fc 4d3d 4fb4 1fbd 83f5 373d
000003a0: b75d 93be 0af8 5cbd 9811 fa3d ec61 d2bd
000003b0: 7ee2 ae3d be55 c6bc 0fd7 5c3e d90d 4dbe
000003c0: e9aa b3bd 9711 f0bd 9ea2 123e a30c f6bd
000003d0: d6e8 3fbe a12f 943e 8b79 673e 8745 e53d
000003e0: aae1 383d 111b 96be b5f0 38bd 825d a73c
000003f0: f370 403e 0e6d 873d 5c65 f63d 22c6 c1bb

fc1.bias f4 [64]
0.14100952 0.15738595 0.14963323 0.07647067 0.028797328 -0.06063447 0.11455312 0.063554704
0.044913966 0.13384327 0.15956403 0.11358083 0.038430694 0.06352687 0.040066987 -0.008449704
0.08834474 0.06631396 -0.03750329 0.059013695 0.054401893 0.16537777 0.14674838 0.17029598
0.07270446 0.060169384 0.08152384 0.06456989 0.14884871 0.07667993 0.10496708 0.052904606
-0.028968528 0.15257244 0.06878858 0.075001545 0.13494715 0.15807456 0.17119576 0.046148915
0.11725949 -0.019175055 0.018965045 0.119668275 -0.012293845 0.06463811 0.13488397 0.1359484
0.011754476 0.07019803 0.09376995 -0.025373023 0.109258235 0.05954141 -0.046849914 0.14726867
0.026021391 -0.050499752 0.12471083 0.077242196 -0.038541485 0.13382274 0.038641546 0.12712683
00000000: cd64 103e c829 213e 7439 193e a89c 9c3d
00000010: 60e8 eb3c da5b 78bd d49a ea3d f828 823d
00000020: b5f7 373d 360e 093e c164 233e 119d e83d
00000030: 8169 1d3d 601a 823d 481d 243d a170 0abc
00000040: 16ee b43d 9dcf 873d 0d9d 19bd 58b8 713d
00000050: 85d4 5e3d ca58 293e 3545 163e 1262 2e3e
00000060: 13e6 943d 2c74 763d f9f5 a63d 383d 843d
00000070: cc6b 183e 5e0a 9d3d fbf8 d63d 80b2 583d
00000080: 684f edbc f33b 1c3e 07e1 8c3d 699a 993d
00000090: 962f 0a3e 4cde 213e f14d 2f3e a506 3d3d
000000a0: be25 f03d 0115 9dbc 955c 9b3c a414 f53d
000000b0: 206c 49bc fc60 843d 061f 0a3e 0f36 0b3e
000000c0: d995 403c fcc3 8f3d 760a c03d 16db cfbc
000000d0: c8c2 df3d b2e1 733d b2e5 3fbd 99cd 163e
000000e0: d02a d53c d4d8 4ebd 6468 ff3d 2831 9e3d
000000f0: addd 1dbd d408 093e 9946 1e3d 892d 023e

fc2.weight f4 [2, 64]
-0.17796373 -0.13580894 -0.22077294 0.15096118 0.058456853 -0.06137146 -0.19702582 0.0478049
0.10008048 -0.1728151 -0.097740926 -0.22905599 0.15889879 0.055564668 0.0885176 0.15801582
-0.27659276 -0.25111073 -0.22267322 0.07045764 0.085383214 -0.076520525 -0.16750546 -0.1431616
0.07400046 0.0800815 0.11869497 0.08680208 -0.123558864 0.083076924 -0.24565482 0.114739046
-0.055680946 -0.17162906 0.06664701 0.087454535 -0.16130288 -0.08682366 -0.10746308 0.08018308
-0.23631851 -0.07430578 0.09829429 -0.24528022 -0.021238025 0.122780025 -0.18090442 -0.12234411
-0.23500293 0.10435092 0.076689966 0.052022383 -0.16284707 0.057830792 -0.17326425 -0.1954364
0.17330956 -0.33140078 -0.17260394 0.06689758 -0.23583673 -0.20444328 0.116219506 -0.14061624
-0.18647623 -0.13141923 -0.17704672 0.17391479 0.07536381 0.0033440008 -0.16049035 0.063224204
0.09497063 -0.1708083 -0.12588605 -0.2276076 0.18296365 0.0613337 0.099959314 -0.1952992
-0.25106624 -0.17986022 0.28811845 0.07616782 0.09942064 -0.18159232 -0.16782169 -0.14831743
0.089626394 0.07960711 0.0941154 0.10954642 -0.12209252 0.08959657 -0.18000014 0.13781999
-0.11709602 -0.17484999 0.074983664 0.10310175 -0.1862471 -0.1800254 -0.11908952 0.14635704
-0.19920212 -0.07128541 0.091451995 -0.21461391 -0.28403056 0.12546512 -0.13957906 -0.16607207
0.09577479 0.12731047 0.092614144 -0.21019158 -0.17522714 0.08880706 0.1394184 -0.16786946
0.068641394 0.29143324 -0.1524105 0.059893426 -0.215959 -0.19523923 0.035707 -0.12181526
00000000: 203c 36be 8011 0bbe 4d12 62be 9195 1a3e
00000010: 7470 6f3d a460 7bbd 23c1 49be 12cf 433d
00000020: fff6 cc3d 71f6 30be 652c c8bd a78d 6abe
00000030: 5db6 223e c797 633d b748 b53d e6ce 213e
00000040: 919d 8dbe 9691 80be 7304 64be 184c 903d
00000050: 65dd ae3d cbb6 9cbd 8d86 2bbe f498 12be
00000060: 8e8d 973d c501 a43d 5916 f33d 4ac5 b13d
00000070: 6e0c fdbd 3c24 aa3d f08c 7bbe 4efc ea3d
00000080: b411 64bd 87bf 2fbe 3a7e 883d 5d1b b33d
00000090: 952c 25be 9ad0 b1bd 9a15 dcbd 0737 a43d
000000a0: 7bfd 71be a12d 98bd 844e c93d bd2a 7bbe
000000b0: 5efb adbc 1874 fb3d 023f 39be 8c8f fabd
000000c0: 9ca4 70be efb5 d53d a10f 9d3d 6c15 553d
000000d0: 62c1 26be fbdf 6c3d 2f6c 31be 7b20 48be
000000e0: 1078 313e 5dad a9be 16bf 30be 9901 893d
000000f0: 2f7f 71be 9459 51be 7e04 ee3d b4fd 0fbe
00000100: a0f3 3ebe c392 06be bc4b 35be b816 323e
00000110: 5758 9a3d 0627 5b3b 9557 24be b17b 813d
00000120: f67f c23d 5fe8 2ebe 46e8 00be f711 69be
00000130: d35a 3b3e 0c39 7b3d 78b7 cc3d 83fc 47be
00000140: c18b 80be 472d 38be 4384 933e e0fd 9b3d
00000150: 0c9d cb3d 56f3 39be 73d9 2bbe 86e0 17be
00000160: 0b8e b73d 0d09 a33d 93bf c03d e059 e03d
00000170: a50b fabd 687e b73d f551 38be af20 0d3e
00000180: 0ad0 efbd e00b 33be 0991 993d 0327 d33d
00000190: 8fb7 3ebe 9458 38be 35e5 f3bd 9fde 153e
000001a0: a4fb 4bbe 16fe 91bd 2f4b bb3d c0c3 5bbe
000001b0: 746c 91be ee79 003e d0ed 0ebe cc0e 2abe
000001c0: 9325 c43d ad5d 023e 7cac bd3d 763c 57be
000001d0: be6e 33be 7ae0 b53d b2c3 0e3e f9e5 2bbe
000001e0: dc93 8c3d bd36 953e 8011 1cbe cf52 753d
000001f0: 5b24 5dbe cbec 47be 8141 123d 477a f9bd

fc2.bias f4 [2]
-0.4084807 -0.5334125
00000000: 6224 d1be b98d 08bf
