assignment-5/models/best_model_5.1.pth (torch, 110548 bytes, 8 tensors)

conv1.weight f4 [4, 4, 8, 8]
-0.07215147 -0.16487892 -0.10595557 -0.09812705 -0.08639788 0.018407375 -0.042770457 0.049078193
-0.09358355 -0.08732094 -0.09747743 0.06490781 0.08731112 0.040538464 -0.014965907 0.00962648
-0.1295137 0.050487228 -0.055767104 0.030431759 -0.014420408 -0.048568074 -0.013418834 -0.017794868
-0.045077372 0.10546923 -0.008821114 0.042876113 0.0012086643 0.08232121 0.059006196 0.05576994
0.07506155 0.08607182 0.07327968 0.043529797 0.084584795 0.07381767 -0.047635395 -0.07509476
0.0636461 0.10714422 0.09375088 -0.07739406 0.037712727 -0.0328656 0.028731946 -0.044360083
0.09638837 0.022985617 0.026963577 0.10494114 -0.0055722753 -0.001104592 -0.015415171 -0.036696658
-0.0023421156 0.14101398 0.06032719 -0.026956938 0.027872456 0.034287024 0.10721533 0.11747979
0.020240244 -0.09783394 0.0038382837 -0.012271474 -0.058950104 -0.14033571 -0.05727521 -0.098131776
0.02803442 0.057066247 -0.064387776 0.020295255 -0.057550255 -0.00023492184 -0.05401901 0.076340616
0.030469142 0.020987948 0.1109997 -0.0563563 0.061826024 -0.026528105 0.012048349 -0.01506789
-0.011764358 0.104292236 0.04063369 0.05154495 -0.08888428 -0.09994239 0.015788224 0.021498986
0.040209323 0.04592691 0.032475438 0.10526943 -0.042760078 -0.02894841 0.0055150795 -0.04473195
0.08081115 0.009873117 -0.14107633 0.047294203 -0.03229595 -0.013994583 0.11729919 0.019046558
0.07132431 -0.04527072 -0.037924126 -0.06840355 -0.00075139484 -0.0627753 -0.055949837 -0.0026416215
-0.08781334 -0.0023873386 -0.053376473 -0.09258091 -0.040976048 0.08799148 0.051567942 0.03422478
-0.0626617 -0.121030174 0.020453883 -0.018575627 -0.11482835 -0.023195319 0.104317375 -0.064917475
-0.039407626 -0.08051891 0.0039383876 0.14110549 -0.05802512 -0.026110409 0.1573582 -0.036700666
0.15960053 0.062550195 -0.12461884 -0.038915586 -0.021431103 0.08710215 0.12664321 0.012372219
-0.018195601 0.08397914 0.037322108 -0.044941716 0.052429084 -0.0010301304 -0.043847494 0.16899626
0.036718052 -0.059455134 0.033890307 0.17667413 -0.03793647 0.037004877 0.03069076 0.011874398
0.035492107 -0.076630786 -0.101644166 -0.0044328338 -0.08296396 -0.043996852 0.035364028 0.14144506
0.08135651 0.10229769 0.06959868 0.027477732 -0.10277539 -0.03161891 0.12599449 0.058067687
-0.0043886816 0.08448304 -0.06700328 -0.015752975 0.15392278 0.1001328 0.019015156 0.08289491
-0.10615977 -0.17994152 -0.22478586 -0.10620482 -0.12818822 -0.12757035 0.059932604 0.15312771
-0.12196737 -0.07637971 -0.19609162 -0.038005933 -0.010526015 0.0507009 0.065775394 0.15010455
-0.12533417 -0.016524771 -0.1774939 -0.07469365 0.09949216 0.110253446 0.026109926 0.23773625
0.06262114 0.13991305 -0.08965994 0.13910483 0.061913285 0.0065221484 -0.005743084 0.26554358
0.10236148 0.103810884 -0.055375244 0.006016581 0.13893862 0.18604793 0.08143895 0.13907494
0.0139299 0.06472873 -0.046076115 0.04478088 0.12118975 0.09277408 0.016593019 0.07028048
0.032140348 0.022445945 -0.078888096 0.08166528 0.14321563 0.105712846 0.03367362 0.22241904
-0.03886599 -0.008095395 -0.09709237 -0.112258494 0.14843138 0.13772026 0.11791483 0.16698463
00000000: 26c4 93bd 05d6 28be 3cff d8bd d6f6 c8bd
00000010: 5ff1 b0bd 10cb 963c 1330 2fbd 3706 493d
00000020: bba8 bfbd 52d5 b2bd 3fa2 c7bd 63ee 843d
00000030: 2cd0 b23d a90b 263d 9033 75bc 62b8 1d3c
00000040: 3d9f 04be b2cb 4e3d 0c6c 64bd 064c f93c
00000050: 9343 6cbc 51ef 46bd abda 5bbc 8bc6 91bc
00000060: 0da3 38bd 4000 d83d 6f86 10bc dd9e 2f3d
00000070: 0b6c 9e3a 0698 a83d 7bb0 713d 056f 643d
00000080: dfb9 993d 6c46 b03d a813 963d 4d4c 323d
00000090: cb3a ad3d b82d 973d 551d 43bd 48cb 99bd
000000a0: e358 823d 6e6e db3d 7600 c03d c780 9ebd
000000b0: a978 1a3d 149e 06bd 425f eb3c ebb2 35bd
000000c0: 4467 c53d 554c bc3c b8e2 dc3c 61eb d63d
000000d0: a297 b6bb f5c7 90ba ea8f 7cbc 3c4f 16bd
000000e0: 2e7e 19bb f865 103e a519 773d ccd4 dcbc
000000f0: c754 e43c 8d70 0c3d b693 db3d 3e99 f03d
00000100: dece a53c 295d c8bd b78b 7b3b 4b0e 49bc
00000110: aa75 71bd 2ab4 0fbe 6999 6abd 50f9 c8bd
00000120: 71a8 e53c 4cbe 693d bddd 83bd 3c42 a63c
00000130: d1b9 6bbd 5a55 76b9 0a43 5dbd 7858 9c3d
00000140: 6c9a f93c ebee ab3c d053 e33d ddd5 66bd
00000150: 493d 7d3d 7851 d9bc 7066 453c 50df 76bc
00000160: 4bbf 40bc 2b97 d53d 836f 263d cc20 533d
00000170: f608 b6bd 99ae ccbd 4e56 813c a41e b03c
00000180: 88b2 243d db1d 3c3d f704 053d 8097 d73d
00000190: 3125 2fbd 3725 edbc d7b7 b43b d938 37bd
000001a0: 5180 a53d dbc2 213c 5076 10be 91b7 413d
000001b0: c248 04bd 8949 65bc 8f3a f03d 8707 9c3c
000001c0: 7b12 923d ca6d 39bd 5456 1bbd 2917 8cbd
000001d0: 41f9 44ba 5690 80bd a82b 65bd 0e1f 2dbb
000001e0: 7bd7 b3bd e574 1cbb 4aa1 5abd 0f9b bdbd
000001f0: 80d6 27bd e134 b43d e838 533d 482f 0c3d
00000200: c754 80bd abde f7bd e78e a73c ea2b 98bc
00000210: 202b ebbd 1c04 bebc 59a4 d53d 74f3 84bd
00000220: e469 21bd 19e7 a4bd 970d 813b f57d 103e
00000230: c0ab 6dbd 7fe5 d5bc 8222 213e 7053 16bd
00000240: 526e 233e 511a 803d 2a38 ffbd f365 1fbd
00000250: 4890 afbc 9d62 b23d c2ae 013e d9b4 4a3c
00000260: f10e 95bc 41fd ab3d 11df 183d ce14 38bd
00000270: e1bf 563d 7105 87ba 6e99 33bd 5b0d 2d3e
00000280: ab65 163d 3a87 73bd 90d0 0a3d 10ea 343e
00000290: 4663 1bbd 6d92 173d 306b fb3c d68c 423c
000002a0: 2c60 113d 9af0 9cbd d12a d0bd 4e41 91bb
000002b0: 02e9 a9bd 0b36 34bd dfd9 103d f9d6 103e
000002c0: 3e9e a63d 7481 d13d c189 8e3d fb18 e13c
000002d0: e77b d2bd d582 01bd b304 013e 62d8 6d3d
000002e0: eece 8fbb 7205 ad3d 0439 89bd 620c 81bc
000002f0: ef9d 1d3e 6d12 cd3d acc5 9b3c cec4 a93d
00000300: 4b6a d9bd 9742 38be 442e 66be ea81 d9bd
00000310: c643 03be cda1 02be e47b 753d 83cd 1c3e
00000320: 07ca f9bd f76c 9cbd 3ecc 48be 1cac 1bbd
00000330: 4f75 2cbc bfab 4f3d 40b5 863d 02b5 193e
00000340: 9a57 00be f55e 87bc f6c0 35be fcf8 98bd
00000350: 8cc2 cb3d 8fcc e13d 7ce4 d53c 2271 733e
00000360: 833f 803d 5e45 0f3e a19f b7bd 7f71 0e3e
00000370: c998 7d3d bfb7 d53b 7b30 bcbb 54f5 873e
00000380: e5a2 d13d cd9a d43d 27d1 62bd bd26 c53b
00000390: ed45 0e3e 5983 3e3e 77c9 a63d a969 0e3e
000003a0: 3c3a 643c 7f90 843d 4fba 3cbd 286c 373d
000003b0: 5532 f83d 5600 be3d 15ee 873c 36ef 8f3d
000003c0: 99a5 033d 8fe0 b73c 1590 a1bd 2040 a73d
000003d0: 1ea7 123e fa7f d83d 5aed 093d d1c1 633e
000003e0: f231 1fbd 8ca2 04bc 5dd8 c6bd c8e7 e5bd
000003f0: 65fe 173e 8a06 0d3e 557d f13d 05fe 2a3e

conv1.bias f4 [4]
-0.008445118 -0.0009767273 0.025003072 -0.0065931627
00000000: 645d 0abc 8805 80ba 3ed3 cc3c 750b d8bb

conv2.weight f4 [8, 4, 4, 4]
0.1351539 0.0682783 -0.263186 -0.16399571 0.16516753 0.06804146 -0.20406778 -0.26537928
-0.18813974 -0.04639183 -0.46273667 -0.06996485 -0.07780546 -0.07937145 -0.3775255 -0.035964977
0.12821276 0.16818525 -0.55665046 0.052335043 -0.10391677 0.122020185 -0.51309776 0.01068169
0.011092555 0.08809448 -0.20363368 0.14358515 0.27012768 0.1225399 -0.13758735 0.09879564
0.053424586 -0.2633498 0.21415573 0.15877761 0.1139412 0.06500919 0.2977423 0.023912415
0.25922042 -0.08648332 -0.118646316 0.10573798 0.34385073 -0.057097577 0.060628273 -0.21678211
0.34262726 0.17247127 -0.122572586 0.008427022 0.44523415 0.08253186 -0.011155882 -0.20191483
0.028708732 0.14461486 -0.24985334 -0.06633316 -0.022568123 0.113163784 -0.20619246 -0.33299595
-0.001974955 -0.031431288 -0.10303586 -0.40166312 0.17485887 -0.012111422 -0.15417337 -0.14167905
-0.1320438 0.03594376 0.071089365 -0.19328134 -0.07936958 -0.11716636 -0.44461915 -0.15760393
-0.2648271 0.131381 5.7877114e-06 0.027945783 0.0068993834 0.008586129 0.22228459 -0.10354331
0.04213272 -0.14025807 0.106772326 -0.101092406 -0.18395038 -0.29583308 -0.080315396 -0.26647297
-0.11276626 -0.12474215 -0.16758452 -0.052094195 -0.09182172 -0.06390944 0.022910228 0.09186341
0.08175619 -0.08840491 0.107217304 -0.10359239 0.11617005 -0.013206521 -0.024417495 0.044793352
0.12869658 0.045331925 -0.102949046 -0.30225822 -0.051412288 -0.011904505 -0.08314018 -0.11237217
0.05006684 -0.17203532 -0.009012478 -0.109833576 -0.13793883 0.27625665 -0.07838802 -0.16292132
-0.23725604 -0.109873936 0.03305854 -0.111913644 -0.3418733 -0.10604406 -0.12940426 -0.021770317
-0.1688449 -0.020449314 -0.10798562 0.053956207 -0.02594029 -0.0124848895 -0.18539217 0.033317424
-0.099237084 0.08233403 -0.07200185 0.034492623 -0.07855551 0.23724559 0.11702922 0.009170417
0.1197823 0.11633574 0.01745403 0.18969542 0.4096873 -0.12293732 0.09462507 0.2636758
-0.06594661 -0.01837726 0.06361194 0.29242185 -0.17973374 0.14842807 0.14920989 -0.07623142
0.11234057 -0.058100753 0.104537055 -0.48973313 0.10051413 0.007041275 -0.086909756 -0.4941181
-0.34786737 -0.3855955 0.21727194 -0.14018391 -0.3242279 0.089941144 0.057282608 0.01780681
-0.059057258 -0.4347037 0.09153726 0.048191465 -0.22753873 -0.30252182 0.02294325 0.110888116
-0.12255265 -0.024834745 -0.033920024 0.0827496 -0.1322416 -0.19207886 -0.0915452 0.15117097
0.16578472 0.016881641 -0.24845493 -0.20267548 0.08827474 0.0017750694 0.051547024 -0.096487
-0.25946417 0.059441783 0.28089744 0.12600097 -0.029503966 -0.007285327 -0.2206319 0.08815325
-0.21722025 0.14374669 -0.0734317 0.16346632 0.26709506 0.04271408 -0.20002654 -0.07433604
-0.09808171 0.015967298 -0.124434486 -0.19269006 0.009326075 0.13270059 -0.14224644 -0.094172195
-0.05931039 0.25374976 0.03125024 -0.1512249 -0.26253936 -0.0038628997 -0.13462296 0.017876377
-0.08208648 -0.33244345 0.07858304 -0.19046316 0.15602617 -0.2631997 0.19366731 0.018981056
-0.00012554404 -0.1937759 0.008923478 -0.09731848 0.06664304 -0.029390052 0.11979086 0.19904748
00000000: c965 0a3e 7ed5 8b3d 51c0 86be 7eee 27be
00000010: ad21 293e 5259 8b3d 25f7 50be cbdf 87be
00000020: b4a7 40be 5c05 3ebd d2eb ecbe bb49 8fbd
00000030: 7858 9fbd 808d a2bd 064b c1be 0350 13bd
00000040: 354a 033e c138 2c3e a580 0ebf 455d 563d
00000050: 51d2 d4bd b8e5 f93d 605a 03bf 4102 2f3c
00000060: 8cbd 353c e16a b43d 5985 50be fc07 133e
00000070: 2d4e 8a3e 33f6 fa3d b3e3 0cbe 5e55 ca3d
00000080: bdd3 5a3d c9d5 86be a44b 5b3e 9996 223e
00000090: 015a e93d 8a23 853d ae71 983e f8e3 c33c
000000a0: 8ab8 843e 2b1e b1bd d7fc f2bd 278d d83d
000000b0: 340d b03e 26df 69bd 5a55 783d 21fc 5dbe
000000c0: d76c af3e 4f9c 303e 5607 fbbd 7e11 0a3c
000000d0: bbf5 e33e 7706 a93d 29c7 36bc c3c2 4ebe
000000e0: 932e eb3c eb15 143e 8ed9 7fbe aed9 87bd
000000f0: c9e0 b8bc 6ac2 e73d 1e24 53be 727e aabe
00000100: 3f6e 01bb 18be 00bd 7704 d3bd caa6 cdbe
00000110: 340e 333e fc6e 46bc a0df 1dbe 5014 11be
00000120: 7d36 07be c439 133d 4d97 913d 8beb 45be
00000130: 858c a2bd ebf4 efbd 1fa5 e3be ed62 21be
00000140: 6b97 87be be88 063e 1034 c236 8eee e43c
00000150: 3914 e23b d6ac 0c3c 929e 633e 840e d4bd
00000160: 5c93 2c3d d09f 0fbe 73ab da3d 8909 cfbd
00000170: 7d5d 3cbe 6f77 97be 667c a4bd 256f 88be
00000180: fff1 e6bd d078 ffbd 479b 2bbe b960 55bd
00000190: 070d bcbd f4e2 82bd 3bae bb3c e222 bc3d
000001a0: ca6f a73d a20d b5bd bf94 db3d 3f28 d4bd
000001b0: 90ea ed3d 2a60 58bc 3307 c8bc 3c79 373d
000001c0: 09c9 033e f8ad 393d f3d6 d2bd 97c1 9abe
000001d0: b195 52bd 1d0b 43bc 6645 aabd 6123 e6bd
000001e0: e312 4d3d 072a 30be 13a9 13bc 6df0 e0bd
000001f0: d63f 0dbe 8371 8d3e e689 a0bd d9d4 26be
00000200: 3ff3 72be 9605 e1bd 6468 073d fb32 e5bd
00000210: 040a afbe a12d d9bd 8d82 04be aa57 b2bc
00000220: ade5 2cbe 5285 a7bc 9127 ddbd 2f01 5d3d
00000230: bb80 d4bc 6c8d 4cbc 72d7 3dbe da77 083d
00000240: d03c cbbd be9e a83d b575 93bd 2348 0d3d
00000250: b6e1 a0bd 82f0 723e 04ad ef3d 843f 163c
00000260: 6c50 f53d 6f41 ee3d c1fb 8e3c 843f 423e
00000270: 89c2 d13e 90c6 fbbd caca c13d 8400 873e
00000280: 040f 87bd e88b 96bc fa46 823d 51b8 953e
00000290: 1f0c 38be 87fd 173e 7aca 183e 381f 9cbd
000002a0: d012 e63d 0efb 6dbd 8617 d63d 4dbe fabe
000002b0: 5ada cd3d 7fba e63b befd b1bd 0cfd fcbe
000002c0: ac1b b2be c66c c5be 897c 5e3e 5f8c 0fbe
000002d0: 3301 a6be 1033 b83d 2ba1 6a3d 96df 913c
000002e0: 06e6 71bd 7c91 debe e377 bb3d 6a64 453d
000002f0: eaff 68be 24e4 9abe 7cf3 bb3c 4f19 e33d
00000300: e2fc fabd 3c72 cbbc b9ef 0abd 9f78 a93d
00000310: 586a 07be 52b0 44be 0d7c bbbd 90cc 1a3e
00000320: 78c3 293e 5e4b 8a3c f86a 7ebe 298a 4fbe
00000330: 63c9 b43d 72a9 e83a f922 533d fa9a c5bd
00000340: 7dd8 84be 3a79 733d cad1 8f3e 6606 013e
00000350: 4db2 f1bc c1b9 eebb 54ed 61be b189 b43d
00000360: fc6e 5ebe 5532 133e 5c63 96bd b763 273e
00000370: afc0 883e f6f4 2e3d c2d3 4cbe 7e3d 98bd
00000380: 10df c8bd dacd 823c 82d7 febd 8b50 45be
00000390: 65cc 183c aae2 073e 0da9 11be 5add c0bd
000003a0: 74ef 72bd 7deb 813e 4000 003d b3da 1abe
000003b0: 8f6b 86be b428 7dbb 9ada 09be 7b71 923c
000003c0: f51c a8bd 0736 aabe 25f0 a03d c608 43be
000003d0: 53c5 1f3e 1cc2 86be b950 463e 297e 9b3c
000003e0: 79a4 03b9 316d 46be c833 123c e94e c7bd
000003f0: 257c 883d 68c3 f0bc e954 f53d 1ad3 4b3e

conv2.bias f4 [8]
-0.023711763 0.13315068 0.010521332 0.009960864 0.01756526 0.025042795 -0.012369372 0.13693215
00000000: 2c3f c2bc a758 083e aa61 2c3c e432 233c
00000010: 05e5 8f3c 8c26 cd3c e8a8 4abc f137 0c3e

fc1.weight f4 [64, 392]
-0.076629594 -0.00043815223 0.0022274891 0.10582874 0.0327558 0.037501365 -0.103570215 0.002171569
0.1850623 -0.12586446 0.12581116 -0.078055196 -0.14812404 -0.22062664 -0.06107834 -0.015266871
0.087603256 -0.014819205 -0.09092281 -0.06260058 -0.07492136 0.009726776 -0.016939692 0.046283923
0.048409946 -0.10737404 0.0017255726 -0.119568996 0.008754962 -0.018932205 0.045515597 0.056015562
-0.014261959 0.09916926 -0.030527841 0.08822632 0.031966332 0.020643374 0.16624552 0.064659394
-0.015488015 -0.07772742 0.08786377 -0.017047074 0.19051354 0.0904656 0.1391983 -0.05979147
-0.05710542 0.0668471 0.13460402 0.13159984 -0.0746691 -0.011611276 0.08390558 0.073880464
0.010543032 0.049311623 0.018757338 -0.02825995 0.08652482 0.08693201 0.01195732 3.4011744e-05
-0.008623561 0.0054136184 0.01050166 0.025041299 -0.15683074 0.055439644 -0.09503999 -0.11101527
0.08488946 0.058431815 0.0069610095 -0.063430905 -0.032374963 0.07614761 -0.08687909 0.04434909
0.24375916 0.104591064 0.02689719 0.016033163 0.058743976 -0.06495379 0.03301915 0.021938821
0.050770395 0.06520014 0.0013505333 -0.028467242 0.124731086 0.11481106 0.15919332 0.14003602
0.16747402 0.02506008 0.07593057 -0.1838331 0.11723798 -0.06274768 -0.012092928 0.15805726
0.048522864 -0.108995534 0.011487632 -0.11904955 0.10434218 -0.016411604 0.06375797 -0.038099043
-0.0019256395 0.07887054 -0.19373353 0.04566681 -0.080916174 0.08264889 0.14457668 0.12453109
-0.0005098817 -0.20339939 -0.08305762 -0.052579932 -0.09103094 0.09066342 0.06402788 -0.073542915
-0.027891621 -0.03531792 -0.10164731 0.019994235 0.10634561 0.162647 -0.055642836 -0.046628922
-0.1073395 0.08672009 0.023718119 -0.016366022 -0.06576379 -0.008987644 -0.043889977 -0.037735034
-0.16965428 0.06689322 0.11030016 -0.10683064 0.0010500636 0.037976313 -0.286447 0.18513322
-0.065113634 0.012825465 -0.15163618 0.09352292 0.07203048 -0.09750438 0.0011910337 0.16897798
-0.058775313 0.08014468 -0.0054196394 -0.07510912 0.03271247 -0.11741627 0.17633517 0.05309766
0.03521076 0.108819254 0.029113557 -0.19069484 -0.06855793 0.14434569 -0.113815464 -0.004199023
-0.08170629 0.10425911 -0.14033054 -0.09297617 -0.09968928 0.04484015 -0.01933316 0.07928776
0.026033057 -0.21609774 0.07459712 0.03848551 0.031777516 -0.22473563 -0.054685224 -0.03532243
-0.09953153 0.01436421 0.1196125 -0.013567392 -0.04446404 -0.006581561 0.023187507 0.06224015
0.10978725 0.12450083 0.059713915 -0.06163424 -0.07235937 -0.1890697 0.15070254 -0.07332945
-0.020443864 -0.18919705 0.06509751 0.011578577 0.16959049 0.110972956 -0.100100376 0.051993392
-0.023707516 -0.065694086 -0.09336003 -0.049479146 -0.2888058 -0.13138227 -0.089851744 0.14013484
-0.008467697 -0.007549998 0.012909461 -0.0037979172 -0.0442163 0.22503813 0.03145297 -0.048885062
-0.09478295 -0.0631369 -0.046458952 0.103090264 0.00036589534 0.041289475 -0.07248797 0.10773526
-0.17140712 0.043432318 0.13191652 0.14203303 0.05329009 0.11836786 0.03410944 -0.18994202
0.027664155 -0.10384657 0.19787142 0.09161815 -0.12952122 0.005723239 0.13272221 -0.025640879
00000000: faef 9cbd ccb7 e5b9 11fb 113b bdbc d83d
00000010: f22a 063d 089b 193d 9f1c d4bd e250 0e3b
00000020: f980 3d3e 9de2 00be a4d4 003e 67db 9fbd
00000030: d4ad 17be f3eb 61be 482d 7abd e621 7abc
00000040: 5669 b33d 40cc 72bc bd35 babd bc34 80bd
00000050: 5f70 99bd 0e5d 1f3c 1cc5 8abc 3694 3d3d
00000060: 8249 463d ece6 dbbd 9c2c e23a 97e0 f4bd
00000070: f970 0f3c b617 9bbc 906e 3a3d 9370 653d
00000080: feaa 69bc 4119 cb3d 8615 fabc 00b0 b43d
00000090: 21ef 023d 4b1c a93c 443c 2a3e 256c 843d
000000a0: 71c1 7dbc 8e2f 9fbd ecf1 b33d 4ea6 8bbc
000000b0: fb15 433e 0746 b93d 008a 0e3e e7e7 74bd
000000c0: 5fe7 69bd 22e7 883d a3d5 093e 1cc2 063e
000000d0: 1dec 98bd 393d 3ebc b0d6 ab3d a44e 973d
000000e0: aebc 2c3c fcfa 493d fda8 993c 6981 e7bc
000000f0: ed33 b13d 6909 b23d a3e8 433c d5a7 0e38
00000100: d649 0dbc b964 b13b 280f 2c3c 6923 cd3c
00000110: 3d98 20be ae14 633d 54a4 c2bd f95b e3bd
00000120: 86da ad3d 3356 6f3d 2e19 e43b 10e8 81bd
00000130: 9c9b 04bd 47f3 9b3d aaed b1bd 64a7 353d
00000140: 009c 793e d733 d63d 7f57 dc3c fb57 833c
00000150: 869d 703d 7e06 85bd 173f 073d 0bb9 b33c
00000160: 9ef4 4f3d a787 853d 6104 b13a 2234 e9bc
00000170: 0373 ff3d 1022 eb3d 9303 233e 9a65 0f3e
00000180: 4f7e 2b3e cc4a cd3c 7d81 9b3d bf3e 3cbe
00000190: 771a f03d db81 80bd 6b21 46bc c3d9 213e
000001a0: e9bf 463d 0d39 dfbd 9f36 3c3c 40d0 f3bd
000001b0: 5ab1 d53d a171 86bc 8a93 823d be0d 1cbd
000001c0: bd65 fcba e186 a13d 1562 46be 1f0d 3b3d
000001d0: 61b7 a5bd d243 a93d e90b 143e 280a ff3d
000001e0: 95a9 05ba ee47 50be 1d1a aabd 0e5e 57bd
000001f0: 6e6e babd bead b93d 0d21 833d ab9d 96bd
00000200: f87c e4bc 86a9 10bd 772c d0bd f3ca a33c
00000210: bacb d93d ef8c 263e bee9 63bd f8fd 3ebd
00000220: d0d4 dbbd 4d9a b13d 804c c23c 0912 86bc
00000230: 2aaf 86bd e940 13bc fac5 33bd 0d90 1abd
00000240: dab9 2dbe 50ff 883d 0de5 e13d 06ca dabd
00000250: 4aa2 893a 0d8d 1b3d 2ea9 92be 9093 3d3e
00000260: 4c5a 85bd e621 523c 8446 1bbe f288 bf3d
00000270: b784 933d 60b0 c7bd 761c 9c3a 9008 2d3e
00000280: 62be 70bd e522 a43d 3b97 b1bb cfd2 99bd
00000290: 83fd 053d f177 f0bd 3591 343e ef7c 593d
000002a0: 2839 103d a1dc de3d 8e7f ee3c 8245 43be
000002b0: 1a68 8cbd 5bcf 133e 1518 e9bd f597 89bb
000002c0: a155 a7bd cd85 d53d cfb2 0fbe 4a6a bebd
000002d0: e529 ccbd 4eaa 373d 9360 9ebc 9f61 a23d
000002e0: 4743 d53c ba48 5dbe 60c6 983d fba2 1d3d
000002f0: 2429 023d 1921 66be 9dfd 5fbd 41ae 10bd
00000300: 30d7 cbbd dd57 6b3c 66f7 f43d c449 5ebc
00000310: ed1f 36bd 23aa d7bb baf3 bd3c 87ef 7e3d
00000320: 23d8 e03d 4bfa fe3d 9496 743d 2f74 7cbd
00000330: 2631 94bd 7d9b 41be c451 1a3e c02d 96bd
00000340: e479 a7bc dfbc 41be d851 853d 12b4 3d3c
00000350: 21a9 2d3e ca45 e33d 6d01 cdbd 06f7 543d
00000360: 4436 c2bc 9f8a 86bd 8b33 bfbd a5aa 4abd
00000370: 5bde 93be 1389 06be 3104 b8bd 827f 0f3e
00000380: 18bc 0abc f965 f7bb 3482 533c 7ae6 78bb
00000390: 271c 35bd 6570 663e d4d4 003d b43b 48bd
000003a0: 901d c2bd eb4d 81bd be4b 3ebd fd20 d33d
000003b0: a4d5 bf39 271f 293d 9374 94bd 4ea4 dc3d
000003c0: 5985 2fbe 16e6 313d 2015 073e 1b71 113e
000003d0: b646 5a3d d96a f23d 57b6 0b3d 2980 42be
000003e0: f09f e23c 83ad d4bd ce9e 4a3e 4ca2 bb3d
000003f0: 36a1 04be 028a bb3b 55e8 073e d20c d2bc

fc1.bias f4 [64]
0.08240109 0.10915528 -0.020296687 -0.029394202 0.1139541 -0.045566272 0.07101874 0.12924477
0.11991416 0.06255175 0.108993106 0.1404016 0.068764724 0.10735994 0.118436314 0.09273158
0.06444076 0.17570078 -0.026046628 0.13685508 0.116930366 0.07134096 0.06685016 0.10806701
-0.070140295 0.05184564 0.05797189 -0.05445114 -0.02970663 0.07641455 -0.06518116 0.062222637
0.03587833 0.0932098 -0.03376818 0.114301346 0.1520478 0.08078034 0.12926216 0.106246725
-0.043118354 0.12079601 0.058947105 0.14762102 0.07026604 0.064794645 0.053428594 0.08139633
0.14998876 0.09640083 0.10756033 0.12270086 0.15980764 0.10421776 0.00444186 0.079289496
-0.057123605 -0.006394325 0.12615727 -0.056380745 0.0756179 0.067372836 0.08954867 0.13011162
00000000: e7c1 a83d ce8c df3d 3d45 a6bc 1ccc f0bc
00000010: c460 e93d b3a3 3abd 4672 913d be58 043e
00000020: 8e95 f53d 221b 803d c737 df3d 70c5 0f3e
00000030: 85d4 8c3d 87df db3d bd8e f23d 0eea bd3d
00000040: 84f9 833d e8ea 333e bd5f d5bc bd23 0c3e
00000050: 3079 ef3d 361b 923d bde8 883d 3d52 dd3d
00000060: b7a5 8fbd 185c 543d ef73 6d3d 2908 5fbd
00000070: 525b f3bc 3b7f 9c3d b37d 85bd 2add 7e3d
00000080: 28f5 123d c8e4 be3d 8150 0abd d316 ea3d
00000090: 6bb2 1b3e 2a70 a53d 4d5d 043e e297 d93d
000000a0: df9c 30bd e663 f73d 8572 713d f729 173e
000000b0: a4e7 8f3d 0eb3 843d f1d7 5a3d 1eb3 a63d
000000c0: a796 193e cc6d c53d 9748 dc3d 974a fb3d
000000d0: 9da4 233e 1f70 d53d 068d 913b 8862 a23d
000000e0: 71fa 69bd 7c87 d1bb 5f2f 013e 7fef 66bd
000000f0: 8fdd 9a3d c5fa 893d 4b65 b73d fb3b 053e

fc2.weight f4 [2, 64]
0.095764264 -0.19877376 -0.2382035 -0.28070733 -0.15530764 -0.11424712 0.11306627 -0.11745009
-0.14597732 0.095396444 -0.23283383 -0.092190064 0.09799605 -0.22733721 -0.22291203 -0.42143312
0.08040811 -0.11985154 -0.09249356 -0.11281899 -0.1947681 0.1038883 0.050586823 -0.37096503
-0.04408895 0.08284517 0.08108245 -0.092216626 -0.12031656 0.070230655 0.24900877 0.08310764
0.061129626 0.066049434 -0.014968366 -0.21124645 -0.13754363 -0.23267141 -0.17137302 -0.20198946
0.24233742 -0.12892419 0.11213736 -0.1450658 0.08509145 -0.1946587 0.1310785 0.074544296
-0.06927091 0.07108049 -0.2926919 -0.17276342 -0.16665787 -0.028804984 -0.23922916 0.10026289
0.07052927 0.20401669 -0.13430208 0.06309777 0.096148506 0.08236203 0.07985903 -0.16047814
0.101384 -0.08319115 -0.023693383 0.16923727 -0.2733212 0.16606985 0.097107805 -0.09646716
-0.1023771 0.10634074 -0.16985728 -0.09464101 0.09990615 -0.16928506 -0.16001946 -0.27402267
0.07964079 -0.13994554 0.29995242 -0.1634539 -0.14725584 0.1315577 0.10424475 -0.29330647
0.12080744 0.07081729 0.089187354 0.18898232 0.12659433 0.067654155 0.10421898 0.097139195
0.08597455 0.079928294 -0.09987558 -0.24695815 -0.08191315 -0.21701251 -0.28648892 -0.26407298
-0.032077834 -0.11742573 0.13184781 -0.11424253 0.064385675 -0.15866572 0.13121484 0.10247913
-0.15339097 0.06708452 -0.2578499 -0.16129988 -0.12905894 -0.23784773 -0.19401395 0.09585289
0.14929825 -0.09303143 -0.17840476 -0.22614577 0.08662114 0.086395204 0.08258732 -0.10120786
00000000: 0e20 c43d 598b 4bbe 9eeb 73be dfb8 8fbe
00000010: f708 1fbe 65fa e9bd 4a8f e73d ac89 f0bd
00000020: 147b 15be 365f c33d fe6b 6ebe 25ce bcbd
00000030: 27b2 c83d 16cb 68be 0d43 64be 15c6 d7be
00000040: 02ad a43d b974 f5bd 436d bdbd a50d e7bd
00000050: 4a71 47be 64c3 d43d 2134 4f3d 21ef bdbe
00000060: 9d96 34bd baaa a93d 8e0e a63d 12dc bcbd
00000070: 8768 f6bd 17d5 8f3d 28fc 7e3e 5734 aa3d
00000080: 0f63 7a3d ed44 873d e13d 75bc fd50 58be
00000090: 3dd8 0cbe 6a41 6ebe 697c 2fbe 53d6 4ebe
000000a0: 4d27 783e b404 04be 46a8 e53d 218c 14be
000000b0: 6d44 ae3d 9c54 47be 7139 063e aeaa 983d
000000c0: e8dd 8dbd a692 913d b6db 95be e5e8 30be
000000d0: 5ca8 2abe 6ef8 ebbc 7df8 74be a156 cd3d
000000e0: a671 903d c0e9 503e 7c86 09be 6739 813d
000000f0: 82e9 c43d 6dad a83d 228d a33d 6254 24be
00000100: 6aa2 cf3d 1f60 aabd a018 c2bc 894c 2d3e
00000110: c2f0 8bbe 370e 2a3e 75e0 c63d 9390 c5bd
00000120: 16ab d1bd 2dc9 d93d 11ef 2dbe 25d3 c1bd
00000130: 989b cc3d 1059 2dbe 24dc 23be b34c 8cbe
00000140: b61a a33d e24d 0fbe 5d93 993e 7660 27be
00000150: 3cca 16be 10b7 063e 467e d53d 442c 96be
00000160: e469 f73d a808 913d dca7 b63d 9584 413e
00000170: f2a1 013e 438e 8a3d c370 d53d eaf0 c63d
00000180: 6d13 b03d 72b1 a33d 918b ccbd 99e2 7cbe
00000190: 15c2 a7bd 8738 5ebe adae 92be 9334 87be
000001a0: 0c64 03bd e77c f0bd 1d03 073e fdf7 e9bd
000001b0: a3dc 833d 4479 22be 2f5d 063e 94e0 d13d
000001c0: 8612 1dbe 9c63 893d e704 84be cc2b 25be
000001d0: 0728 04be 5b8e 73be 98ab 46be 854e c43d
000001e0: a4e1 183e 4387 bebd bdaf 36be c292 67be
000001f0: 6d66 b13d f8ef b03d 8a23 a93d 1146 cfbd

fc2.bias f4 [2]
-0.652834 -0.8238936
00000000: 2120 27bf b1ea 52bf
