assignment-5/models/best_model_8.5.pth (torch, 110548 bytes, 8 tensors)

conv1.weight f4 [4, 4, 8, 8]
0	0x3d1859e5	0.037195105
1	0x3d27ac90	0.040936053
2	0xbdddcf3c	-0.108305424
3	0xbd26eec4	-0.04075505
4	0xbc5f2382	-0.013619306
5	0xbaac5475	-0.0013147729
6	0x3dd641a4	0.10461739
7	0xbda23037	-0.079193525
8	0xbd0d3c3d	-0.034481276
9	0x3d109230	0.035295665
10	0x3d6cda24	0.057825223
11	0xbd477793	-0.04869802
12	0xbe38c955	-0.18045552
13	0x3dede095	0.11615101
14	0x3c325f1a	0.010886932
15	0x3d13d7d6	0.03609451
16	0xbd72ce0b	-0.05927853
17	0x3d033c86	0.03204014
18	0xbde4c193	-0.11169734
19	0xbe239268	-0.15973818
20	0x3ba054df	0.00489293
21	0x3ddfa2d7	0.10919731
22	0x3de0fc04	0.10985568
23	0xbd20cb0b	-0.039256137
24	0xbd1096d9	-0.03530011
25	0xbe5166b0	-0.20449328
26	0xbe54a14b	-0.20764653
27	0x3c6fc41e	0.01463416
28	0x3e26f34b	0.16303746
29	0x3e030f63	0.12798838
30	0x3cfe1903	0.031017786
31	0xbc82d37f	-0.01596999
32	0xbda93c10	-0.08263409
33	0xbd86b7f4	-0.06578055
34	0xbe46a0d1	-0.19397284
35	0x3d8a9be3	0.06768014
36	0x3dca451a	0.09876461
37	0x3d936e73	0.07198801
38	0x3dd9267d	0.10603044
39	0x3d631bec	0.05544655
40	0xbd8a221f	-0.06744789
41	0xbdb7a691	-0.08967317
42	0xbe04facf	-0.12986301
43	0xbd99e24c	-0.07513866
44	0x3d80e29f	0.062932245
45	0xbb92205e	-0.004459425
46	0xbb1ceb5b	-0.0023943994
47	0xbda114bc	-0.07865283
48	0x3cf4463c	0.029818647
49	0x3d8d2b0f	0.068929784
50	0xbd6b65ca	-0.05747012
51	0xbcdb6aa8	-0.026784256
52	0x3d6b5c5f	0.05746114
53	0x3e58da2e	0.21176979
54	0x3e2c191f	0.16806458
55	0x3e372099	0.17883529
56	0x3d9b50d9	0.0758378
57	0x3e188e52	0.14898041
58	0x3dffa4d5	0.12482611
59	0x3da868c7	0.0822311
60	0x3eacf604	0.33781445
61	0x3e776913	0.24161176
62	0x3e91cac2	0.28475004
63	0x3e6b63a4	0.22987229
64	0xbc3c856c	-0.01150642
65	0x3c8a6b37	0.016896827
66	0xbd654fa5	-0.055984158
67	0xbe15585d	-0.14584489
68	0xbdf877f3	-0.121322535
69	0xbd0fc395	-0.03509863
70	0xbd94483f	-0.07240342
71	0xbdd9c111	-0.106325276
72	0x3cc1f0dd	0.023674423
73	0xbd3511bd	-0.04420637
74	0xbe78f41c	-0.2431187
75	0xbd9fd6e2	-0.078046575
76	0xbd63848f	-0.05554634
77	0x3bf2e7f7	0.0074129063
78	0xbdfd28d6	-0.123613045
79	0xbd2a023e	-0.041506045
80	0xbc0bf57a	-0.008542413
81	0xbde22e92	-0.11044039
82	0xbe206d99	-0.15666808
83	0x3d720094	0.059082583
84	0x3bb7117d	0.0055868016
85	0x3d2ba4e6	0.041905306
86	0x3d29dda0	0.041471124
87	0xbbbe1634	-0.0058009867
88	0xbdbbbfe3	-0.09167459
89	0xbdd2f368	-0.10300332
90	0xbdea193d	-0.11430595
91	0x3c42f8f3	0.011900174
92	0x3d07443e	0.033024065
93	0x3d1aa283	0.03775264
94	0x3d55daa8	0.05221048
95	0xbd6102b6	-0.054934226
96	0x3cdeb7d4	0.027187265
97	0xbdd31b30	-0.1030792
98	0xbd206631	-0.039159957
99	0xbe13fc1d	-0.14451642
100	0x3e1c9e76	0.15294823
101	0x3db189b8	0.08668846
102	0xbd8f1072	-0.069855586
103	0x3cb388ad	0.021915758
104	0x3dcdb41b	0.10044118
105	0x3e223fb0	0.15844607
106	0x3d01a3a0	0.031650186
107	0xbd2f5f3b	-0.04281543
108	0x3d815a70	0.06316078
109	0xbca3d192	-0.019997392
110	0x3dc20e11	0.09475339
111	0x3d4100d6	0.047119938
112	0x3cbf479d	0.023349578
113	0x3dc628e4	0.09675768
114	0x3dc5f389	0.09665591
115	0xbdb4c04c	-0.0882574
116	0xbd514796	-0.05109366
117	0x3e00e3ac	0.1258685
118	0x3dda1154	0.10647836
119	0xbd3192e0	-0.04335296
120	0xbd06cd86	-0.032910846
121	0x3d0bcb84	0.034129634
122	0x3cfc0990	0.030766279
123	0xbddd8ec6	-0.108182475
124	0x3e33589a	0.17514268
125	0x3da2e97d	0.079546906
126	0xbdcf7011	-0.10128797
127	0xbda145ec	-0.07874665
128	0x3d37c7a3	0.044868123
129	0x3d6833f4	0.05669017
130	0xbe2c6625	-0.1683584
131	0xbd6f9c74	-0.058498815
132	0x3e15759c	0.14595646
133	0x3dda5106	0.10659985
134	0x3ddf4c58	0.10903233
135	0xbcaba924	-0.020954676
136	0xbe059e48	-0.13048661
137	0xbe137c8e	-0.14402983
138	0xbdfdc21a	-0.123905376
139	0xbde86372	-0.11347093
140	0xbdb444ef	-0.088022105
141	0xbd9d9e50	-0.07696211
142	0xbdbcbf98	-0.09216231
143	0xbd5f03eb	-0.054447096
144	0xbd215672	-0.03938908
145	0xbda08307	-0.078374915
146	0xbe0e6838	-0.13906944
147	0x3ce9f666	0.028559875
148	0x3d97543e	0.07389115
149	0x3d6b8b54	0.05750592
150	0xb9c4c3b7	-0.00037529852
151	0x3d864f05	0.065580405
152	0x3d835268	0.06412202
153	0x3c9a829c	0.018861108
154	0xbd44ad30	-0.048016727
155	0xbe21b238	-0.15790641
156	0x3e2bbc3c	0.16771024
157	0xbe2a8f88	-0.16656315
158	0xbd732dec	-0.059369966
159	0x3e0841fe	0.13306424
160	0x3e0cf7f7	0.13766466
161	0xbd5d284d	-0.053993512
162	0xbe534811	-0.2063296
163	0xbe28232b	-0.16419666
164	0xbcab57ae	-0.020915832
165	0xbd6edb87	-0.058314826
166	0x3c46cc3c	0.012133654
167	0xbde46ea1	-0.11153913
168	0x3cad3d8f	0.021147517
169	0x3e4a5e01	0.19762422
170	0x3d9bfd45	0.07616667
171	0x3d79bd8a	0.060971774
172	0x3da81900	0.08207893
173	0x3c4ba89a	0.012430334
174	0x3d9ddbb2	0.07707919
175	0xbe31a554	-0.17348224
176	0x3b47fed4	0.003051688
177	0xbd65f7eb	-0.056144636
178	0xbca52292	-0.020158086
179	0xbdb5f7f5	-0.08885185
180	0x3dd0d182	0.101962104
181	0x3c424709	0.011857756
182	0x3dbc406f	0.09191977
183	0xbd2c8f90	-0.0421291
184	0x3e0680a3	0.13135009
185	0xbd910fce	-0.07083093
186	0xbd18beee	-0.03729146
187	0xbe44283c	-0.19155973
188	0x3b1a22c0	0.0023519248
189	0xbd0be0d8	-0.034149975
190	0xbd5819f0	-0.05275911
191	0xbcc1483a	-0.02359401
192	0x3e099774	0.13436681
193	0x3dc01245	0.09378485
194	0xbe18e2bc	-0.14930242
195	0xbc701450	-0.01465328
196	0x3e6d083f	0.23147677
197	0x3e85dea7	0.26146433
198	0x3d85e553	0.06537881
199	0x3e64df7c	0.22350878
200	0xbde89b03	-0.11357691
201	0xbe449b06	-0.19199762
202	0xbe6a832e	-0.22901604
203	0xbdf1a019	-0.11798114
204	0x3d19d5cb	0.037557404
205	0x3db35d9d	0.0875809
206	0xbc802dce	-0.015646841
207	0x3d7ac49b	0.061222654
208	0xbdc80df6	-0.09768288
209	0xbe375918	-0.1790508
210	0xbe33c0e6	-0.17554054
211	0xbe0b7815	-0.13620026
212	0x3c29894b	0.010347675
213	0x3d92a2b3	0.07159939
214	0xbe5ccdac	-0.21562833
215	0x3e020a32	0.12699202
216	0xbe92caa8	-0.2867024
217	0xbd86bc01	-0.06578828
218	0xbe73b6b9	-0.23800172
219	0xbe98171a	-0.29705125
220	0x3b185016	0.0023241094
221	0xbddc7963	-0.1076534
222	0xbd8eea16	-0.06978242
223	0xbdc2cae2	-0.09511353
224	0xbd595071	-0.05305523
225	0xbe301fab	-0.1719958
226	0xbec815a8	-0.39079022
227	0xbe429134	-0.19000703
228	0x3e480acc	0.19535369
229	0xbcc3b6f4	-0.02389095
230	0xbe134cd4	-0.14384776
231	0xbe21a9bf	-0.15787409
232	0x3dab18cc	0.08354339
233	0x3e1a341d	0.15058942
234	0xbe637557	-0.2221273
235	0xbe416518	-0.1888622
236	0xbc4e7f46	-0.012603587
237	0xbe1e6346	-0.15467557
238	0x3e017aea	0.12644544
239	0xbe9c9790	-0.30584383
240	0x3dd2826e	0.10278784
241	0x3d5b333e	0.053515665
242	0xbdde6dc6	-0.10860781
243	0xbdf30457	-0.11866062
244	0xbcdd660d	-0.0270262
245	0xbdbcce02	-0.0921898
246	0xbe4f8ed5	-0.2026933
247	0xbd7bf962	-0.061517127
248	0x3e124d80	0.14287376
249	0x3d817595	0.06321255
250	0xbccc8fa1	-0.024970831
251	0xbe224011	-0.15844752
252	0xbce7590a	-0.0282407
253	0x3c5b8d17	0.013400338
254	0x3c51bfb0	0.0128020495
255	0x3b150dc6	0.0022743805

conv1.bias f4 [4]
0	0xbb045582	-0.0020192568
1	0x3d80b6ed	0.0628489
2	0xbcbb709a	-0.022880841
3	0xbbd37b17	-0.0064538824

conv2.weight f4 [8, 4, 4, 4]
0	0xbe520225	-0.2050863
1	0x3dddf30b	0.108373724
2	0xbe1b62d8	-0.15174425
3	0x3b235d2d	0.0024927363
4	0xbc1e51de	-0.009663073
5	0x3ccedf62	0.025253002
6	0x3e7f47b4	0.24929696
7	0x3dbbc5d4	0.09168592
8	0xbe0fcc95	-0.14042886
9	0x3eab286d	0.3342928
10	0xbdfbbeb9	-0.12292237
11	0x3c844ea6	0.016150784
12	0xbaa5d202	-0.0012651088
13	0x3d9d1f0b	0.076719366
14	0x3d409324	0.047015324
15	0xbd94410e	-0.07238971
16	0xbd08e0c7	-0.03341749
17	0xbebdf674	-0.3710209
18	0x3d7e80ab	0.062134426
19	0xbdb620de	-0.08892988
20	0xbe15c8ce	-0.14627382
21	0xbe04ac89	-0.12956442
22	0x3d80964b	0.06278666
23	0xbe629136	-0.22125706
24	0xbe11663c	-0.14199156
25	0x3d82dce8	0.06389791
26	0x3da23fe3	0.07922342
27	0xbe5ccc7b	-0.21562378
28	0x3dca7621	0.098858126
29	0x3e26c06e	0.16284344
30	0xbd9bbb41	-0.07604075
31	0xbdfc22ef	-0.123113506
32	0xbe65a292	-0.22425297
33	0x3db9722f	0.09054982
34	0x3c8bee86	0.01708151
35	0x3d819b49	0.063284464
36	0xbd681a9d	-0.056666005
37	0xbd2e3699	-0.042532537
38	0x3d8c8404	0.068611175
39	0x3e068859	0.1313795
40	0xbe7a970b	-0.24471681
41	0xb9a3c9d9	-0.0003124017
42	0xbe5bcf8d	-0.21465893
43	0xbdfa546f	-0.12223136
44	0xbebc0da4	-0.36729157
45	0xbe58186d	-0.21103068
46	0xbe30682b	-0.17227237
47	0xbc58975f	-0.013219683
48	0x3e0fb3bc	0.14033407
49	0xbe1b2ed6	-0.15154585
50	0xbc16f8e2	-0.009214612
51	0x3eb64ab4	0.3560387
52	0xbd602565	-0.054723162
53	0xbca4f932	-0.020138357
54	0x3d7b5073	0.06135602
55	0x3ea6ea70	0.32600737
56	0xbd0e721c	-0.034776792
57	0xbe425dc9	-0.18981089
58	0xbe43fd7c	-0.19139665
59	0x3e42cb32	0.19022825
60	0xbe9b61dc	-0.30348098
61	0xbed92829	-0.42413452
62	0xbe02e8b2	-0.12784079
63	0xbd199987	-0.03749993
64	0x3d8b1e1a	0.06792851
65	0xbc8b31e8	-0.01699157
66	0x3e878784	0.26470578
67	0x3d860ca1	0.065453775
68	0x3deb1f19	0.11480541
69	0x3c0a0988	0.008425124
70	0x3e953c1f	0.2914743
71	0xbd3b1f1c	-0.045683965
72	0xbe8a0be3	-0.26962194
73	0xbc7f7b82	-0.015593411
74	0x3d4bb958	0.049737304
75	0x3dbb8de4	0.09157923
76	0xbe05b930	-0.13058925
77	0xbe88b9fd	-0.26704398
78	0xbc227cfb	-0.009917493
79	0xbe21a44d	-0.15785332
80	0xbda9b1f2	-0.082858935
81	0xbd826fc6	-0.06368975
82	0xbdd1f51b	-0.10251828
83	0x3dffe22c	0.12494311
84	0xbe3f1aee	-0.18662617
85	0xbd85fcce	-0.06542359
86	0xbcc560d7	-0.024094028
87	0xbe0b17d3	-0.13583307
88	0x3d23b14c	0.039964005
89	0xbdee587e	-0.11637972
90	0xbe272001	-0.16320802
91	0x3db15635	0.08659021
92	0xbd0a6a02	-0.033792503
93	0xbe0391e2	-0.12848619
94	0xbdf05395	-0.11734692
95	0x3d549811	0.051902834
96	0xbd66faad	-0.056391407
97	0x3e0dc56d	0.13844843
98	0x3d109e58	0.03530726
99	0x3cc5944c	0.024118565
100	0xbdb24d13	-0.08706107
101	0xbbcf431e	-0.0063251397
102	0x3cd2b8c3	0.025722867
103	0x3d802bf8	0.062583864
104	0x3b9f8acb	0.0048688403
105	0xbf00a7de	-0.50256145
106	0xbe410e48	-0.18853104
107	0x3d780de0	0.060560107
108	0xbe9fa03c	-0.31176937
109	0x3deb058e	0.11475669
110	0xbeafcf1c	-0.343377
111	0xbe3dba1a	-0.18528023
112	0xbed7ef90	-0.4217496
113	0x3cfaa93a	0.030598272
114	0x3dd16802	0.10224916
115	0x3ee54fff	0.44787595
116	0x3e682aba	0.22672549
117	0x3e4d7529	0.20064224
118	0x3e3e94e6	0.18611488
119	0x3c6337ed	0.013868314
120	0xbeb76603	-0.35820016
121	0xbe291cf2	-0.16514948
122	0xbd8b16e5	-0.06791476
123	0x3e43fa55	0.19138463
124	0x3d1e9a1e	0.038721196
125	0xbe151119	-0.14557303
126	0xbe49a127	-0.19690381
127	0x3da97951	0.082750924
128	0xbe6b0eeb	-0.2295491
129	0x3db3a740	0.08772135
130	0xbdbf5d90	-0.093440175
131	0xbcdcdbc6	-0.026960265
132	0x3be656ff	0.0070294137
133	0xbe55ce68	-0.20879519
134	0xbc4914af	-0.012272998
135	0xbd69edeb	-0.057111662
136	0x3d7f7c64	0.062374488
137	0xbde0c900	-0.10975838
138	0xbdebdeb2	-0.11517085
139	0xbe78b8ef	-0.24289297
140	0x3d2cc38c	0.042178676
141	0xbdfc36c8	-0.12315136
142	0x3ba93364	0.005163597
143	0xbedf05b9	-0.43559054
144	0x3d8e0493	0.06934466
145	0x3d8868f4	0.06660643
146	0x3e30de96	0.1727241
147	0x3e34022e	0.17578956
148	0x3d553321	0.052050713
149	0xba5b73ac	-0.00083714235
150	0x3db1c85c	0.08680794
151	0x3dc0b08a	0.09408672
152	0x3e2c499c	0.16824955
153	0x3daccece	0.08437882
154	0x3e2eea80	0.17081642
155	0xbd86fe06	-0.0659142
156	0x3dacc440	0.08435869
157	0x3d03d5fa	0.032186486
158	0x3e16cd3d	0.1472673
159	0xbda03a14	-0.078235775
160	0xbd7f7ad4	-0.062372997
161	0xbda104d6	-0.078622505
162	0xbe177bf4	-0.14793378
163	0xbe4465c1	-0.19179441
164	0x3d21ad51	0.039471928
165	0xbd27e7ef	-0.040992673
166	0xbde9c4bd	-0.11414478
167	0xbe1a5c97	-0.15074383
168	0x3d9536e0	0.07285857
169	0xbd828a96	-0.063740894
170	0xbe378bcb	-0.1792442
171	0xbdad3675	-0.084576525
172	0xbd88d54e	-0.0668131
173	0xbe6bc211	-0.23023249
174	0xbebd0f30	-0.3692565
175	0xbe13be95	-0.1442817
176	0xbcc73179	-0.024315583
177	0xbdf25448	-0.118324816
178	0xbcf37db0	-0.029723018
179	0xbe4a7de2	-0.19774583
180	0x3db5d2d5	0.08878104
181	0xbde81292	-0.11331667
182	0xbda0b954	-0.078478485
183	0xbea421a7	-0.32056925
184	0xbd351003	-0.044204723
185	0x3d80dec8	0.06292492
186	0xbddc36e1	-0.10752655
187	0xbce86037	-0.028366191
188	0xbe035dad	-0.12828703
189	0xbdad6895	-0.08467213
190	0x3d8392bb	0.06424471
191	0xbe3cc220	-0.18433428
192	0xbe8bd5aa	-0.2731145
193	0xbe09179c	-0.13387913
194	0x3d803594	0.06260219
195	0x3df32cdf	0.11873793
196	0xbe8e9aec	-0.2785257
197	0x3d9e4544	0.07728055
198	0x3c84d1e2	0.016213361
199	0x3e1d89eb	0.15384643
200	0xbd855a5c	-0.06511375
201	0x3e01a0e6	0.12659034
202	0x3dda94c8	0.10672909
203	0x3d3c7545	0.046010274
204	0xbdaca8f3	-0.08430662
205	0x3e2a3ddf	0.16625164
206	0xbc631050	-0.01385887
207	0xbdbecafb	-0.09316059
208	0xbe0eb615	-0.13936646
209	0xbd5884a8	-0.052860886
210	0xbcaa4f5e	-0.020789798
211	0x3d5b81ad	0.053590465
212	0x3e101fd0	0.14074636
213	0xbcf6f845	-0.030147681
214	0xbda74fb0	-0.08169496
215	0x3d9b9e3a	0.07598539
216	0x3ca0e989	0.019642608
217	0xbc580295	-0.013184209
218	0x3d8199f7	0.063281946
219	0xbd7b7b75	-0.061397035
220	0xbe31d4e8	-0.17366374
221	0x3d29c97e	0.041451924
222	0x3e0332cb	0.12812345
223	0xbd92d3c6	-0.07169299
224	0xbd82711c	-0.0636923
225	0xbedcf869	-0.43158272
226	0xbd200385	-0.039065856
227	0xbe7fb48d	-0.24971218
228	0xbe5808b4	-0.2109707
229	0x3db9cb7b	0.09072014
230	0x3e663d0b	0.22484224
231	0x3d279a11	0.040918414
232	0xbcfbc260	-0.030732334
233	0xbddb17ea	-0.106979206
234	0x3e2d3cc1	0.16917707
235	0xbd17f0ee	-0.037095003
236	0xbe0cdb3a	-0.13755503
237	0xbe88dd95	-0.26731554
238	0xbe859b86	-0.26095217
239	0xbceecb22	-0.029149596
240	0xbcf9ac7c	-0.030477755
241	0x3e48d842	0.19613746
242	0x3d6b4cfe	0.057446472
243	0x3e9cd38a	0.30630141
244	0xbc6c3ddb	-0.014419044
245	0xbd9cc19d	-0.07654116
246	0x3e557509	0.20845427
247	0x3eede722	0.46465403
248	0xbd932d80	-0.07186413
249	0xbe0ce0af	-0.13757585
250	0x3eabe8ee	0.3357615
251	0x3ea61a88	0.32442117
252	0xbdceb923	-0.10093906
253	0xbe17877e	-0.1479778
254	0xbe25343c	-0.16133207
255	0x3e360f60	0.17779303

conv2.bias f4 [8]
0	0x3d635da3	0.05550922
1	0x3d1ee3cf	0.038791474
2	0x3e1b1cd5	0.15147717
3	0xbc6914de	-0.0142261665
4	0x3b1de11c	0.0024090474
5	0xbb64f7d1	-0.003493775
6	0x3cf7d916	0.030254882
7	0x3d0005fa	0.0312557

fc1.weight f4 [64, 392]
0	0xbe134a7d	-0.14383884
1	0xbeaf3b01	-0.34224704
2	0xbe36c881	-0.17849924
3	0xbd186ae1	-0.037211303
4	0xbdb4d6e3	-0.08830049
5	0xbca64da7	-0.0203007
6	0x3e66a7de	0.22524974
7	0xbc99c6c0	-0.01877153
8	0xbed3045e	-0.4121427
9	0xbd9de24f	-0.077091806
10	0x3d303be4	0.043025866
11	0xbe05f9a3	-0.1308351
12	0x3e4d38cb	0.20041196
13	0xba25b216	-0.00063207874
14	0x3e0b9013	0.13629179
15	0xbd2c47ce	-0.042060666
16	0xbec37afb	-0.38179764
17	0xbde56ed3	-0.11202779
18	0x3d4bc050	0.04974395
19	0x3d5fb6b4	0.0546176
20	0xbdaa6dd5	-0.0832173
21	0x3d9b6e0a	0.07589348
22	0xbdd211d6	-0.10257308
23	0xbdc47bc5	-0.0959392
24	0xbe17928f	-0.14802001
25	0x3d8d1b66	0.068899915
26	0x3dce9ad2	0.100881234
27	0xbdc6a6a3	-0.09699752
28	0xbe3e55bd	-0.18587394
29	0xba38279a	-0.0007024944
30	0x3b0dd4f3	0.002164182
31	0x3d8fa854	0.07014528
32	0xbcb788f6	-0.022404175
33	0x3dc9bb7d	0.09850214
34	0xbca5958d	-0.020212913
35	0xbeaab65e	-0.3334226
36	0x3e1875bc	0.14888662
37	0x3df86083	0.12127783
38	0xbe8d2bff	-0.2757263
39	0xbd5a943f	-0.053364035
40	0x3dc09c09	0.09404761
41	0xbd2a69b5	-0.041604716
42	0xbeb45302	-0.3521958
43	0xbe7f5c4c	-0.24937552
44	0xbdbffae4	-0.093740255
45	0xbe352ddf	-0.1769328
46	0x3ced0ceb	0.028936824
47	0xbd71e609	-0.05905727
48	0x3e82322d	0.25428906
49	0xbe5e7cd3	-0.21727304
50	0xbe6b01b4	-0.22949868
51	0x3d9245bb	0.07142206
52	0xbd0c6dab	-0.034284275
53	0xbc0167c6	-0.007898277
54	0xbd601347	-0.054705884
55	0xbded3db6	-0.11584036
56	0x3d5c089c	0.053719148
57	0xbed1ed9c	-0.41001594
58	0xbe5916d3	-0.21200113
59	0x3d4c7dc3	0.049924623
60	0xbe06a4bf	-0.13148783
61	0x3d6e49e8	0.05817595
62	0x3c95d7c9	0.018291371
63	0xbd0d9a46	-0.034570955
64	0x3dc4ca79	0.09608931
65	0x3d2405a6	0.04004445
66	0xbe92cd3c	-0.28672206
67	0xbe7861f4	-0.24256116
68	0x3d11ad2f	0.03556555
69	0xbd82ea48	-0.06392342
70	0xbe43c16c	-0.19116753
71	0x3d3a0359	0.04541335
72	0xbc2f216f	-0.0106891235
73	0x3b988b53	0.0046552806
74	0xbe9bba2e	-0.3041548
75	0x3d3f5aaa	0.046717323
76	0x3dd76a8f	0.10518371
77	0x3e13da78	0.14438808
78	0xbe6d6996	-0.23184809
79	0xbe271d75	-0.1631983
80	0x3dbbacef	0.09163844
81	0x3e75b920	0.23996401
82	0x3d2a774e	0.041617684
83	0xbe33dafa	-0.17564002
84	0x3df01386	0.11722474
85	0xbe0ec9b9	-0.13944139
86	0xbdf7045a	-0.12061377
87	0xbcf2f7d6	-0.029659193
88	0xbc9692ae	-0.01838049
89	0x3cb51680	0.022105455
90	0x3d94d3aa	0.07266934
91	0x3e067347	0.13129912
92	0x3ccf0bdf	0.025274215
93	0x3d82a880	0.06379795
94	0x3d07d712	0.03316409
95	0x3cf7a756	0.03023116
96	0x3db8daea	0.090261295
97	0x3dd3665f	0.1032226
98	0x3d92a67d	0.07160661
99	0x3dc498dc	0.09599468
100	0x3d698519	0.057011697
101	0x3e6d9da6	0.2320467
102	0x3e32fca2	0.17479184
103	0xbd699bb9	-0.057033274
104	0x3da88e18	0.08230227
105	0x3d1d2503	0.038365375
106	0x3cd1716d	0.025566781
107	0xbcc88fc2	-0.024482612
108	0x3e64707f	0.22308539
109	0x3e13d14c	0.14435309
110	0x3d176bbb	0.036967974
111	0x3e1dc154	0.1540578
112	0xbe0c395a	-0.13693753
113	0xbd1a01f0	-0.037599504
114	0x3e0e72c7	0.13910972
115	0x3df5481f	0.11976647
116	0x3de11716	0.109907314
117	0x3d880039	0.066406675
118	0x3be4531a	0.0069679143
119	0xbd9c8b06	-0.07643704
120	0xbce78e1f	-0.02826601
121	0xbde532d1	-0.11191333
122	0x3dd293fd	0.10282133
123	0x3e14616f	0.14490293
124	0x3d29480c	0.041328475
125	0x3e34f15e	0.176702
126	0x3e190b27	0.1494566
127	0xbd4daf6b	-0.05021612
128	0x3dc07247	0.09396797
129	0x3e3ea2ba	0.18616763
130	0x3dd9ac4e	0.10628568
131	0xbd16ba5a	-0.036798812
132	0x3def62ea	0.11688788
133	0x3e71a405	0.23597725
134	0xba5ca322	-0.00084166427
135	0x3cc19879	0.023632275
136	0x3dbc62f3	0.091985606
137	0x3d485f92	0.048919268
138	0xbb789208	-0.0037928838
139	0xbc7e8024	-0.015533481
140	0x3e1ba65e	0.15200183
141	0x3df10037	0.11767619
142	0x3da92838	0.08259624
143	0x3e664adf	0.22489499
144	0x3d2d3dcf	0.042295273
145	0x3b0088ac	0.0019612713
146	0x3d1c2ed9	0.038130615
147	0xbe3409db	-0.17581885
148	0xbe588cd9	-0.21147479
149	0x3e1a4ec4	0.15069109
150	0xbd15ea60	-0.03660047
151	0x3d269b5f	0.040675517
152	0x3d196f8c	0.037459895
153	0x3d1934a4	0.037403718
154	0x3aa60634	0.0012666644
155	0x3c5c7ba6	0.013457214
156	0x3e296bee	0.16545078
157	0x3dba7b17	0.09105509
158	0x3d0f4f49	0.03498772
159	0x3e9c0ff7	0.3048093
160	0x3b9ee188	0.0048486628
161	0x3e8ddc57	0.27707168
162	0x3d2a9288	0.04164365
163	0xbdf76096	-0.12078969
164	0xbcfe7dbf	-0.03106582
165	0xbdaaf80f	-0.08348095
166	0x3e5fe49d	0.21864553
167	0xbd9550ae	-0.07290779
168	0x3da1bbcd	0.07897148
169	0x3dde3efe	0.108518586
170	0x3d408702	0.047003753
171	0x3c913203	0.017724043
172	0x3dcd942f	0.100380294
173	0x3d65bb4e	0.05608683
174	0x3e4e5a1b	0.2015156
175	0xbdb36cc9	-0.087609835
176	0xbd83273f	-0.0640397
177	0x3d8a3caf	0.06749856
178	0xbd59b2e3	-0.053149115
179	0xbda42061	-0.08013988
180	0x3deeb95d	0.11656449
181	0xbe90168d	-0.28142205
182	0xbdd8ad03	-0.10579874
183	0xbdd9bef0	-0.106321216
184	0x3da89866	0.08232193
185	0x3d99ca7e	0.075093254
186	0xbddab52c	-0.10679087
187	0x3ce9a921	0.02852303
188	0xbe00fe9f	-0.1259713
189	0xbd442aa0	-0.047892213
190	0xbe0ea4ce	-0.13930055
191	0xbe1d3440	-0.15351963
192	0x3d99b5e3	0.07505395
193	0x3d1eb5b3	0.0387475
194	0xbc524fd8	-0.012836419
195	0x3e27c2f0	0.16382957
196	0xbe5a8bdd	-0.21342416
197	0xbebdda5d	-0.3708066
198	0xbe834116	-0.25635594
199	0x3dcffed8	0.101560295
200	0xbe34af64	-0.17645031
201	0x3d7f2959	0.06229529
202	0x3da89226	0.082310006
203	0xbe84369a	-0.25822908
204	0x3b10be08	0.0022085924
205	0xbd3ee310	-0.046603262
206	0xbd20c37e	-0.039248936
207	0xbdff3131	-0.124605544
208	0x3dc1e3fe	0.09467314
209	0x3d763c22	0.06011594
210	0xbe027d5f	-0.12743138
211	0x3a182852	0.0005804348
212	0x3dabc7a5	0.083876885
213	0xbeb1f29e	-0.34755415
214	0xbdc62fe6	-0.09677105
215	0x3e234873	0.15945606
216	0x3bdc0151	0.006714024
217	0xbd29cdd2	-0.04145605
218	0xbca81faa	-0.020522911
219	0xbe081b6f	-0.13291715
220	0x3b942569	0.004521061
221	0xbd9493c1	-0.07254744
222	0x3cdb1314	0.026742496
223	0x3de92a08	0.1138497
224	0xbd1b72ac	-0.037951156
225	0xbc62bf8e	-0.0138396155
226	0xbe0f178c	-0.13973826
227	0xbe1b4a90	-0.15165162
228	0xbe15fce0	-0.14647245
229	0xbda7ede9	-0.08199675
230	0x3d71c59c	0.059026346
231	0xbdb3d418	-0.08780688
232	0x3d769337	0.06019899
233	0xbe24783c	-0.16061491
234	0xbd13de08	-0.036100417
235	0xbd497b34	-0.04918976
236	0x3c71f561	0.014767976
237	0x3a3ad4ae	0.00071270287
238	0xbd9e24f5	-0.07721893
239	0xbe969ef4	-0.29418147
240	0xbe85ddd1	-0.26145795
241	0xbda05440	-0.078285694
242	0xbd143a76	-0.036188565
243	0xbdc76ea0	-0.09737897
244	0x3dbe8380	0.093024254
245	0x3b9fb1f3	0.004873508
246	0xbe7f31f6	-0.24921402
247	0xbdd9c953	-0.10634103
248	0x3d90592a	0.07048257
249	0xbdbead39	-0.09310383
250	0x3e410941	0.18851186
251	0xbdbe6014	-0.09295669
252	0x3e4254bd	0.18977638
253	0xbe2c7952	-0.16843155
254	0xbd632f9b	-0.055465322
255	0xbd544331	-0.05182189

fc1.bias f4 [64]
0	0x3dd57bdd	0.10424016
1	0x3c828441	0.015932204
2	0x3d98aac2	0.074544445
3	0x3e08366a	0.13302007
4	0x3d83fc5a	0.064446166
5	0x3d81f03f	0.063446514
6	0x3df6d78f	0.12052833
7	0x3e38eb35	0.18058474
8	0x3e3527f7	0.17691027
9	0xbcf4dac1	-0.029889466
10	0x3e1a541e	0.1507115
11	0x3e2ef450	0.17085385
12	0x3e19b466	0.15010223
13	0x3d7c7504	0.061635032
14	0x3e2c200b	0.16809098
15	0x3e42fec7	0.19042502
16	0x3e2a1c41	0.1661234
17	0x3d809426	0.06278257
18	0x3d851fe7	0.065002255
19	0xbd9045ea	-0.07044585
20	0x3d0f2cbd	0.034954775
21	0xbd04b5d4	-0.032399967
22	0x3e079766	0.13241348
23	0x3e1f70b4	0.15570337
24	0x3d3fba4b	0.046808522
25	0x3dbcdd6d	0.09221921
26	0x3cdc741a	0.02691083
27	0x3e55efa5	0.20892198
28	0x3d70eca3	0.058819424
29	0x3e13173a	0.14364329
30	0x3d7d64bb	0.061863642
31	0x3e20ffd4	0.1572259
32	0x3e3a571d	0.18197294
33	0x3e13c500	0.14430618
34	0x3d7ba572	0.061437078
35	0xbd192d70	-0.03739685
36	0x3d0b00d5	0.03393634
37	0x3e2b6690	0.16738343
38	0x3d8a8626	0.06763868
39	0x3d570dca	0.052503385
40	0x3e214aa5	0.15751131
41	0x3dafa8c4	0.08577111
42	0xbb5eaa4d	-0.003397602
43	0x3e0db0c2	0.13836959
44	0x3e308a3f	0.17240237
45	0xbd2350cd	-0.03987198
46	0xbcb9e543	-0.022692328
47	0x3e2538ed	0.16134997
48	0x3e268fc4	0.1626578
49	0x3d90aec9	0.070645876
50	0x3d8fd1ae	0.07022415
51	0x3e1cb8cd	0.15304871
52	0x3e0a6598	0.13515317
53	0x3d0d5978	0.034509152
54	0x3e488353	0.19581346
55	0x3e1f54c3	0.15559678
56	0x3e14ef6d	0.14544459
57	0xbce4c5e4	-0.027926393
58	0x3e365115	0.17804368
59	0xbb977181	-0.004621685
60	0x3e15792e	0.14597008
61	0x3e1dba5b	0.1540312
62	0xbd0cae28	-0.034345776
63	0xb9ab7d0a	-0.00032708823

fc2.weight f4 [2, 64]
0	0x3da699f7	0.08134835
1	0x3d738b26	0.059458874
2	0x3e14bad1	0.1452439
3	0xbe49bfe5	-0.19702108
4	0x3de3cf8f	0.11123573
5	0x3d80279a	0.062575534
6	0xbe6ba79f	-0.23013161
7	0xbde78cd7	-0.1130616
8	0xbe1eef70	-0.15521026
9	0xbe5f7f5b	-0.21825926
10	0xbe2cbec4	-0.16869646
11	0xbe272941	-0.16324331
12	0xbe76b329	-0.24091782
13	0x3dc1a83a	0.09455915
14	0xbe09fd6e	-0.13475582
15	0xbe3a6e24	-0.18206078
16	0xbe02d340	-0.12775898
17	0x3d8e6602	0.0695305
18	0x3dbc614c	0.091982454
19	0xbe30f384	-0.17280394
20	0x3dfbbea1	0.12292219
21	0xbacfa9e4	-0.0015843478
22	0xbe6ae6f1	-0.2293966
23	0xbe63bb1e	-0.22239348
24	0x3d8d8b38	0.069113195
25	0x3d6583c0	0.05603385
26	0x3d9a4fe0	0.07534766
27	0xbe040c79	-0.12895383
28	0x3dcb4dd7	0.09926956
29	0xbe340d06	-0.17583093
30	0x3db7dfee	0.08978258
31	0xbe03809c	-0.1284203
32	0xbe14408a	-0.14477745
33	0xbe4b3a1e	-0.19846389
34	0x3dc6ced3	0.09707417
35	0x3e321dd2	0.17394188
36	0x3d97cccf	0.07412111
37	0xbe1e29f9	-0.15445699
38	0x3da4176c	0.0801228
39	0x3d9e700f	0.07736217
40	0xbe4ee564	-0.20204693
41	0x3dafcac1	0.08583594
42	0xbd471147	-0.04860046
43	0xbe8b35ed	-0.2718958
44	0xbe0ecf2e	-0.1394622
45	0x3e85ea51	0.26155332
46	0x3dd20411	0.10254682
47	0xbe29e6dd	-0.16591974
48	0xbe3f0000	-0.18652344
49	0x3de8159b	0.11332246
50	0x3d5e51ab	0.054277103
51	0xbe7be03d	-0.24597259
52	0xbe3205d9	-0.17385043
53	0x3d8c757e	0.06858347
54	0xbd83d002	-0.06436159
55	0xbe55f864	-0.20895535
56	0xbe441397	-0.19148098
57	0xbdee7163	-0.116427206
58	0xbdd41585	-0.10355667
59	0xbda4933e	-0.08035897
60	0xbe5d757b	-0.21626846
61	0xbe580408	-0.21095288
62	0x3c91da28	0.01780422
63	0xbde9e23d	-0.11420105
64	0x3dd0291e	0.101640925
65	0x3dfd0514	0.12354484
66	0x3e2c49ac	0.16824979
67	0xbe33f396	-0.1757339
68	0x3e012f59	0.12615718
69	0x3db276b7	0.08714049
70	0xbe0db630	-0.1383903
71	0xbe36058f	-0.17775558
72	0xbe12369f	-0.14278649
73	0xbdf3ac4f	-0.118981
74	0xbe12855c	-0.14308685
75	0xbe027ddf	-0.12743329
76	0xbe2a1142	-0.16608146
77	0x3dab41b7	0.083621435
78	0xbe2ae685	-0.16689499
79	0xbe1d5daa	-0.15367761
80	0xbe182412	-0.1485751
81	0x3dbcbbd2	0.092155114
82	0x3e20e865	0.15713651
83	0x3e622928	0.22086012
84	0x3d89c519	0.067270465
85	0x3dcec4bd	0.100961186
86	0xbe47ad92	-0.19499806
87	0xbe2047e0	-0.15652418
88	0x3dd52f59	0.104094215
89	0x3dacc395	0.08435742
90	0x3daa0ed9	0.08303613
91	0xbe17ba94	-0.14817268
92	0x3db5ad2e	0.08870922
93	0xbe0d5715	-0.1380275
94	0x3d629d08	0.055325538
95	0xbe482557	-0.19545494
96	0xbe05167b	-0.12996857
97	0xbe60e55a	-0.2196249
98	0x3e0228f2	0.12710932
99	0x3c0c4f2d	0.008563799
100	0x3db49ae1	0.08818603
101	0xbdbabb1f	-0.09117722
102	0x3dd439c0	0.103625774
103	0x3dad82ce	0.08472215
104	0xbe2a9a38	-0.16660392
105	0x3de84b1a	0.113424495
106	0x3e812461	0.25223067
107	0xbe6e901f	-0.23297165
108	0xbe477366	-0.19477615
109	0x3e086ae3	0.13322024
110	0x3df4a6d0	0.119458795
111	0xbde47404	-0.11154941
112	0xbe40134d	-0.18757363
113	0x3dd80534	0.105478674
114	0x3dc6cb28	0.09706718
115	0xbe3d13fd	-0.18464656
116	0xbe8b9982	-0.27265555
117	0x3dc8a3cb	0.09796866
118	0xbe4c719a	-0.1996521
119	0xbe307c1d	-0.17234845
120	0xbe49e1b2	-0.19715002
121	0x3e6d9806	0.23202524
122	0xbe118d6c	-0.14214104
123	0xbd2f4666	-0.042791747
124	0xbe594d2b	-0.21220843
125	0xbe429dae	-0.19005463
126	0x3c750ad8	0.014956199
127	0x3e234bbd	0.1594686

fc2.bias f4 [2]
0	0xbde12e63	-0.10995176
1	0xbee84d01	-0.4537125
