assignment-5/models/best_model_68.9.pth (torch, 110560 bytes, 8 tensors)

conv1.weight f4 [4, 4, 8, 8]
0.005235132 -0.0012566189 -0.10243553 -0.033759076 0.17967089 0.10733107 -0.06908666 -0.04911265
0.016932255 0.114288606 0.058544938 -0.07785682 -0.052717622 0.1366894 -0.09475712 -0.4999503
0.04127167 0.0018510427 -0.06334447 -0.030631531 0.036157146 0.11195698 -0.11399558 -0.3840143
0.253343 -0.02906634 -0.046504963 0.18848251 0.006389389 -0.116624944 0.04506162 -0.49906453
0.011819205 -0.16579705 0.02362145 0.09691297 0.155606 0.0033109148 -0.14226538 -0.1126311
0.048142664 0.07845092 0.13070443 0.064935274 -0.029777385 -0.06347399 -0.08948191 -0.1846582
-0.04810518 0.15946099 0.107895166 0.08648799 0.32517076 0.0172445 0.017527264 -0.07053422
-0.04472956 0.06200324 0.0729932 -0.010827923 0.0039481195 -0.039049227 -0.023166759 -0.042298913
-0.19111837 -0.08346336 -0.09307139 -0.02459336 0.23993744 0.1195005 0.18753104 -0.031540126
-0.09949621 -0.1893853 -0.03876444 -0.0050140927 -0.11241757 0.26533657 0.020891765 -0.63784176
0.051497113 0.23083206 -0.3718161 0.02309801 -0.0031249356 0.0064251693 0.028335333 -0.16927458
0.36559945 0.024601018 -0.1709674 0.025550786 -0.018768732 -0.2040168 0.105612725 -0.4840794
-0.14884476 0.17021641 -0.06845277 0.2772971 -0.057059 0.065131344 -0.084614806 -0.15490131
-0.083623424 0.1812024 -0.05324287 0.065465905 -0.21360986 -0.16631089 0.06675505 -0.3842107
-0.14337994 -0.0088709565 -0.13611287 0.23740844 0.20188664 0.050372627 0.071010225 -0.20710005
-0.13524571 0.08607276 -0.03861053 0.09251352 -0.19555126 -0.25303844 -0.16002043 0.012845206
0.16078195 0.08680369 0.10210673 0.030773005 0.31366652 0.41065577 0.2857279 0.36031598
-0.14299943 -0.084058 0.1695241 -0.1739764 0.062373407 0.13023101 0.20482652 -0.18835571
-0.21398412 -0.18510333 0.04731521 0.07756681 0.03199302 -0.030776812 0.24934228 0.25767395
-0.22708225 -0.18415841 0.108699374 -0.28488594 -0.2335943 -0.41296607 0.013224121 -0.29728943
-0.24069555 -0.32818156 -0.030307434 -0.11038075 -0.434585 -0.23846936 0.072116 -0.1460754
-0.22322398 0.035601564 0.11968312 -0.1486129 -0.54534864 -0.47385272 0.053870965 -0.2792568
0.0039577503 0.09026569 0.056821935 0.07226863 -0.031827413 -0.09065186 -0.059070937 -0.06968655
0.2510683 0.22604476 0.06541255 -0.16741508 -0.040525828 0.04783376 0.048723403 -0.16112411
0.056906354 -0.15542449 -0.0714148 -0.14497316 -0.070385635 0.17113811 0.15975578 0.3010543
0.118429765 0.0020962853 -0.4077343 -0.18853621 0.19164939 0.19187897 -0.22025815 -0.00815248
0.43692827 0.030020507 -0.14304945 0.31292066 0.66622293 0.51204306 0.18576343 0.6546533
0.41593516 0.07672334 0.13578856 0.10396791 0.57375646 0.25139728 0.17089638 0.27517158
0.34676975 0.045639407 0.36522123 0.7672324 0.75003487 0.3581943 0.21926141 0.58701783
0.36453554 -0.07176374 0.15520972 0.37288982 0.29565835 0.159158 0.16722742 0.29424882
0.28458992 -0.11754165 0.13708389 0.6038596 0.26235178 -0.08000596 0.10344631 -0.0033470306
-0.014309164 -0.20486611 0.31338474 0.5286082 0.3455229 0.10432676 0.22661443 -0.054973923
00000000: 788b ab3b 22b5 a4ba b8c9 d1bd f546 0abd
00000010: a5fb 373e 64d0 db3d 4f7d 8dbd 592a 49bd
00000020: 83b5 8a3c 2510 ea3d d1cc 6f3d 6573 9fbd
00000030: 6fee 57bd 4ef8 0b3e 0510 c2bd 7cf9 ffbe
00000040: 7c0c 293d b09e f23a bfba 81bd faee fabc
00000050: 8419 143d b349 e53d 8476 e9bd 869d c4be
00000060: 2cb6 813e 881c eebc fd7b 3ebd 8f01 413e
00000070: 145e d13b 0fd9 eebd 8992 383d 6385 ffbe
00000080: 57a5 413c b4c6 29be c581 c13c 4f7a c63d
00000090: 2e57 1f3e effb 583b 04ae 11be 22ab e6bd
000000a0: 3e31 453d e0aa a03d 62d7 053e c9fc 843d
000000b0: b4ef f3bc a7fe 81bd 4b42 b7bd 0a17 3dbe
000000c0: f009 45bd be49 233e 24f8 dc3d 9e20 b13d
000000d0: c87c a63e 5644 8d3c 5695 8f3c 3f74 90bd
000000e0: 5836 37bd 1cf7 7d3d 757d 953d 9a67 31bc
000000f0: 3a5f 813b 15f2 1fbd 37c8 bdbc a041 2dbd
00000100: 89b4 43be d7ee aabd 379c bebd 0478 c9bc
00000110: 29b2 753e aebc f43d 2308 403e 3830 01bd
00000120: abc4 cbbd 38ee 41be 76c7 1ebd 424d a4bb
00000130: 2f3b e6bd 32da 873e 3525 ab3c 9949 23bf
00000140: a3ee 523d 3d5f 6c3e ae5e bebe 0a38 bd3c
00000150: b8cb 4cbb 3a8a d23b 801f e83c 5156 2dbe
00000160: da2f bb3e 1388 c93c 1412 2fbe e24f d13c
00000170: e2c0 99bc c8e9 50be 7c4b d83d 41d9 f7be
00000180: c36a 18be 364d 2e3e f730 8cbd e3f9 8d3e
00000190: b3b6 69bd 9563 853d 874a adbd 739e 1ebe
000001a0: c242 abbd 1f8d 393e 3215 5abd fd12 863d
000001b0: 8bbc 5abe 674d 2abe dfb6 883d 44b7 c4be
000001c0: 31d2 12be 7d57 11bc 2c61 0bbe 331b 733e
000001d0: 5fbb 4e3e 8753 4e3d cf6d 913d 0912 54be
000001e0: da7d 0abe ea46 b03d 1326 1ebd ba77 bd3d
000001f0: 973e 48be 418e 81be 65dc 23be b374 523c
00000200: 06a4 243e 22c6 b13d 551d d13d ab17 fc3c
00000210: e698 a03e 7941 d23e ed4a 923e 567b b83e
00000220: 716e 12be 9a26 acbd ba97 2d3e df26 32be
00000230: 427b 7f3d 475b 053e 0bbe 513e 52e0 40be
00000240: a71e 5bbe ba8b 3dbe 98cd 413d 59db 9e3d
00000250: 1d0b 033d a71f fcbc 9553 7f3e d7ed 833e
00000260: 4088 68be 0694 3cbe c79d de3d 92dc 91be
00000270: 5833 6fbe 4a70 d3be fca9 583c 5236 98be
00000280: e578 76be 6a07 a8be 4c47 f8bc 4d0f e2bd
00000290: ed81 debe 5031 74be 8eb1 933d ca94 15be
000002a0: d494 64be f2d2 113d 6c1c f53d fb2d 18be
000002b0: f89b 0bbf d39c f2be cda7 5c3d bffa 8ebe
000002c0: 04b0 813b 38dd b83d 1ebe 683d 9301 943d
000002d0: 765d 02bd afa7 b9bd 5ef4 71bd d2b7 8ebd
000002e0: 068c 803e 4778 673e 04f7 853d dc6e 2bbe
000002f0: 69fe 25bd 55ed 433d 3192 473d b8fd 24be
00000300: a316 693d 9927 1fbe ec41 92bd d873 14be
00000310: 5826 90bd d43e 2f3e 0597 233e ca23 9a3e
00000320: 4e8b f23d d561 093b 8dc2 d0be a30f 41be
00000330: bd3f 443e ec7b 443e 5a8b 61be fb91 05bc
00000340: 10b5 df3e 91ed f53c 8e7b 12be 2337 a03e
00000350: 968d 2a3f 4115 033f c538 3e3e 5c97 273f
00000360: 74f5 d43e 2021 9d3d 280c 0b3e 21ed d43d
00000370: b4e1 123f 25b7 803e 76ff 2e3e 4ae3 8c3e
00000380: ce8b b13e 63f0 3a3d 47fe ba3e 5869 443f
00000390: 4902 403f 3e65 b73e 1086 603e cd46 163f
000003a0: 67a4 ba3e def8 92bd 4cef 1e3e 6aeb be3e
000003b0: 8860 973e 51fa 223e aa3d 2b3e c8a7 963e
000003c0: c5b5 913e adb9 f0bd b85f 0c3e 8b96 1a3f
000003d0: f952 863e 2ada a3bd a9db d33d db59 5bbb
000003e0: fc70 6abc 6cc8 51be f773 a03e de52 073f
000003f0: 61e8 b03e 45a9 d53d 9d0d 683e 562c 61bd

conv1.bias f4 [4]
-0.41367492 -0.029166123 -0.0051465305 -0.03580029
00000000: 33cd d3be cbed eebc 3aa4 a8bb 53a3 12bd

conv2.weight f4 [8, 4, 4, 4]
-0.113228634 0.13884053 0.14371145 -0.17221083 -0.05087614 0.069725476 -0.030973911 0.16543451
-0.5575342 -0.18813315 -0.47810394 -0.31136838 -0.82777464 -0.22009943 -0.20615944 -0.19518967
-0.015536903 -0.02562011 0.051473774 0.18479384 0.3775941 -0.13506258 -0.08119345 0.31955445
0.2731107 -0.29422858 -0.018977398 -0.039638907 -0.15639234 -1.1370615 -0.04085614 0.09719532
-0.052672766 0.047036856 0.5114729 -0.86987734 -0.027988374 0.11332349 0.2885887 0.14021307
-0.10664397 0.11064342 -0.88520616 0.020690843 -0.32080466 0.30515537 -0.49142912 -0.4942933
0.22414185 -0.09291773 -0.31027937 -0.2254626 -0.13458589 0.26029837 -0.5504322 -0.7968375
0.28820947 0.54255205 0.28712207 -0.55376035 -0.09193414 0.66392165 -0.024107195 -1.6012388
-0.7698762 0.0021624772 -0.03955628 0.12752567 -0.7554164 -0.15662582 -0.50389564 -0.14499018
-0.6726267 -0.16552514 -0.2936671 -0.031888694 0.013128506 0.092471324 0.025872005 0.022114055
0.016996402 0.1267902 -0.10686036 0.18125845 0.014217725 0.14082265 0.14626808 -0.28542352
-0.13355556 0.088960215 0.3330292 -0.10447726 0.04892589 0.28063884 0.15626222 0.092635274
0.27042657 0.33121082 0.16493475 -0.05716493 -0.087440364 -0.047257386 0.31369638 0.03885088
0.18019047 -0.3797426 0.0788711 -0.06849502 0.20116635 0.06853691 0.40994778 -0.20041604
-0.051324356 0.20211881 -0.3974766 -0.5932183 -0.26110837 0.3788706 0.36661026 -0.28722176
0.33803526 0.33862036 0.29085812 -1.2754426 0.08456772 -0.029947847 0.31675678 -0.67616373
-0.27465045 -0.026109692 -0.15584408 -0.21371321 -0.2661833 0.24583882 -0.0815869 -0.6596153
-0.40526286 -0.05988838 0.2205549 -0.59462345 0.003109661 -0.14518164 0.32172844 -0.45189798
0.13688864 0.33271068 -0.043011345 -0.069899835 0.11552709 0.54461926 -0.0044604377 -0.96510494
-0.56194466 0.2931524 -0.040024124 -0.47092134 -0.09681222 0.22884469 0.050518394 -0.11559099
0.37077606 -0.15366465 0.63318366 0.10167424 0.70909476 0.31116194 0.16935375 -0.42323762
0.105511926 0.23169893 0.36532283 -1.0737672 -0.15311755 0.29260927 0.28024727 -1.4254243
0.18288273 -0.06650281 0.12698142 -0.20204721 0.7253695 -0.5212537 0.2939511 0.15412426
0.31746343 -0.3405047 -0.6651411 -0.4662357 -0.07564747 -0.1970626 -0.40744027 -0.033247087
-0.09944506 -0.24863376 -0.3769358 0.13260934 -0.010368431 -0.03929471 -0.33318192 -0.106024384
0.31196266 -0.20423646 -0.07627843 -0.7146007 -0.24730279 -0.12917848 -0.004037988 -0.07591165
-0.022886138 0.092284106 0.219959 0.23584352 0.1772505 0.04878415 0.08316473 -0.4227197
-0.13037015 0.11595933 -0.047690816 -0.5044164 -0.18629968 -0.31538525 -0.49213195 0.029148083
0.3067713 -0.068961024 0.002821619 0.20160666 0.2615347 0.06916665 0.01309506 0.32544163
0.04226355 0.061587848 -0.15730098 -0.5013807 -0.0989066 0.49262947 0.271421 -0.6525719
0.34870467 0.4591051 0.19339514 -0.4102466 0.22357675 0.5521844 0.41408277 -0.41851038
-0.035339728 0.57513744 0.20366485 -0.75247467 -0.36986288 0.035132542 0.013346418 0.36914963
00000000: 6ae4 e7bd 362c 0e3e 1829 133e 0958 30be
00000010: 8063 50bd 3bcc 8e3d 00bd fdbc aa67 293e
00000020: 90ba 0ebf faa5 40be 0aca f4be ad6b 9fbe
00000030: 0ae9 53bf bf61 61be 761b 53be cddf 47be
00000040: 7f8e 7ebc 44e1 d1bc 2ad6 523d 993a 3d3e
00000050: 0454 c13e d84d 0abe c048 a6bd a49c a33e
00000060: 2ad5 8b3e 21a5 96be 7d76 9bbc 685c 22bd
00000070: 5025 20be 3b8b 91bf c558 27bd 570e c73d
00000080: 66bf 57bd b8a9 403d e3ef 023f 48b0 5ebf
00000090: e047 e5bc 2516 e83d e6c1 933e 0494 0f3e
000000a0: 2768 dabd 0499 e23d df9c 62bf d87f a93c
000000b0: 8240 a4be 533d 9c3e 999c fbbe 0314 fdbe
000000c0: 7185 653e a74b bebd f0dc 9ebe abdf 66be
000000d0: e2d0 09be d445 853e 20e9 0cbf 8bfd 4bbf
000000e0: 3190 933e b1e4 0a3f aa01 933e 3dc3 0dbf
000000f0: f747 bcbd c5f6 293f 747c c5bc 65f5 ccbf
00000100: 9b16 45bf 59b8 0d3b c405 22bd 1796 023e
00000110: f862 41bf 8562 20be 4eff 00bf 4e78 14be
00000120: 4331 2cbf 6c7f 29be 895b 96be b89d 02bd
00000130: f218 573c 9b61 bd3d 87f1 d33c 8928 b53c
00000140: 0a3c 8b3c 4ad5 013e 9bd9 dabd d19b 393e
00000150: 76f1 683c d033 103e 4dc7 153e 0823 92be
00000160: cac2 08be c630 b63d ce82 aa3e 2cf8 d5bd
00000170: 8466 483d e5af 8f3e 3403 203e 90b7 bd3d
00000180: 5a75 8a3e 7794 a93e a8e4 283e c625 6abd
00000190: ef13 b3bd f690 41bd d09c a03e 1a22 1f3d
000001a0: da83 383e 9f6d c2be 2c87 a13d 1e47 8cbd
000001b0: 8dfe 4d3e 145d 8c3d ade4 d13e dd39 4dbe
000001c0: 7d39 52bd 3cf8 4e3e 0e82 cbbe 28dd 17bf
000001d0: ffaf 85be 54fb c13e 57b4 bb3e bb0e 93be
000001e0: f512 ad3e a65f ad3e 5beb 943e b441 a3bf
000001f0: d731 ad3d 3055 f5bc f22d a23e 1119 2dbf
00000200: fc9e 8cbe fee3 d5bc 9795 1fbe a3d7 5abe
00000210: 2d49 88be 2cbd 7b3e 0817 a7bd 8cdc 28bf
00000220: 9d7e cfbe 854d 75bd 25d9 613e 3e39 18bf
00000230: 74cb 4b3b 7faa 14be 97b9 a43e 2c5f e7be
00000240: 892c 0c3e 0e59 aa3e aa2c 30bd a527 8fbd
00000250: 7899 ec3d 2b6c 0b3f dd28 92bb 1e11 77bf
00000260: 9bdb 0fbf 1218 963e 56f0 23bd 9a1c f1be
00000270: 7c45 c6bd 4356 6a3e 60ec 4e3d f8ba ecbd
00000280: 5cd6 bd3e 445a 1dbe 5318 223f 953a d03d
00000290: 3c87 353f 9e50 9f3e 126b 2d3e 9ab2 d8be
000002a0: a316 d83d 7c42 6d3e 980b bb3e 3471 89bf
000002b0: d9ca 1cbe e2d0 953e 927c 8f3e 4e74 b6bf
000002c0: 9c45 3b3e a032 88bd 6b07 023e 77e5 4ebe
000002d0: d1b1 393f e270 05bf c280 963e c0d2 1d3e
000002e0: 918a a23e a256 aebe b046 2abf 72b6 eebe
000002f0: 10ed 9abd c7ca 49be 039c d0be 192e 08bd
00000300: daa9 cbbd d999 7ebe bbfd c0be beca 073e
00000310: 5ae0 29bc 7df3 20bd d296 aabe 5023 d9bd
00000320: 92b9 9f3e 5d23 51be de37 9cbd 12f0 36bf
00000330: f13c 7dbe 5d47 04be 1951 84bb 9177 9bbd
00000340: b67b bbbc 73ff bc3d ef3c 613e f780 713e
00000350: 2881 353e e4d1 473d 4552 aa3d b76e d8be
00000360: c17f 05be 167c ed3d 7257 43bd 6f21 01bf
00000370: 58c5 3ebe 2d7a a1be b8f8 fbbe f6c7 ee3c
00000380: 2111 9d3e 703b 8dbd e9ea 383b fa71 4e3e
00000390: e0e7 853e 3fa7 8d3d aa8c 563c 49a0 a63e
000003a0: 8b1c 2d3d 8a43 7c3d 8213 21be 7c5a 00bf
000003b0: 8b8f cabd ee39 fc3e b1f7 8a3e f40e 27bf
000003c0: 6b89 b23e d30f eb3e 6009 463e d80b d2be
000003d0: 4ef1 643e f55b 0d3f a802 d43e fe46 d6be
000003e0: 64c0 10bd 353c 133f 858d 503e 2ea2 40bf
000003f0: ab5e bdbe 24e7 0f3d efaa 5a3c 2e01 bd3e

conv2.bias f4 [8]
-0.0022482616 -0.023795145 0.047185108 -0.044449348 -0.034526665 0.18285933 -0.05952955 -0.01942969
00000000: 9257 13bb 09ee c2bc 2c45 413d 8510 36bd
00000010: d56b 0dbd 7a3f 3b3e 42d5 73bd 032b 9fbc

fc1.weight f4 [64, 392]
-0.10627521 0.3817798 0.28770602 -0.062031984 0.36568013 0.025768394 0.27431566 -0.022176271
0.1899981 0.22451183 0.11286699 0.0333536 -0.0057925535 0.14486262 0.19747204 0.0011377761
0.7460772 0.231472 -0.07325775 -0.31304953 -0.47205815 -0.025045255 -0.30537173 0.20714197
0.62825036 0.30432346 0.14802188 -0.07945097 -0.55171436 -0.104934074 0.47526222 0.08258383
-0.15090099 -0.06314667 0.11011464 -0.06405909 -0.5501542 0.17480095 0.31834722 -0.11224665
-0.02934399 0.16849525 0.21444383 -0.14448282 0.22664703 0.4629278 0.2924789 0.053542554
0.088107854 0.33051404 -0.03252144 -0.23067228 0.0039833765 -0.24077265 -0.49983656 0.050351586
0.024170816 -0.39339182 0.48973116 0.08376685 -0.0149067575 0.047744807 -0.0578217 0.29702353
-0.21937886 -0.06186219 -0.23577408 -0.19558747 0.15592174 0.37020016 0.37423274 -0.015252799
-0.014121538 0.11724145 -0.15930046 0.15018451 0.14464034 -1.6511017 -0.112104155 0.34150273
0.11225982 0.16322707 -0.06551101 0.11298458 -0.35172474 -0.26243153 0.28659868 0.012535076
-0.45977294 -0.046768025 0.053874064 0.33200878 -0.060888827 -0.102479495 -0.24659787 -0.043104835
0.09861462 0.009763366 0.31062424 -0.26010543 -0.0014831978 0.03589365 -0.20279533 0.18994415
-0.035266377 0.04009911 -0.21660088 -0.06122581 0.06967318 -0.66410226 -0.3271709 0.2975202
0.28342286 -0.3498372 0.14112557 -0.4399979 -0.29686898 -0.038966727 -0.2758248 -0.26810881
-0.65056974 0.09635398 0.118033834 0.15383098 0.23903456 -0.028722668 0.093785405 -0.8573597
-0.21648036 0.14664328 0.090833165 0.044390805 0.0654106 0.19356932 -0.39685455 -0.026643142
0.19796574 -0.18802956 0.031992584 0.23799644 0.3388451 -0.09866764 0.24685422 -0.18764532
-0.14865796 -0.0843493 -0.19839272 0.056833886 -0.049780402 -0.32288226 -0.115038715 -0.114017054
0.050116617 0.18864678 -0.35226572 -0.20837721 0.21609692 0.300567 0.14740354 0.062584564
-0.0076747932 -0.12409822 0.08226703 -0.01658494 -0.1319321 0.15397443 0.116410226 0.08065221
-0.21041097 0.021158809 0.31012204 -0.47780713 0.17757294 0.08897491 0.17579038 -0.028741144
0.4092275 -0.1312798 -0.1810449 -0.067961425 0.16816926 0.17290314 0.22928755 0.0121763125
0.016767493 0.56358826 0.3175594 0.37801254 -0.08406332 0.077825345 -0.079520375 0.062311053
0.17173609 0.16753983 0.6070701 0.11692449 -0.17967765 -0.015539692 0.521714 -0.19627926
0.18088973 0.27883652 -0.14697555 -0.08102524 0.03318338 0.0754646 0.37731826 -0.17248134
-0.27803943 -0.061404016 0.5119004 -0.33520153 0.78156704 0.07996991 0.02053493 -0.13565743
-0.3950755 0.7476118 -0.6726425 0.26078963 0.13343737 0.23690242 0.17745425 0.029801264
-0.19546238 -1.0583644 0.72196186 0.5296636 0.077501796 -0.013873306 0.04196164 -0.08482136
-1.6229367 0.3964222 0.26441354 -0.43189746 0.09355706 0.0053342725 -0.064087875 -0.10557072
-0.8714469 0.35643438 -0.2342387 0.3453872 -0.053792737 -0.17779385 0.44028547 -0.47508818
-0.29587582 -0.18995348 0.21102168 0.17798825 -0.03263648 0.88025856 -0.062837176 -0.1336986
00000000: d1a6 d9bd a478 c33e 344e 933e 4015 7ebd
00000010: 6d3a bb3e 3d18 d33c 1a73 8c3e 03ab b5bc
00000020: dd8e 423e 6ee6 653e cf26 e73d c99d 083d
00000030: 76cf bdbb de56 143e 1c36 4a3e 6e21 953a
00000040: eafe 3e3f ff06 6d3e 2908 96bd 0748 a0be
00000050: 9bb1 f1be b52b cdbc af59 9cbe 061d 543e
00000060: 04d5 203f 49d0 9b3e 0c93 173e 31b7 a2bd
00000070: 273d 0dbf ade7 d6bd 9255 f33e b621 a93d
00000080: ca85 1abe 0b53 81bd c983 e13d 6a31 83bd
00000090: e8d6 0cbf 05ff 323e 68fe a23e 92e1 e5bd
000000a0: cf62 f0bc 058a 2c3e 2a97 5b3e 4ef3 13be
000000b0: 2916 683e df04 ed3e cbbf 953e 704f 5b3d
000000c0: e471 b43d 2339 a93e 3435 05bd 5b35 6cbe
000000d0: fc86 823b 1b8d 76be 94ea ffbe 773d 4e3d
000000e0: e001 c63c a76a c9be 0bbe fa3e f48d ab3d
000000f0: 793b 74bc 0f90 433d 72d6 6cbd 7813 983e
00000100: daa4 60be 3563 7dbd c36e 71be 1548 48be
00000110: f3a9 1f3e e08a bd3e 6f9b bf3e e0e6 79bc
00000120: 065e 67bc 491c f03d a91f 23be f8c9 193e
00000130: 991c 143e 4d57 d3bf dd96 e5bd 72d9 ae3e
00000140: 7ae8 e53d ff24 273e a32a 86bd 7664 e73d
00000150: 4415 b4be 6d5d 86be 10bd 923e eb5f 4d3c
00000160: 5c67 ebbe d48f 3fbd 0dab 5c3d 0efd a93e
00000170: 9066 79bd c5e0 d1bd 2784 7cbe b28e 30bd
00000180: 76f6 c93d 86f6 1f3c 240a 9f3e 8a2c 85be
00000190: dc67 c2ba 3805 133d 94a9 4fbe b880 423e
000001a0: 7a73 10bd f73e 243d 9fcc 5dbe eac7 7abd
000001b0: d0b0 8e3d 9b02 2abf f282 a7be 9154 983e
000001c0: cd1c 913e dd1d b3be 3983 103e 6847 e1be
000001d0: 36ff 97be 939b 1fbd e838 8dbe 8f45 89be
000001e0: bd8b 26bf 3c55 c53d b9bb f13d de85 1d3e
000001f0: 7ac5 743e cd4b ebbc 9012 c03d ed7b 5bbf
00000200: 07ad 5dbe a829 163e bd06 ba3d 22d3 353d
00000210: fef5 853d 0937 463e 8530 cbbe b842 dabc
00000220: 88b7 4a3e d28a 40be a80a 033d 57b5 733e
00000230: 1b7d ad3e 4212 cabd 5ac7 7c3e 1826 40be
00000240: cb39 18be 53bf acbd 7627 4bbe a6ca 683d
00000250: 89e6 4bbd d350 a5be 6b99 ebbd c681 e9bd
00000260: 1547 4d3d 9f2c 413e 2c5c b4be d660 55be
00000270: 8348 5d3e ebe3 993e f4f0 163e 562c 803d
00000280: d57c fbbb 3527 febd 9e7b a83d 24dd 87bc
00000290: 3519 07be 79ab 1d3e 7c68 ee3d fc2c a53d
000002a0: f975 57be 3d55 ad3c 51c8 9e3e 23a3 f4be
000002b0: aed5 353e 7a38 b63d 6502 343e 8c72 ebbc
000002c0: 4486 d13e 366e 06be d663 39be 5c2f 8bbd
000002d0: 9034 2c3e 850d 313e 5bca 6a3e 287f 473c
000002e0: fb5b 893c 5247 103f 2597 a23e dc8a c13e
000002f0: 6429 acbd e562 9f3d 94db a2bd e039 7f3d
00000300: 96db 2f3e 908f 2b3e f268 1b3f 1b76 ef3d
00000310: 6bfd 37be 319a 7ebc 0c8f 053f 6efd 48be
00000320: 283b 393e a9c3 8e3e c280 16be 90f0 a5bd
00000330: 4ceb 073d 2f8d 9a3d dc2f c13e f39e 30be
00000340: 2f5b 8ebe c782 7bbd e80b 033f 899f abbe
00000350: c714 483f 44c7 a33d df38 a83c c8e9 0abe
00000360: 5647 cabe 7d63 3f3f 4d32 2cbf 3886 853e
00000370: cea3 083e 8c96 723e 91b6 353e c821 f43c
00000380: 4a27 48be 7c78 87bf 7ed2 383f 0998 073f
00000390: 43b9 9e3d dd4c 63bc f8df 2b3d d2b6 adbd
000003a0: 64bc cfbf daf7 ca3e 3661 873e aa21 ddbe
000003b0: d89a bf3d 1fcb ae3b 8140 83bd 7635 d8bd
000003c0: 2517 5fbf 917e b63e 45dc 6fbe 97d6 b03e
000003d0: c655 5cbd 970f 36be 196d e13e c23e f3be
000003e0: 097d 97be 2a83 42be 1116 583e 8d42 363e
000003f0: d4ad 05bd a058 613f c7b0 80bd 49e8 08be

fc1.bias f4 [64]
0.5525566 0.44240013 0.2896132 0.04146956 0.08566516 -0.113969706 0.4030437 0.08805003
-0.0064678653 0.31355143 0.30702764 0.39937675 0.0557748 0.0045611258 0.066149615 0.28292942
0.4716211 0.23451103 -0.10100337 0.07566885 0.13039477 0.483734 0.27078468 0.54223496
0.11618265 -0.10611643 0.11240577 0.109910965 0.6180578 0.07977681 0.38505465 -0.003209526
-0.09194378 0.39870203 0.050364457 -0.056047466 0.28368723 0.27913374 0.3378865 0.3512223
0.48414135 -0.10447836 0.025624577 0.25793687 0.27539235 0.0697754 0.58378273 0.27149674
0.3067953 0.006904143 0.027592532 0.30521446 0.54293674 0.1918085 -0.15568353 0.3790128
-0.15826365 0.118388355 0.55049527 0.08986086 0.41560596 0.3335208 -0.00064904825 0.30209315
00000000: 5974 0d3f 4582 e23e 2e48 943e fcdb 293d
00000010: 3771 af3d f368 e9bd be5b ce3e 9353 b43d
00000020: 63f0 d3bb d089 a03e ba32 9d3e 1c7b cc3e
00000030: 1e74 643d 7f75 953b 7379 873d 20dc 903e
00000040: 5278 f13e a923 703e dbda cebd 45f8 9a3d
00000050: 3586 053e fcab f73e 4aa4 8a3e e9cf 0a3f
00000060: 2bf1 ed3d 9253 d9bd ff34 e63d 0019 e13d
00000070: 0939 1e3f 0662 a33d e225 c53e e956 52bb
00000080: 054d bcbd ac22 cc3e f64a 4e3d 0792 65bd
00000090: 743f 913e 9eea 8e3e 76ff ac3e 69d3 b33e
000000a0: 60e1 f73e c0f8 d5bd a2ea d13c 4d10 843e
000000b0: 3a00 8d3e 68e6 8e3d c972 153f 9f01 8b3e
000000c0: 4614 9d3e 263c e23b bc09 e23c 1245 9c3e
000000d0: e7fd 0a3f 7369 443e 816b 1fbe f70d c23e
000000e0: de0f 22be 9875 f23d 42ed 0c3f f808 b83d
000000f0: 4eca d43e 3dc3 aa3e e424 2aba f4ab 9a3e

fc2.weight f4 [2, 64]
-0.08741349 -0.18566011 -0.18740696 0.045422755 0.020916356 -0.0058820276 -0.14675625 0.020627659
0.044807084 -0.1643142 -0.19926393 -0.19020559 0.04773058 0.049764417 0.037853092 -0.025265459
-0.29607072 -0.24307995 -0.16096991 0.012978442 0.029798826 -0.16684973 -0.13354701 -0.350763
0.026501426 0.015597152 0.031668294 0.03590323 -0.11475698 0.04547641 -0.31010544 0.047506433
0.0051501296 -0.1520748 0.037839174 0.058458857 -0.26237446 -0.21434118 -0.13147575 -0.25836483
-0.10602608 0.008983464 0.012853888 -0.23031035 -0.37155485 0.052284513 -0.16322793 -0.15232824
-0.29202968 0.066971235 0.07064101 0.016603597 -0.11594331 -0.008109949 -0.07543318 -0.234648
0.045949854 -0.8522335 -0.19272184 0.032872666 -0.1393579 -0.33691487 0.059204467 -0.23241462
-0.11589804 -0.19129035 -0.18692777 0.07233834 0.061500233 0.026148306 -0.11844664 0.050336443
0.025800323 -0.25836647 -0.25577986 -0.103415 0.03762516 -0.039025042 -0.38479382 -0.5302591
-0.21749227 -0.12797776 0.28811845 -0.35912448 0.05291421 -0.16467933 -0.25677475 -0.17197783
0.057611067 0.05269911 0.0786784 0.04051817 -0.08935647 0.06690403 -0.18415818 -0.011926032
-0.11709602 -0.14456472 0.031406164 -0.11568207 -0.20227388 -0.18203053 -0.28271702 0.0020556902
-0.15285957 -0.07128541 0.05283794 -0.16208978 -0.31210977 0.10522468 -0.13020329 -0.14616193
-0.023331767 0.06449475 0.02862421 -0.6867687 -0.11246301 0.06692048 0.1394184 -0.12382752
0.111664675 0.12801607 -0.1900035 0.04137038 -0.11467921 -0.018035904 0.038959518 -0.1401524
00000000: d805 b3bd af1d 3ebe 9ce7 3fbe 360d 3a3d
00000010: c758 ab3c 06be c0bb 4547 16be 56fb a83c
00000020: a287 373d fb41 28be d80b 4cbe 41c5 42be
00000030: 2481 433d c6d5 4b3d d80b 1b3d 82f9 cebc
00000040: 9596 97be f3e9 78be 4cd5 24be 88a3 543c
00000050: ab1c f43c a8da 2abe 8cc0 08be 3597 b3be
00000060: 8519 d93c 328b 7f3c 9db6 013d 440f 133d
00000070: b505 ebbd 7945 3a3d 24c6 9ebe 1b96 423d
00000080: 6bc2 a83b 7fb9 1bbe 40fd 1a3d 8e72 6f3d
00000090: f255 86be 417c 5bbe 94a1 06be 6548 84be
000000a0: 3424 d9bd 612f 133c 1d99 523c 7ad6 6bbe
000000b0: 703c bebe 4928 563d 3925 27be effb 1bbe
000000c0: ea84 95be 3728 893d 3cac 903d 4404 883c
000000d0: b073 edbd 97df 04bc b67c 9abd 9147 70be
000000e0: ea35 3c3d fa2b 5abf e058 45be 7da5 063d
000000f0: d6b3 0ebe 1b80 acbe 6280 723d 19fe 6dbe
00000100: f45b edbd 9ee1 43be fe69 3fbe 2026 943d
00000110: abe7 7b3d f934 d63c 2794 f2bd 962d 4e3d
00000120: 335b d33c 9c48 84be 94f5 82be 3ecb d3bd
00000130: d71c 1a3d b9d8 1fbd b203 c5be 0fbf 07bf
00000140: 4bb6 5ebe 9a0c 03be 4384 933e 2adf b7be
00000150: 92bc 583d b3a1 28be fb77 83be f51a 30be
00000160: 95f9 6b3d 06db 573d 2422 a13d 61f6 253d
00000170: 8600 b7bd fb04 893d f693 3cbe 6765 43bc
00000180: 0ad0 efbd c608 14be c0a3 003d b9ea ecbd
00000190: e220 4fbe 3666 3abe 49c0 90be c2b8 063b
000001a0: 3887 1cbe 16fe 91bd 996c 583d ddfa 25be
000001b0: dacc 9fbe 0980 d73d 0354 05be 79ab 15be
000001c0: 4322 bfbc d315 843d 527d ea3c 13d0 2fbf
000001d0: 0253 e6bd 9b0d 893d b2c3 0e3e 4899 fdbd
000001e0: 73b0 e43d a516 033e 4790 42be fd73 293d
000001f0: efdc eabd 08c0 93bc 0494 1f3d 1c84 0fbe

fc2.bias f4 [2]
1.7569747 1.4930949
00000000: 8ce4 e03f bc1d bf3f
