assignment-5/models/best_model_4.0.pth (torch, 110548 bytes, 8 tensors)

conv1.weight f4 [4, 4, 8, 8]
000000 b5 70 a0 3d e7 08 15 3d b1 08 f8 3b ff f4 e5 3c
       0.07833997 0.036385443 0.0075693955 0.028070925
000010 15 00 5f 3d b2 ef 2e 3c 9a 09 06 3d e3 c3 a9 3b
       0.054443438 0.010677265 0.032724 0.005180822
000020 93 6f 93 bd 6f 66 03 bc ab 26 c9 3d 98 48 a8 3d
       -0.071990155 -0.008020028 0.098218285 0.08216971
000030 1e 51 95 3d ef 4b ed 3b 49 a6 49 bd 6c 72 fc bd
       0.072908625 0.007241718 -0.049230848 -0.12326512
000040 03 a9 b5 bb 42 59 e9 3d 69 01 07 3e 77 cf 78 bd
       -0.0055438294 0.11393978 0.13184132 -0.06074473
000050 49 56 28 bc ed ff 1f 3d d8 3b 04 3d ab 9d c0 bc
       -0.010274478 0.03906243 0.032283634 -0.023512682
000060 13 93 d7 bc 70 92 47 3d 04 b6 be bc d6 39 19 3d
       -0.026315248 0.048723638 -0.023280151 0.037408672
000070 1c 68 16 bd db 3c 04 3d dd 61 93 bc 5f f9 33 3b
       -0.03672038 0.0322846 -0.017991 0.002746187
000080 9f 54 ad 3d 0c 7b 84 bd f8 c0 87 bd 1e 74 40 3d
       0.08463406 -0.06468782 -0.06628603 0.046985738
000090 b3 2f 50 3d 9f 00 e6 bc bb f2 12 bd 1a d9 4f 3d
       0.05082674 -0.028076468 -0.035876017 0.050744154
0000a0 f4 92 1c 3c 10 4a 69 bd b0 4e e8 bd 97 69 fc 3c
       0.009556521 -0.056955397 -0.113431334 0.030812068
0000b0 e2 30 a2 3c 1a 9f 48 bd e2 0b f1 bc a7 7e a7 3c
       0.0197987 -0.048979856 -0.029424611 0.020446135
0000c0 79 49 1b bd cb 44 24 3e 9e c6 88 3d e8 4a d4 3d
       -0.037911866 0.16041867 0.06678508 0.1036585
0000d0 4c 1a 10 3e e8 ad 59 3d a1 9d 40 3d 98 51 2c ba
       0.14072531 0.053144366 0.047025327 -0.0006573438
0000e0 20 7c 11 bd ab ae 45 3d 06 71 22 3e 61 80 36 bd
       -0.035518765 0.04826228 0.15863428 -0.044556025
0000f0 7b aa 99 3d fc 9b 29 3e 38 e7 05 bc f0 c9 89 3d
       0.0750322 0.1656341 -0.008172803 0.0672797
000100 a7 f6 7c bd 5c ad 99 3a f6 93 92 3c 5e 6e 8f bc
       -0.061758664 0.0011724639 0.017892819 -0.017508682
000110 0e 7c 2b bd 67 75 27 bc ab 9b dc 3b c8 0d b7 3d
       -0.041866355 -0.010220862 0.0067324243 0.089381754
000120 ad ee cb bc f4 cc 24 3d 3e bc 3a 3d 9d e3 41 bd
       -0.024894083 0.04023452 0.045589678 -0.04733621
000130 39 6b da 3c 53 0f e1 3c 79 6a 59 3d 6b 12 33 3c
       0.026662456 0.027473127 0.053080056 0.010929684
000140 a1 f1 cd bd f0 eb 61 3d 44 db 93 3c 44 6e bd 3c
       -0.10055853 0.05515665 0.01804889 0.023123868
000150 23 be ad 3d 2c d6 09 3e 23 99 06 3d cf 98 40 bc
       0.08483531 0.13460606 0.032860886 -0.011755182
000160 e3 ec 99 3c a4 1f 89 3d 85 5e ba bd 17 3b 03 bc
       0.018789714 0.06695488 -0.091000594 -0.008009694
000170 1c bf 4f 3c 8d fb c4 3c 51 56 a4 3d 42 b4 6f bd
       0.012679841 0.02404573 0.08024276 -0.058521517
000180 17 f4 01 3e 4f 26 3c 3c 3b 62 97 3b 76 2a 1f 3d
       0.12690769 0.011483743 0.0046198643 0.038858853
000190 21 d3 46 3c 8d 76 7d 3d fb 48 90 b9 5d 19 86 bc
       0.012135298 0.061880637 -0.00027520195 -0.016369516
0001a0 b3 ca ab 3b 97 5d 30 bd 00 30 ca 3d b4 8d 27 bd
       0.0052426695 -0.043058004 0.098724365 -0.040906623
0001b0 56 69 97 3d ff 4c d3 3d 0b 4c 32 3d b7 71 64 bd
       0.07393138 0.1031742 0.04352955 -0.05577251
0001c0 45 22 31 3d 00 1f 25 be d3 58 00 3e d1 5e 2b 3d
       0.043245573 -0.16125107 0.12533884 0.04183847
0001d0 44 5c 9c 3d 04 95 80 3c 44 65 b0 3d c3 7e ea 3d
       0.07634786 0.015696056 0.08613065 0.11449959
0001e0 21 79 b2 3c 8f 49 f4 3d 82 e7 9f bc 66 0e 10 3d
       0.021786274 0.11928093 -0.019519571 0.03516998
0001f0 7e 90 c2 3d 23 30 03 bd 4b db 0a bd 4e 7a d1 3d
       0.09500216 -0.03202833 -0.03390054 0.10228406
000200 01 29 02 3c 4d a8 68 3d 81 0d 9a 3c 99 8a 14 3b
       0.007944346 0.05680113 0.018805267 0.0022665618
000210 27 48 6b 3c 70 49 98 3c 6d 3c 29 3d 96 6b c8 3d
       0.014360464 0.018589705 0.041317392 0.097861454
000220 c3 e4 ba 3d 8c 55 1b be 22 72 ab 3d 7a 47 89 3d
       0.09125664 -0.15169352 0.083713785 0.06703086
000230 6c c0 e7 3d 15 84 d8 3d cf 56 d5 bc 68 4a 78 bd
       0.113159984 0.10572068 -0.02604237 -0.060617834
000240 70 6e ed 3d c1 b3 de 3c d9 b6 be bd 42 76 3d 3d
       0.1159333 0.027185323 -0.09312219 0.046255358
000250 9a f4 50 bd 32 b7 1d bd 0b 3d d6 3d 1c d2 99 3d
       -0.05101452 -0.038504787 0.10460862 0.07510778
000260 7f 0a 8e 3d ba dc 54 bd 04 d1 50 bc 5e a0 05 3e
       0.06935596 -0.051968314 -0.012745146 0.13049456
000270 5a 61 81 bd 42 54 ca 3d 52 79 47 bd c3 8f e6 3c
       -0.063173965 0.09879352 -0.048699684 0.028144723
000280 db 28 53 bc 45 26 7b bd eb 41 69 3d 57 49 0c bd
       -0.012888159 -0.061315794 0.05694763 -0.03424963
000290 a7 15 20 3c 37 92 6a 3c 23 98 b3 3d f1 b0 66 3d
       0.009770787 0.014317087 0.08769252 0.05632109
0002a0 47 67 a2 bd 49 eb c2 3d dd bf bd bd 8e c7 c6 b7
       -0.07929855 0.09517533 -0.09265111 -2.3696364e-05
0002b0 65 f9 08 bd 1a 9f 8a 3c 2b 16 55 bd 82 32 05 3e
       -0.033440966 0.016921569 -0.052023094 0.13007548
0002c0 eb f0 c7 bd b7 0e 56 3b 31 12 dc 3b ca 26 77 39
       -0.09762748 0.003266258 0.006716036 0.00023570206
0002d0 6c 04 0a 3e 70 9f db bc 72 ba a4 bd 9d 76 56 bd
       0.1347825 -0.026809424 -0.08043374 -0.052359212
0002e0 7c e5 44 bb e2 e0 1c bd 8d c3 81 3d a0 3d 82 bc
       -0.003004401 -0.038300402 0.063361265 -0.015898526
0002f0 48 d5 8c 3d 43 fc 0b 3c 36 25 30 3d 90 93 8f 3d
       0.06876618 0.008544031 0.043004237 0.07010567
000300 f8 5c 13 3d f9 e6 1c bd 8e 7f 74 3d 7b b7 ad 3d
       0.035977334 -0.03830621 0.059691958 0.08482262
000310 3c ee 76 3d 4c 48 a9 bc 2c 03 c3 3c fc e7 8e bd
       0.06028579 -0.020664357 0.023805223 -0.06977841
000320 83 f3 c8 bc 5a e0 d7 3d 7b 33 08 bd d5 a4 09 bd
       -0.024530178 0.105408385 -0.03325222 -0.03360446
000330 fc 68 dd 3c 68 af 87 3b 97 65 2f bd 3e 2a 24 3d
       0.0270276 0.004140783 -0.042821493 0.040079348
000340 9d d4 bb 3d 17 f8 0b 3e f4 0e 8a bd 80 6f 4b 3d
       0.09171412 0.13668858 -0.06741133 0.04966688
000350 5c 35 cd 3d 58 60 2e 3c 7a e1 08 3e c6 d0 ae 3d
       0.10019943 0.010643087 0.13367262 0.08535914
000360 6a e8 82 3d 50 99 e6 bd 97 c5 38 3d da b7 28 bd
       0.06391986 -0.11259711 0.04511031 -0.04119096
000370 66 b7 d3 3c 24 89 af 3c 2c 48 c9 3d f2 96 0b be
       0.025844287 0.021427698 0.09828219 -0.136318
000380 f9 87 0d bd a8 22 1e bd 61 ee c1 bd 6f 56 30 3d
       -0.0345535 -0.03860727 -0.09469295 0.04305118
000390 be 8b a2 3c 8f 82 6f 3d db 96 36 bd 4d 4c 11 3e
       0.019842025 0.05847412 -0.04457746 0.14189263
0003a0 6d d6 6d 3d 51 4f 12 3d cc 71 80 bc 44 50 74 bd
       0.05806582 0.035720173 -0.015679263 -0.05964686
0003b0 f2 5a 1d bd 32 d7 ce 3a 5c a5 b6 3d 3d 9e 4a 3e
       -0.03841681 0.0015780686 0.089182585 0.19786926
0003c0 3c e8 ba 3d 3b a4 14 3d b5 03 c7 bc 90 07 00 3d
       0.091263264 0.036289435 -0.02429376 0.031257212
0003d0 f1 b8 cf bd c2 31 8d ba 7a 9a 4e bd 7e 7b 6c bc
       -0.10142697 -0.0010772275 -0.05044029 -0.01443374
0003e0 ad 88 d7 bc 06 61 2e bd dd e6 52 bd aa be a5 3b
       -0.02631029 -0.042572998 -0.0514897 0.0050581293
0003f0 5b 4c 83 bd d9 65 96 3d 81 15 6b bd cf 39 0c bd
       -0.06411048 0.07343645 -0.057393555 -0.034234818

conv1.bias f4 [4]
000000 30 84 ac bb 02 08 22 bc 89 75 10 bb 16 48 1c 3d
       -0.0052647814 -0.0098896045 -0.0022042713 0.038154684

conv2.weight f4 [8, 4, 4, 4]
000000 eb 4d e0 bd 9c f0 6f 3e 97 d6 04 be cc cb 76 be
       -0.10952362 0.23431629 -0.12972485 -0.2410118
000010 a7 c4 79 3d 6c bf 87 3c 97 d7 a5 bc d1 37 42 3d
       0.060978558 0.01657077 -0.020244403 0.047416512
000020 de 89 ca bd 21 69 20 3e c4 10 2b be 90 65 1b bd
       -0.09889577 0.15665103 -0.16705614 -0.037938654
000030 4f 46 5b be 77 a1 80 bd 39 ca 33 bd c0 6d ce bc
       -0.2141354 -0.06280797 -0.043894026 -0.025198817
000040 5a a9 1a be d6 a6 13 3e d3 70 38 be b8 af 02 bd
       -0.15103665 0.14419112 -0.18011789 -0.03190586
000050 96 1d 60 bd 0f 1e b4 3d de 4a 94 3d 88 08 ae 3b
       -0.054715715 0.08794796 0.07240842 0.0053110756
000060 2f d7 34 3e 12 d2 f5 bd ce ec aa bc 72 fb bd 3d
       0.17660211 -0.12002958 -0.02086487 0.09276475
000070 47 b6 33 3d 35 f7 f1 3b 8e e6 8a 3d bf 75 d2 bc
       0.043875005 0.0073842057 0.06782256 -0.025690911
000080 4e de 15 be 65 5d b1 3d 5b 97 03 3e 14 a9 8d bd
       -0.14635584 0.08660392 0.12850706 -0.06917015
000090 f6 0f 5e bd 0e 34 61 bd f4 5a c4 3d d3 91 b0 3d
       -0.05421444 -0.054981284 0.095876604 0.08621564
0000a0 e8 93 c0 bd 99 ca bf 3d 97 5e ec 3a 57 c2 04 bd
       -0.09403211 0.09364814 0.0018033561 -0.0324119
0000b0 d3 f3 51 3c 03 24 2b bc e9 42 eb bd 0a 1d 14 3d
       0.01281448 -0.010445598 -0.114873715 0.036160506
0000c0 34 75 ee 3c cb 8b 73 be e2 0a 04 be fd c2 81 bd
       0.029108621 -0.23783796 -0.12894776 -0.06336019
0000d0 0e 99 a5 3c dc ef 1d 3e 82 f1 0f 3e 85 2f 1f bd
       0.020214584 0.1542353 0.14056972 -0.038863678
0000e0 c9 de 28 bd 2a d2 75 bd 4a 7f 75 3d b2 17 bd be
       -0.04122809 -0.06001488 0.059935845 -0.3693214
0000f0 68 04 c7 3d 86 42 a1 3d d5 13 ea bd 8b 0b 27 be
       0.09717637 0.078740165 -0.11429564 -0.16312997
000100 19 3d bc bd b5 10 26 3e 3c e8 ea 3d 56 a7 a3 3d
       -0.09191341 0.1621731 0.114700764 0.07990901
000110 04 cb c9 3d 17 47 e0 bd c5 3f 28 bc a2 4e 33 3d
       0.09853175 -0.10951059 -0.01026911 0.043776162
000120 96 48 ae bd b4 43 70 3d ff 40 34 bd e1 70 43 3d
       -0.085099384 0.058658317 -0.044007298 0.04771507
000130 e8 73 40 bc 2c f4 cd 3c 99 66 48 bd 3c 45 13 3d
       -0.011746384 0.025140844 -0.04892597 0.0359547
000140 57 b6 13 bc 88 a9 4b bd 67 43 33 bd 92 70 8a 3d
       -0.009015641 -0.049722224 -0.04376545 0.06759752
000150 3f df cc bd a4 f9 95 3d 05 cc 71 ba 6c 8a 0d be
       -0.10003518 0.07323006 -0.00092238217 -0.13822335
000160 97 e9 be bc da 97 0b bd af a1 e4 3c 03 1c 1c 3d
       -0.023304744 -0.034080364 0.027909128 0.03811265
000170 94 fb e5 3d 8b b1 99 3c 00 79 d4 39 e6 70 a1 3d
       0.11229625 0.018761417 0.00040525943 0.07882862
000180 e9 84 a7 3d a2 5b d2 3d 87 67 ae bd 7e 84 e1 3a
       0.081796475 0.10271384 -0.0851584 0.0017205623
000190 69 47 8f 3c 13 cf 75 3c 7d 87 d0 bd fc cf b9 bd
       0.017490106 0.015002984 -0.10182092 -0.09072873
0001a0 78 25 16 be 1f 92 85 3c 05 0e a3 bd bf 19 c8 bd
       -0.1466273 0.016305028 -0.079616584 -0.09770536
0001b0 9c 9c bf 3d 5a 2d 91 3d 89 ab 04 3e df 2c 04 be
       0.09356043 0.07088728 0.1295606 -0.12907742
0001c0 52 84 1a be 13 9f 80 3e 20 3c 32 be 20 f3 5b bd
       -0.15089539 0.25121364 -0.17405748 -0.05369866
0001d0 a0 3e 0d 3e 4f 95 61 3d 70 0e ab bd 2d 8c 57 be
       0.13793421 0.055074032 -0.08352363 -0.21049567
0001e0 01 58 5a 3e 24 ee a5 bd 11 c6 f8 bd eb 3d 45 be
       0.21322633 -0.08102062 -0.12147153 -0.19261901
0001f0 14 2a 58 3d af bf c3 bc f2 87 0e bd 52 e0 67 bd
       0.052774504 -0.023895113 -0.034797616 -0.056610413
000200 52 96 ad bc 96 fd f5 bb ab 93 04 be f0 90 b3 bd
       -0.021189842 -0.0075070364 -0.12946956 -0.08767879
000210 63 b5 36 bd f1 2f a9 3d e6 0c ec 3d b4 dc a3 3b
       -0.044606578 0.08261097 0.11525898 0.005000675
000220 d6 02 27 3d 6f 20 80 3d cd 78 66 3d 98 1e e9 3c
       0.04077419 0.06256186 0.05626755 0.028456971
000230 d1 81 99 bd e8 43 3e 3d d4 86 29 be 4a 3c b9 bd
       -0.07495464 0.04645148 -0.16555339 -0.09044702
000240 21 bb 5d bd 4c 6f 49 3d f6 99 d7 3b f0 1a 51 bd
       -0.05413354 0.049178407 0.006579633 -0.05105108
000250 06 37 42 bc f4 ae 68 be 95 09 23 3e 22 51 32 be
       -0.011853939 -0.2272299 0.15921624 -0.17413762
000260 31 b6 b4 bd c4 d9 49 3e be 33 06 bd 2b 35 33 bb
       -0.08823813 0.19711977 -0.03276419 -0.0027344923
000270 3a 05 03 3e 35 1a db 3d 88 f0 0a be e0 d2 13 3e
       0.12794963 0.10698358 -0.13568318 0.14435911
000280 a9 42 a7 3b 4b 15 4f be bd cc 63 3e ee 40 76 3d
       0.005104382 -0.20222966 0.2224607 0.060120516
000290 f3 c1 79 3e ed 25 37 3d bc 0b 56 3e 99 9d 38 be
       0.24390392 0.044713903 0.20902914 -0.18028869
0002a0 9e d6 b0 bd 17 41 fa 3d da 0b a7 3d b8 31 6c 3c
       -0.08634685 0.12219446 0.081565574 0.014416151
0002b0 8d 21 61 bb af 14 18 3e b0 e6 35 3e dc a1 03 be
       -0.0034352273 0.1485164 0.17763782 -0.12854713
0002c0 c3 0a b8 3d 8a cb cb bc 36 a6 3d 3e dd 87 9d bd
       0.08986428 -0.024877328 0.18520436 -0.076919295
0002d0 ad 1b f7 bd bd fe 21 be 88 ff d8 3d e8 77 db 3c
       -0.120658256 -0.15819831 0.10595614 0.026790574
0002e0 b6 a1 09 be 1f be 1c be 2b d1 8e bc c5 bb 25 bd
       -0.13440594 -0.153069 -0.017433723 -0.040462274
0002f0 cc b3 91 bc 53 79 7b bd df 1e 9c bd 0a cc 1b bd
       -0.01778593 -0.061395 -0.07623076 -0.038036384
000300 82 d4 02 bc 6d b5 70 be 95 55 b7 3d 06 3c fe bb
       -0.007985236 -0.23506708 0.0895187 -0.00775862
000310 21 b8 ab bc 11 76 7c 3d 84 5d 8e 3c 73 64 ac 3d
       -0.020961823 0.061636034 0.017378576 0.08417597
000320 68 44 0e 3e ba 18 e0 3c 5a 84 05 be ac 17 2b be
       0.13893282 0.02735554 -0.1303877 -0.16708249
000330 1d e6 e0 bd 46 6a 8b 3d a1 73 43 3a 8c 47 4e bd
       -0.109813906 0.068073794 0.000745589 -0.0503612
000340 2a 7d ea 3c 22 b5 b0 bd 02 34 f9 3d ab 05 13 3e
       0.028624136 -0.08628298 0.12168123 0.14357631
000350 3c 1a cc 3d d0 50 db bd 67 6b d3 3d 45 d2 a0 bd
       0.09965941 -0.10708773 0.1032322 -0.07852606
000360 6f 27 aa bc c7 36 13 be ce df e1 bc ba 8b c5 3d
       -0.020770757 -0.14376365 -0.027572539 0.09645791
000370 5a f7 89 bd f0 2b d1 bd 6a 12 bf bd cd f8 bb bd
       -0.06736632 -0.102134585 -0.09329684 -0.09178314
000380 58 fe 58 3d ad 40 03 be 24 a3 b2 3d b4 1d 83 bd
       0.052976936 -0.1281764 0.08722523 -0.0640215
000390 3f 6f 52 3e 7b ef 1b be 5f b2 ad 3d 87 6d bf 3d
       0.2055025 -0.15228073 0.08481287 0.093470626
0003a0 ed 88 7c 3e d9 f4 82 3d 83 f8 12 bd c0 3b f7 bd
       0.24661608 0.06394357 -0.03588153 -0.12071943
0003b0 98 a1 20 be 3c 21 72 3d 9d 31 c5 3c 00 b4 a1 3c
       -0.15686643 0.059113726 0.024071509 0.019739151
0003c0 00 c7 97 3d a6 87 82 3e cb d9 fa bd fb 59 b6 bd
       0.07411003 0.25494117 -0.12248572 -0.08903881
0003d0 8e 89 c7 bd d0 7f e0 bd 86 68 32 3e a1 21 28 be
       -0.09743033 -0.10961878 0.17422685 -0.16419078
0003e0 af 4e 85 bd 4c c9 ff 3d 7d c2 62 3c ed 19 1b bd
       -0.06509148 0.12489566 0.013840315 -0.03786652
0003f0 f6 5e fb bd d7 4d b7 bd d4 e9 c3 bd c3 70 50 3e
       -0.12273972 -0.08950394 -0.095660836 0.20355515

conv2.bias f4 [8]
000000 01 33 84 3b a1 18 8b 3c ab 3c 9b 3c 90 6a 05 bc
       0.0040344005 0.016979517 0.018949827 -0.008143082
000010 ff 60 81 39 0b 60 db 3d b6 cd 2c bc f8 21 b4 3c
       0.00024677065 0.10711678 -0.010547092 0.021988854

fc1.weight f4 [64, 392]
000000 7e 59 15 be eb 1e c4 3d ae 85 29 be 45 6c 13 3d
       -0.1458492 0.0957621 -0.16554901 0.035991926
000010 65 56 6b 3d 0b d4 44 bd e3 d1 87 bd b8 b4 fa bb
       0.05745544 -0.048053782 -0.066318296 -0.007650938
000020 32 c0 6c 3d 8c 99 87 bc f5 36 c7 3d 9b fb 01 3d
       0.05780048 -0.016552709 0.09727279 0.03173409
000030 b4 b3 10 bd ad 5c 56 bd 32 d0 55 bd cb 09 0e be
       -0.03532763 -0.052334476 -0.052200504 -0.13870923
000040 ef f0 de 3d 73 f0 ae bc 5d 61 0d 3c b1 e0 30 3d
       0.10885798 -0.02135489 0.00862917 0.043183032
000050 74 53 a1 3d 5b 4f e4 3c 38 0a f2 bd 7f 25 41 3c
       0.078772455 0.02786987 -0.11818355 0.011788725
000060 1e 79 0b 3d 28 13 0c 3d 7c 47 9e 3d 31 d6 d4 3d
       0.034051053 0.034197956 0.07728478 0.10392416
000070 57 d5 5c bc 4d bd 62 3d fd fe b7 bd 9b 91 82 bd
       -0.013478599 0.055356313 -0.08984182 -0.06375428
000080 65 d5 1c be 2a 7c 3e bd 1c 82 ec bd 0c d2 16 3e
       -0.15315779 -0.04650513 -0.11548254 0.14728564
000090 50 7e 15 bc 64 2a ab 3d 4d a0 8e bd 97 d3 8a bc
       -0.0091243535 0.08357695 -0.06964169 -0.016946597
0000a0 9a c5 71 3d 6c b7 44 3e cd b1 0d 3d 68 b0 7f 3d
       0.05902634 0.19210595 0.034593392 0.062424093
0000b0 d0 f3 af bc 7d 16 a1 3d 42 dd 7f 3d 5c e9 9a 3d
       -0.021478564 0.078656174 0.062466867 0.07564041
0000c0 29 37 1c 3d 02 52 80 be 4d d3 d4 3d 01 9f 86 bc
       0.038138542 -0.25062567 0.10391865 -0.01643324
0000d0 1e cd bc bc 8a 76 81 3d 29 fe 6c 3c 5a 0d ab 3c
       -0.023047026 0.06321438 0.014464893 0.02088039
0000e0 b7 24 3d bd 91 ae 62 be 6f 65 42 3d 15 f4 2a 3d
       -0.046177592 -0.22136904 0.047460016 0.04173668
0000f0 8e fa 1e bd e1 b1 5b 3d 37 68 6a 3d 3e 83 5c 3d
       -0.038813166 0.053636435 0.057228293 0.0538361
000100 f9 61 86 be e9 df 04 bd 2d 63 ba bd 9a 8e c5 bc
       -0.26246622 -0.0324401 -0.091009475 -0.02411585
000110 e0 03 0d 3e 32 20 dc 3c 4f 25 5c 3d 0a 29 38 be
       0.1377101 0.02687082 0.053746518 -0.17984405
000120 f6 f5 8c bd d4 94 ce 3d c2 2c 7a 3d a0 66 46 bc
       -0.06882851 0.100869805 0.06107784 -0.012109429
000130 ff 8f 22 bd 2e 40 d9 3c 68 e8 b5 bd c3 d8 16 bd
       -0.039688107 0.026519861 -0.088822186 -0.036827814
000140 d9 ee c7 bc 60 11 93 3d ec 0d 08 3c 37 23 c6 bd
       -0.024405884 0.071810484 0.0083041005 -0.096746854
000150 97 36 7e 3d e2 60 20 be b1 ad 50 bd 42 0a 11 3d
       0.06206378 -0.15661958 -0.050946895 0.035410173
000160 f8 ac 31 bd e0 5f 02 3e f8 45 40 3b a2 c4 27 3e
       -0.043377846 0.12731886 0.002933858 0.16383603
000170 bb 5e cb bd f0 41 ce 3d b7 cd 8b 3c 7e df 91 3d
       -0.09930178 0.1007117 0.017065866 0.07122706
000180 1c 84 f9 bd fe 34 4a bd 8d af 17 3d 91 20 88 be
       -0.12183401 -0.049366944 0.037032653 -0.26587346
000190 e7 70 d4 bd c1 09 34 3d ec b3 62 3c e6 8c 13 bd
       -0.10373097 0.043954615 0.013836842 -0.036023043
0001a0 44 ec 93 39 36 4c a2 3a eb dd d4 bd d8 7a 93 3d
       0.00028214057 0.0012382332 -0.1039389 0.07201165
0001b0 f5 2f d9 bd 39 08 b8 3d 06 7a 47 3d 79 62 ed 3c
       -0.1060485 0.08985943 0.048700355 0.02897762
0001c0 f8 fc 97 3c 42 64 96 3d e6 28 78 bd 40 d9 bf 3d
       0.018553242 0.073433414 -0.06058588 0.09367609
0001d0 6d 50 88 3c 9e f5 ac bd ef 21 ff bc be 8f 1f bd
       0.016639913 -0.08445285 -0.03114411 -0.038955443
0001e0 af 88 c9 bd 84 ca 33 3c ee 1c 2e 3c e7 0f 0a bc
       -0.098405235 0.010973576 0.010627015 -0.008426643
0001f0 4d 83 53 3d 67 72 18 3b fe 22 26 3d 58 4c 47 bd
       0.05163889 0.0023261548 0.040560715 -0.04865679
000200 f1 d3 64 bd e4 a9 11 bc de da 37 3e 0a 76 21 3d
       -0.055866186 -0.008890603 0.17954585 0.03941921
000210 97 ec 5a bd 9a 9e 2d bd 15 ca 04 be a0 80 a6 bd
       -0.053448286 -0.042387582 -0.12967713 -0.08130002
000220 15 dd 56 3a 68 17 5a ba 81 99 86 3d e4 79 e5 3d
       0.0008196396 -0.0008319528 0.06572247 0.112048894
000230 f1 98 58 3d ed 87 2d 3e fa ac 57 bd 7c ac b4 bd
       0.05288023 0.16946383 -0.052655198 -0.08821961
000240 9e 09 a1 3c d7 93 d2 bc e3 3f 4f 3d 9e 5b 7f be
       0.019657906 -0.025705261 0.050598036 -0.24937293
000250 28 62 94 3c cb 4e 34 be 93 30 91 bc 26 52 2f bd
       0.01811321 -0.17608182 -0.017723357 -0.042802952
000260 ce fc d4 3d 53 02 84 3c 93 4b b5 be 9d 97 9a 3d
       0.10399781 0.01611439 -0.3540922 0.07548449
000270 6a 4b 83 bc 55 3e de 3d 4e 65 b5 bd 17 3a 25 3d
       -0.016027171 0.10851733 -0.08857213 0.040338602
000280 b3 ec 75 bd 53 bf 88 bd a6 a1 e9 bd 73 67 a1 bb
       -0.060040187 -0.06677117 -0.11407785 -0.004925662
000290 fa f0 89 3c dc 9f 50 3e 39 e0 ff 3d 4a fc 5b bd
       0.01683854 0.20373482 0.12493939 -0.0537074
0002a0 88 db 1a 3d c9 9f 00 3d 4d ca b8 bd 84 a9 11 bd
       0.037807018 0.031402383 -0.09022961 -0.035562053
0002b0 41 5b 82 bd c6 ad c9 bd 2c fe 0a 3d 76 85 1c bd
       -0.063650616 -0.09847598 0.033933803 -0.038213216
0002c0 dd a1 cb 3c 7a cd f7 bd 4e 36 f5 3d 62 17 65 3d
       0.024857456 -0.120997384 0.119732484 0.055930503
0002d0 07 05 9d bd 35 a1 33 3d 50 0a a5 3d a5 01 21 be
       -0.076669745 0.04385491 0.080586076 -0.15723284
0002e0 e9 2d ad bc ba 4b 10 3d 69 ce 4c bb df 5f e4 bc
       -0.021140056 0.03522847 -0.003125096 -0.027877746
0002f0 d2 b1 c5 3d ce ba a2 bd 20 91 0c be fe f7 69 3c
       0.09653057 -0.079457864 -0.13727236 0.014280317
000300 e3 68 da 3d 69 e5 67 bc 9b 2e b1 3c b1 4a 00 3d
       0.10664537 -0.014153817 0.021628669 0.03132123
000310 d5 50 ac bd 6d 4d b9 be ff ae b0 3b 06 34 04 bc
       -0.08413855 -0.36191884 0.005391955 -0.008069044
000320 64 37 d2 3c 42 0e b0 3d 71 75 f6 bd 0b 62 26 3c
       0.025661178 0.085964695 -0.12034119 0.010155211
000330 11 ce 91 be 6e c0 63 3d ec 46 88 3d c0 c8 bc 3d
       -0.2847753 0.055603437 0.06654152 0.092179775
000340 02 9e 02 3d 5e 02 2b bd 88 ac 79 3d 56 34 8b be
       0.03188897 -0.041750304 0.060955554 -0.27188367
000350 9f 34 8a 3d 82 56 7a b7 a8 e7 be 3d 93 2f 38 3e
       0.06748318 -1.4921303e-05 0.09321529 0.17986898
000360 20 64 19 bd bb a0 71 bc d1 c3 46 bd 99 df 2d bc
       -0.037449002 -0.014747794 -0.04852659 -0.010612392
000370 13 31 d3 bc 9a 7e 4b bb 06 40 35 3c 83 e5 98 bd
       -0.025780236 -0.0031050802 0.011062628 -0.07465651
000380 71 2b c0 3c 39 f1 48 bd fe bf 3f 3e 67 a7 0d 3d
       0.023458214 -0.049058173 0.18725583 0.034583475
000390 72 a0 36 3d f7 7a 31 3d 83 3e 80 bd da 84 a0 3c
       0.044586606 0.04333016 -0.06261923 0.019594599
0003a0 d8 7f 04 be 90 be 87 bc 5b 23 a5 3d 23 69 ce bd
       -0.12939394 -0.01657036 0.08063384 -0.10078647
0003b0 11 96 03 3e a1 63 06 3d a8 0f 3f 3e d2 08 f8 3a
       0.12850215 0.032809857 0.18658316 0.0018923527
0003c0 cd 28 c5 bd 47 e3 dc bd 19 21 ad 3d 6d ac 7a bd
       -0.09626923 -0.10785537 0.084535785 -0.061199594
0003d0 24 d3 3c be a2 d6 4a 3e 3c 32 e7 3d a8 58 8f 3d
       -0.18439919 0.19808438 0.11288878 0.06999332
0003e0 9a d2 e7 bb 3c 5e 8a be a6 f5 73 3c 92 cc 7a 3c
       -0.007074666 -0.2702502 0.01489011 0.015307562
0003f0 58 e0 f1 3d 2c 39 e0 3c eb 62 e7 3d d1 14 8c bc
       0.11810368 0.027371012 0.11298164 -0.01709977

fc1.bias f4 [64]
000000 5a 25 ab 3d cd a8 dc 3d 5e aa c3 3d 46 ce 8a 3d
       0.083567336 0.10774384 0.09553979 0.06777625
000010 2d 31 aa bc 5c 79 b1 bc 6e 40 8d 3d 25 07 9f 3d
       -0.020775402 -0.021664314 0.068970546 0.077650346
000020 d4 e4 90 3d 88 97 d1 3d d0 5e 03 3e db 01 99 3d
       0.070748955 0.102339804 0.12829137 0.07471057
000030 79 e8 f8 3c 10 9d a8 3d 96 4a a2 3d f2 c0 b8 bc
       0.03038429 0.08233082 0.079243824 -0.022552941
000040 ad 46 6d 3d 55 ec 87 3c 02 6d ff bb e8 1d 9e 3d
       0.05792873 0.016592184 -0.007794977 0.07720548
000050 86 02 86 3d 44 bb ef 3d c1 fa d2 3d d5 46 fe 3d
       0.0654345 0.1170564 0.10301734 0.12415854
000060 c8 b9 94 3d 76 d1 a7 3d 5e d8 a3 3d bf 0b 6d 3d
       0.072619975 0.081942484 0.08000253 0.05787253
000070 ec 87 d4 3d ae cf 8d 3d 01 dc 8a 3d cd c1 76 3d
       0.103774875 0.069243774 0.06780244 0.060243417
000080 14 22 09 bc cd df ef 3d 39 fd a3 3d dd 1f 8b 3d
       -0.008369941 0.117126085 0.08007283 0.06793187
000090 e3 2e c3 3d cd 9d d3 3d 15 95 07 3e bb a7 5d 3d
       0.09530427 0.103328325 0.13240464 0.05411504
0000a0 66 d8 93 3d 01 15 9d bc b2 74 4c 3d 04 e8 81 3d
       0.07219009 -0.019175055 0.049915977 0.063430816
0000b0 ae 30 10 bc 97 2a 95 3d 8f d6 a9 3d 6b aa ad 3d
       -0.008800669 0.07283514 0.08292877 0.0847977
0000c0 f7 fb 86 bc f8 fc 90 3d f6 53 b1 3d 3a 51 92 bc
       -0.016477568 0.070795 0.086585924 -0.017860997
0000d0 e2 7d 43 3d a5 36 8c 3d 68 78 10 bd a1 07 b3 3d
       0.047727473 0.0684636 -0.03527108 0.087416895
0000e0 88 25 50 3d 45 07 29 bc 84 d0 a0 3d 7d 70 b7 3d
       0.050817043 -0.010316675 0.07852271 0.08957002
0000f0 bd cd 85 bc 20 50 ad 3d 02 b0 b9 3d 08 64 b9 3d
       -0.016333455 0.08462548 0.09066774 0.090522826

fc2.weight f4 [2, 64]
000000 1a 9f 27 be f4 71 f7 bd 0a 49 41 be b5 c5 65 3e
       -0.16369286 -0.12082282 -0.18875518 0.224387
000010 67 1e fb 3d 6a e2 a0 bd 2f db 15 be 7d 77 6b 3d
       0.12261658 -0.07855685 -0.14634393 0.057487
000020 94 cb bb 3d 46 11 17 be d6 23 a3 bd 23 cd 3e be
       0.09169689 -0.14752683 -0.079658195 -0.18632941
000030 a1 a5 8c 3e 2e 29 44 3d 8f 79 87 3d 1f fd 3f 3e
       0.27470115 0.047890835 0.06614982 0.18748902
000040 98 fb 70 be 55 9a 94 be 73 04 64 be 2f ec ae 3d
       -0.23533475 -0.29023996 -0.22267322 0.08541142
000050 b4 2d e8 3d 68 17 de bd d2 18 11 be eb c2 ef bd
       0.11336842 -0.10844308 -0.14169624 -0.117070995
000060 af 79 d0 3d fd 40 99 3d 6f 44 d8 3d a0 5b d5 3d
       0.10179459 0.07483099 0.10559928 0.10417867
000070 b6 a3 c2 bd c2 49 e1 3d 71 b4 8b be 0c ec 27 3e
       -0.09503882 0.11000396 -0.27286103 0.16398638
000080 b4 11 64 bd d1 f8 1a be e6 85 b0 3d 9b fd c7 3d
       -0.055680946 -0.15133978 0.08619289 0.09765168
000090 59 ad 1b be d3 9e d7 bd c1 7e b0 bd 3c d1 00 3e
       -0.15202846 -0.1052834 -0.086179264 0.12579817
0000a0 72 70 65 be a1 2d 98 bd f2 ba 6e 3d 75 24 55 be
       -0.22406176 -0.07430578 0.058283754 -0.20814689
0000b0 3f 93 ea bc 8a 6b 0e 3e d3 98 0e be 5e ea d6 bd
       -0.028634666 0.1390821 -0.13925485 -0.10493921
0000c0 d2 c3 49 bd 0c 91 fa 3d 09 bb bf 3d 6b 79 59 3d
       -0.049259014 0.12234697 0.09361846 0.05309431
0000d0 73 08 ea bd ed e6 aa 3d 2f 6c 31 be be 8e 0d be
       -0.11427393 0.08344827 -0.17326425 -0.13823983
0000e0 91 98 df 3d 1f 8a be be 6e 04 15 be 2c d5 82 3d
       0.109177716 -0.37214753 -0.14552471 0.063883156
0000f0 d0 a7 28 3d 45 89 49 be c6 43 82 3d b3 2b d8 bd
       0.041175663 -0.1968127 0.06360583 -0.1055521
000100 96 42 2b be c9 0b c6 bd 9f 54 3b be 78 41 41 3e
       -0.1672462 -0.096702166 -0.18293999 0.1887263
000110 0a 04 43 bd 89 de 56 3c 58 74 29 be 1b 5c 61 3d
       -0.047611274 0.01311458 -0.16548288 0.05501948
000120 67 d2 b3 3d fd e8 21 be 9f 0a 96 bd 13 eb 77 be
       0.087803654 -0.15811534 -0.073262446 -0.24210767
000130 1a 7b 82 3e 91 75 5c 3d 61 9f 8d 3d 30 73 2d be
       0.25484544 0.053823058 0.06915165 -0.16938472
000140 0d 93 98 be 7b 7b 41 bd 2a c3 93 3e 82 d0 c8 3d
       -0.2979969 -0.0472369 0.28859836 0.09805395
000150 d0 53 d0 3d 4e 40 e9 bd 1a 1d 21 be 11 60 f8 bd
       0.10172236 -0.11389218 -0.15733758 -0.12127698
000160 07 8b d9 3d 9a 95 b1 3d 59 d7 db 3d 24 82 ce 3d
       0.106222205 0.08671112 0.10734434 0.10083416
000170 5b b4 ea bd 56 e4 cb 3d f8 89 3b be 72 f3 26 3e
       -0.11460181 0.09955661 -0.1831435 0.16303805
000180 17 3a 0c be c6 3a 08 be 92 91 b3 3d fb 0d e9 3d
       -0.13694035 -0.1330367 0.08768 0.1137962
000190 ce 21 26 be 22 b9 e4 bd 36 be a1 bd 07 ef d5 3d
       -0.16223833 -0.11168124 -0.07897608 0.104459815
0001a0 4f b0 4b be 16 fe 91 bd d8 59 9e 3d 3a c1 69 be
       -0.19891475 -0.07128541 0.0773198 -0.22827616
0001b0 74 6c 91 be 34 9b d9 3d 00 f8 13 be ba 96 d9 bd
       -0.28403056 0.10625306 -0.14450073 -0.10624452
0001c0 39 d4 43 3e e6 63 0a 3e f8 c5 c7 3d 14 78 5b be
       0.19123925 0.1351467 0.097545564 -0.21432525
0001d0 01 b0 30 be de 39 b5 3d 62 e1 0e 3e ef 51 14 be
       -0.1725464 0.08848928 0.13953164 -0.1448438
0001e0 50 bf 02 3e 57 b9 ab 3e cc db 15 be d2 6b 98 3d
       0.12768292 0.3353984 -0.14634627 0.0744244
0001f0 cd 5c fd bd c3 75 67 be a4 bd 81 3d c0 8f cc bd
       -0.12371216 -0.22603516 0.06334999 -0.09988356

fc2.bias f4 [2]
000000 49 8b a6 be 95 5b a4 be
       -0.3252814 -0.32101122
